checkpoints/dqn/checkpoint_ep12.pth (torch, 230155 bytes, 18 tensors)

layer1.weight f4 [150, 20]
00000000: 2e2d 903c 1217 c4bd 054a 0fbe 03d3 3e3e
00000010: 766b b0be 90b6 c0be 1e8d 83bc 91fc 1abe
00000020: f591 783d c40d d53e 4b23 8dbe 8c55 04bf
00000030: 70fc b13e 39a5 fabe b178 8a3e 045c afbe
00000040: 8b0f 553e c4f5 323c b184 c2bd 8180 33bd
00000050: 147e 063e 0a97 abbe 1fe6 823e cf2b 8cbe
00000060: 8661 a8be d519 3dbf a39b 71be 063d 03bf
00000070: f395 f0be 883e 4ebe f32e 7ebe eecd 4b3d
00000080: e5e0 88bd 928c 8c3d b52d 193e b217 f33d
00000090: ef4f 123d 10e6 4ebe c93d c3be 20c5 24bd
000000a0: dbb9 1a3e 32d0 75bd 4c9e 4f3e e2ab a0be
000000b0: 94b4 00bf 79b9 3bbe f5da bbbe 1c08 c9bd
000000c0: dde5 35be 8efa eebe 5aed 983d c195 14be
000000d0: a9cd b33d 8c2b 883d 0846 3cbd 941a 053e
000000e0: 9e8b 653d db40 ecbc 37dd 5f3e b91c c2bd
000000f0: 69ec c0bd c32d eebd da64 4b3e 9618 113e
00000100: 7698 b13d b162 3bbe 2bd5 c9bd 6174 18bd
00000110: b65a b3bd f2f9 893e 390b cabd 0580 43be
00000120: b893 acbe dc16 e8bd 6c0c 6cbe df90 d8bd
00000130: d9c5 08bf 2b70 04be 7d69 cdbd ba60 82bd
00000140: 74c8 9e3e 4805 e7be bfa2 eb3c 0de1 bc3d
00000150: 6500 d1be 3f3a 8ebd c68d a1bd f50f 33bd
00000160: 6c01 d1be b520 44be ec0b 293d fd42 32be
00000170: 43b0 cebe 365c 223d 0d2a 103c 096b ec3d
00000180: 4646 023e 3a66 dbbd 2111 2b3e ca11 253e
00000190: c54b 04be 829e 613d 0c0e 943d a2a5 5a3e
000001a0: 4ef8 febd 50cf 16be 7af0 273d bee4 96be
000001b0: 11d4 0ebe 98ef 8a3e fcb4 6bbe dea9 68bd
000001c0: 0677 833d a3c9 3fbc a253 9fbd 2f75 433e
000001d0: 1367 a4be 4c6c 97bd aa37 3dbd b1a6 003e
000001e0: dd4c 003d 3f6c c03d 7e1f dcbd e08b 973d
000001f0: 3a1f 47bd 9997 62be 6b3a 9f3d 60d4 223e
00000200: e940 0abc 6ff9 9e3d 419b 963d e8a7 02be
00000210: 0421 10be da1e 8e3d cb1f 05be 8db9 6ebd
00000220: b6ac a7bd 9509 43be a610 8b3b db7e a1bd
00000230: c827 983d c75f 8abd 98b9 753e 5c3a ddbd
00000240: 367d 56be 3268 d2be e74e 55bd 3bdc 5d3e
00000250: bf53 1ebe b929 183e 7e0a babb 0b27 2e3e
00000260: 2c63 1fbe f8a3 09bc 7fb3 523e c4cf 453d
00000270: f6b4 bb3d 2417 783d 5992 1abd f6a7 cd3c
00000280: 14e4 59be e352 4ebd 6b18 58be 3c16 d6bd
00000290: 586a 133c cd45 3f3e 0d24 62be e10c e93d
000002a0: ad16 bcbd f323 a2bd 39f5 5b3d b45b 413e
000002b0: d7f0 7dbd bfa9 92bd 3fa1 64bd 2347 563e
000002c0: cc16 22be d0b7 78bd f650 38be 2fcc 0bbd
000002d0: a23a 61be bed6 0ebd c812 a83d a984 833c
000002e0: 23d0 9fbd fedb 9139 6301 3a3c 9f99 bf3e
000002f0: 913f 91bd 76b8 16be 6ad1 83be b2d3 8abd
00000300: 68a9 1ebe ffd5 8bbe 0332 efbe 3359 80bd
00000310: 1b8b 13be 8bf4 7a3e 4018 07be 2ec4 67bd
00000320: fcf8 043e 1f23 dfbe 8e93 173e f4e8 adbe
00000330: 3741 1fbf 5a95 1abf 9ee5 27be 0383 a0be
00000340: 7a5e ddbc fb3e de3e 3c8b 9b3e 834e 893a
00000350: 7c97 373e 523f 813d a331 c9bd 9702 0abf
00000360: 00cd 5f3e 1877 a4be 699c 3c3e a34f 8b3e
00000370: 46fd 243d 1eec 22be 1f9d 4dbe f326 86be
00000380: 35f4 563d d73a b4bd 7ae7 95bd 3a6b db3d
00000390: d7be dbbc 1b63 55be a9d0 6abe e4ea e7bd
000003a0: 01d3 863e c6c0 cb3d cafc c1bc d42a babd
000003b0: 148a 803e 5147 123e 98d0 3fbe 9e82 583e
000003c0: e0e3 f3bd e7c1 c53e e6f0 f33c 0f0a 3fbe
000003d0: 55a4 3ebd 38fd 75bd 6726 493e 0576 ccbd
000003e0: f965 fd3d 4f7b 3fbe f147 3f3d 404e 24be
000003f0: 900b 4e3e a0de ac3e c5bb ac3e d2b1 efbd
0.017599668 -0.09574713 -0.1399308 0.18635182 -0.34456986 -0.37639284 -0.0160585 -0.15135409
0.06068607 0.41612065 -0.2756599 -0.51693034 0.34762907 -0.4895418 0.27045205 -0.3424989
0.2080671 0.010922853 -0.09497965 -0.043823723 0.13134032 -0.3351367 0.25566193 -0.27377173
-0.32886904 -0.7386754 -0.23594527 -0.5126499 -0.46989402 -0.20141041 -0.24822597 0.049756937
-0.0668352 0.06862749 0.14958842 0.11869754 0.035720762 -0.2020495 -0.38133076 -0.040227056
0.1510996 -0.060013004 0.20275229 -0.31381136 -0.5027554 -0.18332471 -0.36690488 -0.09816
-0.17763467 -0.46675533 0.07467146 -0.14510252 0.08779461 0.06648931 -0.045965225 0.1299842
0.056041352 -0.02883952 0.2186173 -0.09478135 -0.09420092 -0.11629822 0.1986269 0.14169535
0.08671658 -0.18299367 -0.09855112 -0.037220363 -0.08757536 0.26948506 -0.09865422 -0.19091804
-0.3370645 -0.11332485 -0.23051614 -0.10574507 -0.5342689 -0.12933414 -0.10029886 -0.063661054
0.3101231 -0.45121217 0.028764127 0.092226125 -0.40820614 -0.06944703 -0.07888369 -0.04371639
-0.40821397 -0.19153102 0.041271135 -0.17408367 -0.40368852 0.03963872 0.008799088 0.11543853
0.1272212 -0.107128575 0.16705753 0.16120067 -0.12919529 0.055082805 0.07229242 0.21352246
-0.12449704 -0.14727521 0.04100082 -0.2947139 -0.13948084 0.2713592 -0.23018259 -0.056802623
0.06419186 -0.011705789 -0.077796236 0.1908767 -0.3210989 -0.07393703 -0.046195664 0.12563588
0.031323303 0.09395646 -0.10748194 0.07399726 -0.048613764 -0.22128142 0.07774814 0.15901327
-0.008438327 0.077624194 0.07353831 -0.12759364 -0.14075094 0.06939478 -0.1300041 -0.058282424
-0.08187239 -0.19046624 0.004243928 -0.07885524 0.07429463 -0.06756549 0.2399658 -0.10802147
-0.20946202 -0.4109512 -0.0520772 0.21666043 -0.15461634 0.14859666 -0.0056775203 0.17007081
-0.15565175 -0.00840091 0.20576285 0.048293844 0.09165375 0.060568944 -0.037737224 0.025104504
-0.21278411 -0.050372016 -0.21103065 -0.104534596 0.008997522 0.1867897 -0.22084065 0.113794096
-0.091840126 -0.07917013 0.05370066 0.18882638 -0.06199726 -0.07161283 -0.05581784 0.20925574
-0.15829009 -0.060722172 -0.17999634 -0.03413027 -0.21995023 -0.034872763 0.08206707 0.016054468
-0.07803371 0.00027820462 0.01135287 0.3742189 -0.070922025 -0.14718804 -0.25745708 -0.06778659
-0.15494311 -0.27311704 -0.46717843 -0.062670134 -0.14408533 0.24507348 -0.13192844 -0.056583576
0.12985605 -0.43581483 0.14802381 -0.33966792 -0.62208885 -0.6038414 -0.16396186 -0.31349954
-0.027022589 0.43407425 0.30379665 0.0010475669 0.1792888 0.063109055 -0.098239206 -0.539102
0.21855545 -0.3212211 0.1841904 0.27209195 0.040280603 -0.15910384 -0.20079468 -0.2620159
0.052478988 -0.08800285 -0.07319541 0.10713811 -0.026824398 -0.20838587 -0.2293116 -0.11324099
0.26332858 0.09948878 -0.02368011 -0.090902 0.25105345 0.14285018 -0.18731916 0.21143577
-0.11908698 0.38624498 0.029777955 -0.18656181 -0.046543438 -0.06005594 0.19643556 -0.09983448
0.12372965 -0.18699382 0.046699468 -0.16045475 0.20121598 0.337636 0.33737007 -0.117038384

layer1.bias f4 [150]
00000000: 5878 b73d 483e 793e 8654 2abd 696b 3a3e
00000010: 6d36 f53d 4505 9b3d 9fe8 92bd 03f1 663e
00000020: 9c3e a1bd 7b56 0bbe 9cef 11be 0fc3 0c3e
00000030: 63fa 273d ee18 563e b045 3e3e 408c 063d
00000040: ed7f 233e 7ef1 84bd 1db6 4e3e f436 873e
00000050: 2fa9 8dbd 930d 08be fcb0 94bd 081d 51bd
00000060: 68c0 3cbe 6520 a83e 3dec 8f3e 74cc 27bc
00000070: bc94 b83d 326d 71be 9ac6 89bc 0e12 1fbe
00000080: 12a9 abbc ca7a 7c3e af68 dbbc 25bf 133e
00000090: 7b4c 1dbe 74fb d23d 1009 703e 0505 2ebe
000000a0: 9e85 203e b627 303e 8021 38be 8b3d c13d
000000b0: 8b4a 5e3e f224 2e3c 38d0 ce3d 735c b03d
000000c0: 6af3 14be 7f36 173e 5e99 f03d c6b5 2dbc
000000d0: 7c43 e8bd 189f 5cbd d2e2 9bbd 54af 0ebd
000000e0: 60a2 113e d52f 843d 85ec 033e 5712 813e
000000f0: 88d8 32be fad0 433d 2445 bd3c af03 ee3c
00000100: 19e1 983e 66e1 223e d096 273e 3fad 19be
00000110: 6060 08be e36c 34bd 8058 0cbe b17f 74bd
00000120: 39e3 2b3e e787 c4ba a443 773d dcc6 41bd
00000130: 30c8 b3bd 5eeb 873e dabc bbbd d953 c73d
00000140: e12c 803d b575 913e 6345 303e 7d7d 1b3e
00000150: 0161 e23d 7856 03be 2964 093e d557 503c
00000160: 6971 2cbe 518c 39be ab7d b43d 44ac 1dbc
00000170: a12b 4b3e b867 6f3c 8b82 7a3d af63 a23d
00000180: e8a8 37be 2bcd c8bd 21ef 4e3d 1b32 4a3e
00000190: 5aa5 bc3d 5fba 8dbd c5cb c7bc 3aa4 15be
000001a0: 5c35 843e d204 893e 3264 83bc ae57 34be
000001b0: 02cc d9bd 917f fb3c 0e66 143e 7b82 223e
000001c0: 6eb3 14be 90dc 01be 0ea7 be3d b776 8dbd
000001d0: a8b6 b3bc fd4b 703e 7426 103d fcb6 9a3d
000001e0: eec4 823e 989b 9ebd e65e 32be 6eb9 06bd
000001f0: 4b76 4abe f13e fabd 11b7 0ebe da5d 733c
00000200: afe7 1cbe 0c1a df3c 0264 413e 9774 e1bd
00000210: 636c 9bbd 163f 47bd 3943 233e da1d 763e
00000220: 40ec d53d c7e0 4bbd 1b69 1d3e 47c1 da3a
00000230: e906 61be 014f 243e 995d 90bd c406 8b3e
00000240: 8d44 23be 8168 0ebe 61af 18be 8783 193e
00000250: 39d3 25bd ca24 4a3e
0.089585006 0.24340165 -0.041584514 0.18205036 0.119732715 0.075693645 -0.07173275 0.22552876
-0.0787327 -0.13607208 -0.1425156 0.13746284 0.04101027 0.20907947 0.18581271 0.032848597
0.15966769 -0.064913735 0.20186658 0.26409113 -0.06917035 -0.13286428 -0.072603196 -0.051053077
-0.18432772 0.32837215 0.28109923 -0.0102416165 0.09012744 -0.23576811 -0.016818333 -0.15534231
-0.020954642 0.24656215 -0.026783315 0.14428385 -0.15361206 0.10301867 0.23440957 -0.16994102
0.15675971 0.17202649 -0.17981529 0.094355665 0.21708123 0.010628926 0.10098308 0.08611383
-0.1454598 0.14766882 0.117480025 -0.01060242 -0.113409966 -0.05386266 -0.07611622 -0.034835175
0.14222097 0.06454436 0.12883194 0.25209305 -0.17465413 0.047806717 0.023104258 0.02905449
0.29859236 0.15906295 0.16366124 -0.15007494 -0.13318014 -0.044049155 -0.13705635 -0.05969209
0.16785897 -0.0014994115 0.06036724 -0.047308788 -0.08778417 0.26546758 -0.0916688 0.097327895
0.0625856 0.28410116 0.17213969 0.15184589 0.11053658 -0.12825954 0.13417114 0.012716253
-0.16840138 -0.18119933 0.08813032 -0.009623591 0.19840862 0.014612131 0.06115965 0.079291694
-0.17935526 -0.09804758 0.05052102 0.19745676 0.09211226 -0.06920313 -0.024389157 -0.14613429
0.2582196 0.2676149 -0.016038988 -0.17611572 -0.106346145 0.030700477 0.14492056 0.15870087
-0.14521572 -0.12681794 0.09309207 -0.06907409 -0.021937683 0.23466487 0.03519292 0.07554433
0.2554087 -0.07744521 -0.17419013 -0.032891683 -0.19771688 -0.12219036 -0.13937022 0.014853919
-0.15322755 0.0272341 0.18885806 -0.11008566 -0.075890325 -0.048644148 0.15943612 0.24034825
0.10445452 -0.04977491 0.15372126 0.0016689681 -0.21975292 0.16045763 -0.07049102 0.271536
-0.15944119 -0.13907053 -0.14910652 0.1499158 -0.04048464 0.19740596

layer2.weight f4 [100, 150]
00000000: 28d8 393c 1a74 9b3c 3148 4d3d b473 ce3d
00000010: 18a1 33bd 4c68 80bd c8eb 603d 67fa 62bd
00000020: 9c3d 22bd 0f98 e5bc fd5d 7d3c 800e 73bd
00000030: 98b7 62bc 9340 9c3d 3a62 88bc 1a2f 84bd
00000040: cb9d 0fbd 6434 383d 5dea 21bc 3697 1a3c
00000050: 99f2 1dbd 9300 0bbd 7246 25bd 7750 b03c
00000060: 73e6 8e3d bec4 8e3d 4c2f 383c 9a7f f0bb
00000070: 127d 55bd b3e9 84bd e368 4b3a fb7e 0b3d
00000080: be94 68bd e9fb 0bbd c026 ce3c 409d 4fbd
00000090: 0c1f 5dbd f40f 3ebd 8cca d6bc 597a 85bd
000000a0: ac4f b9bd d531 24bd 2036 893d b348 883b
000000b0: d4ce 92bd bbb8 8abc 3607 14bd 7ebc 8bbc
000000c0: c4e4 25bb 0d7d 29bc afc8 863d 7930 85bd
000000d0: 031d 92bd bd4e 67bd 9a8e 233d 490c a33c
000000e0: 35f3 533d c300 c3bc 7110 873d c36d afbd
000000f0: 4847 3b3d ea0e c7bd f804 46bd cf2b 5bbd
00000100: bc3c 773c 917d dcbd cc58 083d 813a 8bbd
00000110: ee7d 603c d3a3 cbbd 9ca9 48bd ce10 4dbc
00000120: f2ef a5bd 1344 1a3d 4e5d adbc 10d9 a8bc
00000130: cb0a 013d ac79 6c3c c056 c73c 8461 5a3d
00000140: 2c44 323d baae 993d 7e6a 2c3d 0f85 7c3d
00000150: d3d4 84bd e54e 6f3d ff14 6a3c 32d7 e4bc
00000160: dc39 97bd 3b7d 993b 1be6 513d 1e17 253d
00000170: 94a6 bcbd c542 203c ead1 aebc 31d9 67bd
00000180: 97e5 363d c8da 063b 78b5 aebd 9619 e4bd
00000190: 1987 73bd 8512 5dbd 1123 a83c a750 72bd
000001a0: fc17 59ba 05cb e1bc 877d d3bc 656b 89bd
000001b0: 866f dcbc 30f3 0b3a 1cdf f93b 0205 823d
000001c0: bea7 00be 31a6 5fbd cec7 923b dcbe d1bb
000001d0: d867 653c 379b 60bd 5384 963d 2b26 13bd
000001e0: e805 89bd 7159 633d f782 f83b ac12 6f3d
000001f0: 9452 aabd d397 98bd 6580 8a3d c69b abbd
00000200: 8185 9cbd be33 5bbc c4be c2bd c027 19bd
00000210: 62a3 1d3d 7a39 6cbd 7791 adbb 8f23 28bd
00000220: d7ae b23d d8f1 b3bd d593 dbbc 6a0d 38bc
00000230: 2e46 4ebc 13a0 2dbd 9977 30bd 8528 3d3c
00000240: 0399 da3c 74da a23d 17ee 5c3c 3d97 b83c
00000250: 62f6 b3bd 718a 8e3c 9dd2 823d a816 243e
00000260: 9ae4 cbbc 20bd 693d 795b 933d 9a41 d93b
00000270: ec46 24bd d652 a63d 9723 353d b62d ffbd
00000280: 90c1 f5bd b19c 2cbe da0e 16be 4b86 4abe
00000290: 5f23 9f3d ae31 e93c 8a3e 0d3d 31d2 7abd
000002a0: 8bc4 2a3d 00a8 063e 1390 81bd 8cc3 57be
000002b0: e8fe 8cbe 004a 2f3d fc56 953c 8b76 d4be
000002c0: f47f e5bc 1507 39be ce6b 0f3e b4fb a0bd
000002d0: 18d9 4f3e 1444 d8bc 441f 69be e090 1fbe
000002e0: 674e 943d 2771 0ebc fba1 533d d529 9b3d
000002f0: 2411 b33d 30d9 ba3d 4ddb 2bbe bf69 d03d
00000300: 7be5 373c 6596 813d c094 edbd a247 b63d
00000310: 8323 22be df68 eabd e762 13be 5a52 eebd
00000320: 5e4e 2fbe 0590 60be 05c2 8a3d 73e0 18bd
00000330: 6aa6 3dbe 6a80 6cbe f128 dcbd 666c 723e
00000340: 539e 563d 66b7 193d c9e4 3abc fb7e 1d3e
00000350: 223b 563c 2c76 2ebe f0f3 243e a3bf 043d
00000360: 37a2 40bd 66f3 3cbe 2fd8 0dbd f066 88bd
00000370: 7134 e2bd e880 4e3e 9a5e 1a3e 71d2 7dbe
00000380: 6885 86bd 9867 28be 1d27 c0bd e1b4 623e
00000390: 2bf2 1fbe ce1e 00bc b41e 3e3e e4f2 b53d
000003a0: b310 563d 89e8 d1bc de1d 46bd fbce 50be
000003b0: c8bb 2cbe 091a 43be 5134 9b3d ce87 133e
000003c0: 8993 cc3d 1b15 493c ef3e cb3d 0ac6 113e
000003d0: 0174 143d 95fb 44be 298f 53bc 18bc fc3d
000003e0: 1a21 203d f82c 39bd d40e 673d 685e 243e
000003f0: b862 4bbe 1e26 143d 335b ee3a d922 5b3d
0.01134304 0.01897626 0.050117675 0.10080662 -0.043854803 -0.06269893 0.05491236 -0.055414584
-0.039609537 -0.028026609 0.015464303 -0.05934 -0.0138377175 0.07629504 -0.0166484 -0.064542964
-0.035062592 0.04497184 -0.009882537 0.009435466 -0.038561437 -0.033936094 -0.040350385 0.021522744
0.069775485 0.06971119 0.011241745 -0.00733943 -0.05212123 -0.06489887 0.0007759465 0.034056645
-0.056782477 -0.034175787 0.025164962 -0.050687075 -0.053984687 -0.046401933 -0.026219629 -0.065174766
-0.09048399 -0.040086586 0.06699777 0.004159057 -0.071683556 -0.01693379 -0.03613969 -0.017057654
-0.0025313357 -0.010344756 0.06581246 -0.06503386 -0.0713444 -0.056471575 0.039930917 0.019903319
0.051745612 -0.023804074 0.06594933 -0.08565857 0.045722276 -0.097196415 -0.048344582 -0.053508576
0.015090164 -0.107661374 0.03328781 -0.06798268 0.013701899 -0.09943356 -0.048989877 -0.012516214
-0.081024066 0.037662577 -0.021162655 -0.020611316 0.031504434 0.014433306 0.024333358 0.053315654
0.043522045 0.075040296 0.042093746 0.061650332 -0.064859055 0.05842485 0.014287232 -0.027934644
-0.07384083 0.004684118 0.051244836 0.04030525 -0.0921146 0.009781544 -0.02134033 -0.056603614
0.044652548 0.002057718 -0.08530706 -0.11137693 -0.05945501 -0.05397274 0.020524533 -0.059158947
-0.0008281467 -0.027562628 -0.025816692 -0.06709937 -0.026908647 0.0005338667 0.0076254737 0.063486114
-0.12563989 -0.05460185 0.004479385 -0.006400926 0.014001809 -0.054835524 0.073494576 -0.03592507
-0.0669058 0.05550522 0.0075839716 0.058367416 -0.08316532 -0.07450833 0.067627706 -0.08379321
-0.07642651 -0.0133790355 -0.09509042 -0.037391424 0.038485892 -0.057672 -0.005296882 -0.041049536
0.08724754 -0.087863624 -0.02680389 -0.011233667 -0.012589974 -0.042388987 -0.043082807 0.011545305
0.02668429 0.07951823 0.013484499 0.022533054 -0.08787228 0.017399998 0.063878275 0.16024268
-0.02488928 0.05706513 0.071951814 0.006630135 -0.0401067 0.081212685 0.044223394 -0.124598905
-0.1199981 -0.16856648 -0.14654103 -0.19777791 0.077704184 0.028466072 0.03448347 -0.06123561
0.041691344 0.13150024 -0.06326308 -0.21070689 -0.27538228 0.04279518 0.018229954 -0.4149669
-0.028015114 -0.18069108 0.14005968 -0.078605086 0.20297658 -0.02639965 -0.22765833 -0.15582609
0.072415166 -0.00869397 0.05166815 0.07576338 0.08743504 0.091234565 -0.16782875 0.101764195
0.011224146 0.063275136 -0.116006374 0.089003816 -0.15833859 -0.11445784 -0.14393197 -0.11636801
-0.17119738 -0.21929939 0.067752875 -0.037323426 -0.18520513 -0.23095861 -0.107499965 0.23674163
0.052397083 0.037528418 -0.011407086 0.1538047 0.013075622 -0.17037266 0.1610868 0.03240932
-0.0470297 -0.18452224 -0.034629997 -0.06660259 -0.11045159 0.20166361 0.1507515 -0.24787308
-0.06568414 -0.16445768 -0.0938246 0.22139312 -0.15619723 -0.007819844 0.185664 0.08884218
0.05226202 -0.025623577 -0.048368327 -0.20391457 -0.16868508 -0.190529 0.07578338 0.14407274
0.099890776 0.012273098 0.09924113 0.14235702 0.036243442 -0.19236596 -0.01291255 0.123405635
0.039094068 -0.0452089 0.056410626 0.16051638 -0.19861877 0.036169164 0.0018185138 0.05350003

layer2.bias f4 [100]
00000000: cfb4 d03c e8ee ee3d 9ce2 5a3c 7f4c 693d
00000010: bf74 2cbd 5504 213e 7b7a 8cbd 689d 8ebd
00000020: e667 5b3d 434e 5bbc 7513 3fbc 0fe4 b8bc
00000030: b625 903a 085a 8dbd 5bca a83c 8608 f83d
00000040: f63e afbd a574 15bd f926 3d3d e180 a7bd
00000050: 6cd5 8fbd cb0d 033e dc7c 883b 6fe3 19bd
00000060: 710f 5abc aa3b 483d 36a0 e33d 6855 e4bc
00000070: c03c 243e 395a 4b3d 101d c73d 135d 0dbd
00000080: ed01 563d f086 2bbc ba53 903d 8be9 143d
00000090: b123 cc3d 3d2d ce3d 8181 163e cf5f 1e3d
000000a0: 1739 4e3d fcfa 193e 2586 81bd c66a 2f3d
000000b0: a0f5 de3d 682b b93c c967 a5bc ba92 4ebd
000000c0: ee19 dfbc 462f ce3d c8f6 c33c 9f25 13bc
000000d0: 57f7 143e 8c1d 513c cf09 043e 5832 843d
000000e0: 8dff ab3c c69b 4dbd f161 8f3d 475c 1d3d
000000f0: daab 753d 4fc2 773c f698 823d 0507 5abd
00000100: c944 8f3c 7198 ecbd 0847 4cbb f514 5fbd
00000110: 8635 b9bc 591e 133d 208f 883d 938a 653d
00000120: 76ef 7ebc 9e82 953d e562 ca3d 24f8 543d
00000130: f0d4 a13d fbc8 8cbc 67be c43c ef90 1bbd
00000140: 37c6 8c3c 2ddf fe3c ef64 363e 3c06 013e
00000150: e5b9 853c 7f91 ac3c 821d c3bd 11b4 4bbd
00000160: 5747 453d 5236 663d 8a39 f7ba 6bbd 793c
00000170: 1706 bd3d 4a65 8c3d ab41 48bd 695d 1d3e
00000180: 3565 d33d d9e4 173d 961d 85bc fac6 2c3e
0.025476841 0.116666615 0.013359692 0.056957718 -0.042103525 0.15724309 -0.06859299 -0.069636166
0.053565882 -0.013385358 -0.011662354 -0.022569684 0.0010997567 -0.06901938 0.020604303 0.12111001
-0.08556931 -0.036488194 0.046179745 -0.081788786 -0.07023129 0.1279823 0.004165275 -0.037570413
-0.013309346 0.048885025 0.11114542 -0.027872756 0.160388 0.04964659 0.0972234 -0.03451259
0.05224793 -0.010469183 0.070472196 0.036355536 0.09967745 0.10067222 0.1469784 0.03866559
0.050347414 0.15037149 -0.06324414 0.042826436 0.10886693 0.022603706 -0.02019109 -0.050432898
-0.027234044 0.100676104 0.023921385 -0.008981138 0.14547478 0.012763392 0.12894367 0.06454915
0.02099588 -0.050197385 0.07001103 0.03841808 0.059978344 0.01512201 0.06376831 -0.05322935
0.017488854 -0.115525134 -0.0031170268 -0.054463346 -0.02260853 0.035917614 0.06667924 0.056040358
-0.015560022 0.07300304 0.09882144 0.051994458 0.07901943 -0.017185679 0.024016572 -0.037980016
0.01718436 0.031112278 0.1781194 0.12600034 0.016323993 0.021065472 -0.095271125 -0.04973227
0.048163738 0.056204148 -0.0018861752 0.015242915 0.09229677 0.06855257 -0.04889075 0.15367664
0.10322038 0.03708348 -0.01624946 0.16872779

layer3.weight f4 [3, 100]
00000000: d32a 613d aa2f 9e3d c788 3c3d 8361 20be
00000010: 50ae 1cbd 56ea 253e b78f 793a c26a 433c
00000020: ef73 653e 2d28 91bd 95b1 48be cf8f 31be
00000030: 08e1 f93c b9f3 e7bd 06df f93b e196 763e
00000040: b460 183d 93e8 5f3e 6bda 153e 099f 5fbe
00000050: c7bb bcbc 0a2d 7a3e b43c 95bd dc16 9e3e
00000060: 059c 21be 6744 c43d f843 033e 539b c9bc
00000070: 8476 5b3e cff0 e6bd 5cc0 debd 23b8 de3d
00000080: eec9 5e3e c053 96be e91b 843e da68 283e
00000090: 9092 473e 50e9 fb3d f6e8 5b3e 5f17 503e
000000a0: d47e e43d de93 0f3e 94e9 ffbc b693 de3d
000000b0: c74e d2bd 5c3f 49be 89bd 953d d83d f4bb
000000c0: 72f5 45bd 2e5c 573e 8450 40be 2c26 003e
000000d0: d458 843e a4b8 8dbd 7418 423e b8ad 0f3e
000000e0: 7af5 283e b779 073e 30a4 14be 5957 80bd
000000f0: 44d6 84bd 6c71 4d3e 4205 463c 5163 f5bc
00000100: 2f6e 6e3d f4d5 c5bd a556 aa3c f7ab b1bd
00000110: 0c18 883e c953 0d3d 8aff 0a3e a83b 693d
00000120: c815 a8bd ed23 3e3e 956d 7e3e e262 51bd
00000130: 6d52 cabd b115 66be 3394 dabc a0a0 a4bc
00000140: 7115 24be 1191 433b 0c42 7a3e 5d01 6c3e
00000150: 87b9 8cbd f91c 993e 0d23 43be 4c15 d8bd
00000160: 95c2 3bbe b6ab 853e e128 0e3d e05c e6bd
00000170: 55b7 953e 8a80 ff3d a8f7 5bbd cdc8 583e
00000180: 867f 293e f6fa abbd 8ae1 43bd 8c3a 263e
00000190: e41e 133d 830f 293e 1e67 7ebc f505 debd
000001a0: b4e3 723d 616f 7e3e 1366 bb3d 6274 57bd
000001b0: e3c0 cbbd ea77 babd d24d 14be 5611 cabc
000001c0: e565 4fbc 94a7 03be 1e62 f43d a2e9 e93c
000001d0: 84f9 993c 866d 2c3e f4a4 423e 926c 0bbe
000001e0: c8a9 b83d af74 4a3e 6674 69bb 19ef 2b3e
000001f0: ebc8 50be 25a6 0e3e 0499 453e f8ec 26bd
00000200: f449 813e 0967 25be 302c 1cbe ee8b 3fbe
00000210: 3185 163e 6ceb 99bc 2bd2 793e e084 753e
00000220: 5bab 723e d012 273e 3f5a fa3d 3fe0 813e
00000230: 23f7 693e e11b 6c3e 0c26 0f3d 2b5a 823e
00000240: 0bd6 67be b7e8 efbd f14b c43b 3a92 5e3d
00000250: 255c bbbd e0f9 2d3e 4e1d 2dbc ab07 f73d
00000260: da77 773e d5e2 29be ebdd 343e bde6 313e
00000270: 7c4a 213e d141 503e f652 96bd ff06 f9bd
00000280: 2477 3bbd e4a1 593e bb8c 253e 93a9 03bd
00000290: 5ad6 22bc 8efd 623d 3ebf 3bbd 0c25 553d
000002a0: 7748 5c3e 16f0 33be 9ddd 443e 936f 95bd
000002b0: 5008 2b3d ed65 213e 3df6 213e 3df1 873d
000002c0: f183 97bd ac3b 29be 8e55 c93d bc54 29bd
000002d0: 1d7b 22be 1c5c 3dbe 2f8b 873e d6d4 0c3e
000002e0: 802f c2bb ef28 2c3e da5c 19be fe19 d5bd
000002f0: d416 7dbb 77de 563e f271 433e 744b a7bd
00000300: 1c5f 0b3e b0d5 133e be7d 223e f693 1c3e
00000310: 486c fc3d 46bf a6bd 22e1 16be a7dc 483e
00000320: 8b8d a9b9 214b a73d 1f0d 113d d3e6 bcbc
00000330: 5062 9b3d a4eb 603e b32f 3dbd 3da4 843d
00000340: 55bb cd3c 2343 623c f1cd 9d3d e1e6 72bd
00000350: 2c9d 9c3c 7624 9cbc e125 57bd 5cc3 f53d
00000360: 9468 843d 4564 10bd 061a 933c bd04 f6bd
00000370: 65e6 9d3d f12e 683e 362e ae3c 79b1 5c3e
00000380: 6329 72be 3a38 cfbc 10a8 433e e8ea c03d
00000390: 4ffb 553e f711 21be 6f5c debd f358 823c
000003a0: 9556 263e d1f6 c53c 3942 6d3e 6ad9 263e
000003b0: 4cfd 1a3e 15cb 6c3e cec2 793e 68c3 643e
000003c0: 7007 a0bc 6db0 2f3e dfbc a63c 2fce 663d
000003d0: 4cbf 69be fdd3 1abd 34e5 0cbd 6af0 243d
000003e0: 7ff1 0a3d 95ad 613e 9aa9 52be ec5c b23d
000003f0: 9c5d 433e b937 fdbd 794d 1f3d 7ad3 233e
0.05497248 0.07723935 0.04602888 -0.15662198 -0.038252175 0.16202673 0.00095200114 0.0119273085
0.22407506 -0.07087741 -0.19598992 -0.17340015 0.030502811 -0.11325783 0.0076254634 0.24080993
0.0372016 0.21866064 0.14634101 -0.21838011 -0.023038758 0.24431244 -0.07286969 0.30876815
-0.15782173 0.09583359 0.12818897 -0.024610197 0.21431929 -0.11276399 -0.108765334 0.10874965
0.21756718 -0.2936077 0.25802544 0.16446248 0.19489503 0.1230036 0.21475586 0.20321415
0.11157003 0.1402125 -0.031239308 0.108680174 -0.10268932 -0.19653076 0.073115416 -0.0074536614
-0.048329778 0.21031258 -0.18780714 0.12514561 0.2584902 -0.06919983 0.1895464 0.14031112
0.16499892 0.13230024 -0.14515758 -0.0626666 -0.064861804 0.20062798 0.0120862145 -0.029954584
0.058210548 -0.09659949 0.020793268 -0.08675378 0.26580846 0.034503732 0.13574043 0.05694166
-0.082072794 0.18568392 0.2484649 -0.051119693 -0.09879003 -0.22469212 -0.026681995 -0.020096123
-0.16023804 0.0029841105 0.24439257 0.23047395 -0.06871324 0.29904917 -0.1905634 -0.10550937
-0.18335946 0.26107568 0.034706954 -0.11248183 0.29241434 0.12475689 -0.05370298 0.2117035
0.16552553 -0.083974764 -0.047822513 0.16233271 0.03591813 0.16509824 -0.015527515 -0.1084098
0.059299186 0.24847175 0.091503285 -0.052601226 -0.099488996 -0.09104903 -0.14482811 -0.02466647
-0.012658571 -0.12856895 0.11932777 0.028553788 0.018795736 0.16838655 0.19008237 -0.13615635
0.09016758 0.19771074 -0.0035622357 0.16790427 -0.20389144 0.13930567 0.19296652 -0.040753335
0.25251734 -0.16152586 -0.15251231 -0.18705723 0.14699246 -0.018789016 0.24396579 0.23976469
0.2369818 0.1631577 0.12224244 0.253664 0.22848181 0.2305751 0.034948394 0.25459418
-0.22640245 -0.11714309 0.0059904982 0.05433867 -0.091484345 0.16989851 -0.010566069 0.120620094
0.24166813 -0.16590436 0.1766278 0.17373176 0.1575107 0.20337607 -0.07340042 -0.121595375
-0.04576792 0.21253163 0.16166966 -0.03214414 -0.009938801 0.05541759 -0.04583668 0.052037284
0.21512018 -0.17572054 0.19225164 -0.07296672 0.041755974 0.15761538 0.15816589 0.066378094
-0.07398213 -0.1652667 0.098307714 -0.041340575 -0.15867276 -0.18492168 0.26473376 0.13753065
-0.0059260726 0.1681249 -0.14976826 -0.10405348 -0.0038618343 0.20983301 0.19086435 -0.081686884
0.136105 0.14436984 0.1586828 0.15290818 0.123253405 -0.08141951 -0.14734319 0.19615422
-0.0003233965 0.081686266 0.035412904 -0.023059284 0.07587111 0.2196489 -0.046188068 0.064766385
0.025113741 0.013809952 0.07705296 -0.059302215 0.019117914 -0.019060355 -0.05252636 0.120001525
0.06465259 -0.035251874 0.017956745 -0.120126225 0.0770996 0.22674157 0.02126227 0.21552075
-0.236486 -0.025295366 0.1910708 0.09419805 0.20896648 -0.1572951 -0.10857474 0.015911555
0.16243966 0.024165543 0.23169793 0.16293874 0.15135688 0.23124345 0.24390718 0.22340167
-0.019534796 0.17157145 0.020353733 0.056348976 -0.2282688 -0.037799824 -0.034398273 0.04026834
0.033921715 0.22038873 -0.2057251 0.0870913 0.19078678 -0.12364144 0.038892243 0.1599864

layer3.bias f4 [3]
00000000: d2cd 7dbd 4420 263e 6efb 9a3d
-0.061963864 0.16223246 0.07567488

exp_avg f4 [150, 20]
00000000: 821d 09ba 887a 2438 4ae6 eabb 21ee 16bb
00000010: 7889 54b8 be5f 6838 8257 0dbc 0711 8ab9
00000020: 8004 9738 615d 89b8 c41c 1d3b 8abf cbba
00000030: 0d45 84b9 e266 ff38 7b44 aebb 5b25 0ebb
00000040: e048 66bc 56c6 87bb 43a8 9cbc 3f75 2dbc
00000050: 93f0 5f39 8990 fab7 368d ab3b 1696 c0bb
00000060: 675f b938 2958 0f38 e6de 113b e70f ac3a
00000070: affb 88b8 574e ae38 7364 c33a 2c4f 863b
00000080: 8d34 7ab8 f605 af37 c008 41b8 91d9 15bc
00000090: 5fd1 933c 40b7 0c3c 6b96 0c38 fc03 5e3c
000000a0: d461 eeb7 6f8f 0e39 ba91 133b 0017 d1b6
000000b0: 5749 3338 358b a737 57af a0b8 7a42 413a
000000c0: 8840 9b38 e815 1f38 44e2 d03a ec73 c73a
000000d0: b1c5 ecb8 a813 5d37 c86e a9ba 287d f0ba
000000e0: b33d f93a 420b 373b 4dd3 e8bb b784 1cbb
000000f0: d094 60b8 892e 09b9 60e0 5abb 4d36 c5bb
00000100: 29cc b8ad cf6a 3417 f91b 78ae dda3 1119
00000110: c9dc d134 342d 1e02 805d 5437 9fb1 1a02
00000120: 9fcb d134 b24e 18b7 7a1c c435 e2db 86bb
00000130: b745 48b9 e646 05b9 a864 6e38 5570 a2b8
00000140: 37d5 0bba b921 40b9 40d6 08bc e38e 3abc
00000150: 3daa 0cb9 ec94 d5b7 8bba 14bc 8571 84ba
00000160: 7cfd 96b8 520b 4337 af3a 9bba 8635 523a
00000170: 7ccc 6ab8 f648 64b9 4257 46bb 9d80 58bc
00000180: 970c 2abc 551b 67bc 7ab1 5bbc 488b 1abc
00000190: 22a8 dcb9 bbe4 05b9 bb44 52bc 8667 61bc
000001a0: 807f 1db9 604b 51b7 b7cd e6bb c868 c6b9
000001b0: 2665 abb8 9838 2438 d6fe 32bb 12c2 f23a
000001c0: 00fb c1b8 8ca5 e1b9 7490 7ebb 7069 4fbc
000001d0: 4b50 f0bb 791b 33bc 307c 2dbc 1817 09bc
000001e0: 3544 1d02 ab70 1602 a267 1002 75ce 1302
000001f0: ab70 1602 3544 1d02 6a97 1b02 e1ed 1502
00000200: 3544 1d02 3544 1d02 6cf3 1802 914e 1202
00000210: 0000 0000 ab70 1602 0000 0000 5c62 1502
00000220: 0a21 1d02 6328 1e02 d8a7 1402 b022 1202
00000230: 8c6e 3cba d099 78b9 ee08 23bc 7366 74bc
00000240: 74c0 41b9 58d2 f1b7 a27c 6dbc acf5 0abb
00000250: cc5b 6ab8 b9fd 00b7 fe55 2fba a0f7 0ab8
00000260: acfe 01b8 9920 7db9 b3b2 84bb 271d 8abc
00000270: 62ee 5ebc e529 a4bc 4226 89bc 0ff6 4cbc
00000280: 0000 0000 0000 0000 0000 0000 0000 0000
00000290: 0000 0000 0000 0000 0000 0000 0000 0000
000002a0: 0000 0000 0000 0000 0000 0000 0000 0000
000002b0: 0000 0000 0000 0000 0000 0000 0000 0000
000002c0: 0000 0000 0000 0000 0000 0000 0000 0000
000002d0: 45f9 dfb9 3aa3 02ba 5aa6 7ebb e6da d1bb
000002e0: 0c5a 0eb9 36cd a5b9 b013 2abc 3d6f 22bc
000002f0: d0f2 2ab6 a8cd 29b9 0de3 1db8 6c0b 8dbb
00000300: 101b a4b7 fe7b ce38 2e15 25bb 8028 93ba
00000310: 3816 3dbc 0814 14bc c787 7ebb 0289 27bc
00000320: c60d 0a3a 4391 363a 9c81 b73c 6083 613c
00000330: c298 e737 bbb2 5539 7e2f 32b8 d54f 1c3c
00000340: 4eaa 8d39 d138 a539 c0f3 d33b 61a5 693c
00000350: 7e6c e7b8 9482 9839 ce47 09ba aeaa bc3b
00000360: 5454 043d 10f8 7a3c eadf 89bc 6af7 ff3c
00000370: bb00 14b8 4d52 8a37 587b 9e3a 47df ec3a
00000380: efa6 4038 003a 75b8 a7ce a13a 8f36 a3ba
00000390: c2c8 2d38 cbf2 30b8 5551 2e3a 9b85 c4ba
000003a0: 25b8 21b8 7804 d438 7834 9fba d156 173b
000003b0: b1a4 33bb 1694 9ab8 39ed caba daa3 66ba
000003c0: e1cc c6b8 f095 0bb7 bf50 15bb d4fb ce3b
000003d0: 145d ea38 87ec f0b9 50d8 483c 6716 27bc
000003e0: 74c3 1239 59c8 22b9 6b98 3e3b d80e debb
000003f0: aaaa 37b9 3d6e 56b9 7117 753b 2cbf 0c3c
-0.0005230532 3.9214763e-05 -0.007168566 -0.002303012 -5.0672767e-05 5.5402277e-05 -0.0086268205 -0.00026334097
7.201079e-05 -6.550062e-05 0.0023973444 -0.0015544754 -0.0002522845 0.00012178511 -0.005318222 -0.0021689746
-0.014055461 -0.0041435165 -0.019123202 -0.010587036 0.00021356558 -2.9869627e-05 0.0052353395 -0.0058772666
8.8392575e-05 3.4175962e-05 0.0022258102 0.0013127298 -6.531865e-05 8.3115585e-05 0.0014907256 0.0040987935
-5.9653587e-05 2.0864401e-05 -4.6022935e-05 -0.00914611 0.018044172 0.008588612 3.351869e-05 0.013550755
-2.8417366e-05 0.00013595608 0.002251728 -6.231363e-06 4.274523e-05 1.9972775e-05 -7.662054e-05 0.00073722715
7.402996e-05 3.7928956e-05 0.0015936573 0.0015217043 -0.0001129018 1.3177203e-05 -0.0012926692 -0.0018347846
0.001901558 0.0027930294 -0.007105267 -0.0023882815 -5.3544354e-05 -0.00013082674 -0.0033397898 -0.006018436
-2.1009043e-11 5.829595e-25 -5.6413516e-11 7.529416e-24 3.9089926e-07 1.1620979e-37 1.2657954e-05 1.1365108e-37
3.9077437e-07 -9.078229e-06 1.4611426e-06 -0.0041155675 -0.00019099457 -0.0001271028 5.6837365e-05 -7.7456854e-05
-0.00053342007 -0.0001832311 -0.008351862 -0.011386606 -0.00013414859 -2.5460926e-05 -0.009077678 -0.0010104632
-7.1997725e-05 1.1625541e-05 -0.0011843051 0.000801884 -5.598039e-05 -0.00021770954 -0.0030264412 -0.013214258
-0.010378978 -0.014105638 -0.013409013 -0.009432621 -0.0004208694 -0.00012769077 -0.012833769 -0.013757592
-0.00015020184 -1.247492e-05 -0.007043566 -0.0003784357 -8.172756e-05 3.9153354e-05 -0.0027312539 0.0018520972
-9.2497095e-05 -0.00043038686 -0.0038843425 -0.012659416 -0.0073337904 -0.010931843 -0.010588691 -0.008367322
1.1554113e-37 1.1052594e-37 1.060919e-37 1.0859105e-37 1.1052594e-37 1.1554113e-37 1.1431055e-37 1.1015059e-37
1.1554113e-37 1.1554113e-37 1.1237055e-37 1.0748933e-37 0.0 1.1052594e-37 0.0 1.0975019e-37
1.154402e-37 1.1619597e-37 1.0921492e-37 1.0736341e-37 -0.00071881036 -0.00023708423 -0.0099508595 -0.014917004
-0.00018477609 -2.8827388e-05 -0.014495047 -0.002120356 -5.587544e-05 -7.688469e-06 -0.0006688534 -3.3132383e-05
-3.099318e-05 -0.00024140104 -0.004049623 -0.016859604 -0.01360664 -0.020039508 -0.016741876 -0.012509837
0.0 0.0 0.0 0.0 0.0 0.0 0.0 0.0
0.0 0.0 0.0 0.0 0.0 0.0 0.0 0.0
0.0 0.0 0.0 0.0 -0.00042719595 -0.0004983429 -0.0038856477 -0.0064042686
-0.0001357572 -0.00031624147 -0.01038067 -0.009914217 -2.547331e-06 -0.00016193709 -3.7643174e-05 -0.00430434
-1.9562925e-05 9.845941e-05 -0.0025189626 -0.001122728 -0.011540942 -0.009037979 -0.0038838254 -0.010225536
0.00052663346 0.00069643947 0.02240067 0.013764232 2.760848e-05 0.00020379845 -4.2482738e-05 0.009540518
0.00027020503 0.00031513584 0.0064682662 0.014260621 -0.000110351466 0.00029088988 -0.0005236835 0.0057576513
0.032306984 0.015317932 -0.016830403 0.031245906 -3.528663e-05 1.6489206e-05 0.0012091203 0.0018071913
4.5931836e-05 -5.846657e-05 0.0012344912 -0.0012452173 4.1433384e-05 -4.218779e-05 0.00066496927 -0.0014993431
-3.855689e-05 0.0001010978 -0.0012146374 0.0023092518 -0.0027411396 -7.3708754e-05 -0.0015482075 -0.00087982195
-9.4795374e-05 -8.319956e-06 -0.0022783724 0.0063166413 0.00011175327 -0.00045952594 0.012258604 -0.010198212
0.00013996457 -0.00015524159 0.0029082547 -0.006776672 -0.00017515817 -0.00020449697 0.0037398005 0.008590501

exp_avg_sq f4 [150, 20]
00000000: 620f 6836 e9c1 7a35 caca be3a 78aa 123a
00000010: 2db1 3734 da37 a734 ecc3 5639 df48 ea39
00000020: 697d 5832 1814 8f33 9247 0537 ac8b 0637
00000030: 65f0 b334 3abc f333 4846 053a b9a2 7c38
00000040: f885 063c f11c bc3b b5f9 843a b96e 5e3b
00000050: 1095 8836 ab68 7735 c2b6 333b c8c7 b93a
00000060: 2ea9 5633 a70e d132 6e7a ed37 2394 8c37
00000070: 7553 4b33 2e9f 2533 9c31 f437 8406 9938
00000080: cdee 9534 bd15 6635 661d e339 35ac c73a
00000090: cbf2 f63b 2657 b53b 51b1 e137 2d2d 633b
000000a0: 3242 e535 3685 2c34 5cdb 843a 8e9c 1739
000000b0: d771 d732 ed73 db32 3d2e bd36 1bdf 9e37
000000c0: 7163 5c33 6be9 9132 2ab5 4438 997d e637
000000d0: b368 9c33 88c0 7b34 86b2 e438 2ee0 5839
000000e0: 1f9d 6f3b da06 4b3b e47a 133a e81d a53a
000000f0: 9c48 8335 9ac6 5535 1d84 ab3a 6415 b13a
00000100: c406 0032 0a5f bf30 025f b836 bff2 f335
00000110: 3a5d 9133 2b56 e52d e33d 1d38 ee10 3e32
00000120: 6734 7232 d9dd 6435 9fbb 3135 c66e c83a
00000130: 6ee0 8c38 2fa7 d838 7bae 8338 e8f3 9539
00000140: 8dcb 8e35 626a 1035 d65a 253a 91cc dc39
00000150: fda1 9133 fa64 0a34 09e8 a538 d648 3139
00000160: 76a1 5b33 1dcc 3233 023f 5538 8138 7238
00000170: f0e9 9a33 4c1b b334 a528 9338 d61d a139
00000180: 25bc e33a 0b66 cd3a bdce b139 5e5a ad3a
00000190: 8976 ae35 26bb 8435 dcc4 a63a 2386 8f3a
000001a0: 19e6 ba33 f23f 8933 2485 0939 6c70 7138
000001b0: 0305 1834 d06b bb32 5eac aa38 7eca 3738
000001c0: 0e2a df33 0503 9c35 bdc6 9e38 9dfe a53a
000001d0: 713c fe39 caab 693a 10d6 b439 1f91 ca3a
000001e0: f387 a126 a707 9e27 aa40 4f28 f648 0c26
000001f0: d9dc 9c27 f387 a126 bb5d 362c be60 2e2c
00000200: f387 a126 d9dc 9c26 eaab 342c 8812 7e2a
00000210: 0000 0000 d9dc 9c27 0000 0000 4bba 902b
00000220: b3e6 1c2c be38 422c 68a2 532c 81c2 4e25
00000230: b07d 6f36 0857 0236 6596 073b 35ee b93a
00000240: f9ab 9534 4e4d 0c35 04b0 a439 d914 333a
00000250: 9fbe 3034 91a2 2334 3bc7 2139 92cb 4739
00000260: 5fa0 8d34 d363 8a35 47d6 8d39 d30f 7b3a
00000270: 2f08 ba3b 9bbd b03b 4b4f 763a 39a7 933b
00000280: 0000 0000 0000 0000 0000 0000 0000 0000
00000290: 0000 0000 0000 0000 0000 0000 0000 0000
000002a0: 0000 0000 0000 0000 0000 0000 0000 0000
000002b0: 0000 0000 0000 0000 0000 0000 0000 0000
000002c0: 0000 0000 0000 0000 0000 0000 0000 0000
000002d0: 50f8 1836 0c87 0335 5170 8e3a 2b10 5a39
000002e0: 1270 ac33 1b7a 6034 e9e3 9438 4646 ae39
000002f0: 9f4e 2a31 a9c7 4d32 9d3b 6736 a8cb 5437
00000300: d7a9 7e32 1e61 9633 1a1f e136 e4d4 6a38
00000310: 158a 9a3b f2a0 b43b 7b56 5a38 470b e73a
00000320: 32c3 1937 701f 5535 8723 993b f2d4 5a3a
00000330: 05d8 df33 17ce 6134 ba3c db37 ab4b 1e39
00000340: 2d56 7d34 0770 8934 92ad 8739 2ed1 e239
00000350: 3630 3835 96a8 de34 e3db 853a dd67 1e38
00000360: 4a19 cc3c 7143 743c be48 543b 9394 443c
00000370: 42fd b934 ce7f b433 8a7e 3439 f402 7938
00000380: 404f de32 4902 ab32 a876 e237 6836 ad37
00000390: 0417 f731 f60a cf31 df9b be36 466c b736
000003a0: a3fc ef32 1631 6f33 0ae3 2538 1591 5e38
000003b0: 16c8 463a 14c2 063a bb3b 0e39 59d8 c139
000003c0: 25f8 1836 5898 0236 0492 a83a a748 9d3a
000003d0: a7b5 5434 aa78 1e35 e2fe 8f39 63ea 7b3a
000003e0: 8045 a733 dd65 0f34 4440 e438 d90a 4639
000003f0: e5a0 5f34 1426 4535 a9aa 3e39 95d1 0c3a
3.4579648e-06 9.3414434e-07 0.0014556285 0.000559486 1.7107659e-07 3.114681e-07 0.00020481617 0.0004468625
1.260137e-08 6.6626114e-08 7.9440815e-06 8.019542e-06 3.3516258e-07 1.13498075e-07 0.000508402 6.023303e-05
0.008210652 0.005740755 0.0010145219 0.0033940508 4.070469e-06 9.216698e-07 0.0027422165 0.0014173919
4.9979626e-08 2.4337465e-08 2.8309612e-05 1.6758282e-05 4.7340524e-08 3.856183e-08 2.9110168e-05 7.296822e-05
2.7927163e-07 8.571331e-07 0.00043318718 0.0015233817 0.0075362674 0.0055340705 2.690466e-05 0.0034664378
1.7081095e-06 1.606721e-07 0.0010136175 0.00014458803 2.5081063e-08 2.5547672e-08 5.638022e-06 1.893896e-05
5.1313183e-08 1.6986368e-08 4.6898764e-05 2.7476623e-05 7.283361e-08 2.3446239e-07 0.0001090514 0.00020682879
0.0036562157 0.0030979426 0.0005625917 0.0012597414 9.781393e-07 7.9637687e-07 0.0013085637 0.0013510403
7.452119e-09 1.3924091e-09 5.4946877e-06 1.8175559e-06 6.7690465e-08 2.6072552e-11 3.7489353e-05 1.1063305e-08
1.4098169e-08 8.525945e-07 6.6210663e-07 0.0015291802 6.7175235e-05 0.00010330823 6.279066e-05 0.0002860122
1.0639066e-06 5.379899e-07 0.0006307786 0.00042114084 6.781554e-08 1.2888987e-07 7.911033e-05 0.00016907169
5.113676e-08 4.1629495e-08 5.0841838e-05 5.774992e-05 7.213737e-08 3.336121e-07 7.017077e-05 0.00030730542
0.0017374797 0.001567067 0.00033914103 0.0013225784 1.2998509e-06 9.889234e-07 0.0012723464 0.001095001
8.7031545e-08 6.391191e-08 0.00013114937 5.756358e-05 1.4157926e-07 2.1818693e-08 8.1383376e-05 4.3819186e-05
1.03918964e-07 1.1623785e-06 7.571045e-05 0.0012664382 0.00048491688 0.0008913843 0.00034491764 0.0015454626
1.1208468e-15 4.3862106e-15 1.150483e-14 4.867114e-16 4.353814e-15 1.1208468e-15 2.5915786e-12 2.478059e-12
1.1208468e-15 1.0884535e-15 2.567497e-12 2.2566161e-13 0.0 4.353814e-15 0.0 1.0283522e-12
2.2296997e-12 2.7600556e-12 3.0075057e-12 1.7933552e-16 3.5686935e-06 1.9422168e-06 0.0020689007 0.0014185371
2.787854e-07 5.226656e-07 0.0003141166 0.00068314146 1.6460625e-07 1.5239699e-07 0.00015428376 0.00019053955
2.6379982e-07 1.0310854e-06 0.00027053265 0.0009577248 0.005677245 0.0053936965 0.0009395971 0.0045060185
0.0 0.0 0.0 0.0 0.0 0.0 0.0 0.0
0.0 0.0 0.0 0.0 0.0 0.0 0.0 0.0
0.0 0.0 0.0 0.0 2.2794302e-06 4.899782e-07 0.0010867213 0.00020796123
8.0297596e-08 2.0906047e-07 7.0996415e-05 0.00033240224 2.4782947e-09 1.1977968e-08 3.4456382e-06 1.2683602e-05
1.4823363e-08 7.002585e-08 6.7091432e-06 5.5988217e-05 0.0047161677 0.0055123502 5.205579e-05 0.0017627262
9.164958e-06 7.939443e-07 0.0046734246 0.00083477714 1.04235404e-07 2.1029733e-07 2.6135112e-05 0.00015096243
2.3593812e-07 2.559975e-07 0.00025878527 0.0004326193 6.86155e-07 4.1473385e-07 0.0010212626 3.7766866e-05
0.024914403 0.014908657 0.003239199 0.0119983135 3.4643205e-07 8.405151e-08 0.00017213277 5.9368977e-05
2.588024e-08 1.990806e-08 2.6996553e-05 2.0648542e-05 7.1912627e-09 6.025739e-09 5.680587e-06 5.4664297e-06
2.7938148e-08 5.5691167e-08 3.9550512e-05 5.3064043e-05 0.0007582916 0.0005140614 0.00013564427 0.0003697302
2.2794204e-06 1.9460185e-06 0.0012860899 0.0011999801 1.9810123e-07 5.9035176e-07 0.00027464988 0.00096098165
7.7891855e-08 1.335497e-07 0.000108838576 0.00018886793 2.0827027e-07 7.344363e-07 0.00018183388 0.00053718063

exp_avg f4 [150]
00000000: 840f 40bc cd3d 593b ea5f 223b ed29 98bb
00000010: 9c96 5ebc 1ac5 66bc ea6e 1f02 e721 82bc
00000020: 0000 0000 fc65 17bc 98f8 c63c 005f 5dba
00000030: baaf 01bc 549a 4cba 3bed a0bc 0000 0000
00000040: 8d6b 153c dc3b 6b3c 30c3 93bc fd2d c9bb
00000050: bace 93bc 17b1 1a3b f8ff d23d c4b7 9cbb
00000060: 57b2 48bb 1cba 15bb 0368 2abc 6c03 353c
00000070: 8a15 9ebc 2759 1a02 cb25 bebc a600 5fbb
00000080: a65c d33c b6d0 c8bb 0000 0000 a6cc 15bc
00000090: 0000 0000 2991 4d3a 97c9 5fbc 628e b3bb
000000a0: d0cb 9439 b4e0 5dbc 0000 0000 502d 54ba
000000b0: df84 17bd 7a94 6c3a d217 b23b 113d e3bb
000000c0: b072 d2bb 8832 e0bc 0050 b235 5eba 69ba
000000d0: 4608 2bbc d13a 6a3c 304e b13c 37d8 04bc
000000e0: 1a4d 333a 2a5e 70bb e01b 36bc 6fd0 62bc
000000f0: 3e2f ef3b 894f 04bd 2e49 0fbb dbd2 453c
00000100: 08a4 82bc fc91 cd38 21f9 283c 51db 503b
00000110: 08fe 6fbb 92ee d63a 981c 18bc 0081 34ba
00000120: 4ab7 feb9 6b5c da3c 4273 39ba 2eff 20bb
00000130: 6a96 033b 1c00 94bb ae6a b63a 700e fe3b
00000140: 3f80 d43b 34be 2ebc 5828 53bc f03b 6bbb
00000150: 2251 b4bb 55d5 0e3c 62dd 643c aee8 113b
00000160: 0000 0000 3692 f3bc 32f2 52bc a891 14bc
00000170: d884 63bc 51ac 5dbb a89b 11bc 286f 14bc
00000180: 0000 0000 d033 56bc 6e7a 9dbb 4f09 f53a
00000190: d846 613b c7e1 bebc 36ef 98bc bd3a 02bd
000001a0: 58a7 283c bb95 e4bb 3a34 363d 8c1c a93a
000001b0: 26ed ab3b e2a1 78bc d6da 2abc 4011 4638
000001c0: a476 8c3c c993 ddba f025 6539 0000 0000
000001d0: f562 503c 7be6 613c ae2a 033b 6622 343d
000001e0: 4b28 91bc 0ac2 ff3c 0000 0000 e0df 6d39
000001f0: 797e 623b f94c 91bc 8021 cb3c 26a1 833b
00000200: 0000 0000 4879 1d3c 6862 03bb cc9b 543c
00000210: 93c7 05bc f053 50ba 8851 7b3b ec35 6bbc
00000220: f257 abbc f3d8 9bbc ce0e c6bc 00e9 df37
00000230: 2a28 a83b 54db 71bc 6738 f63c c5db 3bbc
00000240: 6298 833c 0000 0000 91fc fcbb 1947 0a3a
00000250: fda5 21bc 9417 a63b
-0.011722449 0.0033148408 0.0024776408 -0.00464367 -0.013585713 -0.014085079 1.1713306e-37 -0.015885307
0.0 -0.009240624 0.02428846 -0.0008444637 -0.007915432 -0.0007804979 -0.01964437 0.0
0.00911988 0.014357533 -0.018037409 -0.0061395154 -0.01804291 0.002360409 0.103027284 -0.0047826488
-0.0030623877 -0.0022846526 -0.010400775 0.011048179 -0.01929738 1.1339719e-37 -0.02321138 -0.0034027486
0.025801014 -0.006128396 0.0 -0.00914303 0.0 0.000784176 -0.013658903 -0.00547962
0.00028380612 -0.013542343 0.0 -0.00080939103 -0.03699195 0.000902481 0.0054349685 -0.00693477
-0.006422363 -0.027367845 1.3285317e-06 -0.00089160155 -0.010438984 0.0142962495 0.021643728 -0.00810819
0.0006839797 -0.003667722 -0.011115044 -0.01384364 0.007299333 -0.032302413 -0.0021863687 0.012074198
-0.015947357 9.8023535e-05 0.010313303 0.0031869004 -0.003661992 0.0016398004 -0.009284161 -0.00068856776
-0.00048583216 0.026655396 -0.00070743647 -0.0024566161 0.0020078667 -0.0045166146 0.0013917291 0.007753186
0.0064850147 -0.010665465 -0.012888037 -0.003589388 -0.005502836 0.0087178545 0.013968797 0.0022263932
0.0 -0.029732805 -0.012875127 -0.00906793 -0.013886653 -0.0033824632 -0.008887209 -0.009059705
0.0 -0.0130738765 -0.0048058545 0.0018694791 0.0034374502 -0.023301018 -0.018668752 -0.0317943
0.010293804 -0.006975857 0.0444834 0.0012902184 0.005246776 -0.015175315 -0.010428151 4.7222944e-05
0.017146416 -0.0016905005 0.00021853275 0.0 0.012718906 0.013787861 0.0020014453 0.043978117
-0.017719408 0.031220455 0.0 0.00022685481 0.0034560247 -0.017736899 0.024796247 0.004017013
0.0 0.009611435 -0.0020047668 0.012976598 -0.008165258 -0.0007947078 0.0038348157 -0.014356118
-0.020915959 -0.019024348 -0.024176981 2.669217e-05 0.005131741 -0.014761765 0.030056192 -0.011465971
0.016063873 0.0 -0.007720538 0.00052748766 -0.009866235 0.0050687287

exp_avg_sq f4 [150]
00000000: d9b8 473b 7853 8d3b 343f b13a 091d 0c3b
00000010: 27bd 993a 21ae 043b 6a2e 452c c598 7f3b
00000020: 0000 0000 9ac7 ce3a 4a27 023c 550d a739
00000030: 0b0b 243b 71f6 ae3a 77e5 fb3b 0000 0000
00000040: 4e63 0e3a 1bfe 593c 2081 6e3b b558 353c
00000050: 3ac6 393b 7d62 de3a b668 f93c 1956 d73a
00000060: cab8 1538 1fc6 dc3a f950 203b c127 1b3b
00000070: 5d2d 243b 814e 5d30 6708 2d3b 9527 fb3b
00000080: 21b4 b93b bbc2 323b 0000 0000 d1cf bc3a
00000090: 0000 0000 eac4 4b3a 5dd6 c03a 8fbd 5c39
000000a0: 8393 553a f516 803b 0000 0000 a62c c83b
000000b0: 0f51 f33b 14ba 943a d151 073b d22c eb3b
000000c0: 02d3 213b e05a 953c 517a 733a 13d6 b039
000000d0: b8fb 2c3a 1349 9f3c 8577 1d3c 1cd0 053b
000000e0: f22e 0e3a d32a 853a 2bc9 933a e969 403b
000000f0: f261 063b 1108 283c dd9d 043a 3039 8d3b
00000100: 9c6b b73b 59ca 9c39 401b 943b 4df8 ef3a
00000110: 1aec 0a3c 3483 123a 0e08 a73a 74be 933b
00000120: 49e7 743c 1968 093c f781 0239 b3c7 883a
00000130: 6a37 483b 6521 963b 5ac9 4f3b 1b8c ae3b
00000140: 37e9 f83b 45f0 8a3b 81d8 843b 4122 223a
00000150: abf9 a23a 9cd4 6f3b 6319 d73a f132 ab39
00000160: 0000 0000 a8b3 ad3b 3ec4 3e3b 342f c93a
00000170: f9c3 373c 882c 193a b2a0 9a3b 83e5 dd3a
00000180: 0000 0000 270a a93b eb0f 213a 3663 e239
00000190: b08e 983c 52b1 453c b844 f63c 74d0 ab3b
000001a0: 1806 263c 9446 b03b e5d8 cf3c f464 8b3b
000001b0: 4d44 ff3a 9236 2c3b 8fe6 033b 7c6b a139
000001c0: dd16 8b3b 3a8e 0b39 70d7 b03b 0000 0000
000001d0: 506c 4a3b 89cf f93b 5644 343a 81f9 cd3c
000001e0: 928a 023c 0bf8 9a3b 0000 0000 2f13 233a
000001f0: 8f70 173b 5e0c d33b 09ef 293c 2c35 9e3a
00000200: 0000 0000 e3a6 e03b 3f60 ae3b 0f84 2f3b
00000210: 4fec a93a 8e08 403a 92d8 1c3c 3712 023c
00000220: 8e2d 003c 44d2 2d3c 0684 a83b 0b35 e03a
00000230: 2f9e dd3a fea6 8c3a 6e0c 573c 4b56 373b
00000240: 9d77 083d 0000 0000 1c7a 3c3b 4187 5d39
00000250: 8bb0 953a 5e32 1b3a
0.0030475168 0.0043129288 0.0013522864 0.002137961 0.0011729345 0.002024539 2.8021149e-12 0.003900097
0.0 0.0015776039 0.007943938 0.00031862655 0.0025030996 0.0013348592 0.0076872665 0.0
0.00054316677 0.013305212 0.0036392882 0.011068513 0.0028346912 0.0016966608 0.030445438 0.0016428857
3.5696467e-05 0.0016843713 0.0024462326 0.0023674818 0.0025051453 8.051089e-10 0.0026402713 0.0076646307
0.005667225 0.0027276713 0.0 0.0014405196 0.0 0.0007773178 0.0014712323 0.00021051451
0.0008147286 0.0039089867 0.0 0.006108838 0.0074254344 0.001134696 0.0020648132 0.007176974
0.002469242 0.01823181 0.0009287941 0.00033728834 0.00065987883 0.019444024 0.009611015 0.0020418232
0.00054238655 0.0010159857 0.0011275163 0.0029360002 0.0020505157 0.010255829 0.0005058924 0.004309796
0.005597545 0.000299054 0.00451985 0.0018308252 0.008479143 0.0005589009 0.0012743489 0.0045087878
0.014947721 0.008386635 0.00012446182 0.0010435492 0.0030550607 0.0045816177 0.0031705708 0.0053267605
0.0075961608 0.004240068 0.0040541296 0.0006184914 0.0012434026 0.003659523 0.0016410764 0.00032653616
0.0 0.0053009577 0.0029108669 0.0015349151 0.011216157 0.00058431225 0.0047188634 0.0016929362
0.0 0.005158681 0.00061440346 0.00043179997 0.018622726 0.012066202 0.030062065 0.0052433554
0.010133289 0.0053795073 0.025371978 0.004253978 0.0019475311 0.0026277644 0.0020126437 0.00030788395
0.004244669 0.00013309057 0.005396776 0.0 0.0030887313 0.007623617 0.0006876638 0.025143387
0.007967608 0.004729276 0.0 0.0006220815 0.0023107862 0.0064406833 0.010371932 0.001207029
0.0 0.006855832 0.005321532 0.0026781594 0.0012964102 0.00073254935 0.009573119 0.007938913
0.007823361 0.010609213 0.0051426915 0.0017105652 0.0016908104 0.001073092 0.013125522 0.0027975019
0.033317197 0.0 0.0028759306 0.00021126588 0.0011420412 0.0005920286
