checkpoints/dqn/checkpoint_ep500.pth (torch, 229962 bytes, 18 tensors)

layer1.weight f4 [150, 20]
-1.9375416 -2.9303136 -0.6511879 -0.6709289 -1.9208301 -2.2461321 -0.11892195 -0.33056563
-2.23272 -2.8509235 -1.7462971 -0.7756001 -3.5551553 1.8389959 -1.7723775 -0.20230328
-1.4441792 -1.2437574 0.34829792 -0.7183756 -0.8029678 -2.0619757 0.1206591 0.0035686872
-0.74265194 -3.1043575 -2.110582 -1.6258302 -0.99856985 0.23298581 -0.3347476 -0.22169676
-0.49893382 0.80192214 -0.4815313 0.17237993 0.07268339 0.13856658 0.08272208 -5.846364
-2.1486225 -0.2283216 -0.2854242 0.5947035 -4.828417 -1.2137514 -2.1353312 0.88240606
0.9476717 0.93708533 -1.4170496 0.39777958 -1.2759836 0.053497016 -0.7507207 -1.9131889
-1.4334826 -0.6763187 -0.5648297 -0.49362376 -0.09977836 -1.4892483 -0.02665256 0.11191662
-1.4892507 -0.15274683 -0.07288561 -0.08632625 1.5040052 -1.617176 -0.22740977 -0.1852075
0.25891706 3.1663911 -0.31052083 -0.11657644 0.7685854 -0.13048708 -3.0117571 -37.24711
-7.315107 -6.9367976 -0.26537833 -0.8691024 -5.805382 -7.603781 -1.5196366 -1.1578956
-2.629129 0.5968187 -0.7119803 0.5405363 1.3705935 -0.9970125 0.031415932 -0.09703195
-1.1311455 -1.3606905 -6.4005847 -4.5977035 -1.402733 -1.4932917 0.31891042 -0.44197714
0.22351141 -0.2773392 0.04264362 0.21859178 0.49189544 -1.2501651 0.14833309 0.12942512
-0.69843286 -1.9613972 -0.014834957 -0.113866255 -1.0696084 0.16576721 0.10516061 -2.1608298
-2.4051626 -6.429337 -0.35239023 0.3553235 1.2691101 -1.4903408 0.1393137 -0.44807678
1.5038142 -2.2084205 -0.21279374 0.46909592 -1.5229607 -2.8414404 -0.7294038 -0.7163832
-1.0498813 -0.23746309 0.9662512 -5.2432585 -3.6787763 -0.68502015 -0.018402465 -0.6808766
-2.4869561 -3.2647421 -0.46718198 0.16978583 -0.35000804 -1.843887 0.021519648 -0.02317126
-1.3501704 1.7291741 -1.4497223 -0.32692277 -0.23898135 -1.717188 -2.719268 2.4725296
-2.7235277 -1.2277154 0.3257913 -0.656733 0.15729168 -2.935972 -0.79868466 -0.5651235
1.3767253 0.031793904 -0.0043696016 0.327075 2.0903223 -0.9095676 0.016585272 -1.2848998
0.086659715 -3.2829666 0.8582141 -1.1956888 2.0359058 1.8692595 0.21728311 -0.19906852
0.13364571 -1.5716535 0.3476107 0.06756488 0.99475217 1.901618 -0.3471808 0.044463616
-0.21788499 -0.7264348 -0.24794683 -0.12040592 1.3186433 0.06268179 -1.3153957 -3.2706003
0.97721064 -1.1857374 -0.6495396 -0.07237844 1.363985 3.60251 -0.13126501 -0.16088389
-3.0561204 -1.3095105 -0.06937554 0.6403999 2.2523708 1.235417 -0.22235547 -0.06927061
-0.12724969 -2.9167547 -0.3533538 -0.029045386 -1.5343728 -5.81108 -0.2740951 0.038305324
-1.3358386 -5.390619 -0.19862658 0.086167775 1.0388553 -1.2514089 -0.1757446 -0.65397745
2.3189824 -0.3181627 -0.24251972 0.29906037 0.1269301 -0.17735226 -122.17133 -1.31978
-2.7263806 -1.2508081 -0.90616226 -0.28198615 -1.9054885 -4.770289 -0.0017751567 -0.29334804
-3.6692562 -8.642584 -1.0396461 -0.21499671 1.5520271 1.6712986 -1.4635891 -0.796972
00000000: 5d01 f8bf 428a 3bc0 40b4 26bf ffc1 2bbf
00000010: c3dd f5bf a1c0 0fc0 5a8d f3bd e63f a9be
00000020: e2e4 0ec0 8875 36c0 aa86 dfbf ba8d 46bf
00000030: aa87 63c0 3864 eb3f 44dd e2bf 9728 4fbe
00000040: ddda b8bf 7133 9fbf 1b54 b23e 77e7 37bf
00000050: 4c8f 4dbf 69f7 03c0 1e1c f73d a3e0 693b
00000060: 701e 3ebf cbad 46c0 c713 07c0 341b d0bf
00000070: 46a2 7fbf d593 6e3e 0a64 abbe 7a04 63be
00000080: 4174 ffbe c54a 4d3f 458b f6be 5d84 303e
00000090: 07db 943d 66e4 0d3e 326a a93d 6a15 bbc0
000000a0: 0883 09c0 23cd 69be 1f23 92be 7d3e 183f
000000b0: 6482 9ac0 355c 9bbf 44a9 08c0 5de5 613f
000000c0: 9d9a 723f d3e4 6f3f e261 b5bf c4a9 cb3e
000000d0: 6e53 a3bf b01f 5b3d 3b2f 40bf 60e3 f4bf
000000e0: 5c7c b7bf 3923 2dbf ae98 10bf 41bc fcbe
000000f0: 9958 ccbd b09f bebf 7856 dabc 8a34 e53d
00000100: c49f bebf aa69 1cbe 0d45 95bd d1cb b0bd
00000110: 3e83 c03f a0ff cebf 1bde 68be 09a7 3dbe
00000120: c790 843e 27a6 4a40 96fc 9ebe a1bf eebd
00000130: 03c2 443f 689e 05be a1c0 40c0 0afd 14c2
00000140: 5b15 eac0 3ffa ddc0 abdf 87be 7f7d 5ebf
00000150: b0c5 b9c0 2d52 f3c0 7483 c2bf ec35 94bf
00000160: a643 28c0 1cc9 183f 5744 36bf 9660 0a3f
00000170: 9c6f af3f 363c 7fbf fead 003d b0b8 c6bd
00000180: 60c9 90bf 1b2b aebf 97d1 ccc0 6320 93c0
00000190: c18c b3bf 2f24 bfbf 3a48 a33e d44a e2be
000001a0: 2de0 643e 67ff 8dbe 14ab 2e3d 86d6 5f3e
000001b0: b8d9 fb3e 6905 a0bf a1e4 173e 0588 043e
000001c0: 7fcc 32bf 100f fbbf 520e 73bc b632 e9bd
000001d0: eee8 88bf e1be 293e 725e d73d 094b 0ac0
000001e0: 2fee 19c0 21bd cdc0 7e6c b4be f6ec b53e
000001f0: 3372 a23f 7dc3 bebf 40a8 0e3e 526a e5be
00000200: fc7c c03f c356 0dc0 9ae6 59be 572d f03e
00000210: 60f0 c2bf 29da 35c0 35ba 3abf e464 37bf
00000220: 8362 86bf 8629 73be 3d5c 773f c6c8 a7c0
00000230: 1271 6bc0 7b5d 2fbf c4c0 96bc ee4d 2ebf
00000240: 4a2a 1fc0 89f1 50c0 7a32 efbe 56dc 2d3e
00000250: 4134 b3be 7d04 ecbf f949 b03c a7d1 bdbc
00000260: 62d2 acbf 9455 dd3f 8090 b9bf 6c62 a7be
00000270: 87b7 74be d1cc dbbf 7d08 2ec0 ed3d 1e40
00000280: 474e 2ec0 c725 9dbf 1ece a63e a71f 28bf
00000290: 1211 213e f7e6 3bc0 9976 4cbf efab 10bf
000002a0: 8938 b03f 533a 023d e02e 8fbb 6076 a73e
000002b0: d7c7 0540 6cd9 68bf d6dd 873c 9977 a4bf
000002c0: a67a b13d 201c 52c0 ebb3 5b3f 550c 99bf
000002d0: 484c 0240 e543 ef3f 777f 5e3e 9ed8 4bbe
000002e0: 6cda 083e f12b c9bf 08fa b13e 755f 8a3d
000002f0: 14a8 7e3f 3868 f33f afc1 b1be 7b1f 363d
00000300: 3e1d 5fbe a2f7 39bf c6e5 7dbe 6197 f6bd
00000310: 4ec9 a83f 4f5f 803d e35e a8bf 8451 51c0
00000320: 7a2a 7a3f 3ec6 97bf 3a48 26bf 263b 94bd
00000330: 0f97 ae3f 868f 6640 566a 06be bfbe 24be
00000340: 7a97 43c0 0a9e a7bf c314 8ebd 3ff1 233f
00000350: d826 1040 2522 9e3f 27b1 63be c0dd 8dbd
00000360: be4d 02be 1cac 3ac0 caea b4be 97f0 edbc
00000370: 5466 c4bf 5ef4 b9c0 3156 8cbe 0be6 1c3d
00000380: c2fc aabf f37f acc0 c464 4bbe bb78 b03d
00000390: 36f9 843f 2b2e a0bf 64f6 33be 116b 27bf
000003a0: 356a 1440 39e6 a2be 1757 78be 711e 993e
000003b0: f7f9 013e d59b 35be b957 f4c2 8dee a8bf
000003c0: 057d 2ec0 7b1a a0bf 40fa 67bf 7d60 90be
000003d0: 0ce7 f3bf 35a6 98c0 60ac e8ba b731 96be
000003e0: 18d5 6ac0 0648 0ac1 2013 85bf 1928 5cbe
000003f0: d3a8 c63f 1ded d53f e356 bbbf 5b06 4cbf

layer1.bias f4 [150]
-0.89662725 -1.2739326 -1.3398687 7.8312473 0.119439036 6.564596 -3.2977505 -7.3820214
-3.811103 5.837822 -0.64898473 4.569604 -1.7590387 -3.392161 -0.56940526 -12.26432
-7.8136597 -0.5969496 9.241838 -8.409387 -0.7962764 -2.7586918 0.729907 -1.0014248
-1.423939 -0.38668475 10.163705 -0.6268062 7.737071 -4.111858 -1.6850306 -1.12887
-1.1289202 -4.301588 -0.23831213 -0.72375625 1.8812563 -0.508771 -0.9464228 -1.0830324
-1.5367025 -2.4777067 -0.36136228 6.463826 -0.82547796 0.74173474 -2.1912644 -0.26794517
7.725294 -0.9811554 -7.4999065 -3.3183599 -2.9095812 -0.55498374 -1.8044415 0.030201089
-1.3114772 4.934917 -0.21903339 -1.1242107 -2.5906475 -0.7960693 -1.6122102 -0.5623435
-0.23314111 9.678833 6.2522125 11.669531 -0.8919941 -0.6868816 -0.0967765 -0.49164847
-1.4517292 -1.984841 -1.8041011 1.628864 -4.7842183 -2.8301313 -7.314821 -1.3601311
-4.12216 -3.0844793 5.6799707 2.5359192 5.9441953 -0.7094602 -0.8785966 -3.022788
-0.9229934 -4.237446 -0.6929109 -2.3054333 5.56196 -6.4785914 -0.73942566 -2.5063028
-0.9207689 -2.7712078 -2.3137574 14.149272 -0.58800316 -1.8815054 -0.78145134 -5.2450643
-3.543485 -1.1437039 -8.591016 -2.8736203 -4.243838 8.353295 -0.17668732 -0.14491516
-0.4066519 -1.2514658 -1.4478725 -1.8676335 -9.516057 -2.061419 -0.14306025 5.8886976
-4.182884 -0.35302716 -0.25898442 -0.101702854 -1.0319577 -0.16812918 -2.3844016 4.001161
-1.780917 -0.91539615 -0.85869503 -1.0570993 -2.1819282 -0.4610812 -0.88132364 -1.7776045
-1.2373724 -2.2414036 4.6171455 -0.41148797 7.5500255 -4.1160383 -2.08163 -0.7033378
-4.2440205 2.6198342 -0.5761705 -0.8868233 -1.2751262 -0.4316609
00000000: 5d89 65bf 3910 a3bf d180 abbf 9499 fa40
00000010: 749c f43d 2c11 d240 580e 53c0 8539 ecc0
00000020: 1de9 73c0 70cf ba40 dd23 26bf 323a 9240
00000030: 2e28 e1bf 2a19 59c0 8bc4 11bf a83a 44c1
00000040: 8009 fac0 b0d1 18bf 92de 1341 d98c 06c1
00000050: c5d8 4bbf 688e 30c0 2fdb 3a3f b02e 80bf
00000060: a243 b6bf 8bfb c5be 899e 2241 5f76 20bf
00000070: 1696 f740 5794 83c0 15af d7bf d07e 90bf
00000080: 7580 90bf 9ca6 89c0 1808 74be 1748 39bf
00000090: 02cd f03f d13e 02bf c448 72bf cea0 8abf
000000a0: abb2 c4bf bf92 1ec0 7a04 b9be aad7 ce40
000000b0: 8652 53bf 54e2 3d3f ad3d 0cc0 1c30 89be
000000c0: 9c35 f740 002d 7bbf 3cff efc0 0260 54c0
000000d0: 9436 3ac0 6a13 0ebf f0f7 e6bf 4668 f73c
000000e0: 7cde a7bf d7ea 9d40 4a4a 60be 23e6 8fbf
000000f0: 2bcd 25c0 33cb 4bbf e75c cebf bef5 0fbf
00000100: 8bbc 6ebe 80dc 1a41 2012 c840 66b6 3a41
00000110: ba59 64bf 79d7 2fbf c232 c6bd 59b9 fbbe
00000120: 43d2 b9bf 450f febf c9ec e6bf 9e7e d03f
00000130: 5118 99c0 df20 35c0 0313 eac0 c718 aebf
00000140: bce8 83c0 1c68 45c0 52c2 b540 804c 2240
00000150: d936 be40 2f9f 35bf b5eb 60bf 5c75 41c0
00000160: 4c49 6cbf 2899 87c0 9c62 31bf 388c 13c0
00000170: 94fb b140 9f50 cfc0 004b 3dbf 4467 20c0
00000180: 83b7 6bbf 785b 31c0 9a14 14c0 6b63 6241
00000190: 6087 16bf 2bd5 f0bf 320d 48bf 91d7 a7c0
000001a0: 75c8 62c0 e464 92bf cd74 09c1 65e9 37c0
000001b0: 85cd 87c0 19a7 0541 85ed 34be a464 14be
000001c0: ae34 d0be 0830 a0bf e353 b9bf 9d0e efbf
000001d0: c541 18c1 4aee 03c0 637e 12be 3670 bc40
000001e0: 30da 85c0 fabf b4be 9b99 84be 9649 d0bd
000001f0: 3117 84bf 0e2a 2cbe 099a 18c0 8309 8040
00000200: 17f5 e3bf 6757 6abf 70d3 5bbf 084f 87bf
00000210: b6a4 0bc0 d612 ecbe 6d9e 61bf 8b88 e3bf
00000220: 3862 9ebf 2873 0fc0 a8bf 9340 8dae d2be
00000230: cf99 f140 96b6 83c0 6d39 05c0 f20d 34bf
00000240: 04cf 87c0 5dab 2740 e97f 13bf da06 63bf
00000250: 5637 a3bf a802 ddbe

layer2.weight f4 [100, 150]
-0.021600114 0.030273644 -0.06777556 -0.2882376 0.20032449 -1.278952 -0.00092157914 -2.2498996
1.1630732 -1.4413236 0.012473435 -1.533039 0.9029773 0.9290345 0.06301179 -0.31704134
1.6259563 -0.1079039 0.19429745 -8.960361 -2.8798127 -1.2440517 -4.610378 0.04134641
-0.06818497 0.0024840166 -7.7045107 0.029492762 -1.0418401 -4.9495387 -1.2008827 -0.0031854853
0.072625786 -1.3004704 0.024063211 0.33161676 -1.6744779 0.03435161 0.00787769 -2.494848
0.15869981 -1.5629399 -0.021942396 1.6102173 -0.045102593 -0.3391014 -1.0029461 0.57857275
0.06768472 -0.6912451 -0.22302735 -3.9871702 -1.3197999 0.04600499 -0.069347344 -1.1969073
-2.1607764 -2.4054255 0.07059765 -0.9259289 0.013045795 -0.1451699 0.77545977 -0.040729973
-0.07359517 -3.8148973 -3.493237 -1.9001757 -0.1702022 -0.011901069 0.090082884 0.0010635708
0.11944902 -0.07059306 0.042522393 -0.087609194 0.60362583 0.4759621 -1.8845036 0.026523054
0.6692821 -0.086237445 -0.70041007 -1.7249329 -1.4208134 -0.37723097 -0.6025885 0.772151
0.010940002 -0.04240011 -0.05209403 0.87261915 0.08892623 -0.21316926 0.35201365 -0.5265794
0.31517282 0.41043037 2.0679255 -8.040963 -0.0040805587 -0.026560485 -0.13740471 0.47341776
-0.11991768 1.3339372 -20.10997 -2.1533806 -2.3343284 -0.8561516 -0.021136506 0.060912166
-0.08651317 0.2576596 -0.12018815 -1.3432832 -0.5241215 0.03959939 -0.07325287 -3.7794437
-3.2428198 -0.09797441 -0.02557798 -0.72454923 -0.068897605 -0.058454797 -2.353964 -2.644992
-2.969006 1.0271198 0.016095014 -0.041629028 -2.5252512 -0.00593767 -0.035271943 -0.03953032
0.024927652 -0.113747425 1.0131562 -0.7637209 -0.49849343 -4.001719 0.95886976 -0.019551905
-0.034528513 2.1011841 -0.08435696 -0.03345263 -0.006782468 1.4803736 0.09483741 1.9937618
-0.8316604 -0.111100845 -1.277392 -6.120103 -0.99998003 3.9877298 -7.76202 -0.31770125
0.38260525 -2.227088 -2.587711 -0.47384322 0.20273374 -25.589033 -3.8297563 0.2518788
-4.9806366 0.8973471 -0.4260698 -0.4132219 -6.3763595 0.16718455 -1.2958753 2.729739
-0.25762472 1.2954371 -9.949355 3.3815756 -1.305971 -3.2462811 0.1216685 3.7191737
-0.42495993 1.0339111 -3.771445 -0.7469531 0.79701453 3.0835168 -3.5435922 1.0831674
-0.59488255 2.023447 -0.64489824 -4.5705504 1.1418792 -5.5193667 -4.078593 0.96423364
4.452434 1.8177432 0.77677584 -0.52377117 1.6452081 -1.7190514 -4.013915 3.2424066
-0.040151406 -0.4868036 1.1917536 0.17307179 -1.816496 1.173507 -0.03405664 -4.906184
-2.4444697 -12.363254 -3.7363503 -1.4239026 -1.7375798 -1.3703476 0.8526228 -0.7168302
-0.4702759 -1.1827382 -3.4154882 -7.4473467 0.38352147 -0.41663128 -2.6332972 1.0047985
3.312959 -1.8434857 -8.104265 -9.074536 -3.4838881 -1.5456474 -0.4081214 3.4276075
-2.0927956 0.6248366 -3.2484505 0.80110174 -0.026139185 0.28722203 -0.093933955 -3.3507097
-0.33439 0.9196531 -1.5999495 0.3181554 0.4579725 -2.4620585 0.89100254 -1.4742004
00000000: b9f2 b0bc 6f00 f83c eacd 8abd e193 93be
00000010: dd21 4d3e b3b4 a3bf 2196 71ba 5bfe 0fc0
00000020: 95df 943f 4b7d b8bf 615d 4c3c 9f3a c4bf
00000030: 8529 673f 34d5 6d3f 530c 813d 3e53 a2be
00000040: 561f d03f b8fc dcbd e9f5 463e a35d 0fc1
00000050: da4e 38c0 163d 9fbf 3788 93c0 da5a 293d
00000060: 90a4 8bbd e2ca 223b 5a8b f6c0 ce9a f13c
00000070: 045b 85bf 9f62 9ec0 86b6 99bf 93c3 50bb
00000080: d4bc 943d d075 a6bf 3620 c53c acc9 a93e
00000090: 4b55 d6bf 46b4 0c3d 6d11 013c 97ab 1fc0
000000a0: 3482 223e 6a0e c8bf 8ac0 b3bc 9a1b ce3f
000000b0: 7fbd 38bd b39e adbe 8a60 80bf 581d 143f
000000c0: 499e 8a3d 70f5 30bf 4861 64be cc2d 7fc0
000000d0: 34ef a8bf ba6f 3c3d fb05 8ebd 4234 99bf
000000e0: 294a 0ac0 7ef2 19c0 8095 903d ad09 6dbf
000000f0: 08be 553c 6ba7 14be 8884 463f 79d4 26bd
00000100: 11b9 96bd 4727 74c0 3291 5fc0 f538 f3bf
00000110: 7c49 2ebe b4fc 42bc 607d b83d 8467 8b3a
00000120: b0a1 f43d 1893 90bd f62b 2e3d 736c b3bd
00000130: 3987 1a3f 4eb1 f33e 6a37 f1bf e046 d93c
00000140: 1256 2b3f 429d b0bd 134e 33bf 9aca dcbf
00000150: 37dd b5bf 6b24 c1be 3d43 1abf b0ab 453f
00000160: b23d 333c bdab 2dbd 8d60 55bd f863 5f3f
00000170: f51e b63d 0b49 5abe 223b b43e e8cd 06bf
00000180: 555e a13e ee23 d23e e458 0440 c9a7 00c1
00000190: 35b6 85bb 6095 d9bc d2b3 0cbe d063 f23e
000001a0: 6797 f5bd 74be aa3f 38e1 a0c1 fdd0 09c0
000001b0: a365 15c0 c02c 5bbf 7726 adbc 097f 793d
000001c0: d12d b1bd f6eb 833e 3425 f6bd b4f0 abbf
000001d0: d42c 06bf f832 223d 9a05 96bd 68e2 71c0
000001e0: 5c8a 4fc0 cfa6 c8bd e988 d1bc 0f7c 39bf
000001f0: 301a 8dbd 4c6e 6fbd 59a7 16c0 8d47 29c0
00000200: 3204 3ec0 a978 833f b1d9 833c 3383 2abd
00000210: b79d 21c0 c990 c2bb 5079 10bd 8bea 21bd
00000220: 1335 cc3c 69f4 e8bd 1aaf 813f 3783 43bf
00000230: 883a ffbe 150e 80c0 7d78 753f 512b a0bc
00000240: c56d 0dbd cd79 0640 58c3 acbd a005 09bd
00000250: 773f debb e27c bd3f 1e3a c23d 9633 ff3f
00000260: b2e7 54bf d788 e3bd 9581 a3bf e2d7 c3c0
00000270: b1fe 7fbf f736 7f40 7862 f8c0 bda9 a2be
00000280: d6e4 c33e 9c88 0ec0 0f9d 25c0 949b f2be
00000290: 6f99 4f3e 57b6 ccc1 ba1a 75c0 42f6 803e
000002a0: 6061 9fc0 8ab8 653f d225 dabe d291 d3be
000002b0: 230b ccc0 6d32 2b3e 3edf a5bf 0bb4 2e40
000002c0: 63e7 83be e2d0 a53f 8f30 1fc1 bc6b 5840
000002d0: 0f2a a7bf 12c3 4fc0 562d f93d f106 6e40
000002e0: 5994 d9be 3357 843f 5b5f 71c0 5238 3fbf
000002f0: 2509 4c3f 5758 4540 37ca 62c0 3ba5 8a3f
00000300: 394a 18bf 2880 0140 0d18 25bf f341 92c0
00000310: 1929 923f a79e b0c0 d583 82c0 04d8 763f
00000320: 577a 8e40 cfab e83f c8da 463f de15 06bf
00000330: 2e96 d23f e009 dcbf fe71 80c0 9783 4f40
00000340: cd75 24bd 523e f9be 628b 983f bb39 313e
00000350: f182 e8bf 7a35 963f fa7e 0bbd 76ff 9cc0
00000360: 3172 1cc0 e3cf 45c1 5d20 6fc0 7142 b6bf
00000370: 0469 debf 8d67 afbf 7d45 5a3f 2f82 37bf
00000380: 01c8 f0be f763 97bf 5c97 5ac0 aa50 eec0
00000390: ed5c c43e b250 d5be f187 28c0 3d9d 803f
000003a0: 8507 5440 57f7 ebbf 12ab 01c1 4d31 11c1
000003b0: 06f8 5ec0 c6d7 c5bf 4af5 d0be ec5d 5b40
000003c0: 5df0 05c0 4bf5 1f3f 9de6 4fc0 0115 4d3f
000003d0: d821 d6bc c40e 933e 7260 c0bd 0772 56c0
000003e0: 2b35 abbe 636e 6b3f 25cb ccbf 44e5 a23e
000003f0: 5f7b ea3e 5e92 1dc0 be18 643f 99b2 bcbf

layer2.bias f4 [100]
-1.2851737 -8.354399 -0.14230771 -3.3156903 -0.051094443 -2.1612694 -0.14186041 -0.18509308
-1.237848 1.2619469 -1.2841556 3.9500077 2.111827 -1.6132724 -2.2415602 -0.80423766
-0.24397427 -1.9418309 -0.3091827 -0.15487777 -0.11750685 -1.1867051 -0.34776506 0.21387301
-1.8629947 -0.2085959 -0.122313954 -2.763945 0.931594 -0.058689024 -1.6393687 -0.09041588
-4.537892 1.1644775 3.6779711 0.4221326 -1.2724777 1.9542072 -3.112943 0.021037046
1.7826865 -5.8695474 -4.5520463 -3.569522 4.0315833 -9.677321 -0.10046067 -0.13421331
-2.203315 -0.14759138 -1.818101 0.45819825 -8.979495 -0.12953584 -0.72794735 4.7858257
-0.087895684 -1.4336255 -0.0012397455 -0.12838489 0.26229516 -7.2644 -0.09978916 -0.5328972
-10.076133 -5.4654665 0.174424 1.6670687 -0.07900238 -2.6314476 -1.1632981 -2.2557592
0.7006039 3.1601858 -0.98717785 3.6874013 -0.9090304 -4.9687386 -0.30370563 2.1134398
6.434969 0.36303452 -0.027412057 -0.07220443 0.5689561 -0.92192245 -3.2155483 2.3588243
-0.6655329 -3.495528 -1.8247294 0.16149051 -5.3672633 -0.26622683 -2.0641184 -0.08152621
-1.8418772 -0.049654923 0.7240562 -0.60872304
00000000: 9280 a4bf 9eab 05c1 1db9 11be 4534 54c0
00000010: 6848 51bd 3d52 0ac0 db43 11be 0a89 3dbe
00000020: ce71 9ebf 7a87 a13f 365f a4bf edcc 7c40
00000030: 2c28 0740 b67f cebf b975 0fc0 85e2 4dbf
00000040: 64d4 79be ea8d f8bf 324d 9ebe 4798 1ebe
00000050: 6ea7 f0bd f4e5 97bf 430e b2be 8701 5b3e
00000060: 9c76 eebf 2a9a 55be bd7f fabd 7ae4 30c0
00000070: f27c 6e3f e763 70bd d5d6 d1bf f62b b9bd
00000080: 6936 91c0 990d 953f e163 6b40 c421 d83e
00000090: 8de0 a2bf 7623 fa3f 753a 47c0 e255 ac3c
000000a0: 122f e43f 55d3 bbc0 5daa 91c0 0c73 64c0
000000b0: bb02 8140 4fd6 1ac1 53be cdbd 376f 09be
000000c0: 1d03 0dc0 3222 17be 89b7 e8bf f698 ea3e
000000d0: 03ac 0fc1 0ba5 04be c25a 3abf 7c25 9940
000000e0: a702 b4bd 0a81 b7bf f57e a2ba 5477 03be
000000f0: 8d4b 863e f775 e8c0 425e ccbd f36b 08bf
00000100: d737 21c1 1ae5 aec0 349c 323e 8262 d53f
00000110: 00cc a1bd a369 28c0 f4e6 94bf 5c5e 10c0
00000120: c75a 333f 7c40 4a40 b0b7 7cbf 62fe 6b40
00000130: 37b6 68bf e8ff 9ec0 4e7f 9bbe 9942 0740
00000140: 44eb cd40 a9df b93e 408f e0bc ebdf 93bd
00000150: 1ba7 113f 1c03 6cbf 8bcb 4dc0 faf6 1640
00000160: 5d60 2abf bbb6 5fc0 bc90 e9bf c55d 253e
00000170: 9fc0 abc0 e24e 88be 841a 04c0 37f7 a6bd
00000180: a2c2 ebbf f662 4bbd bf5b 393f 46d5 1bbf

layer3.weight f4 [3, 100]
7.3436923 6.9212317 0.03327932 6.5241117 -0.05276366 -5.182745 -0.042988263 -1.2944844
7.7307415 -6.0676036 2.6731746 -6.742809 14.892608 -12.5984 9.721933 -10.559163
-24.493654 10.053832 -3.3812861 -0.080454156 0.058231674 7.264743 -9.19641 -5.063197
-20.377356 -0.011000785 0.029759716 -24.343483 -4.9019566 0.012125125 2.6619155 0.026497897
7.032121 7.682024 -11.815811 -6.0845337 12.589891 3.1065876 6.331522 -8.407986
7.074859 0.2053102 8.102626 11.119007 -5.7806134 9.621129 0.1114003 -0.0012495933
13.384323 -0.04024854 -5.9272223 14.892524 6.172888 -0.03525176 -2.962783 -4.7160745
-0.061826434 13.873362 -9.457514 -0.0067173233 -4.23797 4.904085 -0.0306051 -5.959935
3.8633394 14.214158 -3.6973248 10.85788 0.025841132 -17.411983 -3.376549 -29.991104
-8.22389 -4.096583 -0.8741633 -13.624688 -3.3002684 4.87041 -4.5897813 -8.713841
16.40291 -4.1534104 0.026307402 0.059683394 9.611166 14.154295 5.6480002 -11.341937
5.7885175 7.539618 48.85225 -5.5499744 13.29287 -4.0463796 3.1691024 -0.03812013
5.695698 0.0415739 -5.5680194 -3.8336236 7.539413 8.654194 0.021778855 5.872296
-0.015436472 -5.9120946 -0.08445883 -1.3562795 7.6509266 -5.97227 2.4704804 -6.687779
15.760991 -13.690628 9.619333 -9.270328 -23.023516 9.9063225 -3.7924638 0.048883427
-0.0042731203 7.040483 -9.08884 -5.2237425 -20.601229 0.02324138 -0.014828278 -23.718271
-4.804073 -0.021461567 2.0377388 0.021366922 6.4861617 7.6642528 -12.812912 -5.883756
11.673789 3.0608566 6.952174 -12.131205 6.940969 0.18340126 8.452847 10.1878
-5.699543 10.470765 0.015428834 -0.009893347 15.0971985 0.029377807 -4.719558 16.64706
6.1806197 -0.045026325 -2.9218879 -4.8964524 0.00734843 14.805278 -7.353769 -0.056153692
-4.6055245 4.8173428 -0.023694709 -6.268995 3.8425643 13.757421 -3.3106856 10.405515
-0.058928445 -16.93179 -3.2695496 -29.921556 -6.9031014 -4.0090146 -0.76042134 -14.546657
-3.8223538 4.7721167 -5.449515 -8.679804 16.350918 -4.1331377 -0.0564167 -0.004499461
9.558804 13.389873 5.906423 -10.464311 5.755176 7.469574 48.66279 -5.9503965
13.373017 -4.323407 3.984935 0.03139309 5.1036334 -0.025968302 -6.0991216 -5.243326
7.536935 7.8277335 0.051863976 5.6170397 0.029134424 -4.9167585 0.017200898 -1.5485493
7.476047 -7.1038446 3.031016 -6.829103 15.651675 -12.51929 10.070576 -9.072314
-24.890318 10.481445 -3.4261756 0.020809097 -0.040600087 7.0871625 -8.298268 -4.7705016
-20.508413 0.03146747 0.032463294 -24.363937 -4.798526 -0.03537745 2.2442935 0.017904544
6.6188893 7.850307 -11.874738 -7.402027 12.041233 2.9379752 6.7551947 -8.1629715
7.0436873 0.19931853 7.509045 10.709209 -5.816896 10.302581 -0.06107501 -0.026999235
14.42116 -0.005404268 -4.9320235 15.797617 6.2372537 0.012028501 -4.4699006 -4.829829
00000000: 87ff ea40 bb7a dd40 e54f 083d 86c5 d040
00000010: b51e 58bd 0cd9 a5c0 7614 30bd aab1 a5bf
00000020: 3c62 f740 cf29 c2c0 4b15 2b40 17c5 d7c0
00000030: 1f48 6e41 0c93 49c1 0a8d 1b41 55f2 28c1
00000040: 01f3 c3c1 7fdc 2041 fe66 58c0 26c5 a4bd
00000050: 5684 6e3d c678 e840 7f24 13c1 b605 a2c0
00000060: d304 a3c1 a33c 34bc a6ca f33c 74bf c2c1
00000070: d4dc 9cc0 76a8 463c d35c 2a40 1e12 d93c
00000080: 2307 e140 24d3 f540 900d 3dc1 80b4 c2c0
00000090: 3270 4941 55d2 4640 d49b ca40 1c87 06c1
000000a0: 3f65 e240 d63c 523e 5ba4 0141 74e7 3141
000000b0: c9fa b8c0 25f0 1941 d725 e43d 65c9 a3ba
000000c0: 3026 5641 a7db 24bd ceab bdc0 c747 6e41
000000d0: 4c88 c540 2664 10bd 3d9e 3dc0 15ea 96c0
000000e0: b73d 7dbd 4af9 5d41 fa51 17c1 fe1c dcbb
000000f0: 739d 87c0 44ee 9c40 8cb7 fabc cab7 bec0
00000100: f440 7740 316d 6341 f8a0 6cc0 e0b9 2d41
00000110: c8b0 d33c be4b 8bc1 6119 58c0 c8ed efc1
00000120: 0e95 03c1 3517 83c0 2bc9 5fbf b9fe 59c1
00000130: 9937 53c0 66da 9b40 7ddf 92c0 e56b 0bc1
00000140: 2939 8341 bde8 84c0 9f82 d73c 9376 743d
00000150: 56c7 1941 fe77 6241 6bbc b440 9378 35c1
00000160: 893b b940 8d44 f140 b468 4342 6499 b1c0
00000170: 98af 5441 f17b 81c0 93d2 4a40 da23 1cbd
00000180: 2843 b640 6549 2a3d 372d b2c0 175a 75c0
00000190: df42 f140 9477 0a41 9269 b23c d9e9 bb40
000001a0: 42e9 7cbc e12f bdc0 c0f8 acbd 919a adbf
000001b0: 64d4 f440 d61c bfc0 5a1c 1e40 4902 d6c0
000001c0: 052d 7c41 d00c 5bc1 cae8 1941 4353 14c1
000001d0: 2930 b8c1 4c80 1e41 bab7 72c0 fd39 483d
000001e0: 8805 8cbb a34b e140 e36b 11c1 e628 a7c0
000001f0: 51cf a4c1 b564 be3c 4ef2 72bc 05bf bdc1
00000200: f7ba 99c0 2bd0 afbc 506a 0240 af09 af3c
00000210: a38e cf40 8f41 f540 b001 4dc1 bb47 bcc0
00000220: d7c7 3a41 13e5 4340 3678 de40 6a19 42c1
00000230: 6b1c de40 8acd 3b3e dc3e 0741 3b01 2341
00000240: a862 b6c0 4188 2741 38c9 7c3c b417 22bc
00000250: 208e 7141 baa9 f03c 9e06 97c0 2e2d 8541
00000260: a3c7 c540 866d 38bd 3600 3bc0 bdaf 9cc0
00000270: 19cb f03b 6be2 6c41 1352 ebc0 6a01 66bd
00000280: 7560 93c0 ac27 9a40 681b c2bc 9b9b c8c0
00000290: 93ec 7540 651e 5c41 46e2 53c0 fd7c 2641
000002a0: f45e 71bd 4e74 87c1 4d40 51c0 595f efc1
000002b0: 35e6 dcc0 d949 80c0 f9aa 42bf 1bbf 68c1
000002c0: 72a1 74c0 2eb5 9840 6d62 aec0 7ae0 0ac1
000002d0: aece 8241 aa42 84c0 3315 67bd 3770 93bb
000002e0: dcf0 1841 eb3c 5641 6b01 bd40 d16d 27c1
000002f0: 672a b840 c006 ef40 b2a6 4242 a669 bec0
00000300: e1f7 5541 5a59 8ac0 2d09 7f40 0a96 003d
00000310: f750 a340 7abb d4bc 012c c3c0 54c9 a7c0
00000320: 922e f140 cb7c fa40 526f 543d cabe b340
00000330: 51ab ee3c 1656 9dc0 e6e8 8c3c dd36 c6bf
00000340: c73b ef40 b252 e3c0 2bfc 4140 0388 dac0
00000350: 436d 7a41 034f 48c1 1421 2141 3328 11c1
00000360: 5f1f c7c1 00b4 2741 7646 5bc0 d777 aa3c
00000370: 474c 26bd 09ca e240 b5c5 04c1 f3a7 98c0
00000380: 3b11 a4c1 09e4 003d 3bf8 043d 58e9 c2c1
00000390: 868d 99c0 f2e7 10bd 81a2 0f40 8dac 923c
000003a0: f1cd d340 b735 fb40 edfe 3dc1 68dd ecc0
000003b0: e4a8 4041 c907 3c40 8e2a d840 889b 02c1
000003c0: e365 e140 281a 4c3e 194a f040 ec58 2b41
000003d0: 0324 bac0 5fd7 2441 ca29 7abd 802d ddbc
000003e0: 12bd 6641 4916 b1bb 23d3 9dc0 0ac3 7c41
000003f0: 9597 c740 3113 453c 6d09 8fc0 f68d 9ac0

layer3.bias f4 [3]
-6.898787 -5.8916 -7.1770134
00000000: ddc2 dcc0 fd87 bcc0 18aa e5c0

exp_avg f4 [150, 20]
6e-45 6e-45 6e-45 6e-45 6e-45 6e-45 6e-45 6e-45
-6e-45 -6e-45 -6e-45 -6e-45 6e-45 -6e-45 6e-45 -6e-45
6e-45 6e-45 6e-45 6e-45 6e-45 6e-45 6e-45 6e-45
6e-45 -6e-45 6e-45 -6e-45 6e-45 -6e-45 6e-45 -6e-45
6e-45 6e-45 6e-45 6e-45 6e-45 6e-45 6e-45 -6e-45
6e-45 6e-45 6e-45 6e-45 6e-45 6e-45 6e-45 6e-45
6e-45 6e-45 6e-45 6e-45 6e-45 6e-45 6e-45 6e-45
6e-45 6e-45 6e-45 6e-45 0.07464099 -0.15200731 2.511281 -0.8162964
-0.06475847 -0.05305025 -1.5385343 -0.75655735 0.0048928903 -0.033204343 1.6463048 -0.13095094
0.019609246 -0.05121339 0.41032898 -0.6608169 6.463403 5.9288526 4.3530483 0.07506482
6e-45 6e-45 6e-45 6e-45 6e-45 -6e-45 6e-45 -6e-45
-6e-45 -6e-45 -6e-45 -6e-45 6e-45 6e-45 6e-45 6e-45
-6e-45 6e-45 -6e-45 6e-45 -0.4007636 -0.25736454 -19.171162 -4.4496512
-0.80223024 -0.20212011 -14.8078375 -5.765586 -0.47670296 -0.15624996 -10.257196 -12.662965
-0.23823501 0.7008553 -3.2793164 1.202872 2.3475137 14.661369 -19.108957 -25.421858
6e-45 6e-45 6e-45 6e-45 6e-45 6e-45 6e-45 6e-45
6e-45 6e-45 6e-45 6e-45 6e-45 -6e-45 6e-45 -6e-45
6e-45 6e-45 6e-45 -6e-45 6e-45 6e-45 6e-45 6e-45
-6e-45 6e-45 -6e-45 6e-45 6e-45 -6e-45 6e-45 -6e-45
-6e-45 6e-45 -6e-45 6e-45 6e-45 6e-45 6e-45 6e-45
6e-45 -6e-45 6e-45 -6e-45 -6e-45 -6e-45 6e-45 -6e-45
6e-45 -6e-45 6e-45 -6e-45 6e-45 6e-45 6e-45 6e-45
6e-45 -6e-45 6e-45 -6e-45 -4.712031 -5.0000706 -9.216296 -6.110379
-0.57961756 -0.49732867 -10.228968 -13.411846 -1.370933 -0.9028867 -15.528077 -17.049248
-1.3093431 0.1829838 -33.70007 -3.2229266 -73.45516 -5.4119024 -13.910902 -64.42213
6e-45 6e-45 6e-45 6e-45 6e-45 6e-45 6e-45 6e-45
-6e-45 6e-45 -6e-45 6e-45 6e-45 6e-45 6e-45 6e-45
6e-45 6e-45 6e-45 6e-45 0.03408281 0.016586324 0.50391495 0.003960442
0.014584032 0.084929556 -0.09844931 0.29119647 0.013468944 0.017390415 0.21036199 0.8307319
0.009227814 0.0017643853 0.2176831 0.10857749 1.7457007 0.24207696 0.009393389 0.042836353
6e-45 6e-45 6e-45 6e-45 6e-45 6e-45 6e-45 6e-45
6e-45 6e-45 6e-45 6e-45 6e-45 6e-45 6e-45 6e-45
00000000: 0400 0000 0400 0000 0400 0000 0400 0000
00000010: 0400 0000 0400 0000 0400 0000 0400 0000
00000020: 0400 0080 0400 0080 0400 0080 0400 0080
00000030: 0400 0000 0400 0080 0400 0000 0400 0080
00000040: 0400 0000 0400 0000 0400 0000 0400 0000
00000050: 0400 0000 0400 0000 0400 0000 0400 0000
00000060: 0400 0000 0400 0080 0400 0000 0400 0080
00000070: 0400 0000 0400 0080 0400 0000 0400 0080
00000080: 0400 0000 0400 0000 0400 0000 0400 0000
00000090: 0400 0000 0400 0000 0400 0000 0400 0080
000000a0: 0400 0000 0400 0000 0400 0000 0400 0000
000000b0: 0400 0000 0400 0000 0400 0000 0400 0000
000000c0: 0400 0000 0400 0000 0400 0000 0400 0000
000000d0: 0400 0000 0400 0000 0400 0000 0400 0000
000000e0: 0400 0000 0400 0000 0400 0000 0400 0000
000000f0: 60dd 983d cea7 1bbe d4b8 2040 cdf8 50bf
00000100: 17a0 84bd 384b 59bd b1ee c4bf bead 41bf
00000110: 8a54 a03b 4701 08bd 1eba d23f 0118 06be
00000120: 92a3 a03c 22c5 51bd a416 d23e 4c2b 29bf
00000130: 33d4 ce40 29b9 bd40 2c4c 8b40 96bb 993d
00000140: 0400 0000 0400 0000 0400 0000 0400 0000
00000150: 0400 0000 0400 0080 0400 0000 0400 0080
00000160: 0400 0080 0400 0080 0400 0080 0400 0080
00000170: 0400 0000 0400 0000 0400 0000 0400 0000
00000180: 0400 0080 0400 0000 0400 0080 0400 0000
00000190: e330 cdbe 49c5 83be 8a5e 99c1 8b63 8ec0
000001a0: f65e 4dbf 93f8 4ebe e7ec 6cc1 ae7f b8c0
000001b0: 6912 f4be fdff 1fbe 7a1d 24c1 819b 4ac1
000001c0: e1f3 73be 416b 333f 52e0 51c0 b6f7 993f
000001d0: aa3d 1640 f894 6a41 25df 98c1 f75f cbc1
000001e0: 0400 0000 0400 0000 0400 0000 0400 0000
000001f0: 0400 0000 0400 0000 0400 0000 0400 0000
00000200: 0400 0000 0400 0000 0400 0000 0400 0000
00000210: 0400 0000 0400 0080 0400 0000 0400 0080
00000220: 0400 0000 0400 0000 0400 0000 0400 0080
00000230: 0400 0000 0400 0000 0400 0000 0400 0000
00000240: 0400 0080 0400 0000 0400 0080 0400 0000
00000250: 0400 0000 0400 0080 0400 0000 0400 0080
00000260: 0400 0080 0400 0000 0400 0080 0400 0000
00000270: 0400 0000 0400 0000 0400 0000 0400 0000
00000280: 0400 0000 0400 0080 0400 0000 0400 0080
00000290: 0400 0080 0400 0080 0400 0000 0400 0080
000002a0: 0400 0000 0400 0080 0400 0000 0400 0080
000002b0: 0400 0000 0400 0000 0400 0000 0400 0000
000002c0: 0400 0000 0400 0080 0400 0000 0400 0080
000002d0: f5c8 96c0 9400 a0c0 f375 13c1 3a88 c3c0
000002e0: d161 14bf dda1 febe daa9 23c1 ec96 56c1
000002f0: bc7a afbf 9523 67bf 0173 78c1 dc64 88c1
00000300: 8e98 a7bf 1b60 3b3e dfcc 06c2 6e44 4ec0
00000310: 0be9 92c2 4e2e adc0 0e93 5ec1 21d8 80c2
00000320: 0400 0000 0400 0000 0400 0000 0400 0000
00000330: 0400 0000 0400 0000 0400 0000 0400 0000
00000340: 0400 0080 0400 0000 0400 0080 0400 0000
00000350: 0400 0000 0400 0000 0400 0000 0400 0000
00000360: 0400 0000 0400 0000 0400 0000 0400 0000
00000370: 6b9a 0b3d 0be0 873c 9200 013f 98c6 813b
00000380: ddf1 6e3c 8cef ad3d cb9f c9bd b417 953e
00000390: d8ac 5c3c 5876 8e3c 2269 573e d9aa 543f
000003a0: 4230 173c f242 e73a 52e8 5e3e e05d de3d
000003b0: 1f73 df3f 06e3 773e bbe6 193c 2c75 2f3d
000003c0: 0400 0000 0400 0000 0400 0000 0400 0000
000003d0: 0400 0000 0400 0000 0400 0000 0400 0000
000003e0: 0400 0000 0400 0000 0400 0000 0400 0000
000003f0: 0400 0000 0400 0000 0400 0000 0400 0000

exp_avg_sq f4 [150, 20]
7e-43 7e-43 7e-43 7e-43 7e-43 7e-43 7e-43 7e-43
7e-43 7e-43 7e-43 7e-43 7e-43 7e-43 7e-43 7e-43
7e-43 7e-43 7e-43 7e-43 7e-43 7e-43 7e-43 7e-43
7e-43 7e-43 7e-43 7e-43 7e-43 7e-43 7e-43 7e-43
7e-43 7e-43 7e-43 7e-43 7e-43 7e-43 7e-43 7e-43
7e-43 7e-43 7e-43 7e-43 7e-43 7e-43 7e-43 7e-43
7e-43 7e-43 7e-43 7e-43 7e-43 7e-43 7e-43 7e-43
7e-43 7e-43 7e-43 7e-43 16.225119 1.6551679 2005.4366 354.22205
0.57724506 0.10267184 221.86662 38.16901 0.53488404 0.18807252 159.76813 110.74673
1.2809013 1.0674989 326.2761 199.98883 28893.668 21861.326 28770.645 0.56076115
7e-43 7e-43 7e-43 7e-43 7e-43 7e-43 7e-43 7e-43
7e-43 7e-43 7e-43 7e-43 7e-43 7e-43 7e-43 7e-43
7e-43 7e-43 7e-43 7e-43 11.642253 6.509338 1547.2465 966.63763
2.3180516 1.5066904 671.5542 439.0683 2.7502236 2.666389 1031.5127 1406.1901
3.0551753 3.5578158 1462.5482 1518.0471 10551.263 7551.4 13904.418 15497.968
7e-43 7e-43 7e-43 7e-43 7e-43 7e-43 7e-43 7e-43
7e-43 7e-43 7e-43 7e-43 7e-43 7e-43 7e-43 7e-43
7e-43 7e-43 7e-43 7e-43 7e-43 7e-43 7e-43 7e-43
7e-43 7e-43 7e-43 7e-43 7e-43 7e-43 7e-43 7e-43
7e-43 7e-43 7e-43 7e-43 7e-43 7e-43 7e-43 7e-43
7e-43 7e-43 7e-43 7e-43 7e-43 7e-43 7e-43 7e-43
7e-43 7e-43 7e-43 7e-43 7e-43 7e-43 7e-43 7e-43
7e-43 7e-43 7e-43 7e-43 42.712055 42.07629 1659.4993 923.1546
7.7881455 4.193464 1251.5128 877.7149 4.141443 2.61045 781.97943 1273.1317
4.019107 3.4037428 1901.8431 1098.8097 24549.799 10818.467 10196.831 17436.428
7e-43 7e-43 7e-43 7e-43 7e-43 7e-43 7e-43 7e-43
7e-43 7e-43 7e-43 7e-43 7e-43 7e-43 7e-43 7e-43
7e-43 7e-43 7e-43 7e-43 0.1080059 0.03183165 9.20582 2.6099474
0.008718409 0.008709077 2.5923579 1.8149865 0.009478949 0.0051409495 3.8595393 1.7188854
0.011999352 0.009496467 4.542675 4.8568645 57.21118 57.09954 0.0034055738 7.650532
7e-43 7e-43 7e-43 7e-43 7e-43 7e-43 7e-43 7e-43
7e-43 7e-43 7e-43 7e-43 7e-43 7e-43 7e-43 7e-43
00000000: f401 0000 f401 0000 f401 0000 f401 0000
00000010: f401 0000 f401 0000 f401 0000 f401 0000
00000020: f401 0000 f401 0000 f401 0000 f401 0000
00000030: f401 0000 f401 0000 f401 0000 f401 0000
00000040: f401 0000 f401 0000 f401 0000 f401 0000
00000050: f401 0000 f401 0000 f401 0000 f401 0000
00000060: f401 0000 f401 0000 f401 0000 f401 0000
00000070: f401 0000 f401 0000 f401 0000 f401 0000
00000080: f401 0000 f401 0000 f401 0000 f401 0000
00000090: f401 0000 f401 0000 f401 0000 f401 0000
000000a0: f401 0000 f401 0000 f401 0000 f401 0000
000000b0: f401 0000 f401 0000 f401 0000 f401 0000
000000c0: f401 0000 f401 0000 f401 0000 f401 0000
000000d0: f401 0000 f401 0000 f401 0000 f401 0000
000000e0: f401 0000 f401 0000 f401 0000 f401 0000
000000f0: 0bcd 8141 8bdc d33f f9ad fa44 6c1c b143
00000100: 55c6 133f 9d45 d23d dbdd 5d43 11ad 1842
00000110: 29ee 083f 1596 403e a4c4 1f43 537e dd42
00000120: 93f4 a33f cea3 883f 5723 a343 24fd 4743
00000130: 56bb e146 a7ca aa46 4ac5 e046 0b8e 0f3f
00000140: f401 0000 f401 0000 f401 0000 f401 0000
00000150: f401 0000 f401 0000 f401 0000 f401 0000
00000160: f401 0000 f401 0000 f401 0000 f401 0000
00000170: f401 0000 f401 0000 f401 0000 f401 0000
00000180: f401 0000 f401 0000 f401 0000 f401 0000
00000190: ab46 3a41 7f4c d040 e367 c144 cfa8 7144
000001a0: f55a 1440 3bdb c03f 78e3 2744 be88 db43
000001b0: aa03 3040 1ea6 2a40 68f0 8044 15c6 af44
000001c0: fe87 4340 41b3 6340 8bd1 b644 82c1 bd44
000001d0: 0ddd 2446 33fb eb45 ac41 5946 df27 7246
000001e0: f401 0000 f401 0000 f401 0000 f401 0000
000001f0: f401 0000 f401 0000 f401 0000 f401 0000
00000200: f401 0000 f401 0000 f401 0000 f401 0000
00000210: f401 0000 f401 0000 f401 0000 f401 0000
00000220: f401 0000 f401 0000 f401 0000 f401 0000
00000230: f401 0000 f401 0000 f401 0000 f401 0000
00000240: f401 0000 f401 0000 f401 0000 f401 0000
00000250: f401 0000 f401 0000 f401 0000 f401 0000
00000260: f401 0000 f401 0000 f401 0000 f401 0000
00000270: f401 0000 f401 0000 f401 0000 f401 0000
00000280: f401 0000 f401 0000 f401 0000 f401 0000
00000290: f401 0000 f401 0000 f401 0000 f401 0000
000002a0: f401 0000 f401 0000 f401 0000 f401 0000
000002b0: f401 0000 f401 0000 f401 0000 f401 0000
000002c0: f401 0000 f401 0000 f401 0000 f401 0000
000002d0: 25d9 2a42 1f4e 2842 fa6f cf44 e5c9 6644
000002e0: 7d38 f940 db30 8640 6970 9c44 c16d 5b44
000002f0: b386 8440 9d11 2740 af7e 4344 3724 9f44
00000300: 869c 8040 ecd6 5940 fbba ed44 e959 8944
00000310: 99cb bf46 de09 2946 5353 1f46 db38 8846
00000320: f401 0000 f401 0000 f401 0000 f401 0000
00000330: f401 0000 f401 0000 f401 0000 f401 0000
00000340: f401 0000 f401 0000 f401 0000 f401 0000
00000350: f401 0000 f401 0000 f401 0000 f401 0000
00000360: f401 0000 f401 0000 f401 0000 f401 0000
00000370: 3332 dd3d e761 023d 0a4b 1341 6109 2740
00000380: a8d7 0e3c 84b0 0e3c 31e9 2540 7a51 e83f
00000390: 984d 1b3c 6975 a83b b102 7740 7004 dc3f
000003a0: ee98 443c 1297 1b3c 985d 9140 6f6b 9b40
000003b0: 40d8 6442 ee65 6442 0c30 5f3b 28d1 f440
000003c0: f401 0000 f401 0000 f401 0000 f401 0000
000003d0: f401 0000 f401 0000 f401 0000 f401 0000
000003e0: f401 0000 f401 0000 f401 0000 f401 0000
000003f0: f401 0000 f401 0000 f401 0000 f401 0000

exp_avg f4 [150]
6e-45 6e-45 6e-45 2.0048113 6e-45 -12.812016 6e-45 6e-45
6e-45 -28.480816 6e-45 0.4989723 6e-45 6e-45 6e-45 1.5146779
6e-45 6e-45 0.9668346 5.4074473 6e-45 6e-45 6e-45 6e-45
6e-45 6e-45 -8.471066 6e-45 -2.4544177 6e-45 6e-45 6e-45
6e-45 6e-45 6e-45 6e-45 0.007923598 6e-45 6e-45 6e-45
6e-45 6e-45 6e-45 -0.03193113 6e-45 -0.031410933 6e-45 -0.07209736
-0.027909772 6e-45 6e-45 6e-45 6e-45 6e-45 6e-45 6e-45
6e-45 2.1596746 0.0 6e-45 6e-45 6e-45 -3.0985785e-17 6e-45
6e-45 -0.43318412 -1.5693722 -9.685179 6e-45 6e-45 6e-45 6e-45
6e-45 6e-45 6e-45 -2.4345467 6e-45 1.3323576 6e-45 6e-45
6e-45 6e-45 3.3892894 -1.4709898 0.08199976 0.20011446 2.4902134 6e-45
6e-45 6e-45 6e-45 6e-45 -0.42655343 6e-45 6e-45 6e-45
6e-45 6e-45 6e-45 -3.818698 6e-45 6e-45 6e-45 6e-45
6e-45 6e-45 2.7432113 16.932718 6e-45 33.899124 6e-45 6e-45
6e-45 6e-45 6e-45 6e-45 6e-45 6e-45 6e-45 -0.0790552
6e-45 6e-45 6e-45 6e-45 6e-45 6e-45 6e-45 0.025506929
6e-45 6e-45 6e-45 6e-45 6e-45 6e-45 6e-45 6e-45
6e-45 6e-45 -3.7378352 6e-45 -6.627732 6e-45 6e-45 6e-45
6e-45 -0.31695908 6e-45 6e-45 6e-45 6e-45
00000000: 0400 0000 0400 0000 0400 0000 d44e 0040
00000010: 0400 0000 04fe 4cc1 0400 0000 0400 0000
00000020: 0400 0000 b6d8 e3c1 0400 0000 4c79 ff3e
00000030: 0400 0000 0400 0000 0400 0000 f7e0 c13f
00000040: 0400 0000 0400 0000 7982 773f cf09 ad40
00000050: 0400 0000 0400 0000 0400 0000 0400 0000
00000060: 0400 0000 0400 0000 7d89 07c1 0400 0000
00000070: 2e15 1dc0 0400 0000 0400 0000 0400 0000
00000080: 0400 0000 0400 0000 0400 0000 0400 0000
00000090: fbd1 013c 0400 0000 0400 0000 0400 0000
000000a0: 0400 0000 0400 0000 0400 0000 37ca 02bd
000000b0: 0400 0000 c0a8 00bd 0400 0000 c8a7 93bd
000000c0: 09a3 e4bc 0400 0000 0400 0000 0400 0000
000000d0: 0400 0000 0400 0000 0400 0000 0400 0000
000000e0: 0400 0000 1c38 0a40 0000 0000 0400 0000
000000f0: 0400 0000 0400 0000 8fe5 0ea4 0400 0000
00000100: 0400 0000 4fca ddbe 30e1 c8bf 7ef6 1ac1
00000110: 0400 0000 0400 0000 0400 0000 0400 0000
00000120: 0400 0000 0400 0000 0400 0000 9dcf 1bc0
00000130: 0400 0000 b28a aa3f 0400 0000 0400 0000
00000140: 0400 0000 0400 0000 1eea 5840 6549 bcbf
00000150: 7def a73d ceea 4c3e a85f 1f40 0400 0000
00000160: 0400 0000 0400 0000 0400 0000 0400 0000
00000170: 3665 dabe 0400 0000 0400 0000 0400 0000
00000180: 0400 0000 0400 0000 0400 0000 8c65 74c0
00000190: 0400 0000 0400 0000 0400 0000 0400 0000
000001a0: 0400 0000 0400 0000 c690 2f40 3576 8741
000001b0: 0400 0000 b498 0742 0400 0000 0400 0000
000001c0: 0400 0000 0400 0000 0400 0000 0400 0000
000001d0: 0400 0000 0400 0000 0400 0000 b1e7 a1bd
000001e0: 0400 0000 0400 0000 0400 0000 0400 0000
000001f0: 0400 0000 0400 0000 0400 0000 e8f3 d03c
00000200: 0400 0000 0400 0000 0400 0000 0400 0000
00000210: 0400 0000 0400 0000 0400 0000 0400 0000
00000220: 0400 0000 0400 0000 b138 6fc0 0400 0000
00000230: 6116 d4c0 0400 0000 0400 0000 0400 0000
00000240: 0400 0000 7648 a2be 0400 0000 0400 0000
00000250: 0400 0000 0400 0000

exp_avg_sq f4 [150]
7e-43 7e-43 7e-43 3538.273 7e-43 3956.008 7e-43 7e-43
7e-43 5509.588 7e-43 18.554941 7e-43 7e-43 7e-43 389325.16
7e-43 7e-43 572.3308 14874.362 7e-43 7e-43 9.591372e-13 7e-43
7e-43 7e-43 24575.424 7e-43 586.31793 7e-43 7e-43 7e-43
7e-43 7e-43 7e-43 7e-43 0.075981416 7e-43 7e-43 7e-43
7e-43 7e-43 7e-43 0.44761598 7e-43 2.0725825 7e-43 0.46112794
21.519968 7e-43 7e-43 7e-43 7e-43 7e-43 7e-43 7e-43
7e-43 203.73029 0.0 7e-43 7e-43 7e-43 0.0021541019 7e-43
7e-43 79.39282 428.64346 9141.135 7e-43 7e-43 7e-43 7e-43
7e-43 7e-43 7e-43 48.659863 7e-43 12645.42 7e-43 7e-43
7e-43 7e-43 24518.674 750.4406 2121.8723 0.46912837 196.82224 7e-43
7e-43 7e-43 7e-43 7e-43 163.06952 7e-43 7e-43 7e-43
7e-43 7e-43 7e-43 22918.688 7e-43 7e-43 7e-43 7e-43
7e-43 7e-43 2641.9067 16658.752 7e-43 722788.44 7e-43 7e-43
7e-43 7e-43 7e-43 7e-43 7e-43 7e-43 7e-43 18.772638
7e-43 7e-43 7e-43 7e-43 7e-43 7e-43 7e-43 0.6644314
7e-43 7e-43 7e-43 7e-43 7e-43 7e-43 7e-43 7e-43
7e-43 7e-43 2217.5151 7e-43 911.51184 7e-43 7e-43 7e-43
7e-43 75.96552 7e-43 7e-43 7e-43 7e-43
00000000: f401 0000 f401 0000 f401 0000 5e24 5d45
00000010: f401 0000 2140 7745 f401 0000 f401 0000
00000020: f401 0000 b42c ac45 f401 0000 8570 9441
00000030: f401 0000 f401 0000 f401 0000 a519 be48
00000040: f401 0000 f401 0000 2c15 0f44 7369 6846
00000050: f401 0000 f401 0000 8ffc 862b f401 0000
00000060: f401 0000 f401 0000 d9fe bf46 f401 0000
00000070: 5994 1244 f401 0000 f401 0000 f401 0000
00000080: f401 0000 f401 0000 f401 0000 f401 0000
00000090: 259c 9b3d f401 0000 f401 0000 f401 0000
000000a0: f401 0000 f401 0000 f401 0000 ec2d e53e
000000b0: f401 0000 31a5 0440 f401 0000 f618 ec3e
000000c0: e528 ac41 f401 0000 f401 0000 f401 0000
000000d0: f401 0000 f401 0000 f401 0000 f401 0000
000000e0: f401 0000 f4ba 4b43 0000 0000 f401 0000
000000f0: f401 0000 f401 0000 d52b 0d3b f401 0000
00000100: f401 0000 20c9 9e42 5d52 d643 8ad4 0e46
00000110: f401 0000 f401 0000 f401 0000 f401 0000
00000120: f401 0000 f401 0000 f401 0000 b3a3 4242
00000130: f401 0000 ae95 4546 f401 0000 f401 0000
00000140: f401 0000 f401 0000 598d bf46 339c 3b44
00000150: f59d 0445 9831 f03e 7ed2 4443 f401 0000
00000160: f401 0000 f401 0000 f401 0000 f401 0000
00000170: cc11 2343 f401 0000 f401 0000 f401 0000
00000180: f401 0000 f401 0000 f401 0000 600d b346
00000190: f401 0000 f401 0000 f401 0000 f401 0000
000001a0: f401 0000 f401 0000 821e 2545 8125 8246
000001b0: f401 0000 4776 3049 f401 0000 f401 0000
000001c0: f401 0000 f401 0000 f401 0000 f401 0000
000001d0: f401 0000 f401 0000 f401 0000 5d2e 9641
000001e0: f401 0000 f401 0000 f401 0000 f401 0000
000001f0: f401 0000 f401 0000 f401 0000 2d18 2a3f
00000200: f401 0000 f401 0000 f401 0000 f401 0000
00000210: f401 0000 f401 0000 f401 0000 f401 0000
00000220: f401 0000 f401 0000 3e98 0a45 f401 0000
00000230: c2e0 6344 f401 0000 f401 0000 f401 0000
00000240: f401 0000 59ee 9742 f401 0000 f401 0000
00000250: f401 0000 f401 0000

exp_avg f4 [100, 150]
6e-45 6e-45 6e-45 6e-45 6e-45 6e-45 -6e-45 -6e-45
-6e-45 6e-45 6e-45 6e-45 6e-45 -6e-45 6e-45 6e-45
6e-45 6e-45 6e-45 6e-45 6e-45 6e-45 -6e-45 6e-45
6e-45 6e-45 -6e-45 6e-45 -6e-45 -6e-45 -6e-45 6e-45
-6e-45 -6e-45 6e-45 6e-45 -6e-45 6e-45 6e-45 6e-45
-6e-45 6e-45 6e-45 6e-45 6e-45 6e-45 6e-45 -6e-45
6e-45 6e-45 -6e-45 -6e-45 6e-45 6e-45 0.0 6e-45
-6e-45 6e-45 0.0 6e-45 6e-45 -6e-45 6e-45 6e-45
0.0 6e-45 6e-45 -6e-45 6e-45 6e-45 6e-45 6e-45
-6e-45 6e-45 0.0 6e-45 6e-45 6e-45 6e-45 6e-45
-6e-45 6e-45 6e-45 6e-45 6e-45 6e-45 6e-45 6e-45
6e-45 6e-45 6e-45 -6e-45 6e-45 6e-45 6e-45 6e-45
6e-45 -6e-45 6e-45 -6e-45 6e-45 6e-45 6e-45 6e-45
-6e-45 6e-45 -6e-45 6e-45 6e-45 6e-45 -6e-45 6e-45
6e-45 -6e-45 6e-45 -6e-45 6e-45 6e-45 0.0 -6e-45
-6e-45 6e-45 0.0 6e-45 6e-45 0.0 6e-45 6e-45
6e-45 6e-45 6e-45 6e-45 6e-45 6e-45 6e-45 6e-45
6e-45 -6e-45 6e-45 6e-45 -6e-45 6e-45 6e-45 6e-45
6e-45 6e-45 6e-45 6e-45 -6e-45 6e-45 -6e-45 6e-45
-6e-45 -6e-45 -6e-45 -6e-45 -6e-45 6e-45 6e-45 6e-45
-6e-45 -6e-45 -6e-45 6e-45 6e-45 6e-45 -6e-45 6e-45
-6e-45 6e-45 6e-45 6e-45 -6e-45 -6e-45 -6e-45 6e-45
6e-45 6e-45 6e-45 6e-45 -6e-45 -6e-45 -6e-45 -6e-45
-6e-45 -6e-45 6e-45 -6e-45 6e-45 6e-45 6e-45 -6e-45
-6e-45 6e-45 -6e-45 -6e-45 -6e-45 -6e-45 6e-45 6e-45
6e-45 6e-45 -6e-45 -6e-45 -6e-45 -6e-45 -6e-45 6e-45
0.0 -6e-45 6e-45 -6e-45 6e-45 6e-45 -6e-45 6e-45
6e-45 6e-45 6e-45 -6e-45 -6e-45 -6e-45 -6e-45 6e-45
-6e-45 6e-45 -6e-45 -6e-45 -6e-45 -6e-45 -6e-45 -6e-45
-6e-45 6e-45 -6e-45 6e-45 6e-45 -6e-45 6e-45 6e-45
-6e-45 -6e-45 6e-45 -6e-45 -6e-45 6e-45 -6e-45 6e-45
6e-45 -6e-45 -6e-45 6e-45 6e-45 -6e-45 -6e-45 6e-45
00000000: 0400 0000 0400 0000 0400 0000 0400 0000
00000010: 0400 0000 0400 0000 0400 0080 0400 0080
00000020: 0400 0080 0400 0000 0400 0000 0400 0000
00000030: 0400 0000 0400 0080 0400 0000 0400 0000
00000040: 0400 0000 0400 0000 0400 0000 0400 0000
00000050: 0400 0000 0400 0000 0400 0080 0400 0000
00000060: 0400 0000 0400 0000 0400 0080 0400 0000
00000070: 0400 0080 0400 0080 0400 0080 0400 0000
00000080: 0400 0080 0400 0080 0400 0000 0400 0000
00000090: 0400 0080 0400 0000 0400 0000 0400 0000
000000a0: 0400 0080 0400 0000 0400 0000 0400 0000
000000b0: 0400 0000 0400 0000 0400 0000 0400 0080
000000c0: 0400 0000 0400 0000 0400 0080 0400 0080
000000d0: 0400 0000 0400 0000 0000 0000 0400 0000
000000e0: 0400 0080 0400 0000 0000 0000 0400 0000
000000f0: 0400 0000 0400 0080 0400 0000 0400 0000
00000100: 0000 0000 0400 0000 0400 0000 0400 0080
00000110: 0400 0000 0400 0000 0400 0000 0400 0000
00000120: 0400 0080 0400 0000 0000 0000 0400 0000
00000130: 0400 0000 0400 0000 0400 0000 0400 0000
00000140: 0400 0080 0400 0000 0400 0000 0400 0000
00000150: 0400 0000 0400 0000 0400 0000 0400 0000
00000160: 0400 0000 0400 0000 0400 0000 0400 0080
00000170: 0400 0000 0400 0000 0400 0000 0400 0000
00000180: 0400 0000 0400 0080 0400 0000 0400 0080
00000190: 0400 0000 0400 0000 0400 0000 0400 0000
000001a0: 0400 0080 0400 0000 0400 0080 0400 0000
000001b0: 0400 0000 0400 0000 0400 0080 0400 0000
000001c0: 0400 0000 0400 0080 0400 0000 0400 0080
000001d0: 0400 0000 0400 0000 0000 0000 0400 0080
000001e0: 0400 0080 0400 0000 0000 0000 0400 0000
000001f0: 0400 0000 0000 0000 0400 0000 0400 0000
00000200: 0400 0000 0400 0000 0400 0000 0400 0000
00000210: 0400 0000 0400 0000 0400 0000 0400 0000
00000220: 0400 0000 0400 0080 0400 0000 0400 0000
00000230: 0400 0080 0400 0000 0400 0000 0400 0000
00000240: 0400 0000 0400 0000 0400 0000 0400 0000
00000250: 0400 0080 0400 0000 0400 0080 0400 0000
00000260: 0400 0080 0400 0080 0400 0080 0400 0080
00000270: 0400 0080 0400 0000 0400 0000 0400 0000
00000280: 0400 0080 0400 0080 0400 0080 0400 0000
00000290: 0400 0000 0400 0000 0400 0080 0400 0000
000002a0: 0400 0080 0400 0000 0400 0000 0400 0000
000002b0: 0400 0080 0400 0080 0400 0080 0400 0000
000002c0: 0400 0000 0400 0000 0400 0000 0400 0000
000002d0: 0400 0080 0400 0080 0400 0080 0400 0080
000002e0: 0400 0080 0400 0080 0400 0000 0400 0080
000002f0: 0400 0000 0400 0000 0400 0000 0400 0080
00000300: 0400 0080 0400 0000 0400 0080 0400 0080
00000310: 0400 0080 0400 0080 0400 0000 0400 0000
00000320: 0400 0000 0400 0000 0400 0080 0400 0080
00000330: 0400 0080 0400 0080 0400 0080 0400 0000
00000340: 0000 0000 0400 0080 0400 0000 0400 0080
00000350: 0400 0000 0400 0000 0400 0080 0400 0000
00000360: 0400 0000 0400 0000 0400 0000 0400 0080
00000370: 0400 0080 0400 0080 0400 0080 0400 0000
00000380: 0400 0080 0400 0000 0400 0080 0400 0080
00000390: 0400 0080 0400 0080 0400 0080 0400 0080
000003a0: 0400 0080 0400 0000 0400 0080 0400 0000
000003b0: 0400 0000 0400 0080 0400 0000 0400 0000
000003c0: 0400 0080 0400 0080 0400 0000 0400 0080
000003d0: 0400 0080 0400 0000 0400 0080 0400 0000
000003e0: 0400 0000 0400 0080 0400 0080 0400 0000
000003f0: 0400 0000 0400 0080 0400 0080 0400 0000

exp_avg_sq f4 [100, 150]
7e-43 7e-43 7e-43 7e-43 7e-43 7e-43 7e-43 7e-43
7e-43 7e-43 7e-43 7e-43 7e-43 7e-43 7e-43 7e-43
7e-43 7e-43 7e-43 7e-43 7e-43 7e-43 7e-43 7e-43
7e-43 7e-43 7e-43 7e-43 7e-43 7e-43 7e-43 7e-43
7e-43 7e-43 7e-43 7e-43 7e-43 7e-43 7e-43 7e-43
7e-43 7e-43 7e-43 7e-43 7e-43 7e-43 7e-43 7e-43
7e-43 7e-43 7e-43 7e-43 7e-43 7e-43 0.0 7e-43
7e-43 7e-43 0.0 7e-43 7e-43 7e-43 7e-43 7e-43
0.0 7e-43 7e-43 7e-43 7e-43 7e-43 7e-43 7e-43
7e-43 7e-43 0.0 7e-43 7e-43 7e-43 7e-43 7e-43
7e-43 7e-43 7e-43 7e-43 7e-43 7e-43 7e-43 7e-43
7e-43 7e-43 7e-43 7e-43 7e-43 7e-43 7e-43 7e-43
7e-43 7e-43 7e-43 7e-43 7e-43 7e-43 7e-43 7e-43
7e-43 7e-43 7e-43 7e-43 7e-43 7e-43 7e-43 7e-43
7e-43 7e-43 7e-43 7e-43 7e-43 7e-43 0.0 7e-43
7e-43 7e-43 0.0 7e-43 7e-43 0.0 7e-43 7e-43
7e-43 7e-43 7e-43 7e-43 7e-43 7e-43 7e-43 7e-43
7e-43 7e-43 7e-43 7e-43 7e-43 7e-43 7e-43 7e-43
7e-43 7e-43 7e-43 7e-43 7e-43 7e-43 7e-43 7e-43
7e-43 7e-43 7e-43 7e-43 7e-43 7e-43 7e-43 7e-43
7e-43 7e-43 7e-43 7e-43 7e-43 7e-43 7e-43 7e-43
7e-43 7e-43 7e-43 7e-43 7e-43 7e-43 7e-43 7e-43
7e-43 7e-43 7e-43 7e-43 7e-43 7e-43 7e-43 7e-43
7e-43 7e-43 7e-43 7e-43 7e-43 7e-43 7e-43 7e-43
7e-43 7e-43 7e-43 7e-43 7e-43 7e-43 7e-43 7e-43
7e-43 7e-43 7e-43 7e-43 7e-43 7e-43 7e-43 7e-43
0.0 7e-43 7e-43 7e-43 7e-43 7e-43 7e-43 7e-43
7e-43 7e-43 7e-43 7e-43 7e-43 7e-43 7e-43 7e-43
7e-43 7e-43 7e-43 7e-43 7e-43 7e-43 7e-43 7e-43
7e-43 7e-43 7e-43 7e-43 7e-43 7e-43 7e-43 7e-43
7e-43 7e-43 7e-43 7e-43 7e-43 7e-43 7e-43 7e-43
7e-43 7e-43 7e-43 7e-43 7e-43 7e-43 7e-43 7e-43
00000000: f401 0000 f401 0000 f401 0000 f401 0000
00000010: f401 0000 f401 0000 f401 0000 f401 0000
00000020: f401 0000 f401 0000 f401 0000 f401 0000
00000030: f401 0000 f401 0000 f401 0000 f401 0000
00000040: f401 0000 f401 0000 f401 0000 f401 0000
00000050: f401 0000 f401 0000 f401 0000 f401 0000
00000060: f401 0000 f401 0000 f401 0000 f401 0000
00000070: f401 0000 f401 0000 f401 0000 f401 0000
00000080: f401 0000 f401 0000 f401 0000 f401 0000
00000090: f401 0000 f401 0000 f401 0000 f401 0000
000000a0: f401 0000 f401 0000 f401 0000 f401 0000
000000b0: f401 0000 f401 0000 f401 0000 f401 0000
000000c0: f401 0000 f401 0000 f401 0000 f401 0000
000000d0: f401 0000 f401 0000 0000 0000 f401 0000
000000e0: f401 0000 f401 0000 0000 0000 f401 0000
000000f0: f401 0000 f401 0000 f401 0000 f401 0000
00000100: 0000 0000 f401 0000 f401 0000 f401 0000
00000110: f401 0000 f401 0000 f401 0000 f401 0000
00000120: f401 0000 f401 0000 0000 0000 f401 0000
00000130: f401 0000 f401 0000 f401 0000 f401 0000
00000140: f401 0000 f401 0000 f401 0000 f401 0000
00000150: f401 0000 f401 0000 f401 0000 f401 0000
00000160: f401 0000 f401 0000 f401 0000 f401 0000
00000170: f401 0000 f401 0000 f401 0000 f401 0000
00000180: f401 0000 f401 0000 f401 0000 f401 0000
00000190: f401 0000 f401 0000 f401 0000 f401 0000
000001a0: f401 0000 f401 0000 f401 0000 f401 0000
000001b0: f401 0000 f401 0000 f401 0000 f401 0000
000001c0: f401 0000 f401 0000 f401 0000 f401 0000
000001d0: f401 0000 f401 0000 0000 0000 f401 0000
000001e0: f401 0000 f401 0000 0000 0000 f401 0000
000001f0: f401 0000 0000 0000 f401 0000 f401 0000
00000200: f401 0000 f401 0000 f401 0000 f401 0000
00000210: f401 0000 f401 0000 f401 0000 f401 0000
00000220: f401 0000 f401 0000 f401 0000 f401 0000
00000230: f401 0000 f401 0000 f401 0000 f401 0000
00000240: f401 0000 f401 0000 f401 0000 f401 0000
00000250: f401 0000 f401 0000 f401 0000 f401 0000
00000260: f401 0000 f401 0000 f401 0000 f401 0000
00000270: f401 0000 f401 0000 f401 0000 f401 0000
00000280: f401 0000 f401 0000 f401 0000 f401 0000
00000290: f401 0000 f401 0000 f401 0000 f401 0000
000002a0: f401 0000 f401 0000 f401 0000 f401 0000
000002b0: f401 0000 f401 0000 f401 0000 f401 0000
000002c0: f401 0000 f401 0000 f401 0000 f401 0000
000002d0: f401 0000 f401 0000 f401 0000 f401 0000
000002e0: f401 0000 f401 0000 f401 0000 f401 0000
000002f0: f401 0000 f401 0000 f401 0000 f401 0000
00000300: f401 0000 f401 0000 f401 0000 f401 0000
00000310: f401 0000 f401 0000 f401 0000 f401 0000
00000320: f401 0000 f401 0000 f401 0000 f401 0000
00000330: f401 0000 f401 0000 f401 0000 f401 0000
00000340: 0000 0000 f401 0000 f401 0000 f401 0000
00000350: f401 0000 f401 0000 f401 0000 f401 0000
00000360: f401 0000 f401 0000 f401 0000 f401 0000
00000370: f401 0000 f401 0000 f401 0000 f401 0000
00000380: f401 0000 f401 0000 f401 0000 f401 0000
00000390: f401 0000 f401 0000 f401 0000 f401 0000
000003a0: f401 0000 f401 0000 f401 0000 f401 0000
000003b0: f401 0000 f401 0000 f401 0000 f401 0000
000003c0: f401 0000 f401 0000 f401 0000 f401 0000
000003d0: f401 0000 f401 0000 f401 0000 f401 0000
000003e0: f401 0000 f401 0000 f401 0000 f401 0000
000003f0: f401 0000 f401 0000 f401 0000 f401 0000
