checkpoints/dqn/checkpoint_ep4.pth (torch, 230125 bytes, 18 tensors)

layer1.weight f4 [150, 20]
00000000: 7dff cabc a2fd 983d f240 3fbc e195 4f3e
00000010: 5e5c b1bd e0ea 32be 0da9 ffbc ea96 12be
00000020: 1d68 743e 63ac 233e 4b6d 52be 4c61 dabe
00000030: b3d4 883e d939 bcbd 88a2 013e cc8d 11be
00000040: 9c59 093e dfaf 083d 7174 eabd c61b cbbd
00000050: 9ee4 0f3e 1620 2dbe 1235 933e a1ed 19be
00000060: c11b 903c 0da5 d3be 6043 0abe bd03 47be
00000070: 505e 95be adde 36be 081d e9bd f00a cb3c
00000080: 6e60 cebd 6cbf eb3d f386 cb3d 3934 0e3e
00000090: 6d6f 0a3d e5d3 2bbe 0043 83be f97e 89bd
000000a0: 8172 1d3e d6de 413e 8d92 443e f01a 8dbe
000000b0: 3ec3 6dbd 588a f03d 3f4c 66be 7d81 7f3d
000000c0: 5016 d53c 63fa b8be 0f61 ec3c dcce 053d
000000d0: 39a6 d13d 24bb ddba 9200 93bd 501b 003d
000000e0: ff49 9e3d aa4b e33c ab7f 613e 81c3 79bd
000000f0: 8799 b2bd 99a3 96bd a3be 583e 6043 873e
00000100: bf8d fb3d 4bfa e3bd 4060 623b 4ff8 043c
00000110: ccbc 053c f2f9 893e 0ef6 95bd 0580 43be
00000120: 4b5b a4be f616 bbbd e93d 8cbe 1bcf 8fbd
00000130: 4c91 cfbe 610e 3cbe e074 edbc 012a 0fbe
00000140: 3276 823e 3d1c 5abe 2347 693d 766b ef3d
00000150: 6a5a 27be 6965 9f3d 889c 63bd 0717 ccbc
00000160: b3f3 9bbe 8dbb 69be ecfb 06bd 7910 0fbe
00000170: bdf8 afbe 7f12 083e 08fd 70bd 36b5 143e
00000180: 98ca c33d d4f0 d6bd 2c79 fe3d c3ae 063e
00000190: 3b23 2abe 7fa4 423e cba2 613d 05e0 843e
000001a0: 45ef dfbd a074 e13b d65f aa3d 4d49 54be
000001b0: 1026 72bd 9213 273e 111d 73be 9843 47be
000001c0: 4c74 cf3d 297a eabb e851 b4bd e31e 453e
000001d0: 6267 90be 2b45 bebd 0275 5fbd 5367 053e
000001e0: dd4c 003d 3f6c c03d 7e1f dcbd e08b 973d
000001f0: 3a1f 47bd 9997 62be 6b3a 9f3d 60d4 223e
00000200: e940 0abc 6ff9 9e3d 419b 963d e8a7 02be
00000210: 0421 10be da1e 8e3d cb1f 05be 8db9 6ebd
00000220: b6ac a7bd 9509 43be a610 8b3b db7e a1bd
00000230: d10b db3b 17c6 0e3e 625b 853e a10b b6bd
00000240: 7374 133c 7073 96be da3b 61bd a7fd 3d3e
00000250: 27c0 0bbd 1cce 913d 228a 82bd 0948 153e
00000260: 9bb6 a1bd 1709 ca3d 40bc 223e 35f8 af3d
00000270: aa3a 473d b8c0 423d 0d2b e4bd 16ad c8bc
00000280: 14e4 59be e352 4ebd 6b18 58be 3c16 d6bd
00000290: 586a 133c cd45 3f3e 0d24 62be e10c e93d
000002a0: ad16 bcbd f323 a2bd 39f5 5b3d b45b 413e
000002b0: d7f0 7dbd bfa9 92bd 3fa1 64bd 2347 563e
000002c0: cc16 22be d0b7 78bd f650 38be 2fcc 0bbd
000002d0: 2ca7 5cbe 1b81 af3c d572 3e3d 50c5 473d
000002e0: 99a2 f53d a3eb 863b f48f 313e 1df8 9a3e
000002f0: 18b0 8d3d 2978 2fbe 3d61 39be d7fe ddbd
00000300: 0c20 b13c ad68 93bd 5907 c1be cb03 69bd
00000310: 73cb f6bd 29e9 853e 2517 40be bfac 63bd
00000320: c3e5 243e 57de 00be 0357 753e 19bd 9bbe
00000330: 0af6 f4bd 6172 c8be 2824 bd3d abbf d8bd
00000340: ae66 b33b db34 b23e a164 803e d309 9abd
00000350: e752 de3d c383 143d 2d5a 2abe d751 a7be
00000360: 54cb 3f3e 3bee 55be dcbf 023e 81e9 7b3e
00000370: 52f1 f23d 3e62 a3bd ca83 c3bd a313 4bbe
00000380: b7e3 5f3e a5de 583d 864c bbbd 5cc1 d43d
00000390: 3a32 1ebd 509b 60be 2887 7fbe b196 47bc
000003a0: f8a6 3f3e 77a5 5e3e 74d6 ebbd 9c38 123d
000003b0: 7e33 783e ae7e 4f3e ab8b 72be f5e6 5e3e
000003c0: c341 a2bd 359f 773e 8773 6c3d 0c4e 10be
000003d0: 21cf 3fbe a074 e1bd 0aa9 b93d 740b a6bd
000003e0: 6fdf c4bd 1a50 68be 77e0 d4bd 4869 57be
000003f0: 9af0 e5bd bfc5 373e e13b 343e f1b8 abbd
-0.02478003 0.074702516 -0.011673199 0.20272018 -0.08660196 -0.1747241 -0.03120854 -0.14315382
0.23867841 0.15983729 -0.20549504 -0.42652357 0.26724777 -0.09190721 0.12659657 -0.14214247
0.1341309 0.03337085 -0.11447991 -0.09917407 0.14052054 -0.16906771 0.28751427 -0.15032054
0.01759136 -0.4133686 -0.13502264 -0.1943502 -0.29173517 -0.17858382 -0.113824904 0.024785489
-0.10076986 0.1151112 0.09937849 0.13887109 0.03379767 -0.1678005 -0.25637054 -0.06713671
0.15375711 0.18932661 0.1919653 -0.27559614 -0.058047526 0.11745137 -0.22490023 0.06237935
0.026011616 -0.3612853 0.028854875 0.03266798 0.102367826 -0.0016916734 -0.07177843 0.031276047
0.077289574 0.02774604 0.22021358 -0.060977463 -0.08720689 -0.073554225 0.21166472 0.2641859
0.12282895 -0.11131724 0.0034542233 0.008115842 0.008162688 0.26948506 -0.07322322 -0.19091804
-0.321009 -0.09135239 -0.27390984 -0.07021924 -0.4054054 -0.1836486 -0.028986394 -0.13980867
0.254808 -0.21299835 0.056952607 0.116904184 -0.16343084 0.07783014 -0.0555692 -0.024913324
-0.30459365 -0.22825451 -0.032955095 -0.13971128 -0.3436946 0.13288306 -0.05883506 0.14522251
0.09560126 -0.10495153 0.124254555 0.13152604 -0.16615002 0.19008063 0.055086892 0.25952163
-0.10934309 0.006880358 0.083190605 -0.20731087 -0.05911833 0.16316059 -0.23741557 -0.19459379
0.10129604 -0.007155676 -0.08804685 0.19250064 -0.28203875 -0.092905365 -0.054554947 0.13027696
0.031323303 0.09395646 -0.10748194 0.07399726 -0.048613764 -0.22128142 0.07774814 0.15901327
-0.008438327 0.077624194 0.07353831 -0.12759364 -0.14075094 0.06939478 -0.1300041 -0.058282424
-0.08187239 -0.19046624 0.004243928 -0.07885524 0.0066847582 0.13942753 0.26046282 -0.08888937
0.008999932 -0.29384947 -0.05498872 0.18553792 -0.034118798 0.0711939 -0.06374003 0.1457826
-0.07896157 0.09865015 0.15892124 0.085922636 0.04863993 0.047547072 -0.11141024 -0.024496596
-0.21278411 -0.050372016 -0.21103065 -0.104534596 0.008997522 0.1867897 -0.22084065 0.113794096
-0.091840126 -0.07917013 0.05370066 0.18882638 -0.06199726 -0.07161283 -0.05581784 0.20925574
-0.15829009 -0.060722172 -0.17999634 -0.03413027 -0.21548146 0.021423867 0.04649623 0.048772156
0.11993904 0.0041174456 0.1734007 0.3026742 0.06918353 -0.17135681 -0.181035 -0.108396225
0.021621726 -0.071977 -0.37700918 -0.056888383 -0.120505236 0.2615445 -0.18758829 -0.055584665
0.16103272 -0.12584816 0.23958974 -0.30417708 -0.11960991 -0.39149764 0.09235412 -0.10583433
0.005474887 0.3480595 0.25076774 -0.07521405 0.10855656 0.03625847 -0.16635962 -0.32679626
0.18729907 -0.20891659 0.12768501 0.24600793 0.118624344 -0.079777226 -0.09546621 -0.1983171
0.2186421 0.052946705 -0.09145455 0.10388443 -0.03862212 -0.21934247 -0.24953902 -0.012181924
0.18716037 0.21742807 -0.11515513 0.03569852 0.24238393 0.20263168 -0.23686092 0.2176779
-0.07922699 0.24181826 0.057727363 -0.14092273 -0.18731357 -0.110085726 0.09065445 -0.08107653
-0.09612929 -0.22686806 -0.10394376 -0.21036255 -0.11227532 0.17946528 0.17600967 -0.08384884

layer1.bias f4 [150]
00000000: 9e8b b03d 5aa5 7d3e fe67 c13b 7b22 503e
00000010: 1520 ff3d 52da a13d 9fe8 92bd d6ff 553e
00000020: 9c3e a1bd ed21 0bbe e8a6 e9bd 1b31 4a3e
00000030: 7c2b 903d bc04 403e fefa 593e 408c 063d
00000040: 03b4 0e3e 5daa b4bd a0bc 413e e212 843e
00000050: 30dc 5abd 212a 2cbe 724f 0bbe c32d babd
00000060: 60fc 70be c1c6 8e3e 5468 8b3e 8857 f3bc
00000070: 7b14 8e3d 326d 71be 9be8 41bd 3ad9 22be
00000080: ae13 28bd 89df 5a3e af68 dbbc 2ad6 0f3e
00000090: 7b4c 1dbe cb2b c03d 614d 743e 1512 09be
000000a0: fa41 513e a6e2 2d3e 8021 38be fa6c 003e
000000b0: 666d 093e 1b5d e93c 9a08 903d b5ae 663d
000000c0: 4cb2 0dbe 45c4 bb3d b05e 933d cfe8 bdbc
000000d0: a677 e1bd 090e b6bd 9f74 9bbd 6165 b7bd
000000e0: c7c1 083e b706 d83c 11c1 db3d cebc 7d3e
000000f0: 8963 35be f3f9 863d 8c3c e03c 99d5 efbc
00000100: 735e 953e d58e 063e f480 103e f674 e7bd
00000110: 8be7 abbd ba6f 30bd 4a3f ccbd 7234 31be
00000120: ce4e 453e 7123 04bd 9921 d33d 1697 8abd
00000130: 934e c4bd 0321 873e be48 27be 545d c43d
00000140: 0cb5 9d3d 2239 973e 1608 433e c101 183e
00000150: faf1 b33d ba6b 01be d32c a83d 641b ea3c
00000160: 6971 2cbe 1ce9 22be d2a4 ab3d ae54 76bc
00000170: 229c 583e 46e7 9d3c dff2 e1bc ed46 873d
00000180: e8a8 37be 91a3 debd fcd6 9c3d baa4 343e
00000190: d3aa d03d c7ec a0ba f42e 9abc 0c6a 00be
000001a0: ea3d 843e ef0a 6a3e a630 93bd a1ea 0abe
000001b0: ce49 c2bd 084c 0b3d 7628 063e 78c0 fc3d
000001c0: 4ecb e6bd 89c5 c4bd d6de 363d b776 8dbd
000001d0: 9f11 63bc 0a79 783e 8546 433d 05d6 83bc
000001e0: c387 793e a3c3 c1bd e65e 32be f36f 5c3c
000001f0: 886a 1bbe 86ad 59be 7ed1 f3bd cff8 81bc
00000200: afe7 1cbe c39f 39bd a549 7d3e 5311 babd
00000210: 34d7 82bd a57d e2bc cc55 2c3e 602f 813e
00000220: 1dc0 4b3d 2ca8 4cbd 989d 1b3e e0ff 413c
00000230: 19fa 58be 5844 253e e3e1 5cbd 118a 853e
00000240: 11cb 35be 8168 0ebe 8b84 eebd fd5d 2c3e
00000250: 84d7 8ebd 2ac6 133e
0.0862038 0.24770108 0.0059022894 0.20325653 0.12457291 0.079029694 -0.07173275 0.20898375
-0.0787327 -0.1358716 -0.11408788 0.19745295 0.07039544 0.18751806 0.21287152 0.032848597
0.13935857 -0.08821557 0.18919611 0.25795656 -0.053432643 -0.16812946 -0.13604525 -0.090907596
-0.23533773 0.27886012 0.27228034 -0.029704824 0.069375 -0.23576811 -0.04734097 -0.15903178
-0.041034393 0.21374334 -0.026783315 0.14046541 -0.15361206 0.09383353 0.23857643 -0.13385804
0.20435324 0.16980991 -0.17981529 0.12541571 0.13420638 0.028486779 0.070328906 0.056318957
-0.13837546 0.09168295 0.071957946 -0.0231823 -0.11009149 -0.08889396 -0.07590603 -0.08954883
0.1335517 0.02637039 0.10730184 0.24779055 -0.17713751 0.06590643 0.027372621 -0.029276656
0.29173622 0.13140424 0.14111692 -0.113016054 -0.08393773 -0.0430753 -0.09973009 -0.17305163
0.19268343 -0.032260362 0.103091426 -0.067670986 -0.09585299 0.26392373 -0.16336343 0.095881134
0.077005476 0.29535776 0.19046053 0.14844419 0.08786388 -0.1263875 0.082116745 0.028577514
-0.16840138 -0.15909237 0.08381046 -0.015034838 0.2115331 0.019275319 -0.02758163 0.06605325
-0.17935526 -0.108710416 0.076581925 0.17640963 0.10188832 -0.0012277596 -0.018821217 -0.12540454
0.25828487 0.22855733 -0.07187013 -0.13566066 -0.094867334 0.034008056 0.13101372 0.12341398
-0.11269246 -0.09607989 0.044646107 -0.06907409 -0.013859182 0.24264923 0.047674675 -0.016093263
0.24368195 -0.09461143 -0.17419013 0.013454425 -0.15177357 -0.212576 -0.11905192 -0.015865711
-0.15322755 -0.045318376 0.24735124 -0.090853356 -0.06388703 -0.027647803 0.16829604 0.25231457
0.04974376 -0.04996507 0.15196836 0.0118407905 -0.21189155 0.16139352 -0.05392636 0.260819
-0.17753245 -0.13907053 -0.11646374 0.16832729 -0.069747 0.14431062

layer2.weight f4 [100, 150]
00000000: 28d8 393c 1a74 9b3c 3148 4d3d b473 ce3d
00000010: 18a1 33bd 4c68 80bd c8eb 603d 67fa 62bd
00000020: 9c3d 22bd 0f98 e5bc fd5d 7d3c 800e 73bd
00000030: 98b7 62bc 9340 9c3d 3a62 88bc 1a2f 84bd
00000040: cb9d 0fbd 6434 383d 5dea 21bc 3697 1a3c
00000050: 99f2 1dbd 9300 0bbd 7246 25bd 7750 b03c
00000060: 73e6 8e3d bec4 8e3d 4c2f 383c 9a7f f0bb
00000070: 127d 55bd b3e9 84bd e368 4b3a fb7e 0b3d
00000080: be94 68bd e9fb 0bbd c026 ce3c 409d 4fbd
00000090: 0c1f 5dbd f40f 3ebd 8cca d6bc 597a 85bd
000000a0: ac4f b9bd d531 24bd 2036 893d b348 883b
000000b0: d4ce 92bd bbb8 8abc 3607 14bd 7ebc 8bbc
000000c0: c4e4 25bb 0d7d 29bc afc8 863d 7930 85bd
000000d0: 031d 92bd bd4e 67bd 9a8e 233d 490c a33c
000000e0: 35f3 533d c300 c3bc 7110 873d c36d afbd
000000f0: 4847 3b3d ea0e c7bd f804 46bd cf2b 5bbd
00000100: bc3c 773c 917d dcbd cc58 083d 813a 8bbd
00000110: ee7d 603c d3a3 cbbd 9ca9 48bd ce10 4dbc
00000120: f2ef a5bd 1344 1a3d 4e5d adbc 10d9 a8bc
00000130: cb0a 013d ac79 6c3c c056 c73c 8461 5a3d
00000140: 2c44 323d baae 993d 7e6a 2c3d 0f85 7c3d
00000150: d3d4 84bd e54e 6f3d ff14 6a3c 32d7 e4bc
00000160: dc39 97bd 3b7d 993b 1be6 513d 1e17 253d
00000170: 94a6 bcbd c542 203c ead1 aebc 31d9 67bd
00000180: 97e5 363d c8da 063b 78b5 aebd 9619 e4bd
00000190: 1987 73bd 8512 5dbd 1123 a83c a750 72bd
000001a0: fc17 59ba 05cb e1bc 877d d3bc 656b 89bd
000001b0: 866f dcbc 30f3 0b3a 1cdf f93b 0205 823d
000001c0: bea7 00be 31a6 5fbd cec7 923b dcbe d1bb
000001d0: d867 653c 379b 60bd 5384 963d 2b26 13bd
000001e0: e805 89bd 7159 633d f782 f83b ac12 6f3d
000001f0: 9452 aabd d397 98bd 6580 8a3d c69b abbd
00000200: 8185 9cbd be33 5bbc c4be c2bd c027 19bd
00000210: 62a3 1d3d 7a39 6cbd 7791 adbb 8f23 28bd
00000220: d7ae b23d d8f1 b3bd d593 dbbc 6a0d 38bc
00000230: 2e46 4ebc 13a0 2dbd 9977 30bd 8528 3d3c
00000240: 0399 da3c 74da a23d 17ee 5c3c 3d97 b83c
00000250: 62f6 b3bd 718a 8e3c a579 5b3d c6d8 093e
00000260: c09a ffbd 084e b83d 4bea 413d 1d5c cc3c
00000270: ec46 24bd 1ad1 753d 9723 353d 3d74 803c
00000280: 2c98 12bb f5a0 26be 5646 a3bd 68dc cfbd
00000290: 19cf ae3d ae31 e93c 2f7b 08be 9e1b 24be
000002a0: ca37 9c3d fe4f ff3d 0d43 3bbd 631f 8bbd
000002b0: 47ac 0fbe c22c 803c 8dac 063d 9207 77be
000002c0: b736 bebc 79d5 8cbd c8dd 383e b4fb a0bd
000002d0: 256c 643e b203 50bb 57e9 11be 323c 07be
000002e0: 674e 943d ec08 edbc fba1 533d 8924 ec3d
000002f0: 599c 9e3d 0c44 d93d 2579 4dbe 3d45 ff3d
00000300: 7be5 373c 614b a23c 410c a33c 35fa 513c
00000310: 4189 103c 2363 95bc cd81 20bd 5cdd 8d3d
00000320: 4ec6 07be 6ef9 81be 1f26 433d f167 8a3b
00000330: 2e4d 9bbd e999 87bd 223f f0bd 411d 503e
00000340: 458e 453d b925 fc3c 1cf0 853d 323e 053e
00000350: 1e1e 6839 a737 9abc 0b8b 283e e5fc 663d
00000360: 6806 c7bc 5aaa 19be 96b0 0fbc 3e15 a13c
00000370: 41a2 0dbe adc2 0bbd af08 1e3e 2559 56be
00000380: 8156 033d 8698 08be d660 53bc 89d7 763e
00000390: e3b7 0fbc 08c3 133d a610 2d3e 6b8c ad3d
000003a0: c446 f8bc 9e68 b2bc a5c1 b3bd 7cd2 19be
000003b0: 56ee a3bd e159 00be 5134 9b3d 50c8 e5bb
000003c0: c413 8c3d 89a3 a8b9 fbd4 b63d af12 36bd
000003d0: e00b 503d f4ac 24be 298f 53bc b755 0e3e
000003e0: 7983 0d3d cb8c 44bd e570 4e3d f07f 963d
000003f0: 9993 59be f19e 85bb 91e2 323c 79ef d4bd
0.01134304 0.01897626 0.050117675 0.10080662 -0.043854803 -0.06269893 0.05491236 -0.055414584
-0.039609537 -0.028026609 0.015464303 -0.05934 -0.0138377175 0.07629504 -0.0166484 -0.064542964
-0.035062592 0.04497184 -0.009882537 0.009435466 -0.038561437 -0.033936094 -0.040350385 0.021522744
0.069775485 0.06971119 0.011241745 -0.00733943 -0.05212123 -0.06489887 0.0007759465 0.034056645
-0.056782477 -0.034175787 0.025164962 -0.050687075 -0.053984687 -0.046401933 -0.026219629 -0.065174766
-0.09048399 -0.040086586 0.06699777 0.004159057 -0.071683556 -0.01693379 -0.03613969 -0.017057654
-0.0025313357 -0.010344756 0.06581246 -0.06503386 -0.0713444 -0.056471575 0.039930917 0.019903319
0.051745612 -0.023804074 0.06594933 -0.08565857 0.045722276 -0.097196415 -0.048344582 -0.053508576
0.015090164 -0.107661374 0.03328781 -0.06798268 0.013701899 -0.09943356 -0.048989877 -0.012516214
-0.081024066 0.037662577 -0.021162655 -0.020611316 0.031504434 0.014433306 0.024333358 0.053315654
0.043522045 0.075040296 0.042093746 0.061650332 -0.064859055 0.05842485 0.014287232 -0.027934644
-0.07384083 0.004684118 0.051244836 0.04030525 -0.0921146 0.009781544 -0.02134033 -0.056603614
0.044652548 0.002057718 -0.08530706 -0.11137693 -0.05945501 -0.05397274 0.020524533 -0.059158947
-0.0008281467 -0.027562628 -0.025816692 -0.06709937 -0.026908647 0.0005338667 0.0076254737 0.063486114
-0.12563989 -0.05460185 0.004479385 -0.006400926 0.014001809 -0.054835524 0.073494576 -0.03592507
-0.0669058 0.05550522 0.0075839716 0.058367416 -0.08316532 -0.07450833 0.067627706 -0.08379321
-0.07642651 -0.0133790355 -0.09509042 -0.037391424 0.038485892 -0.057672 -0.005296882 -0.041049536
0.08724754 -0.087863624 -0.02680389 -0.011233667 -0.012589974 -0.042388987 -0.043082807 0.011545305
0.02668429 0.07951823 0.013484499 0.022533054 -0.08787228 0.017399998 0.053582806 0.13461599
-0.12480688 0.08999258 0.04734258 0.024946267 -0.0401067 0.060013868 0.044223394 0.015680427
-0.0022368534 -0.16272338 -0.079724 -0.10149461 0.085355945 0.028466072 -0.13328241 -0.1602616
0.076278284 0.12466429 -0.04571824 -0.06793096 -0.14030562 0.015646342 0.0328794 -0.24123982
-0.02321945 -0.06876654 0.18053353 -0.078605086 0.22306879 -0.0031740484 -0.14249168 -0.13206556
0.072415166 -0.028934918 0.05166815 0.11530406 0.07744665 0.10608682 -0.20065744 0.12464378
0.011224146 0.019811334 0.019903304 0.012816002 0.008821786 -0.018235749 -0.039186288 0.069269866
-0.13259241 -0.25385612 0.047643777 0.0042238166 -0.0758308 -0.06621153 -0.11730792 0.2032366
0.048231382 0.030779706 0.06539938 0.13012007 0.00022136464 -0.018825365 0.1645929 0.056393523
-0.024295047 -0.1500639 -0.008770129 0.01966345 -0.13831426 -0.034121204 0.15433 -0.20932443
0.03206492 -0.13339433 -0.012901505 0.24105658 -0.008771869 0.03607467 0.16900882 0.08474048
-0.030307181 -0.021778401 -0.08777169 -0.150217 -0.08004443 -0.12534286 0.07578338 -0.0070124045
0.068397075 -0.000321653 0.089273416 -0.04445141 0.050792575 -0.16081601 -0.01291255 0.13899885
0.03454921 -0.047985833 0.050400633 0.07348621 -0.2124771 -0.004077785 0.010918275 -0.10397238

layer2.bias f4 [100]
00000000: cfb4 d03c 9d44 cd3d 06b0 d93c f6bb 6e3d
00000010: 8dc9 c0bc 44f6 113e 7b7a 8cbd 161d 2bbd
00000020: 8224 563d 7c13 083c 092e 073d 9437 00bd
00000030: f3bc 3d3c 29ec 18bd 0054 513d 09a4 c83d
00000040: f63e afbd 5d8f 97bc c834 543d 50d9 adbd
00000050: 6cd5 8fbd f0be c43d dc7c 883b f82c 7cbd
00000060: 9af8 7fbd f5ab a23c e7f5 d33d ca24 3cbd
00000070: 656e 063e 7cf0 333d 302c c23d d781 e6bc
00000080: 721f 043d 6658 bd3b 130b 573d 0d97 e23b
00000090: 0031 953d 5127 943d 7f72 fe3d f48d d53c
000000a0: 3604 573d c47c ed3d 2586 81bd ff79 c53b
000000b0: be5f 853d 97ab fc3c 3c01 85bc d1c4 06bd
000000c0: 5694 1ebc 9724 933d fefa 5c3c 6ec8 fcbc
000000d0: 5bc9 083e 56f4 c2bb 5666 d93d 781a 6a3d
000000e0: 8ddc a03c e439 5ebd ed7f 4a3d f68c 163d
000000f0: daab 753d 0649 e43c 68f9 223d 908e cebc
00000100: d444 8f3c 0e3b 98bd e219 34bb bb6b d9bc
00000110: 60e6 66bc 277c 253d 917d 1c3d b126 743d
00000120: 5fd6 3abc 2eb2 8c3d f818 8d3d 6c0e 5a3d
00000130: 13f1 813d f080 d4bc 3a5a 313d ef90 1bbd
00000140: 03b3 583b e6b3 a13c 272b 173e 7152 bb3d
00000150: 19a3 ab3c 7af0 363d 58e8 9fbd 6046 8dbd
00000160: 22fd 8a3c e608 353d 20e5 3abd e590 f23b
00000170: 90a8 bf3d 9465 3e3d a9e7 a3bd 7d06 f83d
00000180: a7e8 983d 0532 183d 919b a0bc d9be 0f3e
0.025476841 0.100228526 0.026573192 0.058284722 -0.023533607 0.14254099 -0.06859299 -0.041775785
0.05228091 0.008305427 0.033002887 -0.031303003 0.011580694 -0.037334595 0.0511055 0.09796912
-0.08556931 -0.018500978 0.05180815 -0.08488715 -0.07023129 0.09606731 0.004165275 -0.061566323
-0.062492944 0.019857386 0.103496365 -0.045933522 0.1312805 0.043930516 0.09481084 -0.028138084
0.03225655 0.00577836 0.052500796 0.0069149793 0.07284737 0.072340615 0.12424182 0.026068665
0.05249425 0.11596063 -0.06324414 0.006026506 0.06512402 0.03084354 -0.01623594 -0.032902543
-0.009678921 0.07184713 0.013487576 -0.030857291 0.13358061 -0.0059495373 0.10615222 0.05715415
0.019636417 -0.054254428 0.049438406 0.036755525 0.059978344 0.027866852 0.039788634 -0.025214463
0.017488874 -0.07433139 -0.0027481248 -0.026540628 -0.014093012 0.040401604 0.038205687 0.05960721
-0.011403649 0.068699226 0.06889528 0.05323641 0.063448094 -0.025940388 0.043298937 -0.037980016
0.0033065684 0.019739103 0.14762555 0.09146584 0.020951794 0.04466293 -0.07807988 -0.068981886
0.016966406 0.04419794 -0.045628667 0.0074025267 0.093583226 0.04648359 -0.0800317 0.121106125
0.0746625 0.037157077 -0.01960543 0.14037646

layer3.weight f4 [3, 100]
00000000: d32a 613d 47ca a23d 0b44 5e3c 2700 fabd
00000010: 50ae 1cbd 70ba 1c3e b78f 793a c26a 433c
00000020: 24fd 3b3e e891 7fbd 8ff6 16be f0de d4bd
00000030: 5a52 76bc 4321 7dbd 0bdf bfbc 8ade 423e
00000040: b460 183d ad1a 5b3e 1d3d 0b3e 0443 42be
00000050: c7bb bcbc de65 4f3e b43c 95bd 511c 3c3e
00000060: cb01 cfbd 7ff9 413c a328 f23d a0a0 d23c
00000070: cf6a 333e ca7e 7fbd 5aeb 84bd e15e f43d
00000080: 1eb6 313e 101a 2fbe e914 7b3e 9d61 013e
00000090: e65d 213e 5647 9c3d 3468 e63d 11f6 483d
000000a0: da0e d83d e3e0 cd3d 94e9 ffbc 794a aa3d
000000b0: 804f 0fbd 1ad6 16be 89bd 953d 3103 9c3c
000000c0: a28b 24bd 739e 373e a9bb 1dbe 2e59 a63d
000000d0: 2ac6 673e 0667 d9bc 6c92 083e fb78 0d3e
000000e0: 9c4c 1e3e 4c5b 23bd ddd8 ddbd 43db 08bd
000000f0: 44d6 84bd 8e4f 413e 4117 51bd d169 6bbd
00000100: 346e 6e3d 03b8 eabd 80bb 303d 3fd7 f9bd
00000110: 17db 1f3e 5a6f b43d f0ab b73d a83b 693d
00000120: c815 a8bd 6caf 303e 653a 473e e262 51bd
00000130: cc19 83bd 806c 04be 1768 97bd a0a0 a4bc
00000140: a2d5 00be a852 b43c a1d6 453e 58a4 3e3e
00000150: 6468 8ebd 623a 6f3e 4e4b 11be f99e 93bd
00000160: dd1f e9bd 1117 5b3e ae4f 4c3a c639 7fbd
00000170: 1f70 3b3e 63fa aa3d 9d0a b8bd b5b0 1f3e
00000180: be6e fe3d f6fa abbd 3bbe f3bb 4c13 0b3e
00000190: e41e 133d 8ba3 183e 530e 8d3c 434e f3bd
000001a0: 7ee7 7a3d 2272 343e 1366 bb3d daae a4bd
000001b0: 5eb0 d3bd 1118 c5bd bff4 edbd e325 803d
000001c0: 2b2f 13bd 652f 82bd e1b1 ed3d c12e 2bbc
000001d0: 84f9 993c ef02 2a3e 4fab 2e3e ccb0 cfbd
000001e0: c8a9 b83d bba6 103e 6674 69bb 4831 6a3d
000001f0: be99 e0bd 4953 a93d ad6e 2a3e b3a7 0d3c
00000200: 4c5b 4a3e 84f0 b9bd 40ed debd 0578 f2bd
00000210: 74f3 af3d c765 43bd 6852 213e ce10 4e3e
00000220: f5a3 483e 2439 d03d 89c6 dd3b 7bd4 283e
00000230: 7319 613e c82b 403e 0c26 0f3d 9a55 4d3e
00000240: 3f77 08be 8504 f0bd 1cf3 053c 0251 a23d
00000250: 5ebc f9bd e657 083e 389d 16bc db94 a63d
00000260: c199 363e 61d3 edbd c728 0b3e 519c 193e
00000270: 1daf 153e e0f5 d43d 9bea 31bd f9fe d8bd
00000280: 2477 3bbd 58e1 463e 691f c73d 93a9 03bd
00000290: 5ad6 22bc 117c 133d 3ebf 3bbd 6844 ec3c
000002a0: 7156 213e 339c 25be 88f7 053e 936f 95bd
000002b0: 5008 2b3d 79f3 fb3d a623 e73d 2991 873d
000002c0: 1f18 54bd ba60 aabd d4cf 9b3d bc54 29bd
000002d0: 91f7 0ebe 6afa 0ebe 372a 593e 6285 bf3d
000002e0: 802f c2bb d10d c93d ea03 b5bd 5ffa 6ebd
000002f0: f599 903d d0e5 fa3d fe66 123e 072f c3bc
00000300: a2b1 c73c 95e1 ca3d f0f1 bf3d 76e6 ee3d
00000310: 5ad9 843d 39c9 a6bd 9a05 d9bd 68fb 113e
00000320: 8b8d a9b9 24a9 403d 2869 4b3d b6ef d43c
00000330: 5062 9b3d 9e9c 303e b32f 3dbd 3da4 843d
00000340: 6159 1abd 0acb 2c3d 7143 b13d 9f9d f6bc
00000350: 1fc0 633d 483a f13b d20c 92bd d955 823d
00000360: 9468 843d 5524 64bd afff 01bc 5c9d a13c
00000370: 65e6 9d3d f203 3a3e 362e ae3c a221 123d
00000380: 41b9 49be 6287 c8bd 4cad 183e 0b22 8b3d
00000390: 9f11 263e a40f 7abd a8bf 7fbd fe42 503d
000003a0: f380 cc3d ce85 183d 29a7 363e 3ad2 e23d
000003b0: e9d7 c33d 51d8 403e 0946 1a3e b87c 50bd
000003c0: 9397 0fbd 82a3 e43d dfbc a63c 0f9e 183c
000003d0: ae3d 1ebe 4ea2 593c 34e5 0cbd e087 023d
000003e0: e2dc 9b3d 69d7 293e c79f d2bd d38d 3ebc
000003f0: 3861 0c3e 05f0 dfbc bb5f ecbc 1e7d f33d
0.05497248 0.079487376 0.013566027 -0.1220706 -0.038252175 0.15305495 0.00095200114 0.0119273085
0.18358284 -0.062395006 -0.14742492 -0.103940845 -0.015034283 -0.0617993 -0.023421785 0.19030204
0.0372016 0.21396895 0.13597532 -0.18970877 -0.023038758 0.20253703 -0.07286969 0.18370177
-0.10107764 0.01183927 0.11824157 0.025711358 0.17521213 -0.062376775 -0.06490202 0.11932159
0.17354628 -0.17099786 0.24519695 0.12634893 0.15758476 0.07630794 0.11250344 0.049062792
0.10549708 0.10052659 -0.031239308 0.08314986 -0.034987926 -0.14730111 0.073115416 0.01904449
-0.040172227 0.17931537 -0.15403618 0.081224784 0.22634187 -0.026538383 0.13337106 0.13815682
0.15458912 -0.03988199 -0.10832379 -0.03341223 -0.064861804 0.18878004 -0.051047567 -0.05747396
0.058210567 -0.11460879 0.043147564 -0.12199258 0.1561092 0.08810301 0.08968341 0.05694166
-0.082072794 0.17254418 0.1945587 -0.051119693 -0.06401405 -0.12932014 -0.073929004 -0.020096123
-0.12581494 0.02201207 0.19320156 0.1861738 -0.06953505 0.23362115 -0.14188883 -0.07208056
-0.113830306 0.21395518 0.00077938556 -0.062310956 0.1830449 0.08348539 -0.08986399 0.15594752
0.12423466 -0.083974764 -0.0074384487 0.1358158 0.03591813 0.14906137 0.017218744 -0.118801616
0.061255924 0.17621663 0.091503285 -0.08041163 -0.10336374 -0.09623731 -0.11618947 0.06257226
-0.035933655 -0.06356696 0.11606193 -0.010448159 0.018795736 0.16602682 0.17057537 -0.10141143
0.09016758 0.14126103 -0.0035622357 0.057175905 -0.10966824 0.082678385 0.16643782 0.00864594
0.1976139 -0.09079078 -0.108850956 -0.11839298 0.08591357 -0.047704484 0.15754092 0.20123598
0.19593795 0.10167149 0.006768052 0.16487305 0.21982364 0.18766701 0.034948394 0.20052186
-0.13326739 -0.11719612 0.008175638 0.07925607 -0.12194131 0.1331478 -0.009192757 0.08133861
0.1783209 -0.11612583 0.13589774 0.15001036 0.14617582 0.103984594 -0.043436628 -0.10595507
-0.04576792 0.194219 0.09722788 -0.03214414 -0.009938801 0.03600699 -0.04583668 0.028841212
0.15755631 -0.16172867 0.13082707 -0.07296672 0.041755974 0.12302298 0.11286096 0.06619484
-0.051780816 -0.083192304 0.076079994 -0.041340575 -0.13961627 -0.13962713 0.2120751 0.09351613
-0.0059260726 0.098170884 -0.08838637 -0.05834424 0.07060615 0.122508645 0.14297101 -0.023826135
0.024376694 0.099063076 0.09372318 0.11665051 0.06486769 -0.08143849 -0.105967715 0.1425606
-0.0003233965 0.047036305 0.04966083 0.02599321 0.07587111 0.17247245 -0.046188068 0.064766385
-0.037682895 0.04218582 0.086554416 -0.030104456 0.055603143 0.007361684 -0.071313515 0.063640304
0.06465259 -0.05569871 -0.007934495 0.019728355 0.0770996 0.18165568 0.02126227 0.035676606
-0.19699575 -0.09791447 0.14909858 0.067936026 0.1621766 -0.061050072 -0.062438637 0.05084514
0.099855326 0.03723698 0.17837204 0.11075254 0.09562666 0.18832518 0.15065779 -0.05090019
-0.03505666 0.11163999 0.020353733 0.009315028 -0.15453216 0.013283325 -0.034398273 0.03186786
0.076104894 0.16586079 -0.10284381 -0.011630493 0.13708961 -0.02733613 -0.028854242 0.118890986

layer3.bias f4 [3]
00000000: 49c5 89bd 5624 093e a904 5e3d
-0.06727082 0.13392767 0.054203663

exp_avg f4 [150, 20]
00000000: 6b2e 08b9 df98 5338 6624 d4ba e846 c1b9
00000010: 1942 ba38 5fce bb37 ac06 0d3b 681c abba
00000020: 13ae 1837 12a4 e3b7 aa32 8a39 4e57 4e39
00000030: 268c 5937 9405 3138 acd7 9339 1692 ab3a
00000040: 43e0 d2bb 0903 ccba 0b7c 543b 244b 29bb
00000050: 30d2 a9b9 b638 8038 d290 1fbc 1b33 78ba
00000060: e9c0 d837 833d c038 37b9 503a cf72 043b
00000070: aa4d 5f38 5493 9338 f95e 133b 1068 083b
00000080: 1a89 c138 5295 eab8 9d14 323b 4e79 c8bb
00000090: 6619 abba 87b9 17bc b9a5 9c3a 0d04 9c3b
000000a0: a985 9f37 c626 0739 cbcf 0aba ef91 143b
000000b0: 0a4e a638 76d9 d138 d01d c53a 3bd6 273b
000000c0: d49d a438 018d 0738 54c8 233b daba dc3a
000000d0: 53ff 5538 41f1 b638 aaad 2b3a 0046 3f37
000000e0: 1a34 763a 8a4d ad3b d92e 5e3b da1a bb3b
000000f0: ae3a e7b8 f220 32b8 5ae2 91bb ea56 19bb
00000100: 6836 c638 187b 3836 115a 8d3b 88c1 0738
00000110: 37c7 2b38 c10e d220 027f b73a 5a7e 1225
00000120: fbe4 6a38 6efd 33b9 0aa6 7939 b771 05bc
00000130: 6b84 143c c1d1 f83b 3f85 4b3c 5d57 b73b
00000140: c090 2f35 5c87 e938 0c32 a939 9804 193a
00000150: 581d 8f38 af28 8338 a5e1 f23a 94dd a13a
00000160: 6fc4 9b38 ff03 0538 004a 343b f999 c83a
00000170: 9e4d a838 6597 8538 64e6 a43a ac31 a4ba
00000180: 3a25 543b 8c87 b33b 000d d33b a56f ea3b
00000190: c5e7 a838 427c cf39 3891 703b d7c1 193c
000001a0: fdb2 b137 d9f6 6c38 5ec2 b43a 4ebe 2b3b
000001b0: 4cda 3739 8e05 3db6 b791 063c 10e2 1eb9
000001c0: 49f1 1639 395b 1b39 e4e8 453a cf73 82bb
000001d0: 1efb 7c3c ff26 923c 4a73 713c 8c95 ce3c
000001e0: 6153 5a21 6153 da21 a973 3122 bd92 c71f
000001f0: 6153 da21 6153 5a21 fd74 2624 4466 2024
00000200: 6153 5a21 6153 5a21 c0a1 2324 c579 4423
00000210: 0000 0000 6153 da21 0000 0000 f7b5 d123
00000220: a44a 1724 d733 2924 20b5 3024 20a9 ae20
00000230: fcfa 0038 b92e d639 a381 343b 162d 773b
00000240: ee71 5039 1ed5 2b39 7cc4 9e3b df6a 123b
00000250: 6cc2 5439 85d5 dc38 702b e53b d609 993b
00000260: b3a1 6739 a077 7239 558e 783b 323b a9ba
00000270: a273 d63b 7f83 623c 1568 543c bdde 973c
00000280: 0000 0000 0000 0000 0000 0000 0000 0000
00000290: 0000 0000 0000 0000 0000 0000 0000 0000
000002a0: 0000 0000 0000 0000 0000 0000 0000 0000
000002b0: 0000 0000 0000 0000 0000 0000 0000 0000
000002c0: 0000 0000 0000 0000 0000 0000 0000 0000
000002d0: 2c05 c039 b36e 10b9 c50a bf3b cfcf beb9
000002e0: a3d0 ddb8 54a3 ebb8 d704 4cbb 3766 59bb
000002f0: e0a6 c934 c0a1 1c37 c44a 5e39 9bf9 45b9
00000300: 21aa 2d36 eda4 c7b8 a1c1 1d39 53a4 74bb
00000310: d669 ab3c 5e86 003c 3094 a7bb 22cc d53b
00000320: 8656 7f39 9a26 0a3a fcdf 183c 7a84 603c
00000330: 56a3 3c39 b826 e338 99aa 823b 2717 143b
00000340: 4cf8 3739 26ef b938 4cec 003c e70b 853b
00000350: dcfb 0d39 7830 cd39 a4ec 1b3a 6fa4 843b
00000360: ff7f a63b 5c9b 5c3c 8fd8 e33b bb7f d03c
00000370: b2a9 30b9 229d 38b9 520b b9bb 3436 55bb
00000380: d743 9c37 f917 d3b7 4ed0 813a a6b1 b438
00000390: 786e 98b8 7782 2fb8 e67f 51bb 9427 c5ba
000003a0: 3e4a b0b8 c6df 05b9 98a2 76ba 8016 72b9
000003b0: 63e3 20bc 1e0a e9bb f5a7 8dbb b614 45bc
000003c0: 969e 0339 5f0c 61b9 f49a 483b 6327 26ba
000003d0: e211 a4b7 6ac2 59b8 bbb0 12ba 6892 5fba
000003e0: 2766 6eb8 a23b 7fb8 83ab 16bb cf2f f6ba
000003f0: f542 0bb9 38e6 e4b8 2fe5 9cbb 0a64 40bb
-0.00012987263 5.0448692e-05 -0.0016185164 -0.00036864658 8.881483e-05 2.2388236e-05 0.002151887 -0.001305473
9.100436e-06 -2.713691e-05 0.0002635916 0.00019678214 1.2966839e-05 4.2205284e-05 0.00028198713 0.0013089802
-0.0064354255 -0.0015564869 0.0032422568 -0.002583214 -0.00032390794 6.114079e-05 -0.009739118 -0.00094680645
2.5839037e-05 9.166731e-05 0.00079621695 0.0020210033 5.3239673e-05 7.036948e-05 0.0022487028 0.002081398
9.228494e-05 -0.000111858026 0.002717293 -0.0061179763 -0.0013053834 -0.009260542 0.0011951245 0.004761225
1.9016517e-05 0.00012889048 -0.0005295246 0.002266999 7.930033e-05 0.00010006402 0.0015038792 0.002560987
7.849527e-05 3.231783e-05 0.002499123 0.0016840354 5.1020947e-05 8.723373e-05 0.000654901 1.1400785e-05
0.0009391919 0.0052887844 0.0033902435 0.005709988 -0.00011025868 -4.246919e-05 -0.004452032 -0.0023397752
9.45151e-05 2.7489787e-06 0.0043137153 3.236675e-05 4.095511e-05 3.5585147e-19 0.0013999643 1.2706291e-16
5.6003202e-05 -0.0001716518 0.00023808345 -0.0081447875 0.009064774 0.007593364 0.012421905 0.0055951313
6.540322e-07 0.000111355184 0.0003227148 0.00058371713 6.824237e-05 6.254145e-05 0.0018530382 0.0012349361
7.4275646e-05 3.1713393e-05 0.0027509928 0.0015304676 8.0253216e-05 6.3701336e-05 0.0012580869 -0.001252701
0.0032370822 0.005478805 0.0064407587 0.0071544223 8.054035e-05 0.00039574696 0.003670765 0.009384594
2.1183392e-05 5.649668e-05 0.0013790836 0.002620596 0.00017533562 -2.8166428e-06 0.008213452 -0.00015152269
0.00014395 0.00014815935 0.0007549657 -0.0039810906 0.01544073 0.01784086 0.01473696 0.025217794
7.3971624e-19 1.4794325e-18 2.4049203e-18 8.4522536e-20 1.4794325e-18 7.3971624e-19 3.6094605e-17 3.4781092e-17
7.3971624e-19 7.3971624e-19 3.5482e-17 1.0650967e-17 0.0 1.4794325e-18 0.0 2.273689e-17
3.280613e-17 3.6689943e-17 3.8317335e-17 2.9588664e-19 3.0751326e-05 0.00040852072 0.002754309 0.0037716082
0.00019878868 0.00016387223 0.0048452 0.0022341532 0.00020290323 0.000105301886 0.0069937035 0.004670362
0.00022090114 0.00023123482 0.0037926633 -0.0012911318 0.006544546 0.013825296 0.012964268 0.018538827
0.0 0.0 0.0 0.0 0.0 0.0 0.0 0.0
0.0 0.0 0.0 0.0 0.0 0.0 0.0 0.0
0.0 0.0 0.0 0.0 0.00036624947 -0.00013774149 0.0058301413 -0.00036394453
-0.00010576963 -0.000112360955 -0.0031130814 -0.0033172497 3.7560585e-07 9.335985e-06 0.00021199422 -0.0001888037
2.5878037e-06 -9.519779e-05 0.00015044819 -0.003732939 0.02092449 0.007844536 -0.005114101 0.0065245787
0.00024350928 0.00052700343 0.009330746 0.01370346 0.00017989925 0.000108314154 0.003987622 0.0022596808
0.00017544738 8.866032e-05 0.007868838 0.0040602568 0.00013540633 0.0003913676 0.0005948043 0.0040479223
0.0050811763 0.013464775 0.006953306 0.025451532 -0.00016847884 -0.00017606144 -0.0056471014 -0.0032533528
1.862824e-05 -2.5164323e-05 0.0009903999 8.6161584e-05 -7.268501e-05 -4.1844756e-05 -0.0031967103 -0.0015041702
-8.406163e-05 -0.0001276723 -0.00094083836 -0.000230873 -0.009819838 -0.0071118018 -0.0043230006 -0.012028864
0.00012552211 -0.0002146228 0.0030609937 -0.00063382665 -1.955865e-05 -5.1917894e-05 -0.0005595793 -0.0008528591
-5.683876e-05 -6.0852275e-05 -0.0022990413 -0.0018782559 -0.00013281016 -0.00010914769 -0.004788063 -0.0029356503

exp_avg_sq f4 [150, 20]
00000000: 90e0 9833 b7bd 6e32 0cc6 2e38 b1ea 2c37
00000010: a981 1631 2001 8131 6e2d 1436 0985 ad36
00000020: e7c1 2d30 b797 9030 98f5 4734 c163 ee33
00000030: 0fb9 f131 79db 9131 fe05 7137 155a ee36
00000040: c75c 2039 13ab de38 603f 0537 1603 5538
00000050: a63c d934 8d9d b133 8938 a339 cc8d c638
00000060: 3aff 1231 6e3f 9031 8e85 f535 e8b2 8c36
00000070: ddac 4931 efcf 2831 9eb7 d535 dce6 5236
00000080: c888 1d33 edf7 ad33 f323 a938 e46f 0039
00000090: aa67 463a 1f3f c539 6e93 2236 c0a8 9339
000000a0: 0ea9 8333 47ea 7632 3836 5538 0476 6837
000000b0: 5aea ab30 77f1 ea30 90be 5135 3269 cc35
000000c0: bb5d aa30 ddaa 3130 7f84 a735 82f0 f934
000000d0: 260e 3931 9f21 6432 d318 b536 08ef ae37
000000e0: 8ad9 ef38 7031 bf38 9282 0137 dfbf 1338
000000f0: 082e 7934 2adb 4734 22b8 da39 38d4 6c39
00000100: 6c4d fc30 62d3 6f30 bf8d 5f36 7efb d235
00000110: 6746 5432 48c4 a92e 0095 d336 60b2 0c33
00000120: ed20 0331 2f56 6e34 a553 9033 102b b139
00000130: 51ab 6c38 4ac0 fa37 3c1c d637 296e 4738
00000140: cc94 6133 f541 df32 34cf 5c38 39b3 e437
00000150: 183f 2331 3c52 8a31 0c6e 1a36 d70d b036
00000160: e48a e330 494d 8f30 2992 c435 10bd 7035
00000170: 625d f730 cfb8 be32 318a 0836 1b88 0138
00000180: ca7f 9b38 591b a938 863b 0a37 3896 2438
00000190: 9e98 b134 87e6 8b34 68e6 f539 7735 9c39
000001a0: 1eaf 4e32 9160 bf32 6068 7537 3d0c 1938
000001b0: e391 6f32 50c2 b831 affb 1e37 b8ff e636
000001c0: 9bd1 4632 d213 8d34 f022 4c37 5b63 c139
000001d0: 2b39 4d39 03cd 4739 7e11 3338 ceb0 a539
000001e0: b725 6f27 b0f6 6928 446b 1929 51b1 cf26
000001f0: 523c 6828 b725 6f27 2aff 062d 5815 012d
00000200: b725 6f27 523c 6827 11be 052d ce13 3c2b
00000210: 0000 0000 523c 6828 0000 0000 1345 562c
00000220: f14a e82c d9c5 0f2d 9ca9 1c2d de0d 1926
00000230: 7e5f fa34 e20d 2e34 fcd5 b039 3a05 1b39
00000240: caab 9f32 34a7 1c33 9867 8637 79a5 4838
00000250: 528d 4332 e5bb 5832 c634 4037 6811 3537
00000260: d013 2b33 05ac e133 d859 9938 b54e 0639
00000270: d617 533a 1b79 033a 8480 9038 6dbd e839
00000280: 0000 0000 0000 0000 0000 0000 0000 0000
00000290: 0000 0000 0000 0000 0000 0000 0000 0000
000002a0: 0000 0000 0000 0000 0000 0000 0000 0000
000002b0: 0000 0000 0000 0000 0000 0000 0000 0000
000002c0: 0000 0000 0000 0000 0000 0000 0000 0000
000002d0: 73bd da34 259b 2133 8498 6139 5b57 f437
000002e0: ff7b a232 7ba4 e032 8457 9637 0480 2738
000002f0: 511d 8d30 05dd 7031 acf0 b635 f0f7 1a36
00000300: c235 6531 ab73 ac31 bc69 9236 11c2 d736
00000310: 76a1 773a 409c 8b3a 55c7 c537 0e46 a339
00000320: d2af 3435 eae9 6633 2d13 b939 06b4 5538
00000330: a8b9 2c32 4b65 8e32 8d57 b636 8015 5c37
00000340: 4b8d 1d32 eecd 2332 f022 7037 5a6f 2737
00000350: ad33 fc33 ac36 9b32 3365 8539 5b98 a436
00000360: 28b1 d43a 6217 bf39 ad79 7838 0064 243a
00000370: 561c ff33 e048 8033 5e5b f738 6aec 6938
00000380: 0d73 8d31 9883 2132 ad6d 6536 eb53 5e37
00000390: fedd ab31 f211 8531 1129 b236 d384 4236
000003a0: 0102 5432 65b9 4533 4bb0 c537 7261 8d38
000003b0: a2d4 2539 33ea 8638 26f5 3837 fac8 d838
000003c0: de99 2a35 cc88 5f34 fbd0 fb39 7da2 3d39
000003d0: f56f 6732 1eb4 3b33 63fc 5a37 286e 9038
000003e0: 6a3b 1d32 280c 5132 74be 5a37 63f3 b136
000003f0: a8af ee32 09b7 3834 1eb4 5038 8875 6d39
7.118899e-08 1.38965595e-08 4.166928e-05 1.0306642e-05 2.1901576e-09 3.754522e-09 2.2080162e-06 5.171289e-06
6.3212585e-10 1.0520499e-09 1.8622666e-07 1.1100884e-07 7.035062e-09 4.2450066e-09 1.4366115e-05 7.1034397e-06
0.00015293351 0.0001061765 7.942173e-06 5.078603e-05 4.0463527e-07 8.270863e-08 0.00031131905 9.4677875e-05
2.1390876e-09 4.1981627e-09 1.8292792e-06 4.1931526e-06 2.934761e-09 2.4565414e-09 1.5923176e-06 3.1426816e-06
3.6678813e-08 8.101038e-08 8.065244e-05 0.00012248714 0.0007568548 0.00037621797 2.4225697e-06 0.00028163753
6.130914e-08 1.4372353e-08 5.0833652e-05 1.3855755e-05 1.2508494e-09 1.7094369e-09 7.813587e-07 1.52298e-06
1.2395768e-09 6.4635036e-10 1.2481031e-06 4.6554857e-07 2.6929086e-09 1.3278991e-08 5.3971103e-06 2.0853724e-05
0.00011436928 9.116798e-05 7.7194e-06 3.5226225e-05 2.3206678e-07 1.861305e-07 0.0004171739 0.00022585772
1.8357418e-09 8.7248087e-10 3.3312097e-06 1.5719413e-06 1.2356032e-08 7.720097e-11 6.305636e-06 3.275852e-08
1.9081725e-09 2.219683e-07 6.7207374e-08 0.00033792155 5.6426336e-05 2.9891864e-05 2.5523936e-05 4.7547892e-05
5.2522225e-08 2.599061e-08 5.264506e-05 2.7263175e-05 2.3755486e-09 4.0256776e-09 2.3011844e-06 5.24682e-06
1.6555899e-09 1.0426585e-09 1.4645676e-06 8.968209e-07 1.7998156e-09 2.2202952e-08 2.0346017e-06 3.0882755e-05
7.4147785e-05 8.063642e-05 8.2393e-06 3.924055e-05 3.3079863e-07 2.6058498e-07 0.00046901708 0.00029794473
1.2030595e-08 2.227924e-08 1.462744e-05 3.648944e-05 1.3944802e-08 5.3771956e-09 9.4761335e-06 6.8843037e-06
1.1572776e-08 2.6277718e-07 1.2167482e-05 0.00036885854 0.0001957162 0.00019054492 4.2693217e-05 0.00031602982
3.3188358e-15 1.298759e-14 3.4065863e-14 1.4411572e-15 1.2891667e-14 3.3188358e-15 7.673676e-12 7.33754e-12
3.3188358e-15 3.2229167e-15 7.602378e-12 6.68185e-13 0.0 1.2891667e-14 0.0 3.0449573e-12
6.6021568e-12 8.17254e-12 8.905234e-12 5.310133e-16 4.6635608e-07 1.6210063e-07 0.00033728767 0.00014783899
1.8588157e-08 3.647365e-08 1.6022284e-05 4.7837824e-05 1.1382626e-08 1.2615577e-08 1.1456379e-05 1.0792493e-05
3.983206e-08 1.0508669e-07 7.312343e-05 0.00012808556 0.0008052563 0.00050152995 6.890393e-05 0.00044391621
0.0 0.0 0.0 0.0 0.0 0.0 0.0 0.0
0.0 0.0 0.0 0.0 0.0 0.0 0.0 0.0
0.0 0.0 0.0 0.0 4.0743507e-07 3.7626837e-08 0.00021514489 2.9127745e-05
1.8915669e-08 2.615183e-08 1.7922146e-05 3.9935127e-05 1.0267432e-09 3.5050232e-09 1.3630101e-06 2.3092107e-06
3.3354444e-09 5.0190088e-09 4.363448e-06 6.4300916e-06 0.0009446362 0.0010651425 2.3577051e-05 0.00031141978
6.731108e-07 5.376379e-08 0.00035300237 5.0950817e-05 1.0053931e-08 1.6577038e-08 5.434215e-06 1.3118028e-05
9.170729e-09 9.534672e-09 1.4313249e-05 9.979902e-06 1.1744064e-07 1.8069237e-08 0.00025443136 4.9053174e-06
0.0016227113 0.0003644778 5.9241127e-05 0.00062710047 1.1879517e-07 5.9737204e-08 0.00011794896 5.5771707e-05
4.11672e-09 9.401354e-09 3.4187499e-06 1.325177e-05 5.0019926e-09 3.8728496e-09 5.309594e-06 2.8985567e-06
1.234048e-08 4.6036252e-08 2.3566323e-05 6.7415545e-05 0.00015814838 6.433241e-05 1.1024333e-05 0.000103371174
6.355384e-07 2.081826e-07 0.00048030153 0.00018084976 1.3471426e-08 4.3703146e-08 1.3052576e-05 6.886973e-05
9.152112e-09 1.2168165e-08 1.3038156e-05 5.303345e-06 2.7786726e-08 1.7202923e-07 4.975881e-05 0.00022645865

exp_avg f4 [150]
00000000: 601d fdba ac54 2dbc 0125 a23a 4e5b bcbb
00000010: 1671 b439 00e1 933b 2691 2a24 5ee5 083b
00000020: 0000 0000 d490 d03b 2af8 5c3c 58f3 bebb
00000030: f561 8b3b ceed 97bb 6b43 cd3b 0000 0000
00000040: fec9 dcbb cc31 9c3b b4ae cebb 2205 3a3b
00000050: d328 44bb 07d6 0a3b fa8f a93c 8e13 37bb
00000060: bcc5 5cb6 5451 b2bb 10e0 e3bb 903a 8b3b
00000070: b8b9 26bc 6473 e21a b7d0 37bc 681c 943b
00000080: a0e4 d03b f327 07bb 0000 0000 2a33 1eba
00000090: 0000 0000 c412 85bb c459 66ba 61d6 0a3c
000000a0: e93d 8dbb c880 fd3a 0000 0000 6e91 5ebc
000000b0: a7d6 c6bc 9435 0eba 20d9 f23a 8abe 55bc
000000c0: 4c51 2ebc 8418 8dbb b806 b0bb 0a75 62bb
000000d0: 1269 e53a 88f5 f23a e415 abbb 0000 0000
000000e0: 42d4 5fba 9bf0 073b a977 b13b e4fb e93b
000000f0: e695 30bc ab6d 513b d47c d0bb f1df 78bc
00000100: 1fe4 34bb 2f0b 3c3c 7ee7 afbc f4d3 6d3b
00000110: 89f1 ebbc 94a6 5fba 1936 223c 991a 90ba
00000120: 642d 8dbc f430 7b3c 1cf7 8bba c0ff dd38
00000130: 8d16 c73a 07b7 b5bc f474 59bb 1717 52bb
00000140: e077 4dbc ac07 67bc eb5e f2bb 9b2a 393b
00000150: 46bf 45bb 392d eebc 19f9 0b3b eaf3 bebb
00000160: 0000 0000 5b22 71bc 88cb 553b 864b 72ba
00000170: 5ce0 ac3a fb24 1cbc 4bd5 2c3b 1a73 41bb
00000180: 0000 0000 1cc6 d0bc f4e3 4abb 6cb4 b9bb
00000190: b8b0 f6bb bcb7 dd3a f8dc 32bc 48be 89ba
000001a0: 1f80 d2bc 2278 0c3a fef3 3d3c 7fd1 48bc
000001b0: 524e edbb e11d cabb 58cc 5139 ce3d 9cbb
000001c0: bc14 96bb a8b1 7cbb 6846 a6bc 0000 0000
000001d0: df68 6d3b 3ff2 2eba 2499 f8ba ce36 b43b
000001e0: 0b1a af3b 7953 e43b 0000 0000 7699 70bb
000001f0: 08ec 2a3a dddd 3cb9 98b4 a1bb 4cf9 e3bb
00000200: 0000 0000 410e 583c c4c1 46bc e3f0 bebb
00000210: 93a8 f0bb 7c0e edbb 567f bfba 48ce c6bc
00000220: b017 cfbc 85c5 153c e45f 703a 2e3a 963a
00000230: 2e37 203b 40ce 6fb9 8c39 61bb f88e d23a
00000240: 9fed 14bc 0000 0000 baf3 0dbc db0d 4c3a
00000250: 8e01 35ba 0a07 f7bb
-0.0019311123 -0.010579269 0.0012370647 -0.005748189 0.0003441653 0.004512906 3.698582e-17 0.0020888667
0.0 0.006364921 0.013486901 -0.0058273487 0.0042536207 -0.004636503 0.0062641404 0.0
-0.0067379465 0.0047666784 -0.0063074473 0.0028384407 -0.002993156 0.00211847 0.020698536 -0.002793524
-3.2897651e-06 -0.005441824 -0.0069542006 0.0042489246 -0.010176115 9.365783e-23 -0.011219195 0.004519988
0.0063749105 -0.0020623177 0.0 -0.0006034846 0.0 -0.004061075 -0.000878718 0.0084739635
-0.004310359 0.0019340748 0.0 -0.013584478 -0.024272276 -0.0005424854 0.0018527843 -0.013045916
-0.0106395 -0.004305901 -0.0053718947 -0.0034554624 0.0017502627 0.0018536309 -0.0052211154 0.0
-0.0008538404 0.0020742777 0.005415876 0.0071406234 -0.010777926 0.0031956236 -0.006362537 -0.015190111
-0.002760179 0.011477276 -0.021472689 0.0036289664 -0.028801696 -0.0008531597 0.009900593 -0.0010994255
-0.017233558 0.015331496 -0.0010678503 0.00010585738 0.0015189216 -0.022182 -0.0033181282 -0.003205722
-0.012540787 -0.01410095 -0.007396569 0.0028254155 -0.0030173822 -0.029074298 0.002135819 -0.0058274167
0.0 -0.014717664 0.0032622535 -0.0009242821 0.0013189423 -0.009530301 0.002637225 -0.0029518069
0.0 -0.02548509 -0.0030958625 -0.00566726 -0.0075283907 0.0016915719 -0.010916941 -0.0010508979
-0.025695859 0.00053584774 0.011593817 -0.012256979 -0.0072420025 -0.0061681126 0.00020007917 -0.00476811
-0.0045801084 -0.003855804 -0.020297244 0.0 0.0036225838 -0.0006673671 -0.0018966538 0.0054996973
0.0053436807 0.0069679585 0.0 -0.0036712564 0.0006520157 -0.00018011728 -0.0049348585 -0.0069572087
0.0 0.013186992 -0.012131158 -0.005827056 -0.0073443144 -0.0072343927 -0.0014610093 -0.024268284
-0.02527985 0.009141331 0.0009169562 0.0011461431 0.0024446952 -0.0002286965 -0.0034366576 0.0016064337
-0.009089856 0.0 -0.008664066 0.0007784047 -0.0006904834 -0.007538681

exp_avg_sq f4 [150]
00000000: 8322 6838 c64e cf39 f3b2 7d38 b1a7 013a
00000010: 64da 8d38 3c5d 1d3a c6f6 112d fb76 fc39
00000020: 0000 0000 123d 9639 9ea9 fc39 5861 2339
00000030: 53fa 2b3a c69d 7138 417e 4d3a 0000 0000
00000040: b539 f938 7336 203a 9c0b 2a3a 08d8 c13a
00000050: f025 1a39 bac9 bd38 f5b6 783a 3b18 a638
00000060: da36 1133 c384 8239 9b77 6439 c2dc c039
00000070: cf82 383a 8fd2 2331 7e87 253a 2003 a839
00000080: 94a4 ab39 69be 5439 0000 0000 c0b2 2a39
00000090: 0000 0000 116c 8b39 5f69 d139 d133 4139
000000a0: 0072 2439 39f4 963a 0000 0000 9131 1239
000000b0: f3b6 7d39 c9fe 2839 a7a3 9b37 3abf 7e3a
000000c0: f947 c738 a58e 3739 fa93 9838 2076 9839
000000d0: a5aa 8838 852d 9439 5535 263a 0000 0000
000000e0: 3715 0139 f182 4238 22a5 aa39 b461 3f3a
000000f0: ca35 1839 6ece cf3a 9c4c 6939 70e6 9239
00000100: 8a3f 083b 6ced b738 6e97 c739 ea5e f039
00000110: aa35 d538 5b95 dc38 b9bd 1238 1b49 f637
00000120: cf4e 3e3b 1c41 903a 08ee c437 f0c8 b138
00000130: 13ac e537 c562 653a 6cd8 8836 69f2 0638
00000140: 82b0 f239 3fe1 5a3a 66b4 7a39 028b 7538
00000150: 1fb0 6539 8bec 5e39 d62b a338 d663 c838
00000160: 0000 0000 a4fa a939 5de1 4839 a5de 5439
00000170: 6c7f 933a 2a17 6739 7af3 8439 3f58 c739
00000180: 0000 0000 d005 903a 8683 4b38 55a9 6039
00000190: e84b cb3a 6de4 a53a f4f6 903a 3492 7e39
000001a0: 4bee 963a 1df1 8b39 7d35 403a e586 a339
000001b0: 7fc5 b239 ab88 fc39 82bd da39 36dc 2338
000001c0: 164a 0e39 f04c 8238 0d13 2d39 0000 0000
000001d0: 5356 133a 2580 163a 4fe3 bd38 ea5c 4f3a
000001e0: 95a1 8a3a 9b26 173a 0000 0000 cdfd 1039
000001f0: 92dc 093a 0e39 0232 0345 363a 9fef a039
00000200: 0000 0000 b084 8839 ca21 fe39 413f 2739
00000210: 88b7 e739 5529 9439 7f72 6b3a a609 bf3a
00000220: ef44 5f39 1763 d239 10d6 dc39 2880 8838
00000230: b2ab 5039 a6d1 3f39 d7b2 0d3a 8715 e539
00000240: 9b54 893a 0000 0000 a6df 403a 63ca 5a38
00000250: 36c2 9838 3a1c 5439
5.5345252e-05 0.00039540807 6.048656e-05 0.00049459474 6.764082e-05 0.0006002968 8.2970904e-12 0.00048153833
0.0 0.0002865573 0.0004819156 0.00015581155 0.00065604335 5.7605816e-05 0.00078389427 0.0
0.00011883994 0.0006111629 0.0006486715 0.0014789114 0.00014700717 9.049797e-05 0.0009487712 7.92001e-05
3.381033e-08 0.00024894447 0.00021788331 0.0003678557 0.0007038535 2.383931e-09 0.00063144404 0.00032045785
0.00032738282 0.00020288829 0.0 0.00016279053 0.0 0.00026592662 0.00039942094 0.00018425217
0.00015682727 0.0011516876 0.0 0.0001394211 0.00024196114 0.00016116643 1.8553646e-05 0.0009717826
9.5024654e-05 0.00017505379 7.2754876e-05 0.0002907971 6.5167704e-05 0.00028262674 0.00063403446 0.0
0.00012310302 4.6375153e-05 0.0003254796 0.00073006307 0.00014515888 0.0015854368 0.00022249151 0.0002801898
0.0020789825 8.770343e-05 0.00038069062 0.00045847084 0.00010166627 0.00010518237 3.4985806e-05 2.9359528e-05
0.0029038673 0.0011005732 2.3475863e-05 8.477445e-05 2.7379056e-05 0.00087503745 4.0783107e-06 3.217385e-05
0.00046289345 0.00083496043 0.00023909062 5.8542013e-05 0.00021904752 0.00021259689 7.780611e-05 9.555339e-05
0.0 0.00032420934 0.0001915744 0.00020300837 0.0011253185 0.00022038506 0.00025358406 0.00038021986
0.0 0.001098806 4.8521462e-05 0.00021425386 0.0015510293 0.0012656577 0.0011059926 0.00024277793
0.0011515109 0.0002669179 0.0007332189 0.00031190287 0.00034097952 0.0004816701 0.00041721395 3.9067316e-05
0.00013569774 6.213214e-05 0.00016505663 0.0 0.00056204683 0.0005741141 9.054562e-05 0.00079102686
0.001057672 0.00057659455 0.0 0.00013827458 0.0005259003 7.579969e-09 0.00069530326 0.0003069611
0.0 0.000260388 0.0004847183 0.00015949925 0.00044196495 0.00028259555 0.00089816 0.0014575019
0.00021292617 0.0004012815 0.0004212116 6.508856e-05 0.00019900387 0.0001829328 0.00054053724 0.00043694323
0.0010477485 0.0 0.0007357545 5.2163738e-05 7.2840994e-05 0.0002022841
