checkpoints/dqn/checkpoint_ep8.pth (torch, 230125 bytes, 18 tensors)

layer1.weight f4 [150, 20]
00000000: 20af 573b 1c9f 86bc 278b 9cbd f1ad 2a3e
00000010: a365 73be 46c1 99be 633f 0dbd 343d 2abe
00000020: 23da 143e 53cd 7c3e 8786 5dbe b46a f7be
00000030: f6de 983e 9d34 80be bf22 473e 84d5 74be
00000040: ed26 3d3e 1548 e63c 6503 ffbd bbfc 99bd
00000050: 7f54 213e 55b9 84be bf67 8d3e 53aa 7fbe
00000060: ade9 63be 812f 1cbf d9a0 62be 6ee3 c0be
00000070: e58f e2be 2290 2abe e0ef 45be 3d27 963d
00000080: d7f6 c5bd cdda c93d 2adc f43d 2e0d ea3d
00000090: 540b 383d 8164 37be 0fb3 aabe 2aff 76bd
000000a0: 6bd8 203e a50a 823d 2de9 4b3e bfb2 a1be
000000b0: 9ae5 bebe d407 dbbd cde2 b1be f93e b9ba
000000c0: f7ce f9bd 87fb d6be 4ec3 953d ba55 bcbd
000000d0: b5b1 213d 4271 3f3d fa28 b3bd ef16 a33d
000000e0: f10d 823d 6b3c 72bb e575 4b3e 9a24 b8bd
000000f0: 0990 93bd 2fc6 aabd e536 593e abc2 403e
00000100: 35e7 433d 8533 34be b35b a0bd 1e15 24bd
00000110: ba10 52bd f2f9 893e 4b58 80bd 0580 43be
00000120: 38a6 9bbe 2199 8fbd cafd 65be 4622 9ebd
00000130: a3d0 ffbe f663 f8bd 3989 8dbd 1a31 a2bd
00000140: a02f 923e 3b28 a1be 089f 263d 711b b33d
00000150: 5eb3 9dbe b86d febc 9ca1 60bd 5a24 51bd
00000160: f8fe ccbe 7d36 66be 928d 8a3c 0b58 3cbe
00000170: ee40 c8be d0d1 e93d 0884 bebc 13bc 083e
00000180: d609 ea3d 28d1 e0bd 3e57 ff3d 680e 083e
00000190: ef01 00be 3a1f 1c3e 62b4 9a3d 30ac 683e
000001a0: 996d b9bd e71f 21bd 8a49 bb3d 1840 70be
000001b0: d06a 1cbe 8d44 6d3e f232 87be cc52 d2bd
000001c0: f602 f03d 8a03 4f3c 5699 20bd e5ab 553e
000001d0: 6bf5 9ebe 399b 85bd 4cc4 19bd 3261 023e
000001e0: dd4c 003d 3f6c c03d 7e1f dcbd e08b 973d
000001f0: 3a1f 47bd 9997 62be 6b3a 9f3d 60d4 223e
00000200: e940 0abc 6ff9 9e3d 419b 963d e8a7 02be
00000210: 0421 10be da1e 8e3d cb1f 05be 8db9 6ebd
00000220: b6ac a7bd 9509 43be a610 8b3b db7e a1bd
00000230: 2999 493d 8dcc f93c bb3f 7b3e 6f63 f7bd
00000240: aa9d 0dbe fc51 c2be db69 7ebd ef1c 483e
00000250: f1f3 0ebe 3a32 c43d 82cd d0bc fbce 103e
00000260: 3c49 f9bd 5f96 883d c7b0 383e 3689 7e3d
00000270: e3b3 a03d 71ce 563d 740d acbd 2091 2c3b
00000280: 14e4 59be e352 4ebd 6b18 58be 3c16 d6bd
00000290: 586a 133c cd45 3f3e 0d24 62be e10c e93d
000002a0: ad16 bcbd f323 a2bd 39f5 5b3d b45b 413e
000002b0: d7f0 7dbd bfa9 92bd 3fa1 64bd 2347 563e
000002c0: cc16 22be d0b7 78bd f650 38be 2fcc 0bbd
000002d0: d780 71be 5d83 d63b 16e4 293d afc5 d13c
000002e0: 6328 993d d22c cf3c 11cb 8e3d 5bdc b03e
000002f0: 7b0b b33c 7118 3bbe c916 4dbe 7c87 07be
00000300: 5afa b73b 3920 adbd 953d cebe 79b8 fabc
00000310: 45d8 16be 85ea 7b3e 2c0c 32be 1a2e 84bd
00000320: a359 1d3e 539e 9fbe edbb 3e3e d83b b9be
00000330: 9ea4 e6be 3c39 02bf 832f b6bd 517a 45be
00000340: a5cd e1bc edc9 da3e 314a 8d3e 2234 d0bb
00000350: cdc7 103e 672e 483d 302a ffbd 9d1f d3be
00000360: 3a0c 533e 0a9c 95be d5b9 173e 81ea 823e
00000370: 2d9e a73d 4309 e8bd d39d 0fbe 9f0c 68be
00000380: 3c8f f53d 7656 e3bc b5e8 c9bd 2deb d93d
00000390: 69ef a3bc 5504 8abe e6f5 82be 0cac aabd
000003a0: a0d0 5c3e eecd 193e b85c b5bd 3bec e8bc
000003b0: f5a1 833e 746b 2c3e e4d3 6abe c344 5c3e
000003c0: e872 d1bd 99ca 943e 60e9 323d 7c95 0fbe
000003d0: 8ff0 01be e4ad dcbd 0931 f83d ee5c d8bd
000003e0: 1494 b83d d965 4bbe ab41 c0bb 0915 1dbe
000003f0: 68cb 543d 7e91 4e3e 610e 883e 104d d1bd
0.003291078 -0.016433291 -0.07643729 0.16667916 -0.2376924 -0.30030268 -0.03448428 -0.1662491
0.14536338 0.246877 -0.2163335 -0.48323596 0.29857606 -0.2504014 0.19446848 -0.23909575
0.1847188 0.028110543 -0.12451819 -0.07518908 0.15754889 -0.25922647 0.27618214 -0.24967317
-0.22257109 -0.61009985 -0.22131671 -0.37673515 -0.44250408 -0.16656545 -0.19329786 0.07331703
-0.096662216 0.09856186 0.119560555 0.11428295 0.04493268 -0.17909433 -0.33339736 -0.060301937
0.15707557 0.063496865 0.19913168 -0.31581685 -0.37284547 -0.106948525 -0.34743348 -0.0014133147
-0.121976785 -0.41988775 0.07312642 -0.091960385 0.039476115 0.04673887 -0.0874805 0.079633586
0.06350315 -0.0036962281 0.19869192 -0.08991356 -0.07205207 -0.08338582 0.21212347 0.1882426
0.047827918 -0.17597778 -0.0782999 -0.0400592 -0.051285483 0.26948506 -0.062668405 -0.19091804
-0.30400252 -0.07011629 -0.22460094 -0.07721381 -0.49963865 -0.12128441 -0.06910939 -0.07919522
0.2855196 -0.31476006 0.040679008 0.087454684 -0.3080091 -0.031058177 -0.054841623 -0.05106006
-0.40038276 -0.22481723 0.01691321 -0.1839296 -0.39112037 0.11416972 -0.023256317 0.13352995
0.11427657 -0.109773934 0.12467812 0.13286746 -0.12500738 0.15246287 0.075539365 0.22721934
-0.09054107 -0.039337065 0.09144886 -0.2346195 -0.1527512 0.23170681 -0.26406056 -0.102696985
0.11719315 0.012635121 -0.039208733 0.20866354 -0.31046614 -0.06523747 -0.03754072 0.1273239
0.031323303 0.09395646 -0.10748194 0.07399726 -0.048613764 -0.22128142 0.07774814 0.15901327
-0.008438327 0.077624194 0.07353831 -0.12759364 -0.14075094 0.06939478 -0.1300041 -0.058282424
-0.08187239 -0.19046624 0.004243928 -0.07885524 0.04921833 0.030493045 0.2453603 -0.12079512
-0.13829675 -0.37953174 -0.06211267 0.19542287 -0.13960244 0.095798925 -0.025488619 0.14141457
-0.121721715 0.06669306 0.18036185 0.062142573 0.07846811 0.05244297 -0.084010035 0.0026331618
-0.21278411 -0.050372016 -0.21103065 -0.104534596 0.008997522 0.1867897 -0.22084065 0.113794096
-0.091840126 -0.07917013 0.05370066 0.18882638 -0.06199726 -0.07161283 -0.05581784 0.20925574
-0.15829009 -0.060722172 -0.17999634 -0.03413027 -0.23584305 0.0065464214 0.041477285 0.025606958
0.07478406 0.025289927 0.069723256 0.34543118 0.02185606 -0.18271042 -0.20028223 -0.13235277
0.005614561 -0.084534116 -0.40281358 -0.030605542 -0.14730938 0.24601181 -0.17387456 -0.06454106
0.15366225 -0.3117548 0.18626375 -0.3617847 -0.45047468 -0.5086858 -0.08895781 -0.19284941
-0.02756388 0.42732182 0.27595666 -0.006353871 0.14138718 0.048872378 -0.124592185 -0.41235057
0.20610133 -0.2922061 0.14816983 0.25569537 0.081844665 -0.113298915 -0.14025049 -0.22661065
0.119902104 -0.027751189 -0.098588385 0.10640559 -0.02001162 -0.2695643 -0.2557823 -0.083335966
0.21563959 0.15019962 -0.08855575 -0.028432956 0.257095 0.16837865 -0.22932392 0.21510606
-0.10226995 0.2906082 0.043679595 -0.14021868 -0.12689422 -0.107753545 0.12118728 -0.105646
0.09012619 -0.1986307 -0.005867203 -0.15340056 0.051951796 0.20172688 0.2657347 -0.10219777

layer1.bias f4 [150]
00000000: c7bf cf3d aae8 873e a14b 88bc 417b 583e
00000010: ef21 073e fd82 c33d 9fe8 92bd fde5 6d3e
00000020: 9c3e a1bd 5e8f 10be bb6f f0bd 566a 353e
00000030: a3a1 4d3d d0f0 4b3e df90 513e 408c 063d
00000040: 683c 1b3e d4ea 80bd a083 533e f7d3 8c3e
00000050: 0815 90bd e955 05be c85a ebbd eb59 90bd
00000060: f105 66be 3fb0 963e ec44 933e d4da 85bc
00000070: 4371 b23d 326d 71be 92aa 30bc 30da 10be
00000080: 15ce 31bd 9c60 543e af68 dbbc 533f 263e
00000090: 7b4c 1dbe f11d d43d 1a0a 813e 91cd 16be
000000a0: b3bc 413e decb 333e 8021 38be 6719 b03d
000000b0: b475 3b3e e222 123d b304 cf3d 1a2f 873d
000000c0: 2ecd 1bbe bed6 f83d ee35 df3d 3541 9abc
000000d0: 0488 d3bd a4c3 9ebd e7cb b9bd 6165 b7bd
000000e0: 0229 123e 8576 5b3d ab17 fc3d 6c09 863e
000000f0: 58f7 2dbe 7db3 973d 7656 d83c a3d1 00bb
00000100: 53ff 9c3e bc68 123e 9275 133e bdc1 01be
00000110: cc02 f2bd b7d8 46bd 94fd eebd 2e10 b8bd
00000120: 2f66 4a3e d467 dfbc 4fea ae3d a8bd 2dbd
00000130: 1197 96bd a377 8e3e 6a9d 30be fc8b b33d
00000140: 7461 c73d 4d72 9a3e 533a 4c3e 52cf 293e
00000150: 0994 a93d 383c 01be 5e74 ed3d 7d0f c93c
00000160: 6971 2cbe cbd4 1abe c884 d53d 4fea 743b
00000170: d6b9 573e 6d9f d43c 4280 bb3c 7223 b43d
00000180: e8a8 37be 6266 c6bd 6bf6 873d 3a02 383e
00000190: 1170 e93d 1ded c8bc e430 31bd ae57 00be
000001a0: 1b59 8e3e 49d5 8b3e 1ca4 49bd 0c89 2cbe
000001b0: 19df f1bd 048b 5d3c 4bf4 1b3e 9d6a 1b3e
000001c0: b18d 0bbe eef6 dcbd 5bd2 993d b776 8dbd
000001d0: 1560 c4bc ed84 773e 1fb2 963d 7a12 f03c
000001e0: bae3 873e 4d46 cfbd e65e 32be 3328 91bb
000001f0: 143e 40be 324e 1dbe fad3 0abe 61e0 04bb
00000200: afe7 1cbe 4c53 7abc d1e2 673e 0792 f6bd
00000210: d5b8 4cbd 67b3 33bd bdb3 0f3e 09da 813e
00000220: 5e3b 8c3d 1202 14bd 9ef3 2f3e 86d1 fb3b
00000230: 2b5f 63be 314e 2f3e 1d3f 9cbd 9d2a 903e
00000240: d05f 1ebe 8168 0ebe 68ee 0bbe 1651 203e
00000250: a177 8cbd 2007 1b3e
0.101440005 0.26544696 -0.016637625 0.21140768 0.13196538 0.095464684 -0.07173275 0.23232265
-0.0787327 -0.1411719 -0.11740061 0.17716345 0.050202977 0.19916081 0.2046542 0.032848597
0.15159762 -0.0629479 0.2065568 0.27505466 -0.070352614 -0.13021053 -0.114919245 -0.070484005
-0.22463204 0.2943134 0.2876352 -0.016339697 0.08713009 -0.23576811 -0.010782855 -0.14145732
-0.043409426 0.20739979 -0.026783315 0.16235094 -0.15361206 0.10357273 0.2520302 -0.14726855
0.1891964 0.17558238 -0.17981529 0.08598595 0.18306619 0.035677798 0.10108318 0.06600781
-0.15214989 0.12150334 0.10898958 -0.018829921 -0.10328677 -0.07752159 -0.090720944 -0.08954883
0.14273456 0.053579826 0.12309202 0.26179063 -0.16988885 0.074072815 0.026408415 -0.0019656203
0.30663547 0.14297765 0.14400318 -0.12671562 -0.1181694 -0.04854652 -0.1166946 -0.08987461
0.19765542 -0.027271189 0.085407846 -0.0424172 -0.073530324 0.2782565 -0.17247549 0.08766934
0.097353846 0.3016533 0.19944124 0.16582993 0.082801886 -0.12620628 0.11594461 0.024543518
-0.16840138 -0.15120237 0.10425717 0.0037371104 0.21066985 0.025954926 0.022888307 0.08795823
-0.17935526 -0.09687497 0.066387974 0.179696 0.11398328 -0.024527127 -0.043259516 -0.12533447
0.27802357 0.2731116 -0.049228773 -0.16849154 -0.118101306 0.013521913 0.15229909 0.15177388
-0.1362827 -0.107892856 0.07510825 -0.06907409 -0.023971597 0.24171801 0.07358193 0.029305685
0.2654093 -0.10120831 -0.17419013 -0.004429841 -0.18773681 -0.1536186 -0.13557425 -0.0020275342
-0.15322755 -0.015278649 0.22645117 -0.12039571 -0.049980957 -0.043872263 0.14033408 0.2536166
0.06847261 -0.036134787 0.17182776 0.0076848892 -0.22204272 0.17119671 -0.076292254 0.2815751
-0.15466237 -0.13907053 -0.13665164 0.15655932 -0.06858755 0.15139437

layer2.weight f4 [100, 150]
00000000: 28d8 393c 1a74 9b3c 3148 4d3d b473 ce3d
00000010: 18a1 33bd 4c68 80bd c8eb 603d 67fa 62bd
00000020: 9c3d 22bd 0f98 e5bc fd5d 7d3c 800e 73bd
00000030: 98b7 62bc 9340 9c3d 3a62 88bc 1a2f 84bd
00000040: cb9d 0fbd 6434 383d 5dea 21bc 3697 1a3c
00000050: 99f2 1dbd 9300 0bbd 7246 25bd 7750 b03c
00000060: 73e6 8e3d bec4 8e3d 4c2f 383c 9a7f f0bb
00000070: 127d 55bd b3e9 84bd e368 4b3a fb7e 0b3d
00000080: be94 68bd e9fb 0bbd c026 ce3c 409d 4fbd
00000090: 0c1f 5dbd f40f 3ebd 8cca d6bc 597a 85bd
000000a0: ac4f b9bd d531 24bd 2036 893d b348 883b
000000b0: d4ce 92bd bbb8 8abc 3607 14bd 7ebc 8bbc
000000c0: c4e4 25bb 0d7d 29bc afc8 863d 7930 85bd
000000d0: 031d 92bd bd4e 67bd 9a8e 233d 490c a33c
000000e0: 35f3 533d c300 c3bc 7110 873d c36d afbd
000000f0: 4847 3b3d ea0e c7bd f804 46bd cf2b 5bbd
00000100: bc3c 773c 917d dcbd cc58 083d 813a 8bbd
00000110: ee7d 603c d3a3 cbbd 9ca9 48bd ce10 4dbc
00000120: f2ef a5bd 1344 1a3d 4e5d adbc 10d9 a8bc
00000130: cb0a 013d ac79 6c3c c056 c73c 8461 5a3d
00000140: 2c44 323d baae 993d 7e6a 2c3d 0f85 7c3d
00000150: d3d4 84bd e54e 6f3d ff14 6a3c 32d7 e4bc
00000160: dc39 97bd 3b7d 993b 1be6 513d 1e17 253d
00000170: 94a6 bcbd c542 203c ead1 aebc 31d9 67bd
00000180: 97e5 363d c8da 063b 78b5 aebd 9619 e4bd
00000190: 1987 73bd 8512 5dbd 1123 a83c a750 72bd
000001a0: fc17 59ba 05cb e1bc 877d d3bc 656b 89bd
000001b0: 866f dcbc 30f3 0b3a 1cdf f93b 0205 823d
000001c0: bea7 00be 31a6 5fbd cec7 923b dcbe d1bb
000001d0: d867 653c 379b 60bd 5384 963d 2b26 13bd
000001e0: e805 89bd 7159 633d f782 f83b ac12 6f3d
000001f0: 9452 aabd d397 98bd 6580 8a3d c69b abbd
00000200: 8185 9cbd be33 5bbc c4be c2bd c027 19bd
00000210: 62a3 1d3d 7a39 6cbd 7791 adbb 8f23 28bd
00000220: d7ae b23d d8f1 b3bd d593 dbbc 6a0d 38bc
00000230: 2e46 4ebc 13a0 2dbd 9977 30bd 8528 3d3c
00000240: 0399 da3c 74da a23d 17ee 5c3c 3d97 b83c
00000250: 62f6 b3bd 718a 8e3c 5103 af3c 02a5 1d3e
00000260: 0a18 26bd 17d2 a53d 50a3 973d 7a9f f73c
00000270: ec46 24bd 1d10 b03d 9723 353d 6b8b 74bd
00000280: ac58 d0bd cff3 21be 5863 cdbd 9221 17be
00000290: c8eb bf3d ae31 e93c fdbe 27bc 2cc1 7bbd
000002a0: 9050 8c3d cae2 0c3e 5532 e4bd c725 27be
000002b0: 5748 72be 67f0 193d 5884 0e3d 8b11 a5be
000002c0: ed98 65bc 003f 16be eb3d 2b3e b4fb a0bd
000002d0: 4e60 603e 4b0d 8a3c b9c1 42be 0549 e4bd
000002e0: 674e 943d 820d 1fbc fba1 533d 67b6 d63d
000002f0: 1622 ba3d 5dc1 d03d 3a25 26be 475d f23d
00000300: 7be5 373c f21b 9a3d 75f7 9cbd ce45 583d
00000310: 1544 f5bd 174f 9ebd 11fa 87bd 4d70 1dbd
00000320: d0b3 2dbe 4bbe 71be 3606 833d 3dc0 f8bc
00000330: 0221 1ebe e999 87bd 011a eabd 5c13 7f3e
00000340: cb26 883d 4da2 493d cc94 3f39 9612 203e
00000350: 6b82 aa3c bfcb c8bd 9b85 333e e692 713d
00000360: 63b7 e6bc fe16 81be c675 6ebc fa25 21bd
00000370: 55a5 02be 3818 76bc ad3b 2c3e b72b 72be
00000380: f529 eebc cc8f 08be c842 20bd 26a2 793e
00000390: 60a6 adbd f6f2 b53c 37c5 3c3e 284a d23d
000003a0: d17d f43c 6b95 ccbc 0533 31bd b157 44be
000003b0: bd98 fbbd 75a3 2fbe 5134 9b3d 9c41 ac3d
000003c0: 781d bd3d 3c33 db3b bba3 d83d 8169 d73d
000003d0: 2605 073d b1a3 36be 298f 53bc 72ed 093e
000003e0: 54b7 503d dc98 a5bc a089 843d 82d7 023e
000003f0: 6a10 33be a882 8c3c 6238 be3c 3480 323d
0.01134304 0.01897626 0.050117675 0.10080662 -0.043854803 -0.06269893 0.05491236 -0.055414584
-0.039609537 -0.028026609 0.015464303 -0.05934 -0.0138377175 0.07629504 -0.0166484 -0.064542964
-0.035062592 0.04497184 -0.009882537 0.009435466 -0.038561437 -0.033936094 -0.040350385 0.021522744
0.069775485 0.06971119 0.011241745 -0.00733943 -0.05212123 -0.06489887 0.0007759465 0.034056645
-0.056782477 -0.034175787 0.025164962 -0.050687075 -0.053984687 -0.046401933 -0.026219629 -0.065174766
-0.09048399 -0.040086586 0.06699777 0.004159057 -0.071683556 -0.01693379 -0.03613969 -0.017057654
-0.0025313357 -0.010344756 0.06581246 -0.06503386 -0.0713444 -0.056471575 0.039930917 0.019903319
0.051745612 -0.023804074 0.06594933 -0.08565857 0.045722276 -0.097196415 -0.048344582 -0.053508576
0.015090164 -0.107661374 0.03328781 -0.06798268 0.013701899 -0.09943356 -0.048989877 -0.012516214
-0.081024066 0.037662577 -0.021162655 -0.020611316 0.031504434 0.014433306 0.024333358 0.053315654
0.043522045 0.075040296 0.042093746 0.061650332 -0.064859055 0.05842485 0.014287232 -0.027934644
-0.07384083 0.004684118 0.051244836 0.04030525 -0.0921146 0.009781544 -0.02134033 -0.056603614
0.044652548 0.002057718 -0.08530706 -0.11137693 -0.05945501 -0.05397274 0.020524533 -0.059158947
-0.0008281467 -0.027562628 -0.025816692 -0.06709937 -0.026908647 0.0005338667 0.0076254737 0.063486114
-0.12563989 -0.05460185 0.004479385 -0.006400926 0.014001809 -0.054835524 0.073494576 -0.03592507
-0.0669058 0.05550522 0.0075839716 0.058367416 -0.08316532 -0.07450833 0.067627706 -0.08379321
-0.07642651 -0.0133790355 -0.09509042 -0.037391424 0.038485892 -0.057672 -0.005296882 -0.041049536
0.08724754 -0.087863624 -0.02680389 -0.011233667 -0.012589974 -0.042388987 -0.043082807 0.011545305
0.02668429 0.07951823 0.013484499 0.022533054 -0.08787228 0.017399998 0.021363886 0.15394977
-0.04055027 0.08096712 0.07404196 0.030227412 -0.0401067 0.08596823 0.044223394 -0.05970327
-0.10173163 -0.15815662 -0.10028714 -0.147589 0.093711436 0.028466072 -0.010238406 -0.06146352
0.068513036 0.13758388 -0.111424126 -0.16323005 -0.23660408 0.03758278 0.03479418 -0.32239947
-0.014013511 -0.1467247 0.16722839 -0.078605086 0.21911737 0.016852042 -0.19019212 -0.1114674
0.072415166 -0.00970781 0.05166815 0.10484009 0.090885326 0.10193131 -0.16225138 0.118341975
0.011224146 0.075248614 -0.07664386 0.052800946 -0.11975876 -0.07729929 -0.06639493 -0.038437176
-0.16963124 -0.23607747 0.06397669 -0.030365104 -0.15442279 -0.06621153 -0.11430741 0.24909729
0.06648024 0.049227048 0.0001827061 0.1563209 0.020814141 -0.098044865 0.17531435 0.058977984
-0.028163617 -0.25212854 -0.014554447 -0.039342858 -0.12758382 -0.015020423 0.1681964 -0.23649488
-0.029072741 -0.13336104 -0.039126188 0.24378261 -0.08478999 0.02221058 0.18434606 0.102680504
0.02984515 -0.024973592 -0.043261547 -0.19174077 -0.12284992 -0.17152198 0.07578338 0.084109515
0.09234136 0.006689457 0.10578104 0.1051817 0.032963894 -0.17835881 -0.01291255 0.13469484
0.050956085 -0.02021449 0.064715624 0.12777522 -0.1748673 0.017152146 0.023220245 0.043579295

layer2.bias f4 [100]
00000000: cfb4 d03c 10a8 053e 9ce2 5a3c 23ba 4d3d
00000010: bf74 2cbd b88c 1b3e 7b7a 8cbd 161d 2bbd
00000020: acb8 433d 0a32 aebc 8e53 743c dec2 bdbc
00000030: 47a7 903a c43e 84bd cf05 033d 78f0 d73d
00000040: f63e afbd ef9d 11bd b548 703d 04fe b6bd
00000050: 6cd5 8fbd d78f 043e dc7c 883b fb74 39bd
00000060: b174 3fbd b03e 0c3d 527b f43d ca24 3cbd
00000070: 52a7 273e 6b24 213d 8e34 a93d ab94 ebbc
00000080: d7c0 723d a25c 32bc 571f 883d 0386 e93c
00000090: 24b1 b43d 44f7 d83d fd75 0f3e 3a5d 043d
000000a0: f5cb 743d 6048 113e 2586 81bd ae7a 013d
000000b0: 3300 a03d 061d 863c 3c01 85bc ba92 4ebd
000000c0: ee8d 90bc 3d9e b83d 01ad 233b d7b9 1abc
000000d0: b099 1e3e 4c47 bebb 46ac fc3d afb7 993d
000000e0: f6f8 e53c a2a7 15bd aa30 453d 8329 c83c
000000f0: daab 753d d51c 0c3d 2eaa 8f3d 908e cebc
00000100: c944 8f3c 0126 d0bd 0847 4cbb fd68 febc
00000110: 1589 68bc 2344 e03c 6c52 943d 938a 653d
00000120: 76ef 7ebc d15e aa3d 3c9a c43d 24f8 543d
00000130: 6682 6e3d 08a3 e5bc 5e2e 343d ef90 1bbd
00000140: 187e de39 90f2 503c 9c04 313e 6f29 f93d
00000150: e5b9 853c a52c 3e3d bc1a b8bd 786c 91bd
00000160: a63b e63c f962 573d b979 66bc 7621 89bb
00000170: ce7c c93d 4e21 8c3d 4487 2abd 98bf 143e
00000180: 7d86 d03d d9e4 173d 1c96 debc b02e 2f3e
0.025476841 0.13052392 0.013359692 0.050226342 -0.042103525 0.15190399 -0.06859299 -0.041775785
0.04778354 -0.021264095 0.014912499 -0.023164209 0.0011036181 -0.06457284 0.03198796 0.10543913
-0.08556931 -0.035551008 0.05866309 -0.089351684 -0.07023129 0.12945496 0.004165275 -0.045277577
-0.046742145 0.03423947 0.11937584 -0.045933522 0.16372421 0.03934137 0.08261977 -0.028757414
0.059265938 -0.010886343 0.066466026 0.028506285 0.088228494 0.10594037 0.14009853 0.03231547
0.05976482 0.14187765 -0.06324414 0.031611137 0.07812538 0.016371261 -0.01623594 -0.050432898
-0.017645802 0.090145566 0.0024974945 -0.009443722 0.15488315 -0.005806839 0.12337546 0.07505738
0.028072815 -0.03653682 0.048142113 0.024433857 0.059978344 0.034207184 0.07014881 -0.025214463
0.017488854 -0.10163499 -0.0031170268 -0.031055922 -0.014192839 0.02737624 0.07242283 0.056040358
-0.015560022 0.08318866 0.0959973 0.051994458 0.058229826 -0.02803184 0.04398953 -0.037980016
0.00042437087 0.012753144 0.17286915 0.12166106 0.016323993 0.046429295 -0.08989474 -0.07100767
0.028104614 0.052584622 -0.014067107 -0.004184897 0.09838258 0.0684229 -0.041632906 0.14526212
0.101819016 0.03708348 -0.027171187 0.17107654

layer3.weight f4 [3, 100]
00000000: d32a 613d 0821 a93d c788 3c3d 942a fdbd
00000010: 50ae 1cbd bd24 183e b78f 793a c26a 433c
00000020: ed5a 533e 627b 5bbd 6c12 15be cbd0 0fbe
00000030: 29dc f93c 50ed 76bd 0ede 193b 16c6 5b3e
00000040: b460 183d c54a 6c3e ce2c 123e 5811 42be
00000050: c7bb bcbc f471 5f3e b43c 95bd a9c3 8d3e
00000060: a620 04be c820 843d 739f fb3d a0a0 d23c
00000070: 2ffb 403e d8fe 9ebd 0093 b1bd 1610 073e
00000080: 6e7e 3d3e ab9a 2bbe 7101 7e3e 56ea 0a3e
00000090: fc9e 2b3e b0ad c63d 3dc9 173e 905c ec3d
000000a0: 128d e73d 3119 e83d 94e9 ffbc 0600 af3d
000000b0: c327 96bd c28a 1fbe 89bd 953d d83d f4bb
000000c0: f87a eebc b17e 3b3e 3372 32be 362b c93d
000000d0: bf1d 6c3e d8e3 29bd 60bd 1e3e a528 133e
000000e0: 8189 2b3e d38a 4f3d 5687 f7bd a1ee 1cbd
000000f0: 44d6 84bd 90cd 4f3e aafc b5bc d169 6bbd
00000100: 2f6e 6e3d cac8 d0bd a556 aa3c d65e dabd
00000110: e695 4d3e 53c7 7b3d c2fe db3d a83b 693d
00000120: c815 a8bd f877 3c3e 987f 593e e262 51bd
00000130: 8a86 9bbd 3a9d 35be e681 6abd a0a0 a4bc
00000140: 30b2 09be 1c91 a73c c7c4 4f3e 74a0 4e3e
00000150: 87b9 8cbd 3126 863e e82e 29be febd b1bd
00000160: eac2 19be da18 693e 1505 533c c6d9 bbbd
00000170: 784a 5c3e 0f9c c93d a4f8 a5bd 41e3 343e
00000180: 2a39 0e3e f6fa abbd cdf2 4cbc 2614 0f3e
00000190: e41e 133d 2089 2c3e 1e67 7ebc e5d7 fdbd
000001a0: b4e3 723d c162 543e 1366 bb3d daae a4bd
000001b0: fb79 f0bd 6e62 aebd 23db 36be c3ba 3c3d
000001c0: cd6b 4fbc 15ad 06be 52e4 f73d 6cee 373c
000001d0: 84f9 993c 5d17 2e3e 53a3 393e 1fd3 23be
000001e0: c8a9 b83d a122 373e 6674 69bb 8806 4d3d
000001f0: dc66 29be a061 fc3d 115f 473e b3a7 0d3c
00000200: 2c57 703e 02fa 1bbe 3a4a 04be ad3b 41be
00000210: 016c 063e 2b05 b3bd c32f 4b3e c55b 6b3e
00000220: 1db3 663e 6883 103e 414d 943d 8326 6c3e
00000230: 9eb4 683e 5cf5 5f3e 0c26 0f3d d41d 723e
00000240: 65fb 38be 51e3 00be 1cf3 053c 3a92 5e3d
00000250: 120d f2bd 3800 223e 7b8b 9fbb 1cba eb3d
00000260: d615 623e a599 28be 07ed 303e 3370 313e
00000270: 5f41 213e 5293 393e b194 5abd f8de edbd
00000280: 2477 3bbd 500e 503e 6875 113e 93a9 03bd
00000290: 5ad6 22bc f0f4 6d3d 3ebf 3bbd bdba 613d
000002a0: 1269 523e 3205 39be 5e2e 2e3e 936f 95bd
000002b0: 5008 2b3d 98b0 1b3e 4359 183e 3df1 873d
000002c0: 8440 75bd 526e e5bd 2acb ce3d bc54 29bd
000002d0: 9373 1fbe 1c70 3ebe e6a6 7b3e c7ab 043e
000002e0: 802f c2bb 21ca 1a3e e0c2 0dbe ad76 99bd
000002f0: 2561 cb3c 21af 293e 7465 333e f1e0 2abd
00000300: c033 8c3d 0ed1 0a3e b816 d83d 8781 123e
00000310: f451 da3d 46bf a6bd 8452 0ebe 38a6 383e
00000320: 8b8d a9b9 66c0 863d 1f0d 113d 2c9e 043c
00000330: 5062 9b3d 9a23 4e3e b32f 3dbd 3da4 843d
00000340: 0db0 2bbc 7a18 ab3c b81f b53d a051 38bd
00000350: fea6 9c3c 5a3a c539 60e7 6abd 7c69 be3d
00000360: 9468 843d adf5 38bd 5cb6 ff3b 71ba 05bd
00000370: 65e6 9d3d e2fb 563e 362e ae3c bbd9 213e
00000380: d7c3 62be 6b77 94bd 7892 303e 0b22 8b3d
00000390: 4241 423e af0a f7bd 4df6 b5bd f8b4 1b3d
000003a0: 8ac5 073e 0ebc 503d 3b6f 573e ee97 093e
000003b0: ee22 f73d 8838 5c3e 436e 4a3e dbbf 273d
000003c0: c9ce dcbc aa99 0e3e dfbc a63c aa96 003d
000003d0: 6b9a 4dbe 5704 bbbb 34e5 0cbd 6af0 243d
000003e0: 0ebe 803d ed12 443e 940e 24be b0ec e43c
000003f0: b8c2 2e3e e1a3 91bd bf09 80bb 197e 133e
0.05497248 0.08258253 0.04602888 -0.12361637 -0.038252175 0.14857765 0.00095200114 0.0119273085
0.20640154 -0.053584464 -0.14557809 -0.14044492 0.030500488 -0.060284913 0.0023478302 0.21462283
0.0372016 0.23075397 0.14274904 -0.18951929 -0.023038758 0.21820813 -0.07286969 0.2768834
-0.1290308 0.06451565 0.12286272 0.025711358 0.18845819 -0.07763451 -0.08670616 0.1318973
0.1850526 -0.1675822 0.24805237 0.13565955 0.16759866 0.09701097 0.1482286 0.115410924
0.11306204 0.1133293 -0.031239308 0.08544926 -0.07331803 -0.15580276 0.073115416 -0.0074536614
-0.02911137 0.18310048 -0.17426376 0.09822695 0.23058222 -0.041477054 0.15501928 0.14370973
0.16751672 0.050669502 -0.1208636 -0.03831351 -0.064861804 0.2029326 -0.022215206 -0.05747396
0.058210548 -0.101945475 0.020793268 -0.1066262 0.20076713 0.061469387 0.107419506 0.05694166
-0.082072794 0.1840514 0.2124008 -0.051119693 -0.07594021 -0.17735758 -0.057252787 -0.020096123
-0.1344688 0.020454936 0.20289908 0.20178396 -0.06871324 0.26201013 -0.165218 -0.08678816
-0.1501576 0.22763386 0.01287963 -0.09172396 0.21512783 0.09844219 -0.08104065 0.17664815
0.13888994 -0.083974764 -0.01250906 0.1397253 0.03591813 0.16849184 -0.015527515 -0.12394694
0.059299186 0.20740797 0.091503285 -0.08041163 -0.11742016 -0.08514868 -0.17857032 0.046076547
-0.012659979 -0.13151963 0.121040955 0.011226278 0.018795736 0.170011 0.1812871 -0.15998505
0.09016758 0.17884304 -0.0035622357 0.050055057 -0.16543144 0.12323308 0.19469859 0.00864594
0.23470753 -0.15232089 -0.1291894 -0.18870421 0.13127138 -0.0874122 0.19842438 0.22984226
0.22529264 0.14112628 0.072412975 0.23061566 0.2272515 0.21870941 0.034948394 0.23644191
-0.1806465 -0.12586714 0.008175638 0.05433867 -0.11818899 0.15820396 -0.0048689223 0.11510107
0.22078642 -0.1646486 0.17277919 0.17327957 0.15747593 0.18122604 -0.05336446 -0.116147935
-0.04576792 0.2031796 0.14204943 -0.03214414 -0.009938801 0.05809492 -0.04583668 0.055109728
0.20547894 -0.18068388 0.17009875 -0.07296672 0.041755974 0.15204084 0.148778 0.066378094
-0.05987598 -0.112026826 0.10097344 -0.041340575 -0.15571432 -0.18597454 0.24575385 0.12956153
-0.0059260726 0.15116169 -0.1384387 -0.07493339 0.024826596 0.16570713 0.1751917 -0.041718427
0.06845808 0.1355631 0.10551208 0.14307223 0.106601626 -0.08141951 -0.13898665 0.18032157
-0.0003233965 0.06579666 0.035412904 0.008094352 0.07587111 0.20130768 -0.046188068 0.064766385
-0.0104789855 0.020885695 0.088439405 -0.04499972 0.019122597 0.00037618243 -0.057349563 0.09297463
0.06465259 -0.04515617 0.0078037214 -0.032648508 0.0770996 0.20994523 0.02126227 0.15805714
-0.2214502 -0.0724934 0.17243373 0.067936026 0.18970206 -0.120625846 -0.08884869 0.038014382
0.13258949 0.050960593 0.21038525 0.13436863 0.12067209 0.2150594 0.19768624 0.040954452
-0.026954072 0.13925806 0.020353733 0.031393684 -0.20078437 -0.0057073045 -0.034398273 0.04026834
0.0628625 0.19147845 -0.16021186 0.027944893 0.17066467 -0.071113355 -0.003907412 0.14403571

layer3.bias f4 [3]
00000000: bbb0 84bd a096 223e b9f3 983d
-0.06479021 0.15877771 0.074683614

exp_avg f4 [150, 20]
00000000: 101f 1eb9 e9f6 58b9 6cbd 7d3a bd3c e6bb
00000010: 8c77 a237 d128 22b9 77e8 57bb 54dc 92bb
00000020: f89c 39b7 c1a6 bfb8 953d 95b9 2099 88ba
00000030: 99f2 3bb8 00da 55b3 137f 3ebb e402 45ba
00000040: 30fc 87ba d1d3 6abb 642f cb3b 3c91 e6ba
00000050: 2fba 3ab9 d6a7 a3b8 b67c 97ba 3247 cdbb
00000060: 00eb 2d35 3a04 86b7 3c92 0ebb a5b7 1d3b
00000070: 072a c4b8 fce1 bcb8 1e81 2cbb 85d8 62bb
00000080: 85f3 5bb6 9d26 6cb8 be5d a7b9 54e4 08bb
00000090: b9ac 1abc 0422 8a3a ed32 3dba 6205 34bc
000000a0: 1a87 3d39 50d7 ef38 f87c eb3b 8df2 703b
000000b0: bee2 3f38 eca8 8137 d738 2ab9 4aec 95b9
000000c0: 9f37 bbb7 4a2e e137 c029 40b7 d782 9a3a
000000d0: 0c8b b6b7 9f41 6038 2c31 3aba e2ac 373b
000000e0: 17a0 ef3b bea0 ec3a 90c6 ee3b 6777 943b
000000f0: 72fc 0d38 a805 f2b7 f841 1c3a e05c d1b9
00000100: 6657 b5b6 6abb 8636 a3e5 1539 bfb1 5638
00000110: 5bb6 97b8 342d 1e02 7aa0 efba 9fb1 1a02
00000120: 2eac 3fb6 4d6b f138 923e 14b9 981e 893b
00000130: c7b2 4ebb 5f0d 8f3a ff86 02b9 0ea6 66bb
00000140: b6fa 45b9 916a 6eb9 94ce 69bb c93d fcbb
00000150: 649a 5e37 7371 00b9 5f96 f5ba 475d a5bb
00000160: d09f f8b8 4951 a1b8 884c 3fbb 00bb 3abb
00000170: e263 e0b7 e426 85b8 11a7 77ba 4288 1ebb
00000180: 09e9 a3bb fe8c 01bc 335c 433b f9ed 5ebc
00000190: 4356 fcb9 136f 78b9 6a60 55bc bc3b 23bc
000001a0: d262 17b9 40cb b8b8 6c2d 9fbb 69f4 33bb
000001b0: cd85 28b9 ccc6 34b8 5901 8bbb 6d7e 05bb
000001c0: 78c7 a1b8 65ae 7fb9 b0be 05bb 89e1 0abc
000001d0: 230b 52bc 6ee7 65bc 55d7 32bb 888d bbbc
000001e0: 3544 1d02 ab70 1602 a267 1002 75ce 1302
000001f0: ab70 1602 3544 1d02 6a97 1b02 e1ed 1502
00000200: 3544 1d02 3544 1d02 6cf3 1802 914e 1202
00000210: 0000 0000 ab70 1602 0000 0000 5c62 1502
00000220: 0a21 1d02 6328 1e02 d8a7 1402 b022 1202
00000230: c4ce 0fba f586 15ba 8985 1dbc 54ce 8ebc
00000240: 2098 35b7 ce08 b8b9 057f 9abb eceb 62bc
00000250: 5acd 89b9 116a 7ab9 240f ddbb 5ec7 16bc
00000260: a53b 7bb8 f87d 04b9 e2aa 69bb b465 a8bb
00000270: 989b 94bc 9c05 b5bc c264 943b 9c80 12bd
00000280: 0000 0000 0000 0000 0000 0000 0000 0000
00000290: 0000 0000 0000 0000 0000 0000 0000 0000
000002a0: 0000 0000 0000 0000 0000 0000 0000 0000
000002b0: 0000 0000 0000 0000 0000 0000 0000 0000
000002c0: 0000 0000 0000 0000 0000 0000 0000 0000
000002d0: 6e77 ce37 b72f e738 e686 feba 7c39 e03a
000002e0: a11f cb37 b709 0038 8d2b a43a 02df c239
000002f0: 53b5 2337 70ba 4337 3854 c239 5daa 9639
00000300: fc46 1d37 17a4 fe37 257a 7038 4018 f0b9
00000310: 50d0 8bb9 d016 18ba 4f92 423a 5995 19bb
00000320: 6580 8639 2e1a 2aba 000e d23b 51e6 a7bc
00000330: 353b 8439 fe57 68b9 7e83 f43a d261 15bc
00000340: 0b3c a7b9 e0ec b9b9 38fb dfbb daa7 6ebc
00000350: 1ec4 b538 6334 c0b8 badd 153b b617 133a
00000360: 96ce 453c ae07 aa3b 7847 953c a925 b6bc
00000370: 981c b138 c446 70b8 11f8 603b bee9 2eba
00000380: 31bb 8d38 263e 77b7 9af8 b339 983f c2ba
00000390: 6276 f6b6 d410 a8b7 6220 c0b9 7840 aeb9
000003a0: 6903 bfb7 8091 bf37 f32f acba cd6d 953a
000003b0: 30b8 deb9 cc7b f43a cac2 bd3a 6ef7 cf3a
000003c0: ab7f e539 16ee 8f39 468b 853c 2ac0 533c
000003d0: 8047 d138 eb07 3439 ce33 5c3b 1e21 b83b
000003e0: 1aa8 fd37 d4a5 a338 005a 0a3a f86b 763b
000003f0: d7ca d7b7 ccff fc38 4619 083a d919 f43b
-0.00015079626 -0.00020691346 0.000967941 -0.0070262835 1.9367573e-05 -0.00015464729 -0.0032944956 -0.0044818316
-1.1063406e-05 -9.13865e-05 -0.00028465377 -0.0010421611 -4.481021e-05 -4.9791197e-08 -0.0029067441 -0.00075153843
-0.001037484 -0.0035831819 0.0062007178 -0.0017590891 -0.00017807701 -7.8037076e-05 -0.0011557552 -0.0062645907
6.478949e-07 -1.5976013e-05 -0.0021754643 0.002406576 -9.3538365e-05 -9.0066314e-05 -0.0026322077 -0.003461392
-3.277529e-06 -5.6302746e-05 -0.00031922566 -0.0020888047 -0.009440594 0.0010538702 -0.00072173664 -0.0109876115
0.00018074774 0.00011436513 0.0071865283 0.0036765665 4.574912e-05 1.5456659e-05 -0.00016233638 -0.00028595544
-2.2318038e-05 2.6843645e-05 -1.14538125e-05 0.0011788261 -2.176084e-05 5.3466876e-05 -0.0007102664 0.002802663
0.0073127854 0.0018053276 0.007286854 0.0045308354 3.3852128e-05 -2.8851282e-05 0.0005960758 -0.00039932784
-5.404395e-06 4.015329e-06 0.00014295294 5.1187115e-05 -7.2342074e-05 1.1620979e-37 -0.0018282079 1.1365108e-37
-2.856144e-06 0.00011511762 -0.00014137689 0.0041845553 -0.0031539665 0.0010914019 -0.00012448056 -0.003519419
-0.00018880781 -0.00022737148 -0.0035676109 -0.007697795 1.3268178e-05 -0.00012249294 -0.0018736831 -0.00504652
-0.00011855329 -7.692219e-05 -0.0029189903 -0.0028492808 -2.6749392e-05 -6.349178e-05 -0.0009447197 -0.0024190103
-0.005002145 -0.00790715 0.0029809594 -0.013606542 -0.00048129456 -0.00023692501 -0.013023475 -0.009962972
-0.00014437296 -8.811662e-05 -0.0048577096 -0.0027458912 -0.00016071573 -4.310049e-05 -0.004242104 -0.0020369545
-7.714232e-05 -0.00024383662 -0.0020407848 -0.008476623 -0.012820038 -0.014032228 -0.0027288992 -0.022894636
1.1554113e-37 1.1052594e-37 1.060919e-37 1.0859105e-37 1.1052594e-37 1.1554113e-37 1.1431055e-37 1.1015059e-37
1.1554113e-37 1.1554113e-37 1.1237055e-37 1.0748933e-37 0.0 1.1052594e-37 0.0 1.0975019e-37
1.154402e-37 1.1619597e-37 1.0921492e-37 1.0736341e-37 -0.00054858276 -0.0005704009 -0.009614357 -0.01743237
-1.082386e-05 -0.00035101775 -0.004714849 -0.0138501935 -0.00026283675 -0.0002388137 -0.0067461897 -0.009202806
-5.989861e-05 -0.00012635428 -0.0035654833 -0.005139077 -0.0181406 -0.022097401 0.004528613 -0.035767183
0.0 0.0 0.0 0.0 0.0 0.0 0.0 0.0
0.0 0.0 0.0 0.0 0.0 0.0 0.0 0.0
0.0 0.0 0.0 0.0 2.4612727e-05 0.00011023826 -0.0019418865 0.0017106975
2.4214214e-05 3.0526626e-05 0.0012525186 0.00037168717 9.757775e-06 1.1666314e-05 0.0003706531 0.0002873716
9.374457e-06 3.035557e-05 5.7334215e-05 -0.00045794435 -0.0002666735 -0.0005801739 0.00074223144 -0.0023434965
0.00025654133 -0.00064888864 0.0064103603 -0.020495566 0.00025221115 -0.00022158024 0.001865491 -0.00911756
-0.00031897458 -0.00035462435 -0.0068353675 -0.014566386 8.667282e-05 -9.165031e-05 0.0022867755 0.0005611138
0.01207318 0.005188904 0.018222556 -0.022234755 8.445344e-05 -5.7286365e-05 0.0034327547 -0.00066724035
6.758271e-05 -1.4736817e-05 0.00034326763 -0.0014819978 -7.345153e-06 -2.0034997e-05 -0.0003664522 -0.000332359
-2.2770562e-05 2.2836728e-05 -0.0013136849 0.0011400521 -0.0004248037 0.0018652617 0.0014477607 0.0015866586
0.00043773404 0.00027452473 0.016301762 0.012924233 9.9792145e-05 0.00017169087 0.0033600214 0.0056191823
3.0238229e-05 7.8033336e-05 0.0005277693 0.0037600975 -2.5724452e-05 0.00012063942 0.00051917543 0.0074493703

exp_avg_sq f4 [150, 20]
00000000: 871c fa34 83ba 1f34 ed45 5539 b0b1 d638
00000010: b8ac 1533 fcf1 4a33 d9d4 1b38 db2b 8638
00000020: 4eb7 0332 a290 0532 6430 fc35 1480 0335
00000030: 190b 8f33 adc0 a332 f1cd c238 defe b437
00000040: 5b91 983a 4a4e 3a3a 438e 1839 048e f839
00000050: b731 e235 b5bb fc34 85e0 a93a cd28 233a
00000060: 90be df32 7f25 a332 fd39 6337 eaa6 8c37
00000070: 699e 0f33 c43a 6d32 8812 5837 c8d5 b437
00000080: c02c 4334 4d1d e334 bf9b 9b39 7f46 2f3a
00000090: a32f 323b 7bbd b93a e917 9337 784e b23a
000000a0: 1765 2835 8d43 c933 8cb7 cb39 65aa 9238
000000b0: 27d4 b332 fd84 eb32 3ac9 ff36 0c02 b237
000000c0: 71c1 ee32 854d de31 af7b b737 b5e3 d136
000000d0: c3d4 6b33 99e8 e333 ac8a b138 bc82 bc38
000000e0: 03b0 973a e08e 5a3a 4831 2f39 0f82 023a
000000f0: a47d 3f35 1c3c 1935 7102 993a b86a 5e3a
00000100: 84b1 fc31 4a6e e330 1c93 f836 cffb 3736
00000110: b111 b933 af67 462e 65db 1d38 606e a432
00000120: 8cc3 3332 bed1 2935 8511 2135 339d 873a
00000130: e596 cd38 05f3 b138 54f7 7d38 8501 6639
00000140: 8b18 a134 1ea4 2c34 4589 6b39 fb74 1539
00000150: c654 ad32 3d1d 1333 91ec 9d37 84dc 3638
00000160: 2959 8532 27d5 0032 49d5 5e37 b06a 0c37
00000170: 7c22 ba32 4900 d833 e34b d037 289b ea38
00000180: fda9 df39 9e13 d139 5d18 8e38 ddba a339
00000190: ac2c 5935 138b 2735 b5eb 7c3a 7c46 353a
000001a0: cccc 3033 2f5a 2a33 5b42 6b38 2d69 5c38
000001b0: e4e6 cc33 1b85 3432 1535 5b38 d4c9 9c37
000001c0: 333c 5e33 242f 3635 5d29 2538 daff 503a
000001d0: 09d6 a939 a3a9 073a e9b9 1039 537d 5f3a
000001e0: aabe 0b27 37b7 0828 af4c b328 88ba 7226
000001f0: beb4 0728 aabe 0b27 04c5 9d2c d5db 962c
00000200: aabe 0b27 beb4 0727 bd4d 9c2c f3cd db2a
00000210: 0000 0000 beb4 0728 0000 0000 5e6a fa2b
00000220: 45bd 872c b906 a82c 2017 b72c 92df b225
00000230: a777 f035 ec04 8235 aec3 9c3a 01ee 4a3a
00000240: 6bef f933 6f31 7d34 a031 e538 3347 a439
00000250: 4c37 b033 5b35 7333 5c79 9438 f637 7e38
00000260: b312 2434 c5b7 0335 0302 4a39 cdeb 063a
00000270: e97e 333b fb34 143b 34f1 c339 9d60 0b3b
00000280: 0000 0000 0000 0000 0000 0000 0000 0000
00000290: 0000 0000 0000 0000 0000 0000 0000 0000
000002a0: 0000 0000 0000 0000 0000 0000 0000 0000
000002b0: 0000 0000 0000 0000 0000 0000 0000 0000
000002c0: 0000 0000 0000 0000 0000 0000 0000 0000
000002d0: 4f0b 5d35 daf2 4334 1bd0 ca39 8902 aa38
000002e0: f3de 5c33 7efb ba33 c84b 3138 3920 1639
000002f0: ea86 1531 832b cd31 81f3 5936 9c14 9c36
00000300: eeae fd31 700a e132 73a0 a036 a539 c437
00000310: 706d de3a f7f1 093b fff4 2c38 9da0 303a
00000320: c201 1536 e8f4 a934 0c07 913a 7e20 ab39
00000330: 8d50 7533 6737 a433 6d48 d137 b333 7038
00000340: 632b 9033 0951 7c33 d2d3 9838 2fa1 b938
00000350: e809 d034 283d f533 694c 2b3a c5d0 9f37
00000360: 91d4 c23b 2b68 f63a 8d4f 293a 9053 583b
00000370: 1b79 4634 0550 8933 ebee 0439 9ae9 5b38
00000380: b1b7 5b32 55f7 5d32 4a42 5237 d659 7e37
00000390: 1b1c d731 0656 8931 95ce bb36 1f02 6236
000003a0: b787 9132 0309 4a33 4b84 d937 57ab 7438
000003b0: 9b80 a939 9abf 5e39 52ed 1e38 16ca 4539
000003c0: 78c7 6c35 9054 ee34 8fe7 1b3a c086 ac39
000003d0: 6681 4433 3cfa 0134 a430 6838 01bb 5539
000003e0: 2117 0d33 216f c532 3cd6 f337 83be ae37
000003f0: 072b 7c33 a464 7434 1b79 8a38 c0c9 8339
4.6586885e-07 1.4875882e-07 0.00020339312 0.00010237412 3.4848853e-08 4.7251874e-08 3.715311e-05 6.397787e-05
7.666882e-09 7.774505e-09 1.8789547e-06 4.898768e-07 6.660975e-08 1.9063316e-08 9.2890004e-05 2.1576354e-05
0.0011639999 0.0007107003 0.00014548846 0.00047408056 1.6852781e-06 4.7075233e-07 0.0012960589 0.00062240363
2.6047275e-08 1.8992749e-08 1.3543756e-05 1.6767026e-05 3.3438855e-08 1.3808577e-08 1.2878918e-05 2.1557222e-05
1.817707e-07 4.2303364e-07 0.00029679944 0.0006686225 0.0027189038 0.001417085 1.75349e-05 0.0013603708
6.273198e-07 9.372079e-08 0.0003885593 6.993561e-05 2.0934818e-08 2.7418077e-08 7.623018e-06 2.1220207e-05
2.7794814e-08 6.4698633e-09 2.1872895e-05 6.255194e-06 5.4908707e-08 1.06128205e-07 8.465847e-05 8.98889e-05
0.0011572841 0.000833733 0.00016707659 0.00049784867 7.1335876e-07 5.708441e-07 0.0011673701 0.000848453
7.3543465e-09 1.654777e-09 7.4081017e-06 2.7415697e-06 8.617952e-08 4.5112077e-11 3.7636044e-05 1.9142306e-08
1.04636335e-08 6.326262e-07 6.000267e-07 0.0010346532 9.803268e-05 8.4852836e-05 6.0550243e-05 0.00021935075
3.0006444e-07 1.6078454e-07 0.00022462483 0.00014253326 2.0178401e-08 3.4252697e-08 1.8826018e-05 4.3597553e-05
1.5523783e-08 7.499046e-09 1.32818905e-05 8.36949e-06 2.1668932e-08 1.0058336e-07 2.483087e-05 0.000111868896
0.00042660526 0.00039878202 6.775626e-05 0.00031229007 8.0903806e-07 6.241473e-07 0.000964816 0.0006915105
4.1164455e-08 3.966323e-08 5.6090164e-05 5.255004e-05 9.541489e-08 1.0507644e-08 5.2263105e-05 1.8690633e-05
5.1743154e-08 6.786888e-07 3.9377588e-05 0.0007972695 0.0003239366 0.0005175119 0.00013802167 0.00085254497
1.9393484e-15 7.589245e-15 1.9906248e-14 8.4213413e-16 7.533198e-15 1.9393484e-15 4.4840815e-12 4.2876627e-12
1.9393484e-15 1.8832994e-15 4.4424174e-12 3.904512e-13 0.0 7.533198e-15 0.0 1.7793091e-12
3.857944e-12 4.7755935e-12 5.20374e-12 3.1029575e-16 1.7916217e-06 9.687187e-07 0.0011960173 0.0007741154
1.1638516e-07 2.3580445e-07 0.00010928814 0.00031333565 8.205697e-08 5.6626373e-08 7.079795e-05 6.0610437e-05
1.5280493e-07 4.906872e-07 0.0001926497 0.00051468314 0.0027388877 0.0022614587 0.0003737301 0.0021267303
0.0 0.0 0.0 0.0 0.0 0.0 0.0 0.0
0.0 0.0 0.0 0.0 0.0 0.0 0.0 0.0
0.0 0.0 0.0 0.0 8.234537e-07 1.8249139e-07 0.00038683493 8.106704e-05
5.1425513e-08 8.707046e-08 4.2270665e-05 0.00014317119 2.1759043e-09 5.971232e-09 3.2477258e-06 4.6515615e-06
7.3831563e-09 2.6198194e-08 4.7870503e-06 2.3391864e-05 0.0016969871 0.0021048763 4.1236166e-05 0.00067378004
2.2203753e-06 3.1656896e-07 0.0011064722 0.0003263987 5.7116768e-08 7.646923e-08 2.4948467e-05 5.7268608e-05
6.7134145e-08 5.8747023e-08 7.2873794e-05 8.85151e-05 3.8750227e-07 1.1419826e-07 0.00065345183 1.9051493e-05
0.00594575 0.0018799355 0.00064586924 0.0033008792 1.8484245e-07 6.394115e-08 0.00012677505 5.2431227e-05
1.2789244e-08 1.292013e-08 1.25324095e-05 1.5160496e-05 6.2605188e-09 3.9970045e-09 5.5970836e-06 3.367786e-06
1.6941938e-08 4.7039986e-08 2.593002e-05 5.8333706e-05 0.0003233001 0.00021242947 3.7891157e-05 0.00018862667
8.8207116e-07 4.4392482e-07 0.00059472857 0.00032906793 4.5752493e-08 1.2105096e-07 5.535841e-05 0.00020382927
3.2850156e-08 2.2984354e-08 2.9067618e-05 2.083113e-05 5.8712455e-08 2.2760884e-07 6.6029104e-05 0.00025136583

exp_avg f4 [150]
00000000: 26de f3ba 035b 85bb 9a7e 0b3c 5031 3b3a
00000010: 7cbf ddbb 6790 85bc ea6e 1f02 c494 9ebc
00000020: 0000 0000 008a 97b9 b0f8 ef3a 9e41 0f3b
00000030: e682 963c 133e 24bc 7618 02bd 0000 0000
00000040: b414 c3bb 2689 d3bc 7ff7 c5bc 1c45 07bb
00000050: bc17 ff3a 4670 013b 2ca8 83bc 3f2d 923b
00000060: aafb d73a a110 b23b 6114 a4bc cea6 833c
00000070: 4244 91bb 2759 1a02 fea6 58bc 906c 95bb
00000080: 8b25 1d3c 0195 a73b 0000 0000 7f40 e9bb
00000090: 0000 0000 619d 45bc 6a83 dcbb c0a3 14b8
000000a0: 4bcb d23a 352b b8bc 0000 0000 c78e de3c
000000b0: 4e8f 98bb f72f 33bb 6e9a c8bc 68c2 f23b
000000c0: aec0 993b cffd a7bb eeeb f13b 0ea6 563b
000000d0: 9741 01bc de5e 883c 85cf e83c 0000 0000
000000e0: a1f8 9abb b292 003c a5bc 3cbc 5c28 23bc
000000f0: 6eae b2bb bcf5 69bc 0b7b bcbb 84c7 0bbb
00000100: 1bce 89bc d8a7 eb3a 0a88 323c fc07 3c3c
00000110: ee34 0d3d d605 8d3b 8746 d1bb c84d 0dbc
00000120: 8898 11bb b8d8 5a3c 8dd9 09bb 52cd 07bb
00000130: b1f6 e3bb 4301 36bb 7ec9 8cb9 e2e9 963c
00000140: e268 4cbc 45cc 2dbc 3888 963b e07f 0eb9
00000150: bd16 e5bb c0a3 a63c 9820 98bb 966e f1bb
00000160: 0000 0000 80e3 65b8 a153 86bc 729e 18bc
00000170: a7e3 40bc 303b 48ba f072 883b d4f5 3a3b
00000180: 0000 0000 4869 1ebb f33e b7bb 93ba 3c3a
00000190: f142 37bd b508 4abb 91a8 8c3d d776 9dbb
000001a0: a555 2abd 2598 84bc 1cc2 ff3b 2da4 f53c
000001b0: 161d 4c3c b519 5f3c b2a4 65bc 5810 75bb
000001c0: c4f6 f13c 7d5d b0ba 159b c53b 0000 0000
000001d0: a04a 993c 4d70 b6bb 60c2 a8bb 5bf7 fe3a
000001e0: da34 eabc 0781 c13c 0000 0000 7a9c 0a3b
000001f0: 79f0 723c dd75 883c 5552 c03c be4c 2d3c
00000200: 0000 0000 3252 513b 2212 683c ea55 0e3c
00000210: c6ee 52bb a241 de3b 293e 503c e6fa f03b
00000220: f23b 873b 4dc6 03bd 97b8 373b e42e 133b
00000230: 31a7 573c 28f0 07bc 8f6e e83c 5214 57bc
00000240: 14b9 613d 0000 0000 53a4 0ebc c48e 68ba
00000250: 4e81 9b3b 3db5 92ba
-0.0018605634 -0.0040696873 0.008514071 0.0007140832 -0.0067672115 -0.016304208 1.1713306e-37 -0.019358046
0.0 -0.00028903782 0.0018308368 0.002185918 0.018372964 -0.010024565 -0.03176161 0.0
-0.0059533957 -0.025822233 -0.024165867 -0.0020640558 0.001946203 0.0019750758 -0.016071402 0.00446096
0.00164782 0.005434111 -0.020029249 0.01607075 -0.004433186 1.1339719e-37 -0.013223408 -0.004560061
0.0095914705 0.005114198 0.0 -0.0071182842 0.0 -0.012061448 -0.006729533 -3.5438454e-05
0.0016082315 -0.02248154 0.0 0.02716769 -0.004655755 -0.0027341822 -0.0244877 0.007408429
0.0046921587 -0.005126692 0.0073828613 0.0032752785 -0.007889173 0.016646799 0.028419266 0.0
-0.004729346 0.007847475 -0.011519586 -0.009958353 -0.0054529225 -0.014279779 -0.0057519726 -0.0021328637
-0.016821912 0.0017979098 0.010896692 0.011476513 0.034474306 0.004303674 -0.0063865813 -0.0086245015
-0.002221616 0.013357334 -0.0021034211 -0.0020721746 -0.006956898 -0.0027771748 -0.00026853004 0.01842207
-0.012476178 -0.010607784 0.0045938753 -0.00013589812 -0.006991236 0.020341754 -0.0046425574 -0.007367919
0.0 -5.480973e-05 -0.0163973 -0.00931512 -0.011773027 -0.0007638214 0.0041640922 0.0028527873
0.0 -0.002417164 -0.005592221 0.00071994326 -0.044741575 -0.0030827944 0.06868089 -0.0048054266
-0.041585583 -0.01618583 0.007805122 0.029985512 0.0124581065 0.013616969 -0.014016317 -0.0037393775
0.029536612 -0.0013455596 0.00603045 0.0 0.018712342 -0.0055675865 -0.0051501244 0.001945238
-0.028589655 0.023621095 0.0 0.0021150396 0.014827841 0.016657764 0.023476759 0.010577379
0.0 0.0031939861 0.014164479 0.008687476 -0.0032185777 0.0067827264 0.012710133 0.007354128
0.004127019 -0.032171536 0.0028033608 0.002245837 0.01316242 -0.008297004 0.028373031 -0.013127403
0.055108145 0.0 -0.00870617 -0.00088713714 0.004745639 -0.0011192929

exp_avg_sq f4 [150]
00000000: 7280 fe39 eb86 fc3a a101 0f3a 32f4 cc3a
00000010: c197 c039 a539 b23a 2f96 aa2c 2ab8 083b
00000020: 0000 0000 0c28 213a b353 043b 32ae 5139
00000030: f863 803a 0752 063a d0ba 493b 0000 0000
00000040: dec2 043a e797 a63b 06d9 0d3b 3a09 c03b
00000050: af10 cf39 2488 043a 38cf 013c 64d8 b739
00000060: fb23 fa35 3cfd 053a a35b 993a a6b5 fa3a
00000070: 401c b33a 4375 bf30 67a5 ae3a 8957 ee3a
00000080: b4da 0e3b 5904 d639 0000 0000 c64c 413a
00000090: 0000 0000 9a3d 103a af43 953a 5b53 7239
000000a0: 293c 8c39 c3b4 4a3b 0000 0000 d392 ac3a
000000b0: 47c9 023b 3b7f 623a f76c 9539 b38a 4b3b
000000c0: ffbd 3d3a 5f1e 113b a0ba 7239 9979 ac39
000000d0: c192 5c39 221f 9a3b 6ce0 843b 0000 0000
000000e0: bb1f 1d39 1685 a339 4da9 403a 4c52 f23a
000000f0: 725a b23a f497 9e3b 0121 c439 59b6 923a
00000100: 7af0 943b 5f06 7439 901d c73a 99aa 8f3a
00000110: 6ccf 1e3b bdb9 dd39 9104 5d39 b85e 3d39
00000120: 4d1a 1e3c 7dfa 953b 5e24 6d38 476b b339
00000130: 19c2 053a c7bf 423b fe86 8537 5310 6a3a
00000140: f203 463b 11ae 2b3b 776b 003b ec9a 7c39
00000150: a682 ca39 054e bc3a bc7c 463a 0d41 6c39
00000160: 0000 0000 ed2e a13a c7cf 8e3a 92c2 5b3a
00000170: 975d 9d3b 5a33 a639 3431 ac3a f04b 0f3a
00000180: 0000 0000 fa30 323b bb39 4139 33a1 0a3a
00000190: 107e e53b 1ea1 963b 8226 ab3b 63d5 8b3a
000001a0: 6b10 a23b fc84 1f3b c10c c43b bfa8 a93a
000001b0: 461d 7f3a 8d5c 983a 9a16 8a3a b756 3e39
000001c0: 67f7 153a 186e b938 e6b9 e23a 0000 0000
000001d0: 72a3 f13a 3641 483b 505d cb39 cc83 0a3c
000001e0: 906c 843b 4ee7 ce3a 0000 0000 4fdd 5239
000001f0: 175d 8c3a 9f72 563a 84ab d23b afa6 243a
00000200: 0000 0000 ab1f 1f3b 27e9 3b3b fd71 a23a
00000210: ab30 6b3a 7fde db39 c369 143b 2f85 9e3b
00000220: 1869 0f3b 96ae 153b 873b 0a3b e984 8739
00000230: 3d2b 8c3a 8b85 093a c47f b43b bedd ce3a
00000240: b28d 473c 0000 0000 e45d ca3a 8e81 ec38
00000250: 1d4a 5739 9a7a 7d39
0.00048542354 0.0019266283 0.000545526 0.0015636741 0.0003673416 0.0013597502 4.8483643e-12 0.0020861723
0.0 0.000614763 0.002019149 0.00019996686 0.0009795418 0.00051239174 0.0030781515 0.0
0.0005064438 0.005084026 0.0021644249 0.005860475 0.00039494547 0.0005055687 0.00792294 0.00035065704
1.8636923e-06 0.0005111282 0.0011700284 0.0019127622 0.0013665035 1.3930407e-09 0.001332444 0.0018184046
0.0021797838 0.000408205 0.0 0.0007373806 0.0 0.00055023434 0.0011387969 0.00023109971
0.00026747704 0.0030930496 0.0 0.0013166316 0.0019956396 0.00086401746 0.0002850068 0.0031058013
0.00072380895 0.0022143347 0.00023148442 0.00032896994 0.00021035505 0.0047034184 0.0040550735 0.0
0.00014984507 0.0003118894 0.00073494465 0.0018487661 0.0013607277 0.0048398916 0.00037408623 0.001119326
0.0045452686 0.00023272027 0.0015191305 0.0010960876 0.002423252 0.0004229079 0.00021077904 0.0001805973
0.009649825 0.0045769797 5.6539073e-05 0.00034221468 0.000510247 0.002971636 1.5917696e-05 0.0008928824
0.0030214754 0.002619628 0.0019595304 0.00024090306 0.00038625783 0.0014366513 0.00075716875 0.00022530947
0.0 0.001229731 0.0010895663 0.000838318 0.0048024165 0.00031700247 0.0013137222 0.00054663327
0.0 0.0027189837 0.0001842742 0.0005288303 0.007003553 0.0045968434 0.0052230963 0.0010668453
0.004945805 0.002434074 0.0059829657 0.0012943967 0.000973184 0.0011624262 0.00105353 0.00018152116
0.0005720765 8.841994e-05 0.0017297834 0.0 0.0018435551 0.0030556447 0.000387887 0.008454274
0.004041262 0.0015785487 0.0 0.00020109605 0.0010708895 0.0008180532 0.0064291377 0.00062809413
0.0 0.002428035 0.0028672905 0.001239359 0.00089717907 0.00041936708 0.0022646047 0.004837654
0.002188271 0.0022839657 0.002109261 0.00025848232 0.0010694038 0.00052460347 0.005508395 0.0015782637
0.012179779 0.0 0.0015439359 0.000112774884 0.00020531607 0.00024173633
