checkpoints/dqn/checkpoint_ep100.pth (torch, 229962 bytes, 18 tensors)

layer1.weight f4 [150, 20]
00000000: 5d01 f8bf 428a 3bc0 40b4 26bf ffc1 2bbf
00000010: c3dd f5bf a1c0 0fc0 5a8d f3bd e63f a9be
00000020: e2e4 0ec0 8875 36c0 aa86 dfbf ba8d 46bf
00000030: aa87 63c0 3864 eb3f 44dd e2bf 9728 4fbe
00000040: ddda b8bf 7133 9fbf 1b54 b23e 77e7 37bf
00000050: 4c8f 4dbf 69f7 03c0 1e1c f73d a3e0 693b
00000060: 701e 3ebf cbad 46c0 c713 07c0 341b d0bf
00000070: 46a2 7fbf d593 6e3e 0a64 abbe 7a04 63be
00000080: 4174 ffbe c54a 4d3f 458b f6be 5d84 303e
00000090: 07db 943d 66e4 0d3e 326a a93d 6a15 bbc0
000000a0: 2472 05c0 e0be 28be dd37 63be 0f82 283f
000000b0: 6482 9ac0 783a 93bf 44a9 08c0 ef28 723f
000000c0: 9d9a 723f d3e4 6f3f e261 b5bf c4a9 cb3e
000000d0: 6e53 a3bf b01f 5b3d 3b2f 40bf 60e3 f4bf
000000e0: 9e5a afbf cadf 1cbf 3155 00bf 4535 dcbe
000000f0: 9115 7840 b419 a240 82ce 8fbe f3da 993d
00000100: 20f0 9fbf 91b9 50c0 362a 633e b20d 49bf
00000110: d627 c73f 9d79 28bf 55d5 2b3d 8d12 fa3c
00000120: 23a2 4440 aabc 0041 ad1a b0be a9a2 48bf
00000130: 52ad a83f d0e3 78bd 1b82 5fc0 c71c 26c1
00000140: 1e44 86c0 0a3f 28c1 326d 8fbf ab91 8f3f
00000150: 6bb8 633f 443d 37c0 e0f6 39bd ef54 983e
00000160: 5276 46c0 bb55 bb3f acb0 a8bf 2eff d33f
00000170: 3cd0 4040 0600 b8bf 6b98 523d c850 bb3f
00000180: 6396 593f 419f 913e bbde b1c0 7c69 72c0
00000190: 02dd 17c0 ee52 e440 b378 a9bc 05f3 e8be
000001a0: 0aad 7dbf e195 3cc0 9bb8 12bf 8845 0ebf
000001b0: f47e ecbf 93ae dbbd 62aa 94bd 7624 af3e
000001c0: 83ad 103f 2b8e 1f3f 1735 af3e 99ab 103e
000001d0: fa6a d9be 728e 37bf ab40 1a40 bad1 25c0
000001e0: 2fee 19c0 21bd cdc0 7e6c b4be f6ec b53e
000001f0: 3372 a23f 7dc3 bebf 40a8 0e3e 526a e5be
00000200: fc7c c03f c356 0dc0 9ae6 59be 572d f03e
00000210: 60f0 c2bf 29da 35c0 35ba 3abf e464 37bf
00000220: 8362 86bf 8629 73be 3d5c 773f c6c8 a7c0
00000230: 9828 fc3f 5b64 85c0 5424 ebbe 4d11 993d
00000240: c094 a0bf 12d6 e5bf 8de5 d33e 340f 38be
00000250: 9ed3 1940 4c18 52be 1ad4 3abe 3e44 a5bd
00000260: a4c2 bdbf cc12 9ac0 9815 9fbc 6534 e6be
00000270: 3cc1 b43d ae64 a1be 5137 04c0 590a 6640
00000280: d345 2cc0 c725 9dbf b611 b73e a71f 28bf
00000290: 1211 213e f7e6 3bc0 9976 4cbf efab 10bf
000002a0: 8938 b03f 533a 023d e02e 8fbb 6076 a73e
000002b0: 4bd0 0740 6cd9 68bf 7c0b 463d 9977 a4bf
000002c0: 1389 f23d 9224 54c0 b4d5 633f 341d 9dbf
000002d0: fa38 3fc0 8580 b8c0 7886 bfbd 67bf 2ebe
000002e0: ae2b 10c0 b355 6ac0 9982 cdbd 3d01 dbbe
000002f0: b492 96be 6496 5e40 a61a b4bd e2e2 59bf
00000300: 4d69 e63f fadb 5640 fcb8 6fbf 70e2 2e3f
00000310: be18 a03f b17f cd3e 3d1c e4c0 57b6 06c0
00000320: 7a2a 7a3f 3ec6 97bf 3a48 26bf 263b 94bd
00000330: 0f97 ae3f 868f 6640 566a 06be bfbe 24be
00000340: 7a97 43c0 0a9e a7bf c314 8ebd 3ff1 233f
00000350: d826 1040 2522 9e3f 27b1 63be c0dd 8dbd
00000360: be4d 02be 1cac 3ac0 caea b4be 97f0 edbc
00000370: bec1 06c0 b3fa 5fbe a492 d5be 76ae 43bc
00000380: aa9a 2ac0 4f3e 20c1 4197 f5bd 39ea 08bc
00000390: 0985 0ec0 7b98 3cc0 123e cdbe 0f5b 723f
000003a0: da68 3040 91b3 933f 6d78 f43e f4a6 483f
000003b0: b5b2 64bf a181 863f 9393 fbc1 f969 fb3f
000003c0: d24c 0bc0 c52f 32c0 8371 35bd e58c b53e
000003d0: e53d 413f 2d1b 83bf b158 643d ba1f 803e
000003e0: 87f5 473e 61ca 743f 85aa 6b3e f9b9 4b3d
000003f0: eff3 8dbf dee9 14c0 20a9 b93e 3883 35be
-1.9375416 -2.9303136 -0.6511879 -0.6709289 -1.9208301 -2.2461321 -0.11892195 -0.33056563
-2.23272 -2.8509235 -1.7462971 -0.7756001 -3.5551553 1.8389959 -1.7723775 -0.20230328
-1.4441792 -1.2437574 0.34829792 -0.7183756 -0.8029678 -2.0619757 0.1206591 0.0035686872
-0.74265194 -3.1043575 -2.110582 -1.6258302 -0.99856985 0.23298581 -0.3347476 -0.22169676
-0.49893382 0.80192214 -0.4815313 0.17237993 0.07268339 0.13856658 0.08272208 -5.846364
-2.0850916 -0.16479063 -0.22189279 0.65823454 -4.828417 -1.1502218 -2.1353312 0.9459371
0.9476717 0.93708533 -1.4170496 0.39777958 -1.2759836 0.053497016 -0.7507207 -1.9131889
-1.3699529 -0.61278975 -0.5012999 -0.4300939 3.8763163 5.0656376 -0.2808724 0.075124644
-1.2495155 -3.261326 0.22184071 -0.7853652 1.5559032 -0.6581057 0.041951496 0.030526424
3.072396 8.046061 -0.34395352 -0.783732 1.3177893 -0.060764134 -3.492316 -10.382026
-4.195815 -10.51539 -1.1205199 1.1216329 0.88953274 -2.8631144 -0.045401454 0.297523
-3.1009717 1.4635538 -1.3178916 1.656225 3.0127096 -1.4375007 0.05141489 1.4634027
0.84995097 0.28441814 -5.558439 -3.7876883 -2.3728642 7.1351233 -0.020687437 -0.4549791
-0.9909216 -2.946648 -0.57312936 -0.55574846 -1.8476243 -0.10726657 -0.072590604 0.34207505
0.5651476 0.62326306 0.34220192 0.1412796 -0.4246443 -0.7170173 2.410197 -2.5909257
-2.4051626 -6.429337 -0.35239023 0.3553235 1.2691101 -1.4903408 0.1393137 -0.44807678
1.5038142 -2.2084205 -0.21279374 0.46909592 -1.5229607 -2.8414404 -0.7294038 -0.7163832
-1.0498813 -0.23746309 0.9662512 -5.2432585 1.9699888 -4.1685004 -0.45926154 0.07474003
-1.2545395 -1.7955954 0.4138607 -0.1797455 2.403541 -0.20517081 -0.18244973 -0.08069657
-1.4825025 -4.8147945 -0.019419476 -0.4496185 0.08825919 -0.31522125 -2.0658762 3.5943816
-2.6917617 -1.2277154 0.357557 -0.656733 0.15729168 -2.935972 -0.79868466 -0.5651235
1.3767253 0.031793904 -0.0043696016 0.327075 2.1220882 -0.9095676 0.048350796 -1.2848998
0.11842551 -3.314732 0.8899796 -1.2274537 -2.9878526 -5.7656884 -0.0935182 -0.17065202
-2.252666 -3.6614807 -0.10034675 -0.42774382 -0.294088 3.477929 -0.08794145 -0.8511182
1.8000885 3.3571763 -0.9364164 0.68314266 1.2507551 0.40136483 -7.128447 -2.1048791
0.97721064 -1.1857374 -0.6495396 -0.07237844 1.363985 3.60251 -0.13126501 -0.16088389
-3.0561204 -1.3095105 -0.06937554 0.6403999 2.2523708 1.235417 -0.22235547 -0.06927061
-0.12724969 -2.9167547 -0.3533538 -0.029045386 -2.105575 -0.21872978 -0.4171344 -0.01194345
-2.66569 -10.015212 -0.1199174 -0.008356624 -2.2268698 -2.9468067 -0.40086418 0.94670194
2.7563996 1.1539174 0.47748128 0.7837975 -0.89335185 1.050831 -31.447058 1.9641715
-2.1765637 -2.7841656 -0.044297706 0.35459056 0.7548507 -1.0242668 0.055748645 0.25024205
0.19527255 0.95621306 0.23014267 0.049737904 -1.1090068 -2.3267741 0.36261845 -0.17725837

layer1.bias f4 [150]
00000000: 5d89 65bf 3910 a3bf 0d5f a3bf 9ff7 8640
00000010: d224 1440 43f9 d93f 580e 53c0 80ed aec0
00000020: a9e0 71c0 055a 3e3f dd23 26bf 9b8d 353f
00000030: 4638 ef3e 0f18 89bf 006b 5fbf 6a63 b8c0
00000040: 244b bfc0 b0d1 18bf 2698 8740 8025 d8c0
00000050: c5d8 4bbf f5c4 71bf 1223 6340 b02e 80bf
00000060: a243 b6bf 8bfb c5be 9c7f f040 9654 18bf
00000070: f633 9a40 efe0 2dc0 4c99 7bbf d07e 90bf
00000080: 047c 90bf b018 86c0 1808 74be 057c f63f
00000090: 2d79 0941 d13e 02bf fb26 6abf d6e7 173f
000000a0: 8ff8 b8bf eefa 1bc0 7a04 b9be 9ca5 903f
000000b0: bd30 4bbf 8a4d 8a40 ad3d 0cc0 0157 c03f
000000c0: c130 1040 2f9f b1be 2315 9ec0 e637 4cc0
000000d0: 9436 3ac0 28f0 fcbe 2b0f c1bd 4f5a 933f
000000e0: 7cde a7bf b3ae d93f 4a4a 60be c90d 25bf
000000f0: 6def 42bf 2fca 49bf 0ab8 1e40 376a 01bf
00000100: 8bbc 6ebe 0df0 1041 cab7 ac40 3b5c 0141
00000110: 573a 55bf 79d7 2fbf 199b e53a c175 ebbe
00000120: 6e58 a0bf 63fe f9bf 3b1c 533f fafb 61bf
00000130: 90e4 61c0 82fa 5dc0 d509 e0c0 c718 aebf
00000140: bce8 83c0 1c68 45c0 161c 5440 52b1 493f
00000150: d049 3140 b61a 5a40 694b 61be e86c 3fc0
00000160: 4c49 6cbf 2899 87c0 9c62 31bf bcc0 1ec0
00000170: e0dd 5640 cc5e a0c0 0776 1fbf afd0 5ebe
00000180: 194a 8740 7eae 4ec0 9a14 14c0 2f93 2641
00000190: 6087 16bf 2bd5 f0bf fe29 1540 91d7 a7c0
000001a0: 75c8 62c0 d03f 1c40 7682 65c0 1933 6ec0
000001b0: 85cd 87c0 a256 a540 85ed 34be a464 14be
000001c0: ae34 d0be 0830 a0bf b517 b7bf f4c8 48bf
000001d0: 14d8 b1c0 4aee 03c0 637e 12be c77e 7740
000001e0: 378d 75c0 cb5a d23f 9b99 84be 60e2 b43f
000001f0: 3117 84bf 0e2a 2cbe 704a 16c0 1b39 0340
00000200: 183b 3740 6757 6abf 3521 4abf 084f 87bf
00000210: d45f 0ac0 d612 ecbe a47c 59bf 8b88 e3bf
00000220: 3862 9ebf 2873 0fc0 7404 8140 6198 89bc
00000230: 1d82 a840 cb6b efbf e100 09c0 f20d 34bf
00000240: 252f 85c0 f060 d03e e97f 13bf a5da ae3f
00000250: 5637 a3bf 1504 8040
-0.89662725 -1.2739326 -1.2763382 4.217727 2.3147473 1.7029194 -3.2977505 -5.4664917
-3.7793372 0.7435611 -0.64898473 0.709192 0.4672262 -1.0710467 -0.87272644 -5.7621355
-5.9779224 -0.5969496 4.237323 -6.7545776 -0.7962764 -0.9444116 3.5490155 -1.0014248
-1.423939 -0.38668475 7.5155773 -0.5950407 4.818843 -2.7168539 -0.9828079 -1.12887
-1.1287847 -4.1905136 -0.23831213 1.9256598 8.592084 -0.508771 -0.9146573 0.5933813
-1.4450854 -2.4371905 -0.36136228 1.130054 -0.79371244 4.321965 -2.1912644 1.5026551
2.2529757 -0.3469176 -4.94008 -3.1909118 -2.9095812 -0.49401975 -0.09426721 1.1511935
-1.3114772 1.7006439 -0.21903339 -0.6447416 -0.76146585 -0.7882413 2.4799829 -0.50552696
-0.23314111 9.058606 5.397435 8.085017 -0.83292145 -0.6868816 0.0017517536 -0.45988277
-1.2526987 -1.9530758 0.8246495 -0.8827511 -3.5295753 -3.4684148 -7.0012 -1.3601311
-4.12216 -3.0844793 3.3142142 0.78786194 2.7701302 3.4078803 -0.22001423 -2.991022
-0.9229934 -4.237446 -0.6929109 -2.4805136 3.3572922 -5.011572 -0.6228947 -0.21759294
4.227795 -3.2294002 -2.3137574 10.4109335 -0.58800316 -1.8815054 2.330688 -5.2450643
-3.543485 2.4413948 -3.5860877 -3.7218688 -4.243838 5.1668253 -0.17668732 -0.14491516
-0.4066519 -1.2514658 -1.430411 -0.7843163 -5.5576267 -2.061419 -0.14306025 3.8671129
-3.836744 1.6433958 -0.25898442 1.4131584 -1.0319577 -0.16812918 -2.3482933 2.0503604
2.8629818 -0.91539615 -0.7895692 -1.0570993 -2.162099 -0.4610812 -0.8495581 -1.7776045
-1.2373724 -2.2414036 4.0317936 -0.016796293 5.265883 -1.8704771 -2.1406786 -0.7033378
-4.162005 0.40698957 -0.5761705 1.3660475 -1.2751262 4.0004983

layer2.weight f4 [100, 150]
00000000: b9f2 b0bc 6f00 f83c eacd 8abd e193 93be
00000010: dd21 4d3e 6630 34bf 2196 71ba 5bfe 0fc0
00000020: 95df 943f fe4f c6bf 615d 4c3c 9f3a c4bf
00000030: 8529 673f 34d5 6d3f 530c 813d add6 5c3e
00000040: 561f d03f b8fc dcbd e9f5 463e 039d 0dc1
00000050: da4e 38c0 163d 9fbf 3788 93c0 da5a 293d
00000060: 90a4 8bbd e2ca 223b 5a8b f6c0 ce9a f13c
00000070: 045b 85bf 9f62 9ec0 86b6 99bf 93c3 50bb
00000080: d4bc 943d d075 a6bf 3620 c53c acc9 a93e
00000090: 4b55 d6bf 46b4 0c3d 6d11 013c 97ab 1fc0
000000a0: 3482 223e 6a0e c8bf 8ac0 b3bc 9a1b ce3f
000000b0: 7fbd 38bd b39e adbe 8a60 80bf 581d 143f
000000c0: 499e 8a3d 70f5 30bf 4861 64be cc2d 7fc0
000000d0: 34ef a8bf ba6f 3c3d fb05 8ebd 4234 99bf
000000e0: 294a 0ac0 7ef2 19c0 8095 903d ad09 6dbf
000000f0: 08be 553c 6ba7 14be 8884 463f 79d4 26bd
00000100: 11b9 96bd 4727 74c0 96fd 5cc0 f538 f3bf
00000110: 7c49 2ebe b4fc 42bc 607d b83d 8467 8b3a
00000120: b0a1 f43d 1893 90bd f62b 2e3d 736c b3bd
00000130: 3987 1a3f c379 8c3f 6a37 f1bf e046 d93c
00000140: 1256 2b3f 429d b0bd 134e 33bf 9aca dcbf
00000150: c234 9bbf 6b24 c1be 3d43 1abf b0ab 453f
00000160: b23d 333c bdab 2dbd 8d60 55bd f863 5f3f
00000170: cd95 093e 0b49 5abe 8ee6 233d e8cd 06bf
00000180: 555e a13e ee23 d23e e458 0440 c9a7 00c1
00000190: 35b6 85bb 6095 d9bc d2b3 0cbe d063 f23e
000001a0: 6797 f5bd 74be aa3f f0f7 a0c1 4784 c0bf
000001b0: a365 15c0 5f96 733e 7726 adbc 097f 793d
000001c0: d12d b1bd f6eb 833e 3425 f6bd b4f0 abbf
000001d0: d42c 06bf f832 223d 9a05 96bd 68e2 71c0
000001e0: 5c8a 4fc0 cfa6 c8bd e988 d1bc 0f7c 39bf
000001f0: 301a 8dbd 4c6e 6fbd 59a7 16c0 8d47 29c0
00000200: 3204 3ec0 a978 833f b1d9 833c 3383 2abd
00000210: b79d 21c0 c990 c2bb 5079 10bd 8bea 21bd
00000220: 1335 cc3c 69f4 e8bd 1aaf 813f 3783 43bf
00000230: 883a ffbe 150e 80c0 7d78 753f 512b a0bc
00000240: c56d 0dbd cd79 0640 58c3 acbd a005 09bd
00000250: 773f debb e27c bd3f 1e3a c23d 9633 ff3f
00000260: b2e7 54bf d788 e3bd e676 e0bf 6e67 a1c0
00000270: b1fe 7fbf e526 4740 7862 f8c0 8073 aabe
00000280: d6e4 c33e c772 583f c8a6 34c0 2b71 9cbf
00000290: ba9b e9bd 2de2 d6c0 ba1a 75c0 42f6 803e
000002a0: 996f 9ac0 8083 a83f d225 dabe da10 01bf
000002b0: 69be dec0 6d32 2b3e 3edf a5bf 0bb4 2e40
000002c0: 63e7 83be c3e1 a93f 13ee 6ac0 c423 a440
000002d0: 552c 093f 12c3 4fc0 562d f93d 9ff7 6840
000002e0: 5994 d9be e98f 90bf c7fa 3ac0 5238 3fbf
000002f0: 2509 4c3f 8f88 5c40 ec7c 7dc0 3ba5 8a3f
00000300: 394a 18bf 2605 52c0 0d18 25bf 181d 4bc0
00000310: 1929 923f e7e9 6b3e 16a3 92c0 b8dc 043f
00000320: 5574 3740 ef4f ec3f c8da 463f de15 06bf
00000330: a436 85bc e009 dcbf fe71 80c0 0efb a740
00000340: cd75 24bd 195c 433f 7d4c 04bf bb39 313e
00000350: b923 51be 7a35 963f fa7e 0bbd a5ba 65c0
00000360: fc98 a7bf f97f 2bc1 5d20 6fc0 7142 b6bf
00000370: 0469 debf 8d67 afbf 7d45 5a3f 6660 2fbf
00000380: c04e 943f 5533 57bc 1a8a 50c0 aa50 eec0
00000390: e5db c7bf b250 d5be f187 28c0 3d9d 803f
000003a0: ca38 78bd 6aed 91bf 8a23 e6bf 0ea0 77c0
000003b0: b567 21c0 c6d7 c5bf 4af5 d0be ec5d 5b40
000003c0: 5df0 05c0 8f7f 48bf b4ef 5ac0 af05 0040
000003d0: d821 d6bc 9b9c 893f 7260 c0bd 5ef1 d9be
000003e0: 2b35 abbe 636e 6b3f 25cb ccbf 44e5 a23e
000003f0: d8de 0740 5e92 1dc0 be18 643f e35c 7dbf
-0.021600114 0.030273644 -0.06777556 -0.2882376 0.20032449 -0.7038635 -0.00092157914 -2.2498996
1.1630732 -1.5493162 0.012473435 -1.533039 0.9029773 0.9290345 0.06301179 0.21566267
1.6259563 -0.1079039 0.19429745 -8.850833 -2.8798127 -1.2440517 -4.610378 0.04134641
-0.06818497 0.0024840166 -7.7045107 0.029492762 -1.0418401 -4.9495387 -1.2008827 -0.0031854853
0.072625786 -1.3004704 0.024063211 0.33161676 -1.6744779 0.03435161 0.00787769 -2.494848
0.15869981 -1.5629399 -0.021942396 1.6102173 -0.045102593 -0.3391014 -1.0029461 0.57857275
0.06768472 -0.6912451 -0.22302735 -3.9871702 -1.3197999 0.04600499 -0.069347344 -1.1969073
-2.1607764 -2.4054255 0.07059765 -0.9259289 0.013045795 -0.1451699 0.77545977 -0.040729973
-0.07359517 -3.8148973 -3.4529777 -1.9001757 -0.1702022 -0.011901069 0.090082884 0.0010635708
0.11944902 -0.07059306 0.042522393 -0.087609194 0.60362583 1.0974659 -1.8845036 0.026523054
0.6692821 -0.086237445 -0.70041007 -1.7249329 -1.2125475 -0.37723097 -0.6025885 0.772151
0.010940002 -0.04240011 -0.05209403 0.87261915 0.1343605 -0.21316926 0.040014796 -0.5265794
0.31517282 0.41043037 2.0679255 -8.040963 -0.0040805587 -0.026560485 -0.13740471 0.47341776
-0.11991768 1.3339372 -20.121063 -1.5040368 -2.3343284 0.23787831 -0.021136506 0.060912166
-0.08651317 0.2576596 -0.12018815 -1.3432832 -0.5241215 0.03959939 -0.07325287 -3.7794437
-3.2428198 -0.09797441 -0.02557798 -0.72454923 -0.068897605 -0.058454797 -2.353964 -2.644992
-2.969006 1.0271198 0.016095014 -0.041629028 -2.5252512 -0.00593767 -0.035271943 -0.03953032
0.024927652 -0.113747425 1.0131562 -0.7637209 -0.49849343 -4.001719 0.95886976 -0.019551905
-0.034528513 2.1011841 -0.08435696 -0.03345263 -0.006782468 1.4803736 0.09483741 1.9937618
-0.8316604 -0.111100845 -1.7536285 -5.0438757 -0.99998003 3.111749 -7.76202 -0.33291245
0.38260525 0.84550136 -2.8226795 -1.2222036 -0.114066556 -6.7151093 -3.8297563 0.2518788
-4.8261228 1.3165131 -0.4260698 -0.5041634 -6.9607434 0.16718455 -1.2958753 2.729739
-0.25762472 1.3272022 -3.670781 5.129366 0.5358327 -3.2462811 0.1216685 3.6401136
-0.42495993 -1.1293918 -2.9215562 -0.7469531 0.79701453 3.4458349 -3.9607496 1.0831674
-0.59488255 -3.2815642 -0.64489824 -3.1736507 1.1418792 0.23038445 -4.582408 0.5189929
2.8664753 1.8461894 0.77677584 -0.52377117 -0.016261406 -1.7190514 -4.013915 5.2493963
-0.040151406 0.76312405 -0.5167921 0.17307179 -0.20423783 1.173507 -0.03405664 -3.5895169
-1.3093562 -10.718743 -3.7363503 -1.4239026 -1.7375798 -1.3703476 0.8526228 -0.6850647
1.1586533 -0.013134797 -3.258429 -7.4473467 -1.5613981 -0.41663128 -2.6332972 1.0047985
-0.060601033 -1.1400578 -1.7979596 -3.869144 -2.5219548 -1.5456474 -0.4081214 3.4276075
-2.0927956 -0.7831964 -3.4208803 2.000347 -0.026139185 1.0750917 -0.093933955 -0.4256696
-0.33439 0.9196531 -1.5999495 0.3181554 2.1229763 -2.4620585 0.89100254 -0.9896986

layer2.bias f4 [100]
00000000: 2cb7 3bbf b526 b4c0 1db9 11be 834e ddbf
00000010: 1690 fdbc 9924 78bf 33a9 c7bd cde6 b7bd
00000020: 21c9 b0bf c324 d8be b7e8 d2bd 5572 6c40
00000030: e740 7c3f eb64 8bbe e326 96bf e640 f53e
00000040: 8d60 2a3f 478d 9dbf 8de8 9cbe 4798 1ebe
00000050: b3ee afbd b982 1ac0 7232 e6be f018 06bf
00000060: caac a43c 068f 14be 6271 b9bd 7e83 f13d
00000070: e4bc 4bbe 89a3 9d3b e59f c73e a9be 9f3b
00000080: 7c5b 21c0 d450 d6bd 803c d33e f6db 2bbe
00000090: 7df5 363f dff8 513e ab26 e9bf ddbe a73d
000000a0: 62d3 653f 5905 37bf 2372 35be 20e0 b93e
000000b0: 1466 4640 2dae 5fbf 31d1 e5bc 43d1 d1bd
000000c0: 3a6f 3ebf a780 f8bd 6910 94be d458 d33e
000000d0: 9160 90bf 0ba5 04be b1f6 17bf b4c8 1e40
000000e0: a702 b4bd 2b08 0e3e c437 683e b6e0 c5bd
000000f0: afe0 a83e 8ba5 5ec0 4c54 8bbd 0002 04bf
00000100: 047c 16c0 769a 08c0 349c 323e 5794 5bbf
00000110: 00cc a1bd 73a1 aabe b66a 87be b400 813e
00000120: a0a7 aa3f 5fa0 11be bf44 d9bc 0989 54be
00000130: e35d 973d c11d 26bf 1261 80be 9097 a8bd
00000140: 6230 963f a9df b93e 408f e0bc bdee 2f3c
00000150: 666d 0140 a325 3f3f 3ce9 fabf 24cc 28be
00000160: b710 e4bd 6836 ea3d b38b d6be be4e c3be
00000170: 4248 82c0 e8f5 debd 2d2b c8be f6d2 5dbd
00000180: 4f68 2fbe 201a b8bc cda5 e93e 931f b2be
-0.73326373 -5.629725 -0.14230771 -1.7289585 -0.030952495 -0.96930844 -0.09749069 -0.08979569
-1.381138 -0.42215547 -0.10298293 3.6944783 0.98536533 -0.27225432 -1.1730617 0.47901076
0.66553575 -1.230874 -0.30646172 -0.15487777 -0.0859045 -2.4142287 -0.44960362 -0.523818
0.020101923 -0.14507684 -0.09054829 0.11792658 -0.19896275 0.0048107547 0.38989177 0.0048750234
-2.5212088 -0.104646355 0.41257095 -0.16783127 0.71468335 0.20505093 -1.8214926 0.08190701
0.8977567 -0.71492535 -0.17719321 0.36303806 3.0999804 -0.87375146 -0.028053852 -0.10244992
-0.7438847 -0.121339135 -0.2891877 0.41278708 -1.127947 -0.12953584 -0.59360796 2.481
-0.087895684 0.13870303 0.22677523 -0.09662001 0.3298392 -3.478854 -0.06803188 -0.5156555
-2.3513193 -2.1344275 0.174424 -0.85773224 -0.07900238 -0.333263 -0.264486 0.2519585
1.3332405 -0.14221333 -0.026522039 -0.207554 0.07390954 -0.6488915 -0.2507406 -0.08232033
1.1733515 0.36303452 -0.027412057 0.010738072 2.0223022 0.74666804 -1.9602427 -0.16484123
-0.111360006 0.114361584 -0.41903457 -0.38146013 -4.0713205 -0.10886747 -0.3909544 -0.054156266
-0.17129634 -0.022473395 0.45634308 -0.34789714

layer3.weight f4 [3, 100]
00000000: 2d4a fe40 5f6b 7440 e54f 083d 2b92 2d40
00000010: 4d28 31bd 1864 8ec0 2a1d 48bd aab1 a5bf
00000020: ade2 ba3f 9686 fdbf 38d1 8840 2aa8 c9c0
00000030: 65f5 0341 f8e5 81c0 5b5f 8e40 5585 bfc0
00000040: 32a3 bfc0 7840 2441 fe66 58c0 26c5 a4bd
00000050: 5684 6e3d dc1d 4a40 05f9 03c1 6368 25c0
00000060: 7fdf b8c0 9c0a 32bc 0402 7c3d 8447 b0c0
00000070: 92a1 22bf 1f9e 333d be72 c73f 1e12 d93c
00000080: b0d1 7c40 4b17 1a3d 2d0c a1c0 f246 4ec0
00000090: 5b49 2541 7e33 4b40 926b ae40 246e bdc0
000000a0: 72e8 dc40 31f4 3940 4d5d 7740 de33 e140
000000b0: 34ea c4c0 dd0b d440 17a1 b13d 65c9 a3ba
000000c0: c489 2c41 8606 edbc 6693 66c0 1fc8 3f41
000000d0: 28bd 9a3f 2664 10bd 9660 80c0 7541 81c0
000000e0: b73d 7dbd 1184 6741 60ed 08c1 fe1c dcbb
000000f0: 2644 96c0 bf60 e83f 2cc9 973a 70ff 01c0
00000100: 553f 3640 42d2 1841 f8a0 6cc0 9264 a940
00000110: c8b0 d33c 3dfb 79c0 967d 6cc0 65ba 42c1
00000120: 6a38 e4c0 242a 423c fe76 2ec0 26d6 00c1
00000130: f00c 73c0 bfec 4d40 666a 82c0 ab0a 79bd
00000140: c8cb 2b40 bde8 84c0 9f82 d73c 3150 c8bc
00000150: 9abf 8740 eb9e 1040 dfb5 3040 2ee6 55c0
00000160: 76e4 1a3c fa97 b340 3029 a540 2d16 ecbf
00000170: e07d ed40 e81a 87c0 f35d 2340 758a 89bd
00000180: 5106 bc3c 6aee 8e3d a449 b4c0 56a3 84c0
00000190: 6462 f240 fec3 7b40 9269 b23c 6017 ff3f
000001a0: 807e 5bbd be71 83c0 8700 89bc 16bc b5bf
000001b0: a788 ba3f a0a1 24c0 048b 8940 5093 c9c0
000001c0: 3e1c 0341 6afa 9cc0 7236 9140 c783 bec0
000001d0: 5860 b9c0 6bd1 2341 d099 70c0 fd39 483d
000001e0: 3886 df3c 7782 5940 e78c 06c1 bb96 25c0
000001f0: e673 b2c0 b564 be3c 4ef2 72bc cc92 91c0
00000200: 7cf0 ddbf ad61 283c b700 ce3f 886e 593d
00000210: d45c 6b40 d172 103c cd2f 9ec0 d3fd 50c0
00000220: ecb7 2041 563b 4b40 939e bc40 2e9d ccc0
00000230: 52f1 dd40 23ee 3840 3703 7740 cc91 e940
00000240: 7b1e c6c0 058a d640 cf3f 44bc 2421 b33c
00000250: 6f63 2c41 ccf4 27bd 899f 66c0 64c7 3e41
00000260: 56eb 993f 866d 38bd 0bf5 55c0 b30b 82c0
00000270: 19cb f03b 5643 7441 c53d ffc0 6a01 66bd
00000280: 62f6 7bc0 86ec e43f 681b c2bc e18d 23c0
00000290: b362 3640 bd4b 1c41 46e2 53c0 0cb9 a940
000002a0: f45e 71bd 0663 8bc0 8dfb 86c0 4665 40c1
000002b0: 789c 02c1 09ff 133c 2095 13c0 cd77 c6c0
000002c0: 2e71 82c0 b66d 5240 ff9f 79c0 5c0f eabc
000002d0: ed86 2a40 aa42 84c0 3315 67bd 7d52 80bd
000002e0: 7b53 8940 c12b 1440 a0ee 5f40 1707 3dc0
000002f0: 9b2d 70bd 804f b340 4db6 aa40 4f67 12c0
00000300: a525 eb40 5a59 8ac0 7743 e33f b53a c3b9
00000310: 5b0f 2b3c b3cf 80bb 1014 c0c0 ff20 78c0
00000320: 68bd e040 881a 7540 526f 543d 2fbc 3340
00000330: f39a 9abb 98b9 8cc0 d0fb 9f3d bc47 cabf
00000340: a38b ba3f 7329 0ec0 29ef 8740 3c5c cac0
00000350: de07 0541 1b0f a0c0 8e15 9340 dd11 c9c0
00000360: ef79 b1c0 1562 2941 ea4e 5dc0 d777 aa3c
00000370: 474c 26bd c560 6540 1997 f8c0 c699 54c0
00000380: 95e1 aec0 09e4 003d 3bf8 043d 69a9 9dc0
00000390: 06f2 c4bf f2e7 10bd 8e24 cc3f 33ae 903c
000003a0: 5557 6f40 da24 17be 71ea 9fc0 f3a4 4ac0
000003b0: ef92 2441 e69a 4c40 b94d b840 5abc c2c0
000003c0: 0871 de40 ed50 3b40 9e4f 7240 31b5 e640
000003d0: 9f80 c6c0 1165 ce40 30c6 ae3a 802d ddbc
000003e0: dbbd 2c41 b1c9 e339 882c 44c0 326b 4141
000003f0: 3434 a23f 3113 453c 66bf 87c0 3d19 83c0
7.9465547 3.8190534 0.03327932 2.7120464 -0.043251324 -4.4497185 -0.048855938 -1.2944844
1.4600426 -1.9806697 4.2755394 -6.301778 8.247411 -4.0593224 4.44914 -5.985026
-5.9886713 10.265739 -3.3812861 -0.080454156 0.058231674 3.1580725 -8.248296 -2.5844963
-5.777282 -0.010866787 0.06152536 -5.50873 -0.63527787 0.043851968 1.5581892 0.026497897
3.9502983 0.03761987 -5.0327363 -3.2230802 10.330409 3.1750178 5.450631 -5.919695
6.9033747 2.9055293 3.8650696 7.0375814 -6.1535892 6.626448 0.086733036 -0.0012495933
10.783634 -0.028933775 -3.6027465 11.986358 1.2088976 -0.03525176 -4.0117903 -4.0392404
-0.061826434 14.469743 -8.557953 -0.0067173233 -4.695819 1.8154525 0.001158034 -2.0312157
2.8476155 9.551332 -3.6973248 5.2935266 0.025841132 -3.9059594 -3.6951652 -12.1705065
-7.1318865 0.011850867 -2.7260127 -8.052282 -3.7976646 3.2175748 -4.075488 -0.06080119
2.6843128 -4.1534104 0.026307402 -0.0244523 4.242139 2.2596996 2.7611005 -3.342174
0.009453883 5.612302 5.161278 -1.8444268 7.4216156 -4.2220345 2.5526092 -0.06715862
0.02295223 0.069790676 -5.6339893 -4.1449385 7.5745106 3.9338374 0.021778855 1.9929008
-0.053587437 -4.1076345 -0.016723884 -1.4198024 1.4572953 -2.5723648 4.2982197 -6.2992325
8.194395 -4.905568 4.537896 -5.953586 -5.7930107 10.238627 -3.759388 0.048883427
0.02728568 3.398588 -8.4094 -2.5873249 -5.5766478 0.02324138 -0.014828278 -4.5491695
-1.7339015 0.010277194 1.6093968 0.053083926 3.6775408 0.008816437 -4.943335 -3.2654922
10.044903 3.1754966 5.894357 -6.394187 6.935708 2.8895347 3.8595712 7.2990475
-6.1912208 6.704348 -0.011978104 0.021866389 10.774276 -0.04100494 -3.6034873 11.923679
1.2024944 -0.045026325 -3.3430812 -4.063928 0.00734843 15.266439 -7.97629 -0.056153692
-3.936913 1.7884681 -0.023694709 -2.5555346 2.8497741 9.768491 -3.3106856 5.3038387
-0.058928445 -4.355838 -4.218207 -12.024725 -8.1632 0.009032973 -2.3059769 -6.202124
-4.076316 3.2879462 -3.9003904 -0.028571777 2.6644852 -4.1331377 -0.0564167 -0.062657334
4.2914405 2.3151705 3.4989395 -2.9535577 -0.058637243 5.6034546 5.3347535 -2.2875555
7.3483453 -4.323407 1.7754964 -0.00037237038 0.010440673 -0.0039310097 -6.002449 -3.877014
7.023121 3.8297443 0.051863976 2.8083608 -0.0047181784 -4.3976555 0.07811701 -1.5803142
1.4573864 -2.2212799 4.2479444 -6.323759 8.314421 -5.001844 4.596381 -6.2834306
-5.5461345 10.586446 -3.4579415 0.020809097 -0.040600087 3.5840313 -7.7684445 -3.3218856
-5.465037 0.03146747 0.032463294 -4.92693 -1.538636 -0.03537745 1.5948656 0.01766119
3.7397053 -0.14760152 -4.9973683 -3.1663177 10.285872 3.1969543 5.7594876 -6.085492
6.9512978 2.9268143 3.7861094 7.209618 -6.203201 6.449837 0.0013334211 -0.026999235
10.796351 0.00043447086 -3.065218 12.088671 1.2672181 0.012028501 -4.242114 -4.096831

layer3.bias f4 [3]
00000000: 47c2 c6c0 e8d7 c7c0 8ead d4c0
-6.2112155 -6.2451057 -6.646186

exp_avg f4 [150, 20]
00000000: 0400 0000 0400 0000 0400 0000 0400 0000
00000010: 0400 0000 0400 0000 0400 0000 0400 0000
00000020: 0400 0080 0400 0080 0400 0080 0400 0080
00000030: 0400 0000 0400 0080 0400 0000 0400 0080
00000040: 0400 0000 0400 0000 0400 0000 0400 0000
00000050: 0400 0000 0400 0000 0400 0000 0400 0000
00000060: 0400 0000 0400 0080 0400 0000 0400 0080
00000070: 0400 0000 0400 0080 0400 0000 0400 0080
00000080: 0400 0000 0400 0000 0400 0000 0400 0000
00000090: 0400 0000 0400 0000 0400 0000 0400 0080
000000a0: 0400 0000 0400 0000 0400 0000 0400 0000
000000b0: 0400 0000 0400 0000 0400 0000 0400 0000
000000c0: 0400 0000 0400 0000 0400 0000 0400 0000
000000d0: 0400 0000 0400 0000 0400 0000 0400 0000
000000e0: 0400 0000 0400 0000 0400 0000 0400 0000
000000f0: f633 3abe 0400 0080 7c2f 16c0 0400 0080
00000100: be38 dfbc 0400 0000 7b83 ca3e 0400 0000
00000110: 95a3 d5bd 0400 0080 408c 38c0 0400 0080
00000120: 2be4 96bd 0400 0000 3d17 a2bf 0400 0000
00000130: 00f7 93c0 8a34 a9c0 2dc6 9fc0 a06f 8dbd
00000140: ba8b 883c 0400 0080 9ce1 b8bd 0400 0080
00000150: 05c1 e0bb 0400 0000 79e9 d43e 0400 0000
00000160: 21b2 c438 0400 0080 3f19 d23c 0400 0080
00000170: e620 cf39 0400 0000 7f04 053e 0400 0000
00000180: 8217 1abf 97aa eb3e fae0 6cbc 12fb a4be
00000190: 7d7b 12bf 0400 0000 9476 28c1 0400 0000
000001a0: ad7f e1be 0400 0000 8835 1440 0400 0000
000001b0: 1744 a9be 0400 0000 aad8 68c0 0400 0000
000001c0: 6d7b 5abe 0400 0000 91ff 20c0 0400 0000
000001d0: ea05 66c1 9238 56c1 b412 43c2 89ca 17c2
000001e0: 0400 0000 0400 0000 0400 0000 0400 0000
000001f0: 0400 0000 0400 0000 0400 0000 0400 0000
00000200: 0400 0000 0400 0000 0400 0000 0400 0000
00000210: 0400 0000 0400 0080 0400 0000 0400 0080
00000220: 0400 0000 0400 0000 0400 0000 0400 0080
00000230: 0557 363d 0400 0000 b64a 513e 0400 0000
00000240: bd43 a5bc 0400 0000 3b39 783f 0400 0000
00000250: 9c8f 913d 0400 0000 cbda 0840 0400 0000
00000260: 9b11 e93d 0400 0000 3df6 0f40 0400 0000
00000270: 72ab 1e40 e9e1 b83f 75c1 cabf a09f 0641
00000280: 0400 0000 0400 0080 0400 0000 0400 0080
00000290: 0400 0080 0400 0080 0400 0000 0400 0080
000002a0: 0400 0000 0400 0080 0400 0000 0400 0080
000002b0: 0400 0000 0400 0000 0400 0000 0400 0000
000002c0: 0400 0000 0400 0080 0400 0000 0400 0080
000002d0: 3c31 733d 0400 0080 c128 6f3e 0400 0080
000002e0: 5994 af3b 0400 0000 3d5b 7a3e 0400 0000
000002f0: b607 1b3c 0400 0000 b0f8 ab3d 0400 0000
00000300: fc2a 293c 0400 0080 b4d1 6b3e 0400 0080
00000310: 3986 323e fcb2 8a3f eb7c d83c 2ab8 ae3e
00000320: 0400 0000 0400 0000 0400 0000 0400 0000
00000330: 0400 0000 0400 0000 0400 0000 0400 0000
00000340: 0400 0080 0400 0000 0400 0080 0400 0000
00000350: 0400 0000 0400 0000 0400 0000 0400 0000
00000360: 0400 0000 0400 0000 0400 0000 0400 0000
00000370: 644a d13c 0400 0000 ef87 463f 0400 0080
00000380: 6b25 4fbd 0400 0080 8b68 32bf 0400 0080
00000390: ef90 99bc 0400 0000 8a25 f8be 0400 0000
000003a0: ceb3 12bc 0400 0080 0140 47bf 0400 0080
000003b0: 735f 373f 6557 2240 a54f 143d c283 da3d
000003c0: f587 afbe 0400 0000 8787 97c0 0400 0000
000003d0: e1de 10be 0400 0000 b68c 4ec0 0400 0000
000003e0: 2bba abbe 0400 0000 24b5 1cc0 0400 0000
000003f0: 9a95 373d 0400 0080 20ff debe 0400 0080
6e-45 6e-45 6e-45 6e-45 6e-45 6e-45 6e-45 6e-45
-6e-45 -6e-45 -6e-45 -6e-45 6e-45 -6e-45 6e-45 -6e-45
6e-45 6e-45 6e-45 6e-45 6e-45 6e-45 6e-45 6e-45
6e-45 -6e-45 6e-45 -6e-45 6e-45 -6e-45 6e-45 -6e-45
6e-45 6e-45 6e-45 6e-45 6e-45 6e-45 6e-45 -6e-45
6e-45 6e-45 6e-45 6e-45 6e-45 6e-45 6e-45 6e-45
6e-45 6e-45 6e-45 6e-45 6e-45 6e-45 6e-45 6e-45
6e-45 6e-45 6e-45 6e-45 -0.18183884 -6e-45 -2.3466482 -6e-45
-0.027248736 6e-45 0.39553437 6e-45 -0.104315914 -6e-45 -2.8835602 -6e-45
-0.07367738 6e-45 -1.2663342 6e-45 -4.6239014 -5.2876635 -4.9929414 -0.069060564
0.01666819 -6e-45 -0.090274066 -6e-45 -0.006858947 6e-45 0.41584376 6e-45
9.3791874e-05 -6e-45 0.025646804 -6e-45 0.00039506628 6e-45 0.12989996 6e-45
-0.6019212 0.46028587 -0.0144579355 -0.322228 -0.5721968 6e-45 -10.52895 6e-45
-0.4404272 6e-45 2.3157673 6e-45 -0.3305976 6e-45 -3.6382241 6e-45
-0.21336146 6e-45 -2.5155985 6e-45 -14.376444 -13.388811 -48.768265 -37.94779
6e-45 6e-45 6e-45 6e-45 6e-45 6e-45 6e-45 6e-45
6e-45 6e-45 6e-45 6e-45 6e-45 -6e-45 6e-45 -6e-45
6e-45 6e-45 6e-45 -6e-45 0.044516582 6e-45 0.20438656 6e-45
-0.020173902 6e-45 0.96962327 6e-45 0.071074694 6e-45 2.138354 6e-45
0.11380311 6e-45 2.2494042 6e-45 2.4792142 1.4443942 -1.5840288 8.413971
6e-45 -6e-45 6e-45 -6e-45 -6e-45 -6e-45 6e-45 -6e-45
6e-45 -6e-45 6e-45 -6e-45 6e-45 6e-45 6e-45 6e-45
6e-45 -6e-45 6e-45 -6e-45 0.059373125 -6e-45 0.2335539 -6e-45
0.0053582606 6e-45 0.24448867 6e-45 0.009462288 6e-45 0.08397043 6e-45
0.01032519 -6e-45 0.23029214 -6e-45 0.17434014 1.0835872 0.026426753 0.3412488
6e-45 6e-45 6e-45 6e-45 6e-45 6e-45 6e-45 6e-45
-6e-45 6e-45 -6e-45 6e-45 6e-45 6e-45 6e-45 6e-45
6e-45 6e-45 6e-45 6e-45 0.025548168 6e-45 0.7755117 -6e-45
-0.050572794 -6e-45 -0.6969077 -6e-45 -0.018745868 6e-45 -0.4846614 6e-45
-0.008954002 -6e-45 -0.7783204 -6e-45 0.7163002 2.5365841 0.036208767 0.10669662
-0.34283414 6e-45 -4.735294 6e-45 -0.14147522 6e-45 -3.2273383 6e-45
-0.33540472 6e-45 -2.448556 6e-45 0.044820406 -6e-45 -0.4355402 -6e-45

exp_avg_sq f4 [150, 20]
00000000: f401 0000 f401 0000 f401 0000 f401 0000
00000010: f401 0000 f401 0000 f401 0000 f401 0000
00000020: f401 0000 f401 0000 f401 0000 f401 0000
00000030: f401 0000 f401 0000 f401 0000 f401 0000
00000040: f401 0000 f401 0000 f401 0000 f401 0000
00000050: f401 0000 f401 0000 f401 0000 f401 0000
00000060: f401 0000 f401 0000 f401 0000 f401 0000
00000070: f401 0000 f401 0000 f401 0000 f401 0000
00000080: f401 0000 f401 0000 f401 0000 f401 0000
00000090: f401 0000 f401 0000 f401 0000 f401 0000
000000a0: f401 0000 f401 0000 f401 0000 f401 0000
000000b0: f401 0000 f401 0000 f401 0000 f401 0000
000000c0: f401 0000 f401 0000 f401 0000 f401 0000
000000d0: f401 0000 f401 0000 f401 0000 f401 0000
000000e0: f401 0000 f401 0000 f401 0000 f401 0000
000000f0: 8b60 073f 7d5a 0d39 a9eb ed42 8a99 8c3c
00000100: 6531 093e 5a84 8138 cc84 e641 4bb5 a63c
00000110: cb93 b13d b022 1339 72c3 d241 00ae 9a3b
00000120: 97cc 473e 4772 a439 c9bf 6e42 a213 7f3b
00000130: d20d 1f44 4c66 0e44 f3ba 2b43 1936 d23d
00000140: 9d65 d53d 1e9d 1a38 c35e 3441 80ea d13c
00000150: 8fd2 c43d a4ea 9637 d80d 4e41 166d d33c
00000160: e1d1 f13a 1899 8937 8238 183f ed9d 8a3b
00000170: 841d a73c 537b 8f37 1a5b 1f41 4d46 193a
00000180: 500c 6b43 72d4 2e43 41ae 153d 2be7 e141
00000190: a3d5 ce41 96bd ac3b 2f56 8e45 df2f fe3d
000001a0: 554f 0e41 0743 5539 9b7d 2a45 6602 3d3e
000001b0: d126 b040 4c6e 0539 532c a244 f1bc b53d
000001c0: d9a7 f940 e3cf b539 4015 bc44 41ca d83d
000001d0: 0ba6 7b46 00a1 7e46 fc29 8e47 d161 0247
000001e0: f401 0000 f401 0000 f401 0000 f401 0000
000001f0: f401 0000 f401 0000 f401 0000 f401 0000
00000200: f401 0000 f401 0000 f401 0000 f401 0000
00000210: f401 0000 f401 0000 f401 0000 f401 0000
00000220: f401 0000 f401 0000 f401 0000 f401 0000
00000230: 601b 5341 9d9c 783a 157e 0e45 c072 363e
00000240: 205f e83f 6748 0e3b 5989 f043 e8e0 4f3f
00000250: 1055 d93f b47d f239 3d25 6144 ab03 fc3d
00000260: 26f7 6240 8d0a c838 505a 8044 98ad b93d
00000270: baa9 9e46 7686 1a46 257c 3b43 8af2 1d47
00000280: f401 0000 f401 0000 f401 0000 f401 0000
00000290: f401 0000 f401 0000 f401 0000 f401 0000
000002a0: f401 0000 f401 0000 f401 0000 f401 0000
000002b0: f401 0000 f401 0000 f401 0000 f401 0000
000002c0: f401 0000 f401 0000 f401 0000 f401 0000
000002d0: 65c6 323f 5cec c537 e039 a142 a5a9 e53c
000002e0: ae69 6b3e a30e d637 f9ef 5642 2109 2e3d
000002f0: e3fa 443e 3990 cc37 3c75 1842 44d5 cb3b
00000300: 37da 413d ddf2 cd37 4c9c cd41 789d 563a
00000310: cb3b 8644 3a14 1744 ba7a 523e babc 3543
00000320: f401 0000 f401 0000 f401 0000 f401 0000
00000330: f401 0000 f401 0000 f401 0000 f401 0000
00000340: f401 0000 f401 0000 f401 0000 f401 0000
00000350: f401 0000 f401 0000 f401 0000 f401 0000
00000360: f401 0000 f401 0000 f401 0000 f401 0000
00000370: 5ebf d43f d08f 423a ac37 8043 dd34 c63d
00000380: c2ef 1f3f c868 053b f07c 0a43 b529 333f
00000390: aa13 f63e 5831 9939 c33d cd42 a725 ec3d
000003a0: 6389 323f 5451 7939 5f52 2743 ee4c 233d
000003b0: fcb1 c044 2408 2545 76c4 fe3e 4b4b fb44
000003c0: 744a 9340 66b7 8a3a 89b3 3344 dcb0 8f3d
000003d0: c682 b83f 8d09 563a 4394 b143 ff09 e63e
000003e0: 80d7 c63f 96fe 1639 8e4a 6043 c2eb 783d
000003f0: 1635 3c3f a24a c038 b0f3 6143 4a72 4f3c
7e-43 7e-43 7e-43 7e-43 7e-43 7e-43 7e-43 7e-43
7e-43 7e-43 7e-43 7e-43 7e-43 7e-43 7e-43 7e-43
7e-43 7e-43 7e-43 7e-43 7e-43 7e-43 7e-43 7e-43
7e-43 7e-43 7e-43 7e-43 7e-43 7e-43 7e-43 7e-43
7e-43 7e-43 7e-43 7e-43 7e-43 7e-43 7e-43 7e-43
7e-43 7e-43 7e-43 7e-43 7e-43 7e-43 7e-43 7e-43
7e-43 7e-43 7e-43 7e-43 7e-43 7e-43 7e-43 7e-43
7e-43 7e-43 7e-43 7e-43 0.5288169 0.00013480517 118.96027 0.017163057
0.13397749 6.175852e-05 28.814842 0.02035012 0.086707674 0.00014031935 26.345432 0.0047204494
0.19511639 0.0003136566 59.68729 0.0038921614 636.21594 569.5984 171.73027 0.102642246
0.10419772 3.6862788e-05 11.273135 0.025624514 0.09610473 1.7990656e-05 12.87838 0.025808852
0.001844939 1.6402963e-05 0.59461224 0.004230252 0.020399816 1.7104356e-05 9.959742 0.00058469624
235.0481 174.82986 0.036543135 28.237875 25.854315 0.005271624 4554.773 0.124114744
8.894368 0.00020338233 2727.8503 0.18457946 5.5047383 0.00012724957 1297.3851 0.08873928
7.801739 0.00034677898 1504.6641 0.10585452 16105.511 16296.25 72787.97 33377.816
7e-43 7e-43 7e-43 7e-43 7e-43 7e-43 7e-43 7e-43
7e-43 7e-43 7e-43 7e-43 7e-43 7e-43 7e-43 7e-43
7e-43 7e-43 7e-43 7e-43 13.194183 0.00094837864 2279.8801 0.17817211
1.815403 0.0021710636 481.07303 0.81202555 1.6979084 0.00046251493 900.58185 0.12305387
3.5463347 9.5387084e-05 1026.8223 0.090663135 20308.863 9889.615 187.48494 40434.54
7e-43 7e-43 7e-43 7e-43 7e-43 7e-43 7e-43 7e-43
7e-43 7e-43 7e-43 7e-43 7e-43 7e-43 7e-43 7e-43
7e-43 7e-43 7e-43 7e-43 0.69833976 2.3594293e-05 80.61304 0.028034994
0.22989532 2.5517604e-05 53.73435 0.042489175 0.1923633 2.4385854e-05 38.114487 0.0062204916
0.047327247 2.4550996e-05 25.701317 0.0008186917 1073.8685 604.31604 0.20554629 181.73721
7e-43 7e-43 7e-43 7e-43 7e-43 7e-43 7e-43 7e-43
7e-43 7e-43 7e-43 7e-43 7e-43 7e-43 7e-43 7e-43
7e-43 7e-43 7e-43 7e-43 1.6620901 0.00074219424 256.43494 0.096780516
0.62475216 0.0020356644 138.48804 0.69985515 0.48061877 0.00029219198 102.62063 0.11530619
0.69740885 0.00023776788 167.32176 0.039868288 1541.562 2640.5088 0.49759263 2010.3529
4.6028385 0.0010583221 718.80524 0.07016155 1.4414909 0.00081648753 355.1583 0.449295
1.5534515 0.00014399955 224.29123 0.06077171 0.735185 9.169175e-05 225.9519 0.012661526

exp_avg f4 [150]
00000000: 0400 0000 0400 0000 0400 0000 4af5 21c0
00000010: b66e 273e 02d2 87c1 0400 0000 d3cf 2040
00000020: 0400 0000 8f35 bc3e 0400 0000 f082 993e
00000030: 7c0a b2c0 3084 bb3e 0400 0000 4efd 9441
00000040: 4004 82c0 0400 0000 34ff 763d 41c4 3a41
00000050: 0400 0000 0400 0000 6bcf dc40 0400 0000
00000060: 0400 0000 0400 0000 79fa 0e41 0400 0000
00000070: 427d 41bf 5ae7 fc3f e255 1a40 0400 0000
00000080: 0400 0000 0400 0000 0400 0000 3ecb d740
00000090: e1dc 7ebd 0400 0000 0400 0000 0623 4f40
000000a0: 0400 0000 0400 0000 0400 0000 7462 eebf
000000b0: 0400 0000 8653 80c1 0400 0000 a21c 99c0
000000c0: 953b 19bc 671a 5e40 d914 e340 0400 0000
000000d0: 0400 0000 0400 0000 0400 0000 6abe 7340
000000e0: 0400 0000 21fd 133f 0000 0000 8901 37bf
000000f0: 483d c33f 0400 0000 5f35 84bf 0400 0000
00000100: 0400 0000 4a3d 02c1 e78c 0dc0 6a57 f240
00000110: 0400 0000 0400 0000 0400 0000 0400 0000
00000120: 0400 0000 0400 0000 88ca 9340 0400 0000
00000130: e7e0 ef40 f73b b4c0 0400 0000 0400 0000
00000140: 0400 0000 0400 0000 6b88 53c0 d5eb 29c0
00000150: 2023 84c0 07a8 8a40 5e5d 5a41 0400 0000
00000160: 0400 0000 0400 0000 0400 0000 0400 0000
00000170: f67e a73f 858f a340 0400 0000 cac2 09c0
00000180: 44cd 4b3f 3ea1 d6bf 0400 0000 1211 4a41
00000190: 0400 0000 0400 0000 6d2a 0140 0400 0000
000001a0: 0400 0000 00d0 36c1 f550 65c1 b52d 603e
000001b0: 0400 0000 cd4b bfc2 0400 0000 0400 0000
000001c0: 0400 0000 0400 0000 0400 0000 91d2 4f37
000001d0: d8e4 87c1 0400 0000 0400 0000 6d0a cd40
000001e0: 685c 62be a09f 1ec1 0400 0000 f584 253f
000001f0: 0400 0000 0400 0000 0400 0000 1816 e3bf
00000200: a18d b9c0 0400 0000 0400 0000 0400 0000
00000210: 0400 0000 0400 0000 0400 0000 0400 0000
00000220: 0400 0000 0400 0000 8030 713d 0400 0000
00000230: 46ff 51c0 860d a841 0400 0000 0400 0000
00000240: 0400 0000 4ce8 05c0 0400 0000 fe69 703c
00000250: 0400 0000 05c5 ecc0
6e-45 6e-45 6e-45 -2.5305963 0.16350827 -16.977543 6e-45 2.5126846
6e-45 0.36759612 6e-45 0.2998271 -5.56378 0.3662429 6e-45 18.623684
-4.063019 6e-45 0.060301974 11.672914 6e-45 6e-45 6.9003196 6e-45
6e-45 6e-45 8.936151 6e-45 -0.75581753 1.9758103 2.4114919 6e-45
6e-45 6e-45 6e-45 6.74356 -0.062222365 6e-45 6e-45 3.2365127
6e-45 6e-45 6e-45 -1.8623796 6e-45 -16.040783 6e-45 -4.784745
-0.009352584 3.4703615 7.096295 6e-45 6e-45 6e-45 6e-45 3.808497
6e-45 0.5780812 0.0 -0.7148672 1.5253077 6e-45 -1.0328788 6e-45
6e-45 -8.139963 -2.211725 7.5731707 6e-45 6e-45 6e-45 6e-45
6e-45 6e-45 4.618473 6e-45 7.496204 -5.63232 6e-45 6e-45
6e-45 6e-45 -3.3052013 -2.655019 -4.1292877 4.333011 13.647795 6e-45
6e-45 6e-45 6e-45 6e-45 1.308562 5.1112695 6e-45 -2.152514
0.79610085 -1.6767957 6e-45 12.629168 6e-45 6e-45 2.0182145 6e-45
6e-45 -11.425781 -14.332265 0.21892436 6e-45 -95.64805 6e-45 6e-45
6e-45 6e-45 6e-45 1.2387188e-05 -16.98674 6e-45 6e-45 6.4075227
-0.22105563 -9.913971 6e-45 0.64656 6e-45 6e-45 6e-45 -1.7741117
-5.7985387 6e-45 6e-45 6e-45 6e-45 6e-45 6e-45 6e-45
6e-45 6e-45 0.058884144 6e-45 -3.2812057 21.006603 6e-45 6e-45
6e-45 -2.0923033 6e-45 0.014673708 6e-45 -7.39905

exp_avg_sq f4 [150]
00000000: f401 0000 f401 0000 f401 0000 c9f1 5643
00000010: 9e0e 0242 7979 0146 f401 0000 1f05 8d45
00000020: f401 0000 ab40 2543 f401 0000 a113 0d44
00000030: 5c9f ac44 6736 0b44 f401 0000 c112 7246
00000040: 0465 9443 f401 0000 ea1e 1f42 e164 d145
00000050: f401 0000 f401 0000 2283 9745 f401 0000
00000060: f401 0000 f401 0000 810d 1048 f401 0000
00000070: 6251 2a44 cde4 2644 43eb 6945 f401 0000
00000080: f401 0000 f401 0000 f401 0000 422c 9944
00000090: ce4a 9c45 f401 0000 f401 0000 4f33 0544
000000a0: f401 0000 f401 0000 f401 0000 ffa6 6f45
000000b0: f401 0000 8f67 e945 f401 0000 893e fd45
000000c0: 119d 8740 2e1a 8244 ec0f b045 f401 0000
000000d0: f401 0000 f401 0000 f401 0000 5d2c cb43
000000e0: f401 0000 e1b3 b543 0000 0000 205b ab40
000000f0: af09 8d43 f401 0000 428c 4242 f401 0000
00000100: f401 0000 b9f3 3f47 d051 e744 f932 f546
00000110: 2e4e 7103 f401 0000 f401 0000 f401 0000
00000120: f401 0000 f401 0000 37c8 b944 f401 0000
00000130: b67a f145 7b89 2346 4316 4718 f401 0000
00000140: f401 0000 f401 0000 c43d 6a46 6c86 4a44
00000150: efe8 ab45 1203 f144 7bf5 3e47 f401 0000
00000160: f401 0000 f401 0000 f401 0000 f401 0000
00000170: ca60 5243 b5e3 b943 f401 0000 6e89 9c43
00000180: 7c68 c042 b05d 1945 f401 0000 85f4 e045
00000190: f401 0000 f401 0000 1e10 e543 f401 0000
000001a0: f401 0000 9d25 3246 0d98 b346 9be7 2647
000001b0: f401 0000 37bf ac49 f401 0000 f401 0000
000001c0: f401 0000 f401 0000 f401 0000 4319 b93c
000001d0: 8be2 b046 f401 0000 f401 0000 9be8 b645
000001e0: 6262 6343 e331 1246 f401 0000 9a1f 1443
000001f0: f401 0000 f401 0000 f401 0000 f491 3b43
00000200: db32 0c45 f401 0000 f401 0000 f401 0000
00000210: f401 0000 f401 0000 f401 0000 f401 0000
00000220: f401 0000 f401 0000 413d a442 2559 6e39
00000230: 69df d245 eea3 b746 f401 0000 f401 0000
00000240: f401 0000 dd28 8643 f401 0000 c311 1c42
00000250: f401 0000 42e7 ea45
7e-43 7e-43 7e-43 214.94447 32.514275 8286.368 7e-43 4512.64
7e-43 165.25261 7e-43 564.3067 1380.98 556.85004 7e-43 15492.688
296.78918 7e-43 39.78019 6700.61 7e-43 7e-43 4848.3916 7e-43
7e-43 7e-43 147510.02 7e-43 681.2716 667.575 3742.7039 7e-43
7e-43 7e-43 7e-43 1225.383 5001.3506 7e-43 7e-43 532.8017
7e-43 7e-43 7e-43 3834.4373 7e-43 7468.945 7e-43 8103.817
4.237923 1040.8181 5633.99 7e-43 7e-43 7e-43 7e-43 406.3466
7e-43 363.4053 0.0 5.3548737 282.07565 7e-43 48.63697 7e-43
7e-43 49139.723 1850.5566 31385.486 7.091328e-37 7e-43 7e-43 7e-43
7e-43 7e-43 1486.2567 7e-43 7727.339 10466.37 2.5731386e-24 7e-43
7e-43 7e-43 14991.441 810.10034 5501.1167 1928.096 48885.48 7e-43
7e-43 7e-43 7e-43 7e-43 210.37808 371.77896 7e-43 313.07367
96.20407 2453.8555 7e-43 7198.565 7e-43 7e-43 458.12592 7e-43
7e-43 11401.403 22988.025 42727.605 7e-43 1.4151429e+06 7e-43 7e-43
7e-43 7e-43 7e-43 0.022595054 22641.271 7e-43 7e-43 5853.0757
227.38431 9356.472 7e-43 148.12344 7e-43 7e-43 7e-43 187.57013
2243.1785 7e-43 7e-43 7e-43 7e-43 7e-43 7e-43 7e-43
7e-43 7e-43 82.11964 0.00022730658 6747.9263 23505.965 7e-43 7e-43
7e-43 268.31924 7e-43 39.017345 7e-43 7516.907

exp_avg f4 [100, 150]
00000000: 0400 0000 0400 0000 0400 0000 0400 0000
00000010: 0400 0000 0400 0000 0400 0080 0400 0080
00000020: 0400 0080 0400 0080 0400 0000 0400 0000
00000030: 0400 0000 0400 0080 0400 0000 0400 0000
00000040: 0400 0000 0400 0000 0400 0000 0400 0080
00000050: 0400 0000 0400 0000 0400 0080 0400 0000
00000060: 0400 0000 0400 0000 0400 0080 0400 0000
00000070: 0400 0080 0400 0080 0400 0080 0400 0000
00000080: 0400 0080 0400 0080 0400 0000 0400 0000
00000090: 0400 0080 0400 0000 0400 0000 0400 0000
000000a0: 0400 0080 0400 0000 0400 0000 0400 0000
000000b0: 0400 0000 0400 0000 0400 0000 0400 0080
000000c0: 0400 0000 0400 0000 0400 0080 0400 0080
000000d0: 0400 0000 0400 0000 0000 0000 0400 0000
000000e0: 0400 0080 0400 0000 0000 0000 0400 0000
000000f0: 0400 0000 0400 0080 0400 0000 0400 0000
00000100: 0000 0000 0400 0000 0400 0080 0400 0080
00000110: 0400 0000 0400 0000 0400 0000 0400 0000
00000120: 0400 0080 0400 0000 0000 0000 0400 0000
00000130: 0400 0000 0400 0000 0400 0000 0400 0000
00000140: 0400 0080 0400 0000 0400 0000 0400 0000
00000150: 0400 0000 0400 0000 0400 0000 0400 0000
00000160: 0400 0000 0400 0000 0400 0000 0400 0080
00000170: 0400 0000 0400 0000 0400 0080 0400 0000
00000180: 0400 0000 0400 0080 0400 0000 0400 0080
00000190: 0400 0000 0400 0000 0400 0000 0400 0000
000001a0: 0400 0080 0400 0000 0400 0000 0400 0000
000001b0: 0400 0000 0400 0000 0400 0080 0400 0000
000001c0: 0400 0000 0400 0080 0400 0000 0400 0080
000001d0: 0400 0000 0400 0000 0000 0000 0400 0080
000001e0: 0400 0080 0400 0000 0000 0000 0400 0000
000001f0: 0400 0000 0000 0000 0400 0000 0400 0000
00000200: 0400 0000 0400 0000 0400 0000 0400 0000
00000210: 0400 0000 0400 0000 0400 0000 0400 0000
00000220: 0400 0000 0400 0080 0400 0000 0400 0000
00000230: 0400 0080 0400 0000 0400 0000 0400 0000
00000240: 0400 0000 0400 0000 0400 0000 0400 0000
00000250: 0400 0080 0400 0000 0400 0080 0400 0000
00000260: 0400 0080 0400 0080 0400 0000 0400 0000
00000270: 0400 0080 078b 5240 0400 0000 0400 0080
00000280: 0400 0080 0b8e 7b40 0400 0080 6054 4f40
00000290: 0400 0080 fb99 febd 0400 0080 0400 0000
000002a0: 0400 0000 a890 a940 0400 0000 0400 0000
000002b0: 10ab f439 0400 0080 0400 0080 0400 0000
000002c0: 0400 0000 0400 0000 0400 0080 0c29 e83f
000002d0: c6ff 0d40 0400 0080 0400 0080 0400 0080
000002e0: 0400 0080 0400 0080 966d 77bd 0400 0080
000002f0: 0400 0000 87dc d33f 0400 0000 0400 0080
00000300: 0400 0080 61a4 e93f 0400 0080 b0ad cf3f
00000310: 0400 0080 34a6 5e3f 0400 0080 0ce6 0abe
00000320: 288b 253f 0400 0000 0400 0080 0400 0080
00000330: 0400 0080 0400 0080 0400 0080 7934 e4bc
00000340: 0000 0000 0400 0080 130f 46be 0400 0080
00000350: 5e0a 173c 0400 0000 0400 0080 1888 923f
00000360: ce3a 75be a75e 9dbc 0400 0000 0400 0080
00000370: 0400 0080 0400 0080 0400 0080 0400 0080
00000380: d130 833e 0400 0080 7d75 6cbe 0400 0080
00000390: 0400 0080 0400 0080 0400 0080 0400 0080
000003a0: d5f3 233e 9131 2bbe a79c 15be 0400 0000
000003b0: 1b91 1941 0400 0080 0400 0000 0400 0000
000003c0: 0400 0080 0400 0080 fd85 03bc 2162 2940
000003d0: 0400 0080 0400 0000 0400 0080 71c7 f73f
000003e0: 0400 0000 0400 0080 0400 0080 0400 0000
000003f0: 383c e23f 0400 0080 0400 0080 8606 f740
6e-45 6e-45 6e-45 6e-45 6e-45 6e-45 -6e-45 -6e-45
-6e-45 -6e-45 6e-45 6e-45 6e-45 -6e-45 6e-45 6e-45
6e-45 6e-45 6e-45 -6e-45 6e-45 6e-45 -6e-45 6e-45
6e-45 6e-45 -6e-45 6e-45 -6e-45 -6e-45 -6e-45 6e-45
-6e-45 -6e-45 6e-45 6e-45 -6e-45 6e-45 6e-45 6e-45
-6e-45 6e-45 6e-45 6e-45 6e-45 6e-45 6e-45 -6e-45
6e-45 6e-45 -6e-45 -6e-45 6e-45 6e-45 0.0 6e-45
-6e-45 6e-45 0.0 6e-45 6e-45 -6e-45 6e-45 6e-45
0.0 6e-45 -6e-45 -6e-45 6e-45 6e-45 6e-45 6e-45
-6e-45 6e-45 0.0 6e-45 6e-45 6e-45 6e-45 6e-45
-6e-45 6e-45 6e-45 6e-45 6e-45 6e-45 6e-45 6e-45
6e-45 6e-45 6e-45 -6e-45 6e-45 6e-45 -6e-45 6e-45
6e-45 -6e-45 6e-45 -6e-45 6e-45 6e-45 6e-45 6e-45
-6e-45 6e-45 6e-45 6e-45 6e-45 6e-45 -6e-45 6e-45
6e-45 -6e-45 6e-45 -6e-45 6e-45 6e-45 0.0 -6e-45
-6e-45 6e-45 0.0 6e-45 6e-45 0.0 6e-45 6e-45
6e-45 6e-45 6e-45 6e-45 6e-45 6e-45 6e-45 6e-45
6e-45 -6e-45 6e-45 6e-45 -6e-45 6e-45 6e-45 6e-45
6e-45 6e-45 6e-45 6e-45 -6e-45 6e-45 -6e-45 6e-45
-6e-45 -6e-45 6e-45 6e-45 -6e-45 3.2897356 6e-45 -6e-45
-6e-45 3.9305446 -6e-45 3.2395248 -6e-45 -0.12431713 -6e-45 6e-45
6e-45 5.298908 6e-45 6e-45 0.00046666758 -6e-45 -6e-45 6e-45
6e-45 6e-45 -6e-45 1.8137527 2.2187362 -6e-45 -6e-45 -6e-45
-6e-45 -6e-45 -0.060407244 -6e-45 6e-45 1.6551675 6e-45 -6e-45
-6e-45 1.825329 -6e-45 1.622488 -6e-45 0.86972356 -6e-45 -0.13564318
0.6466546 6e-45 -6e-45 -6e-45 -6e-45 -6e-45 -6e-45 -0.027857052
0.0 -6e-45 -0.19341688 -6e-45 0.00921878 6e-45 -6e-45 1.1447783
-0.23948213 -0.019210173 6e-45 -6e-45 -6e-45 -6e-45 -6e-45 -6e-45
0.2562318 -6e-45 -0.23091693 -6e-45 -6e-45 -6e-45 -6e-45 -6e-45
0.16010983 -0.16718127 -0.1461054 6e-45 9.597926 -6e-45 6e-45 6e-45
-6e-45 -6e-45 -0.008027551 2.6466143 -6e-45 6e-45 -6e-45 1.935774
6e-45 -6e-45 -6e-45 6e-45 1.7674627 -6e-45 -6e-45 7.7195463
