checkpoints/dqn/checkpoint_ep20.pth (torch, 230155 bytes, 18 tensors)

layer1.weight f4 [150, 20]
0.002071473 -0.31613374 -0.11452257 0.21922247 -0.39695352 -0.45798808 -0.025600528 -0.1376637
-0.16669102 0.4846101 -0.4591673 -0.4433033 0.36763108 -0.823191 0.27979857 -0.47936806
0.2237689 0.012539212 -0.0982261 -0.025974158 0.099338755 -0.4220792 0.26195633 -0.26691893
-0.28350878 -0.8424949 -0.18609597 -0.5792646 -0.37018317 -0.3056751 -0.23663507 -0.06424847
-0.029957509 0.045688797 0.17301369 0.15945533 0.027471008 -0.20467064 -0.3773099 -0.04230619
0.13580573 -0.2093254 0.23107293 -0.3252528 -0.4471221 -0.023868859 -0.3310695 -0.07496338
-0.24081571 -0.51607406 -0.007659393 -0.16113277 0.15105975 0.019726148 -0.061082575 0.17062096
0.041020777 -0.028223593 0.22832881 -0.10449356 -0.13396797 -0.16025831 0.18452099 0.12526166
0.08671658 -0.18299367 -0.09855112 -0.037220363 -0.08758747 0.26948506 -0.098670885 -0.19091804
-0.33709097 -0.16636544 -0.2305306 -0.13101639 -0.5308507 -0.17724638 -0.0978943 -0.05986928
0.32503435 -0.6711171 0.033485413 0.11164716 -0.41607118 -0.08380609 -0.09436231 -0.06742891
-0.3961 -0.22367789 0.02661532 -0.19211072 -0.31977126 -0.11409241 0.019147303 0.10488011
0.12192096 -0.12216854 0.19370408 0.16523479 -0.1474585 -0.059390854 0.076860875 0.21133825
-0.09322799 -0.15644607 0.048637986 -0.30797672 -0.11013438 0.23204581 -0.15385924 -0.095891945
0.09833794 -0.02665999 -0.105514556 0.17834556 -0.33881956 -0.076647006 -0.02179649 0.14117579
0.031323303 0.09395646 -0.10748194 0.07399726 -0.048613764 -0.22128142 0.07774814 0.15901327
-0.008438327 0.077624194 0.07353831 -0.12759364 -0.14075094 0.06939478 -0.1300041 -0.058282424
-0.08187239 -0.19046624 0.004243928 -0.07885524 0.09513324 -0.25177854 0.24637717 -0.098554455
-0.20173205 -0.41758907 -0.04738409 0.204927 -0.15102644 0.14143482 -0.011934152 0.17852673
-0.11340159 -0.14573286 0.21966983 0.034206424 0.092294805 0.053540014 -0.0031082416 0.03236363
-0.21278411 -0.050372016 -0.21103065 -0.104534596 0.008997522 0.1867897 -0.22084065 0.113794096
-0.091840126 -0.07917013 0.05370066 0.18882638 -0.06199726 -0.07161283 -0.05581784 0.20925574
-0.15829009 -0.060722172 -0.17999634 -0.03413027 -0.2123389 -0.09816199 0.083875865 -0.009216779
-0.19287531 0.005447226 -0.096893266 0.38761166 -0.13213831 -0.113842204 -0.28679198 -0.02457775
-0.29621094 -0.5615481 -0.50185883 -0.08814597 -0.15601414 0.2189606 -0.043105766 -0.09067372
0.1227708 -0.5846363 0.16033237 -0.28175154 -0.6274483 -0.5977589 -0.16908658 -0.3807618
-0.070120424 0.41742563 0.30023283 -0.0057777134 0.29392678 0.057539087 -0.045934886 -0.6028745
0.20491832 -0.31879285 0.24298008 0.28762898 0.009254541 -0.27924412 -0.26379693 -0.30989686
0.066491924 -0.107088685 -0.08141244 0.08169831 -0.062210444 -0.09049287 -0.2883467 -0.020730551
0.24285857 0.060700916 -0.017554827 -0.15757394 0.23710269 0.1400661 -0.17765898 0.21087089
-0.1430545 0.53413796 -0.010401491 -0.1942285 -0.024330005 -0.012926673 0.21900027 -0.07475182
0.068973236 -0.114819616 0.009375576 -0.123590484 0.195933 0.5584334 0.30501086 -0.1674713
00000000: 8dc1 073b 48dc a1be cf8a eabd db7b 603e
00000010: 7e3d cbbe 6a7d eabe 33b8 d1bc b7f7 0cbe
00000020: 0db1 2abe d11e f83e fa17 ebbe a6f8 e2be
00000030: 243a bc3e a5bc 52bf c241 8f3e bb6f f5be
00000040: ad23 653e 4471 4d3c c42a c9bd c2c7 d4bc
00000050: 1e72 cb3d c41a d8be 241f 863e 99a9 88be
00000060: 1028 91be bfad 57bf f18f 3ebe af4a 14bf
00000070: a688 bdbe 7281 9cbe 7750 72be b494 83bd
00000080: 7369 f5bc 2d24 3b3d 802a 313e 4248 233e
00000090: e10a e13c 2e95 51be c32e c1be 4149 2dbd
000000a0: a810 0b3e 6659 56be 629e 6c3e 8987 a6be
000000b0: 30ed e4be a088 c3bc f181 a9be 6786 99bd
000000c0: 6598 76be 6e1d 04bf a5fb fabb fdff 24be
000000d0: 68af 1a3e bb98 a13c b931 7abd 43b7 2e3e
000000e0: 6705 283d 2a35 e7bc 07cf 693e b800 d6bd
000000f0: e62e 09be c11a 24be 12f3 3c3e 9844 003e
00000100: 7698 b13d b162 3bbe 2bd5 c9bd 6174 18bd
00000110: 0f61 b3bd f2f9 893e f613 cabd 0580 43be
00000120: 3097 acbe b45b 2abe 3710 6cbe 2929 06be
00000130: d5e5 07bf 1380 35be cf7c c8bd 7d39 75bd
00000140: e76a a63e 55ce 2bbf 0028 093d 44a7 e43d
00000150: 4807 d5be 87a2 abbd 0741 c1bd 2b18 8abd
00000160: 9fcd cabe d10b 65be 5f08 da3c acb8 44be
00000170: 0fb9 a3be 48a9 e9bd ceda 9c3c 62cb d63d
00000180: b2b1 f93d 8033 fabd 5d5a 463e 4f33 293e
00000190: 5cff 16be d343 73bd 3c69 9d3d 0e69 583e
000001a0: 51ee bebd 6633 20be a038 473d 20af 9dbe
000001b0: 228e e1bd 6b9d 6d3e 478d 1dbe ff62 c4bd
000001c0: 6765 c93d 0d66 dabc 0418 d8bd 38a0 363e
000001d0: c279 adbe 1bf9 9cbd 8d8e b2bc 6390 103e
000001e0: dd4c 003d 3f6c c03d 7e1f dcbd e08b 973d
000001f0: 3a1f 47bd 9997 62be 6b3a 9f3d 60d4 223e
00000200: e940 0abc 6ff9 9e3d 419b 963d e8a7 02be
00000210: 0421 10be da1e 8e3d cb1f 05be 8db9 6ebd
00000220: b6ac a7bd 9509 43be a610 8b3b db7e a1bd
00000230: 37d5 c23d 1ee9 80be 4c4a 7c3e ebd6 c9bd
00000240: d992 4ebe 3cce d5be d215 42bd 62d8 513e
00000250: ada6 1abe 4ad4 103e 7687 43bc b6cf 363e
00000260: 183f e8bd ff3a 15be 21f1 603e 091c 0c3d
00000270: 0f05 bd3d c64c 5b3d a4b3 4bbb ba8f 043d
00000280: 14e4 59be e352 4ebd 6b18 58be 3c16 d6bd
00000290: 586a 133c cd45 3f3e 0d24 62be e10c e93d
000002a0: ad16 bcbd f323 a2bd 39f5 5b3d b45b 413e
000002b0: d7f0 7dbd bfa9 92bd 3fa1 64bd 2347 563e
000002c0: cc16 22be d0b7 78bd f650 38be 2fcc 0bbd
000002d0: 5e6f 59be 2709 c9bd 1cc7 ab3d f901 17bc
000002e0: 1b81 45be a57e b23b fa6f c6bd 0975 c63e
000002f0: 444f 07be 1a26 e9bd 66d6 92be 4757 c9bc
00000300: f6a8 97be 9ec1 0fbf d279 00bf e085 b4bd
00000310: 2cc2 1fbe 3537 603e ac8f 30bd 25b3 b9bd
00000320: 426f fb3d b9aa 15bf 2b2e 243e bd41 90be
00000330: 74a0 20bf ba06 19bf 0825 2dbe 36f3 c2be
00000340: 4c9b 8fbd d0b8 d53e 1eb8 993e f952 bdbb
00000350: 927d 963e 1bae 6b3d 3826 3cbd fc55 1abf
00000360: 1cd6 513e d138 a3be c5cf 783e 1b44 933e
00000370: 5ca0 173c 16f9 8ebe 6410 87be cdaa 9ebe
00000380: eb2c 883d 5051 dbbd 91bb a6bd 7251 a73d
00000390: 61d0 7ebd 5354 b9bd 2ea2 93be 1ed3 a9bc
000003a0: ebaf 783e 86a1 783d 24cf 8fbc 105b 21be
000003b0: 0ccb 723e 7d6d 0f3e 3cec 35be 8aee 573e
000003c0: e17c 12be 44bd 083f 046b 2abc d6e3 46be
000003d0: b84f c7bc 65ca 53bc 9b41 603e 7b17 99bd
000003e0: d741 8d3d 8c26 ebbd 049c 193c 021d fdbd
000003f0: a9a2 483e 7ef5 0e3f 622a 9c3e 997d 2bbe

layer1.bias f4 [150]
0.08138165 0.22517826 -0.06399493 0.14070484 0.099451296 0.048415884 -0.07173275 0.20741041
-0.0787327 -0.1445174 -0.15850061 0.08866931 0.030850613 0.28588358 0.17300077 0.032848597
0.19908051 -0.07370686 0.19929111 0.24911466 -0.06527526 -0.14157857 -0.027933765 -0.0551288
-0.14694127 0.34282908 0.26800144 -0.0015062973 0.07652957 -0.23576811 -0.044670902 -0.17956983
0.0054823556 0.3184997 -0.026783315 0.12293373 -0.15361206 0.0890549 0.20998733 -0.20328814
0.122705266 0.16058515 -0.17981529 0.10856132 0.24377395 -0.01699657 0.07855888 0.09432416
-0.13477522 0.1671143 0.15918413 -0.014869258 -0.14972305 -0.039644577 -0.056618847 -0.018130092
0.16853076 0.1013243 0.11478571 0.23784333 -0.119887196 0.028253933 -0.0045628287 0.069599606
0.27896833 0.18866928 0.18410943 -0.17091754 -0.15271871 -0.016888427 -0.14698839 -0.0732648
0.13745089 0.032573882 0.031942025 -0.030731253 -0.107314125 0.2373794 -0.054645512 0.116740085
0.012760814 0.2651329 0.15689804 0.12888373 0.113218 -0.10364147 0.14068143 0.027152227
-0.16840138 -0.21084791 0.057493396 -0.037823103 0.17557824 0.009199652 0.0718587 0.1139141
-0.17935526 -0.118676186 0.025629317 0.20584497 0.0705358 -0.09803163 -0.013912601 -0.14435491
0.2479 0.23079062 0.012987904 -0.20161639 -0.10382978 0.10977535 0.12540272 0.19406517
-0.14760463 -0.18382381 0.10917111 -0.06907409 -0.008344197 0.206832 0.021182891 0.11912664
0.23919562 -0.06592771 -0.17419013 -0.05499007 -0.21250094 -0.11301428 -0.1217846 0.040713813
-0.15322755 0.08096179 0.16193925 -0.084172495 -0.10691332 -0.069062285 0.16981426 0.2173793
0.12692781 -0.05528428 0.1418469 -0.003778432 -0.21803553 0.13575621 -0.06030877 0.26109245
-0.16765574 -0.13907053 -0.18076417 0.1437555 -0.054214254 0.26420388
00000000: 6cab a63d 2195 663e c60f 83bd ee14 103e
00000010: 1fad cb3d bc4f 463d 9fe8 92bd 6563 543e
00000020: 9c3e a1bd 5ffc 13be fc4d 22be 4198 b53d
00000030: 6dba fc3c 555f 923e 1d27 313e 408c 063d
00000040: c3db 4b3e 9ff3 96bd f812 4c3e ea17 7f3e
00000050: 09af 85bd f9f9 10be 5ad5 e4bc bdce 61bd
00000060: c677 16be 4b87 af3e 7c37 893e f36e c5ba
00000070: 89bb 9c3d 326d 71be d6f8 36bd 27e1 37be
00000080: 55a5 b33b 6512 a33e af68 dbbc aec4 fb3d
00000090: 7b4c 1dbe 6a62 b63d eb06 573e c42a 50be
000000a0: e64c fb3d 6f70 243e 8021 38be 6655 de3d
000000b0: e19f 793e 643c 8bbc 7ae3 a03d 062d c13d
000000c0: 8402 0abe 0320 2b3e 2a01 233e 309e 73bc
000000d0: 0051 19be 5a62 22bd 2ae9 67bd 8f85 94bc
000000e0: 5493 2c3e 1d83 cf3d c514 eb3d 348d 733e
000000f0: 6b87 f5bd cb74 e73c c883 95bb 3d8a 8e3d
00000100: f0d4 8e3e 8532 413e 2f87 3c3e 0205 2fbe
00000110: 4b62 1cbe 9959 8abc 2084 16be db0b 96bd
00000120: edbf 0c3e 316c 053d a4d5 023d 1cc0 fbbc
00000130: 82c7 dbbd 9613 733e f9d3 5fbd 6d15 ef3d
00000140: bc12 513c 80bf 873e e1a9 203e 19fa 033e
00000150: d7de e73d fb41 d4bd cb0e 103e 596e de3c
00000160: 6971 2cbe 84e8 57be 327e 6b3d 66ec 1abd
00000170: c8ca 333e 23ba 163c a72a 933d cc4b e93d
00000180: e8a8 37be 800c f3bd 93f4 d13c 06c9 523e
00000190: 1375 903d cfc4 c8bd aef1 63bc c6d1 13be
000001a0: 7fd9 7d3e 6054 6c3e 38cb 543c 8774 4ebe
000001b0: b5a4 d4bd e6d1 e03d 9269 003e 05b9 463e
000001c0: ab25 17be 4f3c 3cbe 1a95 df3d b776 8dbd
000001d0: 19b6 08bc c5cb 533e be87 ad3c abf8 f33d
000001e0: b2ef 743e 1b05 87bd e65e 32be 453d 61bd
000001f0: d999 59be 0874 e7bd 346a f9bd 87c3 263d
00000200: afe7 1cbe 4ccf a53d 67d3 253e a162 acbd
00000210: 5ff5 dabd 8770 8dbd cae3 2d3e ae98 5e3e
00000220: 5df9 013e c571 62bd 5040 113e 929f 77bb
00000230: b544 5fbe ad03 0b3e 5406 77bd e9ad 853e
00000240: f2ad 2bbe 8168 0ebe 3e1a 39be a434 133e
00000250: c40f 5ebd bb45 873e

layer2.weight f4 [100, 150]
0.01134304 0.01897626 0.050117675 0.10080662 -0.043854803 -0.06269893 0.05491236 -0.055414584
-0.039609537 -0.028026609 0.015464303 -0.05934 -0.0138377175 0.07629504 -0.0166484 -0.064542964
-0.035062592 0.04497184 -0.009882537 0.009435466 -0.038561437 -0.033936094 -0.040350385 0.021522744
0.069775485 0.06971119 0.011241745 -0.00733943 -0.05212123 -0.06489887 0.0007759465 0.034056645
-0.056782477 -0.034175787 0.025164962 -0.050687075 -0.053984687 -0.046401933 -0.026219629 -0.065174766
-0.09048399 -0.040086586 0.06699777 0.004159057 -0.071683556 -0.01693379 -0.03613969 -0.017057654
-0.0025313357 -0.010344756 0.06581246 -0.06503386 -0.0713444 -0.056471575 0.039930917 0.019903319
0.051745612 -0.023804074 0.06594933 -0.08565857 0.045722276 -0.097196415 -0.048344582 -0.053508576
0.015090164 -0.107661374 0.03328781 -0.06798268 0.013701899 -0.09943356 -0.048989877 -0.012516214
-0.081024066 0.037662577 -0.021162655 -0.020611316 0.031504434 0.014433306 0.024333358 0.053315654
0.043522045 0.075040296 0.042093746 0.061650332 -0.064859055 0.05842485 0.014287232 -0.027934644
-0.07384083 0.004684118 0.051244836 0.04030525 -0.0921146 0.009781544 -0.02134033 -0.056603614
0.044652548 0.002057718 -0.08530706 -0.11137693 -0.05945501 -0.05397274 0.020524533 -0.059158947
-0.0008281467 -0.027562628 -0.025816692 -0.06709937 -0.026908647 0.0005338667 0.0076254737 0.063486114
-0.12563989 -0.05460185 0.004479385 -0.006400926 0.014001809 -0.054835524 0.073494576 -0.03592507
-0.0669058 0.05550522 0.0075839716 0.058367416 -0.08316532 -0.07450833 0.067627706 -0.08379321
-0.07642651 -0.0133790355 -0.09509042 -0.037391424 0.038485892 -0.057672 -0.005296882 -0.041049536
0.08724754 -0.087863624 -0.02680389 -0.011233667 -0.012589974 -0.042388987 -0.043082807 0.011545305
0.02668429 0.07951823 0.013484499 0.022533054 -0.08787228 0.017399998 0.10776292 0.14472488
-0.06102945 0.03799471 0.069791995 -0.005226316 -0.0401067 0.065357305 0.044223394 -0.2044711
0.020638444 -0.158726 -0.17349866 -0.25432143 0.07661962 0.028466072 -0.05612831 -0.016948368
0.023202669 0.14053479 -0.089037955 -0.16789477 -0.25892428 0.046876643 0.021719022 -0.40039834
-0.004933507 -0.19716348 0.11552508 -0.078605086 0.20892951 -0.00015352287 -0.29436374 -0.32802835
0.072415166 -0.003338516 0.05166815 0.045339417 0.062357467 0.083109334 -0.16416104 0.09005168
0.011224146 0.007883577 -0.09441582 0.10659917 -0.12980643 -0.09608243 -0.17525248 -0.1471551
-0.25471282 -0.21246395 0.10701021 -0.073636964 -0.22304004 -0.33428872 -0.102393776 0.22013839
0.06400246 0.009795885 0.05277313 0.17252281 0.012441474 -0.23425196 0.13909659 -0.0042683952
-0.037784755 -0.19066603 0.025199203 -0.094288036 -0.024645014 0.43009946 0.13286239 -0.24689172
-0.09661176 -0.29245052 -0.1365505 0.1852635 -0.16063876 -0.058325514 0.18766926 0.06666184
0.082985446 -0.0409872 -0.02906501 -0.14162362 -0.21855034 -0.16069792 0.07578338 0.18014055
0.13271351 0.015142998 0.10084612 0.18373151 0.06893613 -0.23660083 -0.01291255 0.122714855
0.047598913 -0.05170285 0.046601236 0.20873232 -0.32132992 0.06869838 -0.04375714 0.083706744
00000000: 28d8 393c 1a74 9b3c 3148 4d3d b473 ce3d
00000010: 18a1 33bd 4c68 80bd c8eb 603d 67fa 62bd
00000020: 9c3d 22bd 0f98 e5bc fd5d 7d3c 800e 73bd
00000030: 98b7 62bc 9340 9c3d 3a62 88bc 1a2f 84bd
00000040: cb9d 0fbd 6434 383d 5dea 21bc 3697 1a3c
00000050: 99f2 1dbd 9300 0bbd 7246 25bd 7750 b03c
00000060: 73e6 8e3d bec4 8e3d 4c2f 383c 9a7f f0bb
00000070: 127d 55bd b3e9 84bd e368 4b3a fb7e 0b3d
00000080: be94 68bd e9fb 0bbd c026 ce3c 409d 4fbd
00000090: 0c1f 5dbd f40f 3ebd 8cca d6bc 597a 85bd
000000a0: ac4f b9bd d531 24bd 2036 893d b348 883b
000000b0: d4ce 92bd bbb8 8abc 3607 14bd 7ebc 8bbc
000000c0: c4e4 25bb 0d7d 29bc afc8 863d 7930 85bd
000000d0: 031d 92bd bd4e 67bd 9a8e 233d 490c a33c
000000e0: 35f3 533d c300 c3bc 7110 873d c36d afbd
000000f0: 4847 3b3d ea0e c7bd f804 46bd cf2b 5bbd
00000100: bc3c 773c 917d dcbd cc58 083d 813a 8bbd
00000110: ee7d 603c d3a3 cbbd 9ca9 48bd ce10 4dbc
00000120: f2ef a5bd 1344 1a3d 4e5d adbc 10d9 a8bc
00000130: cb0a 013d ac79 6c3c c056 c73c 8461 5a3d
00000140: 2c44 323d baae 993d 7e6a 2c3d 0f85 7c3d
00000150: d3d4 84bd e54e 6f3d ff14 6a3c 32d7 e4bc
00000160: dc39 97bd 3b7d 993b 1be6 513d 1e17 253d
00000170: 94a6 bcbd c542 203c ead1 aebc 31d9 67bd
00000180: 97e5 363d c8da 063b 78b5 aebd 9619 e4bd
00000190: 1987 73bd 8512 5dbd 1123 a83c a750 72bd
000001a0: fc17 59ba 05cb e1bc 877d d3bc 656b 89bd
000001b0: 866f dcbc 30f3 0b3a 1cdf f93b 0205 823d
000001c0: bea7 00be 31a6 5fbd cec7 923b dcbe d1bb
000001d0: d867 653c 379b 60bd 5384 963d 2b26 13bd
000001e0: e805 89bd 7159 633d f782 f83b ac12 6f3d
000001f0: 9452 aabd d397 98bd 6580 8a3d c69b abbd
00000200: 8185 9cbd be33 5bbc c4be c2bd c027 19bd
00000210: 62a3 1d3d 7a39 6cbd 7791 adbb 8f23 28bd
00000220: d7ae b23d d8f1 b3bd d593 dbbc 6a0d 38bc
00000230: 2e46 4ebc 13a0 2dbd 9977 30bd 8528 3d3c
00000240: 0399 da3c 74da a23d 17ee 5c3c 3d97 b83c
00000250: 62f6 b3bd 718a 8e3c ceb2 dc3d c232 143e
00000260: 04fa 79bd 57a0 1b3d 1bef 8e3d 8441 abbb
00000270: ec46 24bd 0dda 853d 9723 353d df60 51be
00000280: f411 a93c 1289 22be a2a9 31be 6b36 82be
00000290: bfea 9c3d ae31 e93c cce6 65bd 4ed7 8abc
000002a0: 8613 be3c 5ae8 0f3e 8859 b6bd 9bec 2bbe
000002b0: b991 84be b901 403d 17ec b13c 0301 cdbe
000002c0: 42a9 a1bb 39e5 49be 6a98 ec3d b4fb a0bd
000002d0: 9ef1 553e fbfa 20b9 d8b6 96be 55f3 a7be
000002e0: 674e 943d 01cb 5abb fba1 533d d3b5 393d
000002f0: 8b6a 7f3d 3a35 aa3d d519 28be 046d b83d
00000300: 7be5 373c 1e2a 013c 155d c1bd aa50 da3d
00000310: faeb 04be ddc6 c4bd 6375 33be d4af 16be
00000320: b869 82be 2690 59be 2b28 db3d face 96bd
00000330: 9c64 64be e427 abbe d4b3 d1bd f56b 613e
00000340: b913 833d eb7e 203c a328 583d d2a9 303e
00000350: 53d7 4b3c bfdf 6fbe 566f 0e3e e5dd 8bbb
00000360: 30c4 1abd f53d 43be 8f6e ce3c 161a c1bd
00000370: 57e4 c9bc ff35 dc3e 140d 083e 2fd1 7cbe
00000380: 63dc c5bd 13bc 95be e5d3 0bbe b7b5 3d3e
00000390: 7d7e 24be bce6 6ebd 5f2c 403e 0186 883d
000003a0: 46f4 a93d 32e2 27bd be19 eebc c805 11be
000003b0: a9cb 5fbe ff8d 24be 5134 9b3d c476 383e
000003c0: 0de6 073e 561a 783c 6988 ce3d 1d24 3c3e
000003d0: 632e 8d3d 7d47 72be 298f 53bc ed51 fb3d
000003e0: 14f7 423d 5ec6 53bd f0e0 3e3d edbd 553e
000003f0: 5b85 a4be bcb1 8c3d b03a 33bd 716e ab3d

layer2.bias f4 [100]
0.025476841 0.093831904 0.013359692 0.07792385 -0.042103525 0.16047838 -0.06859299 -0.069948085
0.045525067 -0.010500054 -0.014702735 0.012854654 0.0010997567 -0.06587107 0.030613814 0.13135996
-0.08556931 -0.05484103 0.033709783 -0.072675616 -0.10014485 0.12219308 0.004165275 -0.052002054
0.010562767 0.057387765 0.10737679 -0.016151123 0.1488745 0.057674933 0.12435919 -0.02652762
0.0406605 -0.03570976 0.08049448 0.044175938 0.09519536 0.09644007 0.15872322 0.028505728
0.027813837 0.15525797 -0.06324414 0.043989405 0.13220249 0.04316439 -0.02019109 -0.050432898
-0.023130571 0.09039134 0.027822085 -0.0035592373 0.13668112 0.03787884 0.13224936 0.038348407
0.0038949237 -0.06170161 0.08179105 0.05811895 0.059978344 0.008204764 0.062357105 -0.053239126
0.017488854 -0.1413095 -0.0031170268 -0.077070355 -0.014785895 0.047980405 0.059738774 0.056040358
-0.015560022 0.057531886 0.09115949 0.051994458 0.095973775 -0.005923403 0.038826365 -0.037980016
0.036411166 0.042618353 0.16570377 0.12226568 0.016323993 0.009269919 -0.08471255 -0.031287566
0.080581896 0.04080863 -0.0075495304 0.028367216 0.096056856 0.074642695 -0.039403684 0.16353996
0.10396153 0.03708348 -0.0003144141 0.15837908
00000000: cfb4 d03c f12a c03d 9ce2 5a3c 8a96 9f3d
00000010: bf74 2cbd 7254 243e 7b7a 8cbd f140 8fbd
00000020: 7e78 3a3d 6b08 2cbc bde3 70bc 549c 523c
00000030: b625 903a 69e7 86bd d2c9 fa3c 3a83 063e
00000040: f63e afbd fda0 60bd 4513 0a3d f4d6 94bd
00000050: be18 cdbd 5e40 fa3d dc7c 883b 1b00 55bd
00000060: 750f 2d3c 6f0f 6b3d 5de8 db3d 5c4f 84bc
00000070: 8f72 183e 8d3c 6c3d 08b0 fe3d 7450 d9bc
00000080: a08b 263d 6644 12bd 4ada a43d d4f1 343d
00000090: c9f5 c23d 5f82 c53d 5788 223e d884 e93c
000000a0: d8d9 e33c f2fb 1e3e 2586 81bd 3c2e 343d
000000b0: 1760 073e 25cd 303d c967 a5bc ba92 4ebd
000000c0: 537c bdbc 181f b93d 24eb e33c 1842 69bb
000000d0: 23f6 0b3e d826 1b3d 606c 073e 3813 1d3d
000000e0: fa41 7f3b d4ba 7cbd 1182 a73d 230e 6e3d
000000f0: daab 753d 466d 063c 2a6a 7f3d 4511 5abd
00000100: c944 8f3c 70b3 10be 0847 4cbb 10d7 9dbd
00000110: 8a40 72bc 1a87 443d a5b0 743d 938a 653d
00000120: 76ef 7ebc 8ea6 6b3d d4b1 ba3d 24f8 543d
00000130: e68d c43d 1b19 c2bb 6508 1f3d ef90 1bbd
00000140: e023 153d 9590 2e3d 40ae 293e 6e66 fa3d
00000150: e5b9 853c dce0 173c c67d adbd 6427 00bd
00000160: 1f08 a53d f326 273d 0d62 f7bb 5d62 e83c
00000170: 75b9 c43d 45de 983d c265 21bd 0577 273e
00000180: c8e9 d43d d9e4 173d f2d7 a4b9 202e 223e

layer3.weight f4 [3, 100]
0.05497248 0.09665221 0.04602888 -0.17270955 -0.038252175 0.19157597 0.00095200114 0.0119273085
0.22931525 -0.026705172 -0.20442832 -0.254257 0.030502811 -0.10240579 0.043936636 0.28630844
0.0372016 0.30627525 0.22947097 -0.20905553 -0.023038758 0.26490253 -0.07286969 0.3233441
-0.17525098 0.15511407 0.15328562 -0.014095507 0.23370408 -0.12881464 -0.12974967 0.12563881
0.24432242 -0.2830849 0.30091634 0.20420255 0.23267718 0.14346308 0.30073005 0.22498208
0.17461416 0.18289486 -0.031239308 0.12914546 -0.1141958 -0.208633 0.073115416 -0.0074536614
-0.05088171 0.23773935 -0.16762498 0.13672495 0.28624585 -0.06304739 0.21174671 0.16213854
0.21099131 0.14677384 -0.14717235 -0.07599401 -0.064861804 0.2838953 0.037306655 -0.02994497
0.058210548 -0.05351355 0.020793268 -0.06253962 0.29351595 0.017258508 0.15512511 0.05694166
-0.082072794 0.23329611 0.26910695 -0.051119693 -0.10982069 -0.2522896 -0.05216289 -0.020096123
-0.18019117 0.0040671136 0.288834 0.24227834 -0.06871324 0.31022823 -0.17358948 -0.11303865
-0.22749999 0.2866544 0.046112873 -0.08871542 0.3800174 0.13790146 -0.104133785 0.2524113
0.17911343 -0.083974764 -0.061740305 0.17567469 0.03591813 0.16965719 -0.015527515 -0.13010918
0.059299186 0.2722632 0.091503285 -0.052289907 -0.12525694 -0.10956781 -0.12937629 -0.083969764
-0.012658571 -0.18714377 0.14563996 0.056833163 0.018795736 0.23168509 0.22524653 -0.13355365
0.09016758 0.21375562 -0.0035622357 0.27268583 -0.25779042 0.23067677 0.19077851 -0.082184665
0.2685872 -0.1685636 -0.17142688 -0.17659414 0.18344104 -0.018167496 0.2769053 0.26773444
0.26740485 0.17918715 0.17828889 0.29510924 0.28536642 0.25366858 0.034948394 0.27736637
-0.2600512 -0.13991174 0.0059904982 0.05433867 -0.10137116 0.20103471 -0.01075672 0.14172949
0.28684038 -0.17765442 0.1983905 0.16913533 0.17163292 0.18745159 -0.091524385 -0.14366664
-0.04576792 0.24668819 0.16776597 -0.03214414 -0.009938801 0.0920988 -0.04583668 0.073007844
0.2058145 -0.17072092 0.20826645 -0.07296672 0.041755974 0.15902835 0.18102789 0.066378094
-0.09222432 -0.22429568 0.12342399 -0.041340575 -0.17246556 -0.18147476 0.29586604 0.15915386
-0.0059260726 0.17625378 -0.19229 -0.12581348 -0.05707207 0.2583355 0.20748566 -0.106022805
0.21273075 0.16951457 0.21623282 0.17800154 0.14027771 -0.08141951 -0.14944288 0.20852117
-0.0003233965 0.07596351 0.035412904 -0.0379569 0.07587111 0.25305048 -0.046188068 0.064766385
0.081301846 0.03729885 0.06305889 -0.11807333 0.019117914 -0.041011218 -0.054463044 0.1533756
0.06465259 -0.08378142 -0.010330757 -0.10720138 0.047497988 0.25063515 0.02126227 0.3240697
-0.27502728 -0.047774993 0.20014024 0.13653946 0.2320523 -0.16817822 -0.12076053 0.007557902
0.17608337 0.016038114 0.2703265 0.18302342 0.17614943 0.25686893 0.3537487 0.29214323
-0.061092325 0.19454312 0.020353733 0.072248034 -0.25628498 -0.051941875 -0.034398273 0.04026834
0.027648313 0.24939995 -0.19815801 0.11943939 0.20826 -0.14337143 0.06626509 0.14795594
00000000: d32a 613d 98f1 c53d c788 3c3d c6da 30be
00000010: 50ae 1cbd 7e2c 443e b78f 793a c26a 433c
00000020: 9ed1 6a3e cec4 dabc a855 51be f92d 82be
00000030: 08e1 f93c 20ba d1bd e7f6 333d 0597 923e
00000040: b460 183d 1cd0 9c3e 70fa 6a3e a712 56be
00000050: c7bb bcbc 4ea1 873e b43c 95bd 5c8d a53e
00000060: fe74 33be 39d6 1e3e e8f6 1c3e d7f0 66bc
00000070: 1f50 6f3e fce7 03be 19dd 04be 76a7 003e
00000080: a82f 7a3e 81f0 90be b511 9a3e 791a 513e
00000090: ed42 6e3e fce7 123e 4af9 993e b461 663e
000000a0: 0ece 323e ca48 3b3e 94e9 ffbc b53e 043e
000000b0: 7ddf e9bd e4a3 55be 89bd 953d d83d f4bb
000000c0: 5769 50bd f271 733e e2a5 2bbe a001 0c3e
000000d0: d18e 923e fd1e 81bd 21d4 583e a507 263e
000000e0: 1b0e 583e e24b 163e 59b4 16be bfa2 9bbd
000000f0: 44d6 84bd ba5a 913e ddce 183d 274f f5bc
00000100: 2f6e 6e3d 0631 5bbd a556 aa3c c614 80bd
00000110: b947 963e b761 8d3c 1ed9 1e3e a83b 693d
00000120: c815 a8bd 2de5 6e3e 63c8 893e e262 51bd
00000130: abe9 e0bd 1a2c 81be c1a8 55bd a0a0 a4bc
00000140: 0984 38be 6c45 853b 0de2 933e d017 783e
00000150: 87b9 8cbd 3cd6 9e3e 71c1 31be cf80 e7bd
00000160: c2f5 68be 5ec4 923e dae0 3c3d 6eb0 b5bd
00000170: a491 c23e 0a36 0d3e 1844 d5bd 0e3c 813e
00000180: 8369 373e f6fa abbd 67e3 7cbd 11e4 333e
00000190: e41e 133d 9dba 2d3e 1e67 7ebc 573b 05be
000001a0: b4e3 723d 1566 8b3e 1366 bb3d f12d 56bd
000001b0: 5b43 00be 1765 e0bd 387b 04be 57f8 abbd
000001c0: e565 4fbc 9ea2 3fbe a422 153e e4c9 683d
000001d0: 84f9 993c db3e 6d3e 07a7 663e 4ac2 08be
000001e0: c8a9 b83d c1e2 5a3e 6674 69bb 7a9d 8b3e
000001f0: 1bfd 83be 8836 6c3e 715b 433e 6f50 a8bd
00000200: 4384 893e f09b 2cbe 878a 2fbe 18d5 34be
00000210: f8d7 3b3e 00d4 94bc 88c6 8d3e 7d14 893e
00000220: 4ae9 883e d67c 373e 5d91 363e 8f18 973e
00000230: 8c1b 923e d9e0 813e 0c26 0f3d f702 8e3e
00000240: 6e25 85be 0645 0fbe f14b c43b 3a92 5e3d
00000250: af9b cfbd 0bdc 4d3e f43c 30bc 8921 113e
00000260: bedc 923e 0aeb 35be e126 4b3e d031 2d3e
00000270: 8ac0 2f3e 4ff3 3f3e 2371 bbbd 591d 13be
00000280: 2477 3bbd d49b 7c3e d8ca 2b3e 93a9 03bd
00000290: 5ad6 22bc 4c9e bc3d 3ebf 3bbd 2385 953d
000002a0: 09c1 523e 77d1 2ebe cd43 553e 936f 95bd
000002b0: 5008 2b3d 54d8 223e 605f 393e 3df1 873d
000002c0: 1be0 bcbd c4ad 65be b8c5 fc3d bc54 29bd
000002d0: d09a 30be 85d4 39be c17b 973e 3bf9 223e
000002e0: 802f c2bb df7b 343e abe7 44be 40d5 00be
000002f0: 67c4 69bd 8d44 843e 1f77 543e 7c22 d9bd
00000300: 17d6 593e 3a95 2d3e 236c 5d3e 0946 363e
00000310: f6a4 0f3e 46bf a6bd 8e07 19be 9386 553e
00000320: 8b8d a9b9 c292 9b3d 1f0d 113d b278 1bbd
00000330: 5062 9b3d d58f 813e b32f 3dbd 3da4 843d
00000340: 9581 a63d aec6 183d 0525 813d 6ed0 f1bd
00000350: 2c9d 9c3c 61fb 27bd a414 5fbd 7e0e 1d3e
00000360: 9468 843d 9895 abbd 5642 29bc 668c dbbd
00000370: 408d 423d 4053 803e 362e ae3c 77ec a53e
00000380: 60d0 8cbe b6af 43bd 90f1 4c3e 00d1 0b3e
00000390: 1e9f 6d3e e936 2cbe 4c51 f7bd 47a8 f73b
000003a0: 334f 343e 5d62 833c 3c68 8a3e 7e6a 3b3e
000003b0: 8460 343e 5384 833e 8d1e b53e cc93 953e
000003c0: f23b 7abd 5036 473e dfbc a63c c7f6 933d
000003d0: c937 83be 01c1 54bd 34e5 0cbd 6af0 243d
000003e0: b77e e23c b362 7f3e efe9 4abe a49c f43d
000003f0: 1c42 553e f6cf 12be feb5 873d c381 173e

layer3.bias f4 [3]
-0.068381846 0.15837577 0.08580625
00000000: c80b 8cbd 422d 223e 30bb af3d

exp_avg f4 [150, 20]
0.0012017452 9.858233e-05 0.019981164 -0.011359984 0.0003349786 5.8235557e-05 0.0057739783 -0.008502801
3.7217799e-06 1.0263822e-05 0.0007363454 0.0031615861 -7.043274e-05 9.927903e-05 -0.0035073734 -0.00024678232
0.062386014 0.044370256 0.017176911 0.020260926 0.0006210294 -1.7235972e-05 0.010690998 -0.0013751384
-9.420202e-05 1.3723913e-05 -0.0006528176 0.00047551558 -2.2190034e-06 6.668199e-06 0.00081018964 0.00039076724
1.7112263e-05 -0.00015501879 -1.4263205e-05 -0.008477761 0.03310766 0.027508542 -5.6186655e-05 0.02165369
0.00084234145 6.0466973e-05 0.01967008 0.00023340322 -1.0689509e-05 -1.9939944e-05 0.0011419872 -0.00031539833
5.1558196e-05 6.056801e-05 0.0026108907 0.0017005524 0.000112965085 3.1010433e-05 0.0027190004 -0.0016324464
0.03851313 0.031552754 0.010198882 0.02424055 1.6972344e-05 -4.1706508e-06 -0.0010914458 -0.0003353868
-1.1418451e-37 1.1093174e-37 -1.0690767e-37 1.1428766e-37 1.0618459e-37 1.1620979e-37 1.0625812e-37 1.1365108e-37
1.0615059e-37 8.634132e-06 1.1209836e-37 -0.00054488215 3.496894e-05 2.3139672e-05 8.782931e-06 0.0006250942
0.00029495533 1.16889705e-05 0.0049549663 -0.0067301784 3.5221507e-05 4.1697647e-05 0.0016527335 -0.0020916741
-4.5577435e-05 0.00012906358 -0.0015010629 0.0057994016 -1.3123565e-05 -0.00010868477 -0.0014049772 -0.008422539
0.022871293 0.010437269 0.0051748324 0.008859111 -0.00030061972 -0.00023278846 -0.008919801 -0.009023578
-5.220019e-05 -2.1355325e-05 -0.00060711545 -0.0009597821 7.164963e-07 8.769091e-06 3.533042e-05 0.00045516182
-6.3308005e-05 -0.00024923944 -0.0019490583 -0.009097678 -0.0051872036 -0.008854006 -0.003959161 -0.0064987275
1.1554113e-37 1.1052594e-37 1.060919e-37 1.0859105e-37 1.1052594e-37 1.1554113e-37 1.1431055e-37 1.1015059e-37
1.1554113e-37 1.1554113e-37 1.1237055e-37 1.0748933e-37 0.0 1.1052594e-37 0.0 1.0975019e-37
1.154402e-37 1.1619597e-37 1.0921492e-37 1.0736341e-37 0.00032200175 2.1005548e-05 0.0038121468 -0.007933166
6.125747e-06 -4.2919382e-05 -0.0001242756 -0.005860217 -3.649913e-05 0.000106575375 -0.0013406228 0.0052690674
-1.6845624e-05 -7.103662e-05 -0.001682163 -0.007667651 0.024676345 0.009134397 0.005124941 0.0070822155
0.0 0.0 0.0 0.0 0.0 0.0 0.0 0.0
0.0 0.0 0.0 0.0 0.0 0.0 0.0 0.0
0.0 0.0 0.0 0.0 -1.2251227e-05 8.5920874e-05 -0.0008782451 0.00017129329
-4.111748e-05 -4.507128e-05 -0.001298676 -0.0018027275 -5.5243872e-06 -7.374427e-06 -3.53734e-05 -0.00020315021
-5.9847016e-06 9.668369e-05 1.2362589e-06 0.001318537 0.0002394157 -0.0017022947 -0.0006584648 -0.001469833
0.0021325967 0.0004203472 0.050612733 0.007903763 0.00018911363 0.00033105983 0.002435942 0.0079644425
7.508811e-05 0.00038824085 0.0023229006 0.01647389 0.00015431529 5.4129625e-05 0.0008142311 -0.00057239714
0.0965014 0.06915716 0.018106326 0.0719539 0.00021661232 7.204588e-05 0.0056462074 0.00042005657
3.3348173e-05 2.6497692e-06 0.0006744304 0.0004174746 5.9020676e-06 -2.8469696e-05 0.00029488135 -0.0012468866
-1.0838827e-05 1.6432365e-05 -0.0005258935 0.0008413715 0.009963486 0.008427107 0.0044617075 0.002755641
1.442153e-06 -3.672876e-05 0.007879562 0.008644283 0.0002019147 9.3620234e-05 0.0032583694 0.014383248
1.5990714e-05 -0.00024415043 0.0015590041 -0.013757827 0.00012963016 -0.00015191933 0.0035083068 0.010782567
00000000: e183 9d3a fcbd ce38 8aaf a33c 3a1f 3abc
00000010: 11a0 af39 f441 7438 a433 bd3b 554f 0bbc
00000020: b1c3 7936 c832 2c37 4e07 413a 9d32 4f3b
00000030: 4ab5 93b8 0634 d038 f6db 65bb 9062 81b9
00000040: 7a88 7f3d 96bd 353d 98b6 8c3c 3efa a53c
00000050: 94cc 223a f895 90b7 4c29 2f3c fd3d b4ba
00000060: 538e c5b8 c23f 6637 d921 2bba 9f4e f939
00000070: 30ea 14b6 65bf df36 e862 543a e4df cc39
00000080: 4e8c 8f37 8a8c 22b9 004c 6fb7 4fe6 0abc
00000090: e69b 073d 9859 e13c f6a9 6bb8 1463 b13c
000000a0: 94d0 5c3a eb9d 7d38 2623 a13c b3bd 7439
000000b0: 1757 33b7 b444 a7b7 bbae 953a 0c5c a5b9
000000c0: 3140 5838 680a 7e38 7a1b 2b3b 12e5 de3a
000000d0: abe7 ec38 3311 0238 4231 323b d0f7 d5ba
000000e0: f2bf 1d3d 763d 013d 3619 273c 1e94 c63c
000000f0: d55f 8e37 9ef1 8bb6 d80e 8fba dbd6 afb9
00000100: 7f6b 1b82 12fe 1602 e383 1182 708f 1b02
00000110: ee87 1002 342d 1e02 8da1 1002 9fb1 1a02
00000120: 157c 1002 51db 1037 9494 1802 6cd6 0eba
00000130: 9dab 1238 111c c237 675a 1337 5ddd 233a
00000140: 3ca4 9a39 bf1b 4437 455d a23b d488 dcbb
00000150: ceba 1338 82e4 2e38 89a0 d83a 7814 09bb
00000160: 662a 3fb8 3e55 0739 50bf c4ba e808 be3b
00000170: 482d 5cb7 b1ed e3b8 3627 b8ba b0fe 09bc
00000180: 945c bb3c 1401 2b3c a491 a93b ce25 113c
00000190: 7f9c 9db9 ad18 74b9 5b24 12bc a1d7 13bc
000001a0: 87f1 5ab8 3624 b3b7 d426 1fba e399 7bba
000001b0: 4055 4035 f61e 1337 c02f 1438 c9a2 ee39
000001c0: 3ac4 84b8 5aac 82b9 8b77 ffba 6d0e 15bc
000001d0: 6bf9 a9bb 6510 11bc dabb 81bb 47f3 d4bb
000001e0: 3544 1d02 ab70 1602 a267 1002 75ce 1302
000001f0: ab70 1602 3544 1d02 6a97 1b02 e1ed 1502
00000200: 3544 1d02 3544 1d02 6cf3 1802 914e 1202
00000210: 0000 0000 ab70 1602 0000 0000 5c62 1502
00000220: 0a21 1d02 6328 1e02 d8a7 1402 b022 1202
00000230: 58d2 a839 1235 b037 36d5 793b 1cfa 01bc
00000240: c48b cd36 5604 34b8 fa4f 02b9 1007 c0bb
00000250: a416 19b8 3881 df38 d6b7 afba 24a8 ac3b
00000260: b44f 8db7 7ff9 94b8 067c dcba eb40 fbbb
00000270: 0c26 ca3c 70a8 153c 1fef a73b ee11 e83b
00000280: 0000 0000 0000 0000 0000 0000 0000 0000
00000290: 0000 0000 0000 0000 0000 0000 0000 0000
000002a0: 0000 0000 0000 0000 0000 0000 0000 0000
000002b0: 0000 0000 0000 0000 0000 0000 0000 0000
000002c0: 0000 0000 0000 0000 0000 0000 0000 0000
000002d0: 9f8a 4db7 6b30 b438 083a 66ba 319d 3339
000002e0: 8f75 2cb8 eb0a 3db8 5638 aaba 7f49 ecba
000002f0: 205e b9b6 d871 f7b6 e65d 14b8 b804 55b9
00000300: 32d0 c8b6 a9c2 ca38 88ed a535 c3d2 ac3a
00000310: aa0b 7b39 881f dfba d39c 2cba 69a7 c0ba
00000320: 09c3 0b3b 0c62 dc39 4c4f 4f3d c97e 013c
00000330: ce4c 4639 1992 ad39 53a4 1f3b 4b7d 023c
00000340: 9f78 9d38 ce8c cb39 ce3b 183b 40f4 863c
00000350: b2cf 2139 3e09 6338 2072 553a ec0c 16ba
00000360: 87a2 c53d 45a2 8d3d b853 943c 915c 933d
00000370: 6d22 6339 5617 9738 d203 b93b 0a3b dc39
00000380: 54df 0b38 b0d2 3136 42cc 303a 7ee0 da39
00000390: 600a c636 35d2 eeb7 4e9a 9a39 926e a3ba
000003a0: 68d8 35b7 3cd8 8937 1edc 09ba 7c8f 5c3a
000003b0: e43d 233c d911 0a3c 8433 923b fc97 343b
000003c0: 0090 c135 350d 1ab8 4719 013c c0a0 0d3c
000003d0: 11b9 5339 fb55 c438 5e8a 553b b7a7 6b3c
000003e0: cc23 8637 5101 80b9 7f57 cc3a 8268 61bc
000003f0: 55ed 0739 894c 1fb9 9feb 653b 5da9 303c

exp_avg_sq f4 [150, 20]
1.2595388e-05 4.1835274e-06 0.00547076 0.0025884141 8.893927e-07 1.5845145e-06 0.0010005161 0.00247131
2.7009913e-08 2.4932274e-07 1.766738e-05 4.094855e-05 1.1577689e-06 4.898464e-07 0.0014666184 0.00018439158
0.027088119 0.022290817 0.0020328655 0.011728671 6.901269e-06 1.3465025e-06 0.0049061626 0.0018948392
6.507946e-08 3.3796155e-08 5.1381194e-05 1.7400913e-05 6.162365e-08 4.531874e-08 3.5452198e-05 9.354009e-05
4.1739014e-07 1.2681509e-06 0.0005116523 0.0023713803 0.012226699 0.010478199 9.64014e-06 0.005439074
4.348246e-06 1.7920867e-07 0.0023969987 0.00015168423 3.060577e-08 3.2541493e-08 4.130931e-06 1.1315418e-05
6.9522265e-08 4.1380087e-08 9.319848e-05 7.359863e-05 1.0497592e-07 2.9523596e-07 0.000114219314 0.000248766
0.009522423 0.008924933 0.0008758613 0.0029493321 5.7579416e-07 4.7824534e-07 0.00086467626 0.0007722272
2.5471516e-09 4.759289e-10 1.8780956e-06 6.2124366e-07 2.3136767e-08 8.9116475e-12 1.2813966e-05 3.781466e-09
4.81879e-09 5.0566905e-07 2.2630954e-07 0.000943235 2.3159837e-05 4.047141e-05 2.1494701e-05 0.00012344903
3.5032813e-06 1.9558993e-06 0.0023607954 0.001523734 2.6544507e-07 5.079852e-07 0.00028508884 0.0006970749
1.9287556e-07 1.8548788e-07 0.0002655892 0.00026458286 2.9050358e-07 1.1562635e-06 0.00023585733 0.0010330506
0.005429095 0.005088218 0.0010613194 0.0048733307 1.5237125e-06 1.156516e-06 0.0018404593 0.0013784714
9.0023484e-08 3.7321936e-08 0.00014923836 3.1001015e-05 1.718325e-07 6.5777755e-08 0.00014134166 0.00014371533
1.18370295e-07 1.529114e-06 5.717352e-05 0.0016388844 0.0005181398 0.0010364839 0.0004466417 0.0021987471
3.8310816e-16 1.4992184e-15 3.9323746e-15 1.6635873e-16 1.4881454e-15 3.8310816e-16 8.858069e-13 8.470055e-13
3.8310816e-16 3.7203635e-16 8.775763e-13 7.7131674e-14 0.0 1.4881454e-15 0.0 3.514933e-13
7.6211563e-13 9.43394e-13 1.0279717e-12 6.129729e-17 6.200504e-06 3.2149476e-06 0.004008141 0.0023375931
5.648983e-07 9.695043e-07 0.00061467674 0.0013035288 2.8213634e-07 3.1680858e-07 0.00036134492 0.00043435526
4.489575e-07 1.7338219e-06 0.00036309278 0.0015257997 0.009728885 0.010358925 0.0015091614 0.008164224
0.0 0.0 0.0 0.0 0.0 0.0 0.0 0.0
0.0 0.0 0.0 0.0 0.0 0.0 0.0 0.0
0.0 0.0 0.0 0.0 2.1451065e-06 7.5350283e-07 0.0011001385 0.0003027129
1.00757426e-07 2.7960087e-07 0.00010356009 0.00049995945 1.7496343e-09 1.3247395e-08 1.4359752e-06 1.505843e-05
1.1931061e-08 1.7231822e-07 4.4139224e-06 0.00012662729 0.0043591806 0.0056648143 4.0407693e-05 0.001942888
2.0863312e-05 1.8155722e-06 0.011500489 0.0019439881 1.5311609e-07 5.105815e-07 2.7592476e-05 0.00033287724
6.0967335e-07 8.925941e-07 0.0007396106 0.0016838656 1.4758783e-06 1.2880507e-06 0.0014097982 4.971635e-05
0.052344732 0.038272377 0.005264132 0.026862964 3.6758624e-07 1.1702723e-07 0.00016394212 6.788258e-05
4.6251706e-08 3.8731393e-08 4.5029952e-05 4.2170792e-05 9.141771e-09 1.4584288e-08 1.1083619e-05 2.2166174e-05
3.6787572e-08 5.31073e-08 4.2894393e-05 4.1143147e-05 0.0008375343 0.00057436276 0.0001914688 0.00044209606
8.552051e-06 8.203232e-06 0.005725795 0.0057366122 8.137954e-07 2.7876938e-06 0.0009614134 0.0047734426
2.458245e-07 7.9501814e-07 0.00043989887 0.0011240881 7.009994e-07 2.4884896e-06 0.0004954783 0.0016431641
00000000: c850 5337 3a60 8c36 1044 b33b 62a2 293b
00000010: 9abe 6e35 81ab d435 c023 833a b4f5 213b
00000020: 6d03 e832 a8da 8534 6934 9437 2cc0 2b38
00000030: a364 9b35 fd7d 0335 8c3b c03a 3d59 4139
00000040: e7e7 dd3c 3b9b b63c d339 053b 9d29 403c
00000050: 7391 e736 79b9 b435 e0c3 a03b 415c f83a
00000060: d0c1 8b33 4427 1133 2382 5738 2df8 9137
00000070: f655 8433 7ba4 4233 82b2 1438 f42a c438
00000080: aa15 e034 5535 aa35 6820 063a 2969 1b3b
00000090: 7e52 483c c1ac 2b3c 16bc 2137 423a b23b
000000a0: 26e7 9136 816c 4034 f716 1d3b 6d0d 1f39
000000b0: 6673 0333 c0c3 0b33 6d9c 8a36 5ad7 3d37
000000c0: 454c 9533 e3b9 3133 8e73 c338 f758 9a38
000000d0: 1f6f e133 ec80 9e34 0789 ef38 cf6c 8239
000000e0: f003 1c3c e239 123c 0f9a 653a 9549 413b
000000f0: 4690 1a35 c560 0035 71ab 623a 4a6f 4a3a
00000100: f709 2f31 85d2 0230 e012 fc35 8ac3 2635
00000110: 4abe c632 7ec6 1c2d 91fb 5637 20ee 8131
00000120: 8692 a531 50bd 0735 7eff 7234 6e43 773a
00000130: 5f47 c237 d8bf 2938 854f b437 1972 0139
00000140: ea19 6b36 1842 0336 93b7 1a3b 07b8 c73a
00000150: 7e82 8e34 7a5c 0835 fa77 9539 e8bb 363a
00000160: 3b19 4f34 852a 4734 c73e 8b39 b6b7 8a39
00000170: 82f6 9b34 e930 9b35 7850 7739 6d67 873a
00000180: 8de6 b13b 11bb a63b f81b 8b3a 76b0 9f3b
00000190: 5d82 cc35 9639 9b35 913b f13a d3ad b43a
000001a0: ef52 c133 e74b 2033 de7c 1c39 1607 0238
000001b0: f580 3834 b441 8d33 1d35 1439 4ab2 1639
000001c0: c232 fe33 f53b cd35 9acd 6f38 d6cf d63a
000001d0: c6d3 073a a1da 873a 3c2b ea39 db18 103b
000001e0: c9d8 dc25 650f d826 c1ad 8d27 6ecc 3f25
000001f0: e076 d626 c9d8 dc25 1d55 792b 2e69 6e2b
00000200: c9d8 dc25 e076 d625 0904 772b 62af ad29
00000210: 0000 0000 e076 d626 0000 0000 86df c52a
00000220: 3884 562b 5ac5 842b 95ac 902b 8957 8d24
00000230: ec0d d036 61c0 5736 b956 833b 4e32 193b
00000240: 84a3 1735 ea1f 8235 4222 213a 2bdb aa3a
00000250: 8678 9734 d715 aa34 e572 bd39 2dba e339
00000260: 4008 f134 abb5 e835 7d5d be39 58fd c73a
00000270: e765 1f3c 7bb8 293c 0ecf c53a 3dc3 053c
00000280: 0000 0000 0000 0000 0000 0000 0000 0000
00000290: 0000 0000 0000 0000 0000 0000 0000 0000
000002a0: 0000 0000 0000 0000 0000 0000 0000 0000
000002b0: 0000 0000 0000 0000 0000 0000 0000 0000
000002c0: 0000 0000 0000 0000 0000 0000 0000 0000
000002d0: a6f4 0f36 5244 4a35 8632 903a 70b5 9e39
000002e0: fb5f d833 0d1c 9634 662e d938 b60f 033a
000002f0: c977 f030 a996 6332 bbbb c035 77a3 7c37
00000300: 5cf9 4c32 7906 3934 4e1b 9436 41c7 0439
00000310: 75d7 8e3b e89f b93b 6e7b 2938 81a8 fe3a
00000320: 9f03 af37 96ae f335 8c6c 3c3c 6bcd fe3a
00000330: 3b68 2434 e50e 0935 6476 e737 0786 ae39
00000340: 6fa8 2335 999a 6f35 6de2 413a 27b5 dc3a
00000350: cb16 c635 16e1 ac35 fac8 b83a 8686 5038
00000360: 6e67 563d 7fc3 1c3d bd7e ac3b b80f dc3c
00000370: ab58 c534 6650 fb33 e1e7 2b39 2f5c 8e38
00000380: 4aa6 4633 9e59 2633 8bde 3c38 8be0 3038
00000390: ef0d 1d32 618e 7a32 c8f3 3937 7ff1 b937
000003a0: 5d00 1e33 1818 6433 81e9 3338 1e91 2c38
000003b0: fa8d 5b3a d590 163a 04c5 4839 21c9 e739
000003c0: c87a 0f37 9da0 0937 739f bb3b 31fa bb3b
000003d0: 9873 5a35 3714 3b36 5c07 7c3a 8a6a 9c3b
000003e0: ddf9 8334 3b69 5535 3aa2 e639 2356 933a
000003f0: 502c 3c35 edff 2636 fce2 013a 705f d73a

exp_avg f4 [150]
0.02767538 0.012200157 0.022981327 0.00021368501 0.0057682237 -0.00982345 1.1713306e-37 0.006154595
0.0 -0.001657073 0.059626676 0.005779775 0.0036707316 -0.0020521241 0.0022922885 0.0
-0.017731773 0.013468297 -0.0118345525 0.017953753 -0.038277473 0.020114888 0.007410798 -0.010258901
0.021705056 -0.02120433 -0.00018828176 -0.00014103157 -0.012670417 1.1339719e-37 -0.01624014 0.06882225
0.0062694503 -0.03175287 0.0 0.007245356 0.0 -0.006178816 -0.006848189 -0.007310172
0.014347751 -0.007260445 0.0 -0.020690832 -0.0030534924 0.0066283066 -0.006445301 -0.042914882
-0.01445639 -0.076457165 0.018726656 0.00095458655 -0.00023955805 -0.021485083 -0.0058117267 0.02543871
0.0058749146 0.005744717 -0.0040543564 0.004470219 -0.005012429 0.011113715 -0.0065769926 -0.010937035
-0.019153578 -0.00582459 -0.03373401 0.009717211 -0.001164671 0.002386122 0.032112032 0.029190924
-0.012889954 -0.0061760163 0.00083732896 0.005735117 0.03581325 4.9880724e-05 0.055357065 -0.0057253856
0.006343715 -0.0087212715 0.008772054 -0.008952407 0.005167907 0.0025264584 0.0023262398 -0.006945934
0.0 0.033402674 0.013652475 0.011490108 -0.0001827944 0.0010720366 0.009539641 -0.00088399043
0.0 -0.013097374 0.001953924 -0.0054062987 -0.017083386 0.028081324 6.200373e-05 0.0046389187
-0.009809384 0.02356747 -0.012794685 0.012476548 -0.00093112886 0.002741035 0.004086341 0.0018403934
-0.0072695436 -0.00136631 -0.037308585 0.0 0.0031720733 0.017335294 0.009819698 0.0098691145
0.008657374 -0.014388578 0.0 0.01547577 0.0059846444 0.024966113 0.011780687 -0.005830806
0.0 -0.0045210337 -0.008412962 -1.09722605e-05 -0.018409943 0.007492645 -0.016914204 -0.0023937416
-0.013670014 0.0063110795 0.017159794 0.0266586 0.008068096 -0.00045638392 -0.011846457 0.004954288
-0.028489374 0.0 0.0014596265 0.0016397485 -0.0049604867 -0.022532463
00000000: 7bb7 e23c 2be3 473c 5643 bc3c a210 6039
00000010: 5e03 bd3b 89f2 20bc ea6e 1f02 7cac c93b
00000020: 0000 0000 2532 d9ba 1a3b 743d 4464 bd3b
00000030: a890 703b ee7c 06bb 383a 163b 0000 0000
00000040: 3942 91bc 22aa 5c3c b6e5 41bc c013 933c
00000050: d7c8 1cbd fac7 a43c 48d6 f23b f314 28bc
00000060: cdce b13c b4b4 adbc 806d 45b9 e0e1 13b9
00000070: 9597 4fbc 2759 1a02 0b0a 85bc aef2 8c3d
00000080: f66f cd3b 4c0f 02bd 0000 0000 746a ed3b
00000090: 0000 0000 aa77 cabb c666 e0bb 2b8a efbb
000000a0: d412 6b3c 07e9 edbb 0000 0000 d27f a9bc
000000b0: 1a1d 48bb 4432 d93b 1b33 d3bb 84c7 2fbd
000000c0: 7fda 6cbc 9395 9cbd a568 993c 383d 7a3a
000000d0: e031 7bb9 7c01 b0bc 4c70 bebb d764 d03c
000000e0: 5b82 c03b 2e3e bc3b 68da 84bb ea7a 923b
000000f0: 4d3f a4bb 4d16 363c d083 d7bb 4031 33bc
00000100: f7e7 9cbc 34dc bebb ac2c 0abd f034 1f3c
00000110: e0a7 98ba 7c60 1c3b e887 033d ce21 ef3c
00000120: 6330 53bc 2e60 cabb 3280 5b3a a6ed bb3b
00000130: eab0 123d 0537 5138 17be 623d 049c bbbb
00000140: f0de cf3b aae3 0ebc a9b8 0f3c 1ead 12bc
00000150: 8c57 a93b f092 253b d473 183b b89a e3bb
00000160: 0000 0000 3ed1 083d a1ae 5f3c 0241 3c3c
00000170: 80ac 3fb9 9483 8c3a 284c 1c3c 98bb 67ba
00000180: 0000 0000 5e96 56bc 680d 003b 5227 b1bb
00000190: 75f2 8bbc ce0a e63c 0008 8238 1202 983b
000001a0: 8ab7 20bc 9110 c13c cca0 51bc 6f6a 4c3c
000001b0: 0017 74ba f0a2 333b b6e6 853b 5b39 f13a
000001c0: 5a35 eebb c215 b3ba e3d0 18bd 0000 0000
000001d0: 8fe2 4f3b bf02 8e3c cce2 203c 11b2 213c
000001e0: a9d7 0d3c 12be 6bbc 0000 0000 168e 7d3c
000001f0: d61a c43b bc85 cc3c c803 413c 5910 bfbb
00000200: 0000 0000 2e25 94bb 85d6 09bc 8015 38b7
00000210: 73d0 96bc dd84 f53b a88f 8abc 52e0 1cbb
00000220: 32f8 5fbc 2ccd ce3b b292 8c3c 2363 da3c
00000230: 0c30 043c d046 efb9 a417 42bc 9457 a23b
00000240: 8c62 e9bc 0000 0000 f050 bf3a d4ec d63a
00000250: 948b a2bb 0096 b8bc

exp_avg_sq f4 [150]
0.010852775 0.007078704 0.0029943099 0.0012646273 0.0039668055 0.002575465 9.577688e-13 0.006685353
0.0 0.0016076353 0.017528554 0.0003642191 0.01015906 0.009447525 0.01507292 0.0
0.0012806833 0.037081856 0.0046297302 0.016540397 0.012436508 0.0027408414 0.059679676 0.002843415
0.0007691521 0.005890118 0.0050599775 0.0017485236 0.003979575 2.7518843e-10 0.0055541783 0.018901322
0.009441367 0.01643517 0.0 0.0036418962 0.0 0.0022887508 0.0019405184 0.0016699674
0.0016943268 0.0048252465 0.0 0.038328834 0.012272239 0.0010241896 0.0088546015 0.016636122
0.0061754463 0.049920514 0.0033895932 0.00023117856 0.0032200583 0.03635969 0.017191056 0.02184775
0.0016042927 0.004290531 0.0029278912 0.0065167034 0.0036450138 0.020195719 0.0005038024 0.01885357
0.008178994 0.0005335542 0.007753321 0.004060336 0.026245544 0.0008364901 0.007980984 0.013096734
0.013378201 0.012214276 0.00028109044 0.002292052 0.009063744 0.0033826404 0.020891493 0.010768718
0.012139264 0.004961046 0.0064774933 0.0024334528 0.004355522 0.0065019857 0.0031996574 0.00039593742
0.0 0.018917246 0.009312007 0.0049886825 0.017513039 0.0010462303 0.008296397 0.010487936
0.0 0.007697144 0.0017404957 0.00048552215 0.028296517 0.032540392 0.08170316 0.015553042
0.017824868 0.007102167 0.044176158 0.015085699 0.004268335 0.02650373 0.0039695394 0.00074988394
0.025815517 0.00022362081 0.010707317 0.0 0.005112956 0.009684058 0.0014298791 0.047618087
0.015374447 0.008409821 0.0 0.0017741713 0.009922674 0.03877109 0.008617282 0.0029733884
0.0 0.013245134 0.004993847 0.0032044868 0.0023433622 0.0011385853 0.020839501 0.0085030245
0.017080523 0.028112946 0.007410395 0.0036444918 0.0016502662 0.002951067 0.018852154 0.0058599254
0.055843994 0.0 0.014557101 0.00037028766 0.0035668032 0.0066194795
00000000: d6cf 313c 79f4 e73b 2f3c 443b dac1 a53a
00000010: fafb 813b 22c9 283b 42cb 862b ce10 db3b
00000020: 0000 0000 4ab7 d23a 0b98 8f3c a9f4 be39
00000030: 3072 263c cbc9 1a3c 69f4 763c 0000 0000
00000040: 9adc a73a 25e3 173d feb4 973b ba7f 873c
00000050: 7fc2 4b3c b09f 333b ad72 743d 9658 3a3b
00000060: eca0 493a e401 c13b 2bce a53b b72e e53a
00000070: 1867 823b 5449 972f d3ff b53b f2d6 9a3c
00000080: f7af 1a3c 0da3 863c 0000 0000 e1ac 6e3b
00000090: 0000 0000 defe 153b fe58 fe3a cfe2 da3a
000000a0: 2c14 de3a 1a1d 9e3b 0000 0000 b2fe 1c3d
000000b0: 8011 493c 1a3e 863a e412 113c 7a48 883c
000000c0: 665b ca3b 7479 4c3d f023 5e3b 8668 7239
000000d0: 9d07 533b e6ed 143d 42d4 8c3c 0dfa b23c
000000e0: 2147 d23a 9597 8c3b dde1 3f3b 128a d53b
000000f0: 2fe1 6e3b 7e71 a53c 9b11 043a cd72 9a3c
00000100: 3001 063c 37de 0b3a 920f fe3b 910c 853b
00000110: e500 d73c e647 5b3a acc2 023c af93 563c
00000120: 3e30 5b3c 631e 483c 525f 9339 4036 163b
00000130: 1980 143c 4aaf 5d3b a324 ab3c 476f 303c
00000140: c3e3 463c 4590 a23b 2741 d43b 907a 1f3b
00000150: c4b8 8e3b 9c0e d53b 58b1 513b d295 cf39
00000160: 0000 0000 57f8 9a3c 6391 183c 1a78 a33b
00000170: 8177 8f3c aa21 893a 9ced 073c 98d5 2b3c
00000180: 0000 0000 5338 fc3b 5821 e43a ae8d fe39
00000190: 19ce e73c 1349 053d fd53 a73d 30d2 7e3c
000001a0: 7505 923c 4bb9 e83b 0ff2 343d 022a 773c
000001b0: 64dd 8b3b 5a1e d93c e912 823b dc93 443a
000001c0: 107b d33c c17b 6a39 be6d 2f3c 0000 0000
000001d0: 958a a73b e2a9 1e3c c86a bb3a 2f0b 433d
000001e0: 1be5 7b3c 59c9 093c 0000 0000 4f8b e83a
000001f0: b692 223c 6fce 1e3d 802f 0d3c 2edd 423b
00000200: 0000 0000 1e02 593c 6da3 a33b 5e02 523b
00000210: 1893 193b 953c 953a 9ab7 aa3c 4550 0b3c
00000220: 74ec 8b3c 1f4d e63c e6d2 f23b 6dd8 6e3b
00000230: bf4d d83a b066 413b d56f 9a3c 9e04 c03b
00000240: acbc 643d 0000 0000 e880 6e3c 2b23 c239
00000250: 07c1 693b 38e8 d83b
