checkpoints/dqn/checkpoint_ep200.pth (torch, 229962 bytes, 18 tensors)

layer1.weight f4 [150, 20]
00000000: 5d01 f8bf 428a 3bc0 40b4 26bf ffc1 2bbf
00000010: c3dd f5bf a1c0 0fc0 5a8d f3bd e63f a9be
00000020: e2e4 0ec0 8875 36c0 aa86 dfbf ba8d 46bf
00000030: aa87 63c0 3864 eb3f 44dd e2bf 9728 4fbe
00000040: ddda b8bf 7133 9fbf 1b54 b23e 77e7 37bf
00000050: 4c8f 4dbf 69f7 03c0 1e1c f73d a3e0 693b
00000060: 701e 3ebf cbad 46c0 c713 07c0 341b d0bf
00000070: 46a2 7fbf d593 6e3e 0a64 abbe 7a04 63be
00000080: 4174 ffbe c54a 4d3f 458b f6be 5d84 303e
00000090: 07db 943d 66e4 0d3e 326a a93d 6a15 bbc0
000000a0: 2472 05c0 e0be 28be dd37 63be 0f82 283f
000000b0: 6482 9ac0 783a 93bf 44a9 08c0 ef28 723f
000000c0: 9d9a 723f d3e4 6f3f e261 b5bf c4a9 cb3e
000000d0: 6e53 a3bf b01f 5b3d 3b2f 40bf 60e3 f4bf
000000e0: 9e5a afbf cadf 1cbf 3155 00bf 4535 dcbe
000000f0: f59f e9be a5cb e3bd 4080 643e b618 ecbc
00000100: cb8c 4d3f 9031 483f c93d 1abf 7d76 5e3e
00000110: b990 153e b69b f0bf 96a4 7a3e f072 e13e
00000120: 521f dc3d cdd6 1540 9c06 db3e d7be 123f
00000130: c48d f83e ad5e e7be 2e06 02c0 5557 fbc0
00000140: 2511 e9c0 3ffa ddc0 2638 6fbe 7f7d 5ebf
00000150: b0c5 b9c0 2d52 f3c0 7483 c2bf ec35 94bf
00000160: a643 28c0 1cc9 183f 5744 36bf 9660 0a3f
00000170: 7c80 b33f 363c 7fbf 6d65 813d b0b8 c6bd
00000180: 3bda 94bf 3c1a aabf ccd5 cdc0 2d1c 92c0
00000190: f7d7 03bf 62e4 a53f 89b6 713d d850 02be
000001a0: c005 573e 1ed8 abbb ff69 5d3e a965 a23e
000001b0: 74ef a4bf 6af7 d8be 69da e8bd e262 a03c
000001c0: 7fbd f6bf c6d5 90bf ed54 bfbd fc82 723e
000001d0: 7e5d 04be 33ce 5e3e 7554 e53f 2676 3cc0
000001e0: 2fee 19c0 21bd cdc0 7e6c b4be f6ec b53e
000001f0: 3372 a23f 7dc3 bebf 40a8 0e3e 526a e5be
00000200: fc7c c03f c356 0dc0 9ae6 59be 572d f03e
00000210: 60f0 c2bf 29da 35c0 35ba 3abf e464 37bf
00000220: 8362 86bf 8629 73be 3d5c 773f c6c8 a7c0
00000230: 1271 6bc0 7b5d 2fbf c4c0 96bc ee4d 2ebf
00000240: 4a2a 1fc0 89f1 50c0 7a32 efbe 56dc 2d3e
00000250: 4134 b3be 7d04 ecbf f949 b03c a7d1 bdbc
00000260: 62d2 acbf 9455 dd3f 8090 b9bf 6c62 a7be
00000270: 87b7 74be d1cc dbbf 7d08 2ec0 ed3d 1e40
00000280: d345 2cc0 c725 9dbf b611 b73e a71f 28bf
00000290: 1211 213e f7e6 3bc0 9976 4cbf efab 10bf
000002a0: 8938 b03f 533a 023d e02e 8fbb 6076 a73e
000002b0: 4bd0 0740 6cd9 68bf 7c0b 463d 9977 a4bf
000002c0: 1389 f23d 9224 54c0 b4d5 633f 341d 9dbf
000002d0: 7fb0 ebbd 7e93 e4c0 07e1 b73e 59a8 36bd
000002e0: c7e8 8c3f 2138 273f b2c9 55be 790b ed3e
000002f0: b8e7 4740 b1ee 9bc0 f3ca 0ebf a9b5 0a3f
00000300: e72e 19bf 029c 0fc1 99d2 1fbe bbab 763f
00000310: a4a0 aabf 78c3 f23e 6569 80c0 af8c 5cbe
00000320: 7a2a 7a3f 3ec6 97bf 3a48 26bf 263b 94bd
00000330: 0f97 ae3f 868f 6640 566a 06be bfbe 24be
00000340: 7a97 43c0 0a9e a7bf c314 8ebd 3ff1 233f
00000350: d826 1040 2522 9e3f 27b1 63be c0dd 8dbd
00000360: be4d 02be 1cac 3ac0 caea b4be 97f0 edbc
00000370: bb14 cbbf d5c2 9fbf 0125 c33d 9cb7 c93d
00000380: 1a2e 0cbf c6cb f8be df78 823e 6675 453f
00000390: 12f1 453f abc8 cfbf 82c0 1c3e a3e7 003e
000003a0: c3ac 8d3e 2a6e 0fbd 309a d9bd 9028 b2be
000003b0: 3ff9 4f3f 552c 26be 13a6 88c2 9514 f43d
000003c0: 9174 2cc0 7b1a a0bf 77d8 5fbf 7d60 90be
000003d0: 0ce7 f3bf 35a6 98c0 60ac e8ba b731 96be
000003e0: 18d5 6ac0 0648 0ac1 2013 85bf 1928 5cbe
000003f0: b5b9 ca3f fffd d93f 0146 b7bf 92e4 43bf
-1.9375416 -2.9303136 -0.6511879 -0.6709289 -1.9208301 -2.2461321 -0.11892195 -0.33056563
-2.23272 -2.8509235 -1.7462971 -0.7756001 -3.5551553 1.8389959 -1.7723775 -0.20230328
-1.4441792 -1.2437574 0.34829792 -0.7183756 -0.8029678 -2.0619757 0.1206591 0.0035686872
-0.74265194 -3.1043575 -2.110582 -1.6258302 -0.99856985 0.23298581 -0.3347476 -0.22169676
-0.49893382 0.80192214 -0.4815313 0.17237993 0.07268339 0.13856658 0.08272208 -5.846364
-2.0850916 -0.16479063 -0.22189279 0.65823454 -4.828417 -1.1502218 -2.1353312 0.9459371
0.9476717 0.93708533 -1.4170496 0.39777958 -1.2759836 0.053497016 -0.7507207 -1.9131889
-1.3699529 -0.61278975 -0.5012999 -0.4300939 -0.4562985 -0.111228265 0.22314548 -0.028820377
0.8029296 0.78200626 -0.60250527 0.21724887 0.14605989 -1.8797519 0.24476847 0.44033003
0.107481614 2.3412354 0.4277848 0.5732245 0.4854566 -0.4518942 -2.0316272 -7.8544106
-7.283343 -6.9367976 -0.23361263 -0.8691024 -5.805382 -7.603781 -1.5196366 -1.1578956
-2.629129 0.5968187 -0.7119803 0.5405363 1.4023585 -0.9970125 0.063181736 -0.09703195
-1.1629099 -1.3289256 -6.4323483 -4.5659394 -0.5150141 1.2960322 0.05901197 -0.12726152
0.20998287 -0.005244269 0.21622466 0.31718186 -1.2885575 -0.42376262 -0.113697834 0.019578401
-1.927658 -1.1315238 -0.0934237 0.23682779 -0.1292629 0.21758346 1.7916399 -2.9447112
-2.4051626 -6.429337 -0.35239023 0.3553235 1.2691101 -1.4903408 0.1393137 -0.44807678
1.5038142 -2.2084205 -0.21279374 0.46909592 -1.5229607 -2.8414404 -0.7294038 -0.7163832
-1.0498813 -0.23746309 0.9662512 -5.2432585 -3.6787763 -0.68502015 -0.018402465 -0.6808766
-2.4869561 -3.2647421 -0.46718198 0.16978583 -0.35000804 -1.843887 0.021519648 -0.02317126
-1.3501704 1.7291741 -1.4497223 -0.32692277 -0.23898135 -1.717188 -2.719268 2.4725296
-2.6917617 -1.2277154 0.357557 -0.656733 0.15729168 -2.935972 -0.79868466 -0.5651235
1.3767253 0.031793904 -0.0043696016 0.327075 2.1220882 -0.9095676 0.048350796 -1.2848998
0.11842551 -3.314732 0.8899796 -1.2274537 -0.11508273 -7.1430044 0.3591387 -0.044594143
1.1008538 0.6532002 -0.20877722 0.46297815 3.123518 -4.872887 -0.55778426 0.5418344
-0.5983719 -8.975588 -0.1560768 0.9635579 -1.3330274 0.47414756 -4.0128655 -0.21538042
0.97721064 -1.1857374 -0.6495396 -0.07237844 1.363985 3.60251 -0.13126501 -0.16088389
-3.0561204 -1.3095105 -0.06937554 0.6403999 2.2523708 1.235417 -0.22235547 -0.06927061
-0.12724969 -2.9167547 -0.3533538 -0.029045386 -1.5865701 -1.2481333 0.09528542 0.09849474
-0.54757845 -0.48592967 0.25482842 0.7713226 0.7732097 -1.6233114 0.15307811 0.12588362
0.2767087 -0.03501717 -0.10625112 -0.34796572 0.81239694 -0.16227849 -68.32436 0.11917988
-2.6946146 -1.2508081 -0.87439674 -0.28198615 -1.9054885 -4.770289 -0.0017751567 -0.29334804
-3.6692562 -8.642584 -1.0396461 -0.21499671 1.5837923 1.7030638 -1.4318238 -0.76520646

layer1.bias f4 [150]
00000000: 5d89 65bf 3910 a3bf 0d5f a3bf 8c6a af40
00000010: 73d5 1a3e 6006 8c40 580e 53c0 8539 ecc0
00000020: a9e0 71c0 4bf1 3a40 dd23 26bf dcac 3040
00000030: 4c17 ddbf 2a19 59c0 9ffe 423f 7e58 07c1
00000040: 5d26 f5c0 b0d1 18bf 2957 7c40 d122 03c1
00000050: c5d8 4bbf f5c4 71bf d8d2 6c40 b02e 80bf
00000060: a243 b6bf 8bfb c5be 1fe7 2441 5f76 20bf
00000070: f4ea c740 6a81 76c0 15af d7bf d07e 90bf
00000080: 047c 90bf 9ca6 89c0 1808 74be da54 2340
00000090: dca7 d840 d13e 02bf fb26 6abf fab1 023f
000000a0: 37a2 c0bf bf92 1ec0 7a04 b9be 1de3 d43f
000000b0: 8652 53bf e37f 6c40 ad3d 0cc0 a02a 5f40
000000c0: c6ac a940 a90d 65bf cc8c c6c0 6cff 4fc0
000000d0: 9436 3ac0 28f0 fcbe 1757 02bf ecf6 bf3d
000000e0: 7cde a7bf 054e bb3e 4a4a 60be 5b5f 33bf
000000f0: cb2f 25c0 2fca 49bf 8ab9 3b40 21ea 02bf
00000100: 8bbc 6ebe 79ea 1a41 7cfa 9d40 0750 2841
00000110: 2fc5 5cbf 79d7 2fbf c232 c6bd c175 ebbe
00000120: 6e58 a0bf 450f febf d871 50be decd c63f
00000130: 5118 99c0 367a 70c0 0313 eac0 c718 aebf
00000140: bce8 83c0 1c68 45c0 4970 6640 6bb7 3c3e
00000150: 074d 8b40 40bf 4540 acbe afbf 5c75 41c0
00000160: 4c49 6cbf 2899 87c0 9c62 31bf 388c 13c0
00000170: 7663 8440 9f50 cfc0 0776 1fbf e61b 1ac0
00000180: 41f3 5840 785b 31c0 9a14 14c0 c550 4541
00000190: 6087 16bf 2bd5 f0bf 5148 873e 91d7 a7c0
000001a0: 75c8 62c0 3b48 8d3f 1642 b5c0 01b0 55c0
000001b0: 85cd 87c0 94d5 c240 85ed 34be a464 14be
000001c0: ae34 d0be 0830 a0bf 1a85 b3bf bbfd eabf
000001d0: abec 17c1 4aee 03c0 637e 12be c03c 7640
000001e0: 30da 85c0 1e90 adbe 9b99 84be d706 c53f
000001f0: 3117 84bf 0e2a 2cbe 8773 14c0 a09d abbe
00000200: 7e03 3a40 6757 6abf 70d3 5bbf 084f 87bf
00000210: b6a4 0bc0 d612 ecbe 6d9e 61bf 8b88 e3bf
00000220: 3862 9ebf 2873 0fc0 fa5c 5640 f56a c2be
00000230: 26c9 aa40 60b2 82c0 6d39 05c0 f20d 34bf
00000240: ceca 86c0 1089 be3f e97f 13bf f989 abbd
00000250: 5637 a3bf bac6 a140
-0.89662725 -1.2739326 -1.2763382 5.481756 0.15120487 4.375778 -3.2977505 -7.3820214
-3.7793372 2.9209774 -0.64898473 2.7605505 -1.7272735 -3.392161 0.7616977 -8.459105
-7.660933 -0.5969496 3.9428198 -8.196 -0.7962764 -0.9444116 3.700369 -1.0014248
-1.423939 -0.38668475 10.306426 -0.6268062 6.247431 -3.8516488 -1.6850306 -1.12887
-1.1287847 -4.301588 -0.23831213 2.552054 6.7704906 -0.508771 -0.9146573 0.5105282
-1.5049504 -2.4777067 -0.36136228 1.663181 -0.82547796 3.6953056 -2.1912644 3.4869766
5.3023405 -0.8947397 -6.204687 -3.2499647 -2.9095812 -0.49401975 -0.5091414 0.093732685
-1.3114772 0.36582962 -0.21903339 -0.70067376 -2.581042 -0.7882413 2.9331994 -0.511385
-0.23314111 9.682244 4.9368267 10.519538 -0.8623838 -0.6868816 -0.0967765 -0.45988277
-1.2526987 -1.984841 -0.20355928 1.5531576 -4.7842183 -3.7574592 -7.314821 -1.3601311
-4.12216 -3.0844793 3.6006033 0.18429343 4.3531528 3.089798 -1.3730063 -3.022788
-0.9229934 -4.237446 -0.6929109 -2.3054333 4.137141 -6.4785914 -0.6228947 -2.4079528
3.389847 -2.7712078 -2.3137574 12.332219 -0.58800316 -1.8815054 0.2642236 -5.2450643
-3.543485 1.1037668 -5.664317 -3.3388674 -4.243838 6.0885715 -0.17668732 -0.14491516
-0.4066519 -1.2514658 -1.4024994 -1.8358682 -9.49528 -2.061419 -0.14306025 3.847458
-4.182884 -0.33899015 -0.25898442 1.5392712 -1.0319577 -0.16812918 -2.3195512 -0.33518696
2.9064631 -0.91539615 -0.85869503 -1.0570993 -2.1819282 -0.4610812 -0.88132364 -1.7776045
-1.2373724 -2.2414036 3.3494248 -0.37972227 5.3370543 -4.0842743 -2.08163 -0.7033378
-4.2122564 1.4885578 -0.5761705 -0.083759256 -1.2751262 5.0555086

layer2.weight f4 [100, 150]
00000000: b9f2 b0bc 6f00 f83c eacd 8abd e193 93be
00000010: dd21 4d3e 6630 34bf 2196 71ba 5bfe 0fc0
00000020: 95df 943f fe4f c6bf 615d 4c3c 9f3a c4bf
00000030: 8529 673f 34d5 6d3f 530c 813d add6 5c3e
00000040: 561f d03f b8fc dcbd e9f5 463e 039d 0dc1
00000050: da4e 38c0 163d 9fbf 3788 93c0 da5a 293d
00000060: 90a4 8bbd e2ca 223b 5a8b f6c0 ce9a f13c
00000070: 045b 85bf 9f62 9ec0 86b6 99bf 93c3 50bb
00000080: d4bc 943d d075 a6bf 3620 c53c acc9 a93e
00000090: 4b55 d6bf 46b4 0c3d 6d11 013c 97ab 1fc0
000000a0: 3482 223e 6a0e c8bf 8ac0 b3bc 9a1b ce3f
000000b0: 7fbd 38bd b39e adbe 8a60 80bf 581d 143f
000000c0: 499e 8a3d 70f5 30bf 4861 64be cc2d 7fc0
000000d0: 34ef a8bf ba6f 3c3d fb05 8ebd 4234 99bf
000000e0: 294a 0ac0 7ef2 19c0 8095 903d ad09 6dbf
000000f0: 08be 553c 6ba7 14be 8884 463f 79d4 26bd
00000100: 11b9 96bd 4727 74c0 96fd 5cc0 f538 f3bf
00000110: 7c49 2ebe b4fc 42bc 607d b83d 8467 8b3a
00000120: b0a1 f43d 1893 90bd f62b 2e3d 736c b3bd
00000130: 3987 1a3f c379 8c3f 6a37 f1bf e046 d93c
00000140: 1256 2b3f 429d b0bd 134e 33bf 9aca dcbf
00000150: c234 9bbf 6b24 c1be 3d43 1abf b0ab 453f
00000160: b23d 333c bdab 2dbd 8d60 55bd f863 5f3f
00000170: cd95 093e 0b49 5abe 8ee6 233d e8cd 06bf
00000180: 555e a13e ee23 d23e e458 0440 c9a7 00c1
00000190: 35b6 85bb 6095 d9bc d2b3 0cbe d063 f23e
000001a0: 6797 f5bd 74be aa3f f0f7 a0c1 4784 c0bf
000001b0: a365 15c0 5f96 733e 7726 adbc 097f 793d
000001c0: d12d b1bd f6eb 833e 3425 f6bd b4f0 abbf
000001d0: d42c 06bf f832 223d 9a05 96bd 68e2 71c0
000001e0: 5c8a 4fc0 cfa6 c8bd e988 d1bc 0f7c 39bf
000001f0: 301a 8dbd 4c6e 6fbd 59a7 16c0 8d47 29c0
00000200: 3204 3ec0 a978 833f b1d9 833c 3383 2abd
00000210: b79d 21c0 c990 c2bb 5079 10bd 8bea 21bd
00000220: 1335 cc3c 69f4 e8bd 1aaf 813f 3783 43bf
00000230: 883a ffbe 150e 80c0 7d78 753f 512b a0bc
00000240: c56d 0dbd cd79 0640 58c3 acbd a005 09bd
00000250: 773f debb e27c bd3f 1e3a c23d 9633 ff3f
00000260: b2e7 54bf d788 e3bd 9581 a3bf 5dff b2c0
00000270: b1fe 7fbf f736 7f40 7862 f8c0 a188 26bf
00000280: d6e4 c33e 2bd8 c3bf 0f9d 25c0 949b f2be
00000290: c8ab 823f bfdf d0c1 ba1a 75c0 42f6 803e
000002a0: 6061 9fc0 97ad 0e40 d225 dabe da10 01bf
000002b0: a95a bfc0 6d32 2b3e 3edf a5bf 0bb4 2e40
000002c0: 63e7 83be e2d0 a53f dbe7 1cc1 0215 6140
000002d0: 0f2a a7bf 12c3 4fc0 562d f93d f106 6e40
000002e0: 5994 d9be 3357 843f 736e 45c0 5238 3fbf
000002f0: 2509 4c3f b1f5 3a40 37ca 62c0 3ba5 8a3f
00000300: 394a 18bf 9b45 1b40 0d18 25bf 2ebc 99c0
00000310: 1929 923f 7752 bec0 fd07 11c0 04d8 763f
00000320: fd00 9740 cfab e83f c8da 463f de15 06bf
00000330: 1126 a53f e009 dcbf fe71 80c0 bad8 7540
00000340: cd75 24bd 523e f9be 628b 983f bb39 313e
00000350: 9673 6bbf 7a35 963f fa7e 0bbd 9981 a2c0
00000360: fff8 1fc0 99c2 4dc1 5d20 6fc0 7142 b6bf
00000370: 0469 debf 8d67 afbf 7d45 5a3f 2f82 37bf
00000380: 01c8 f0be 7365 623f 5c97 5ac0 aa50 eec0
00000390: ed5c c43e b250 d5be f187 28c0 3d9d 803f
000003a0: 8507 5440 0818 ddbf 12ab 01c1 4d31 11c1
000003b0: b0eb 0ac0 c6d7 c5bf 4af5 d0be ec5d 5b40
000003c0: 5df0 05c0 4bf5 1f3f 0b4d 6ac0 0115 4d3f
000003d0: d821 d6bc c40e 933e 7260 c0bd 0772 56c0
000003e0: 2b35 abbe 636e 6b3f 25cb ccbf 44e5 a23e
000003f0: 722c a43f 5e92 1dc0 be18 643f 2e85 4fbf
-0.021600114 0.030273644 -0.06777556 -0.2882376 0.20032449 -0.7038635 -0.00092157914 -2.2498996
1.1630732 -1.5493162 0.012473435 -1.533039 0.9029773 0.9290345 0.06301179 0.21566267
1.6259563 -0.1079039 0.19429745 -8.850833 -2.8798127 -1.2440517 -4.610378 0.04134641
-0.06818497 0.0024840166 -7.7045107 0.029492762 -1.0418401 -4.9495387 -1.2008827 -0.0031854853
0.072625786 -1.3004704 0.024063211 0.33161676 -1.6744779 0.03435161 0.00787769 -2.494848
0.15869981 -1.5629399 -0.021942396 1.6102173 -0.045102593 -0.3391014 -1.0029461 0.57857275
0.06768472 -0.6912451 -0.22302735 -3.9871702 -1.3197999 0.04600499 -0.069347344 -1.1969073
-2.1607764 -2.4054255 0.07059765 -0.9259289 0.013045795 -0.1451699 0.77545977 -0.040729973
-0.07359517 -3.8148973 -3.4529777 -1.9001757 -0.1702022 -0.011901069 0.090082884 0.0010635708
0.11944902 -0.07059306 0.042522393 -0.087609194 0.60362583 1.0974659 -1.8845036 0.026523054
0.6692821 -0.086237445 -0.70041007 -1.7249329 -1.2125475 -0.37723097 -0.6025885 0.772151
0.010940002 -0.04240011 -0.05209403 0.87261915 0.1343605 -0.21316926 0.040014796 -0.5265794
0.31517282 0.41043037 2.0679255 -8.040963 -0.0040805587 -0.026560485 -0.13740471 0.47341776
-0.11991768 1.3339372 -20.121063 -1.5040368 -2.3343284 0.23787831 -0.021136506 0.060912166
-0.08651317 0.2576596 -0.12018815 -1.3432832 -0.5241215 0.03959939 -0.07325287 -3.7794437
-3.2428198 -0.09797441 -0.02557798 -0.72454923 -0.068897605 -0.058454797 -2.353964 -2.644992
-2.969006 1.0271198 0.016095014 -0.041629028 -2.5252512 -0.00593767 -0.035271943 -0.03953032
0.024927652 -0.113747425 1.0131562 -0.7637209 -0.49849343 -4.001719 0.95886976 -0.019551905
-0.034528513 2.1011841 -0.08435696 -0.03345263 -0.006782468 1.4803736 0.09483741 1.9937618
-0.8316604 -0.111100845 -1.277392 -5.5936723 -0.99998003 3.9877298 -7.76202 -0.6505223
0.38260525 -1.5300344 -2.587711 -0.47384322 1.0208673 -26.109251 -3.8297563 0.2518788
-4.9806366 2.229345 -0.4260698 -0.5041634 -5.979817 0.16718455 -1.2958753 2.729739
-0.25762472 1.2954371 -9.806605 3.5169072 -1.305971 -3.2462811 0.1216685 3.7191737
-0.42495993 1.0339111 -3.0848663 -0.7469531 0.79701453 2.9212458 -3.5435922 1.0831674
-0.59488255 2.4261234 -0.64489824 -4.804221 1.1418792 -5.9475665 -2.2661126 0.96423364
4.7188706 1.8177432 0.77677584 -0.52377117 1.2902242 -1.7190514 -4.013915 3.841353
-0.040151406 -0.4868036 1.1917536 0.17307179 -0.91973245 1.173507 -0.03405664 -5.07832
-2.4995725 -12.860009 -3.7363503 -1.4239026 -1.7375798 -1.3703476 0.8526228 -0.7168302
-0.4702759 0.8843605 -3.4154882 -7.4473467 0.38352147 -0.41663128 -2.6332972 1.0047985
3.312959 -1.7272959 -8.104265 -9.074536 -2.1706352 -1.5456474 -0.4081214 3.4276075
-2.0927956 0.6248366 -3.6609523 0.80110174 -0.026139185 0.28722203 -0.093933955 -3.3507097
-0.33439 0.9196531 -1.5999495 0.3181554 1.2826064 -2.4620585 0.89100254 -0.8106259

layer2.bias f4 [100]
00000000: 2cb7 3bbf f602 d9c0 1db9 11be 26ce 16c0
00000010: 816f 80bd d587 6abf 33a9 c7bd cde6 b7bd
00000020: e195 b4bf c324 d8be d348 2d3f cac0 8240
00000030: ba38 8d40 eb64 8bbe c174 4abf d298 1d3f
00000040: af37 8a3e d7ab a5bf 8de8 9cbe 4798 1ebe
00000050: b3ee afbd acfc b93e 7232 e6be b93a 0ebf
00000060: caac a43c 068f 14be bd7f fabd 1bd9 acbb
00000070: 98fe 88be 47cf dcbc b96c 3abf c346 dcbc
00000080: 8f19 41c0 cee5 64be 852e 1f3f f6db 2bbe
00000090: 12c1 a13e 528a 673f c5ad 17c0 ddbe a73d
000000a0: 262d 1f40 65c7 80bf 3767 64c0 0543 bcbe
000000b0: 45ba 8640 435f 6dbf a2e1 74bd 376f 09be
000000c0: c49f be3f 3222 17be 6910 94be dd97 223f
000000d0: 9891 1ec0 0ba5 04be 7618 20bf 739a 6840
000000e0: a702 b4bd 2b08 0e3e c437 683e b6e0 c5bd
000000f0: afe0 a83e 6cde d7c0 4c54 8bbd 6489 2a3f
00000100: 130a 75c0 be78 0fc0 349c 323e f1a7 113f
00000110: 00cc a1bd 73a1 aabe b66a 87be 3001 44bf
00000120: a0a7 aa3f 5fa0 11be bf44 d9bc c619 b1be
00000130: eb9e 2c3d 9e39 a1bf 1261 80be 3888 033f
00000140: c52d 9040 a9df b93e 408f e0bc 39a3 25bd
00000150: f431 1940 6279 5340 a2e2 fabf c062 1cbf
00000160: 309f 793e 3ae0 a6bf ceb6 43c0 be4e c3be
00000170: 3636 acc0 e8f5 debd 9cab ffbe 37f7 a6bd
00000180: 725f e83c 201a b8bc 3755 bf3e 194f cfbe
-0.73326373 -6.7816114 -0.14230771 -2.3563323 -0.06271268 -0.91613513 -0.09749069 -0.08979569
-1.410824 -0.42215547 0.67689246 4.086034 4.4131746 -0.27225432 -0.790844 0.6156131
0.26995608 -1.2943066 -0.30646172 -0.15487777 -0.0859045 0.36325586 -0.44960362 -0.55558354
0.020101923 -0.14507684 -0.122313954 -0.0052749044 -0.2675674 -0.026954306 -0.7282215 -0.02688921
-3.017185 -0.22353289 0.6218036 -0.16783127 0.31592613 0.90445435 -2.369981 0.08190701
2.4871306 -1.006085 -3.5687997 -0.36769882 4.210238 -0.9272348 -0.059785493 -0.13421331
1.4892507 -0.14759138 -0.2891877 0.63512975 -2.4776363 -0.12953584 -0.62537324 3.6344268
-0.087895684 0.13870303 0.22677523 -0.09662001 0.3298392 -6.745901 -0.06803188 0.6661589
-3.82874 -2.2417445 0.174424 0.56896883 -0.07900238 -0.333263 -0.264486 -0.7656431
1.3332405 -0.14221333 -0.026522039 -0.34589976 0.042143743 -1.2595708 -0.2507406 0.5137973
4.505587 0.36303452 -0.027412057 -0.040438864 2.393674 3.3042836 -1.9600413 -0.6108818
0.24377131 -1.3037179 -3.0580325 -0.38146013 -5.3816175 -0.10886747 -0.49935615 -0.08152621
0.028365824 -0.022473395 0.373697 -0.40490034

layer3.weight f4 [3, 100]
00000000: 2d4a fe40 a6b5 e940 e54f 083d ba24 7a40
00000010: 4d28 31bd 5f9b 81c0 2a1d 48bd aab1 a5bf
00000020: 5074 7340 9686 fdbf 18b7 5b40 96aa e8c0
00000030: 253a 8c41 f8e5 81c0 eecd b540 ebe2 cac0
00000040: cd74 3fc1 7840 2441 fe66 58c0 26c5 a4bd
00000050: 5684 6e3d 005a a140 05f9 03c1 6368 25c0
00000060: 7fdf b8c0 9c0a 32bc a6ca f33c c0d1 2ec1
00000070: 0502 1ebf 76a8 463c ffe2 0040 1e12 d93c
00000080: fed8 7240 0d80 6540 8f7d 8cc1 f246 4ec0
00000090: d6fd 5541 f6b0 d23f 1802 d740 246e bdc0
000000a0: 5f06 be40 7e67 ce3f 5cb7 f140 8c47 4541
000000b0: fb77 ccc0 0a6b 5a41 17a1 b13d 65c9 a3ba
000000c0: 77b0 4741 a7db 24bd 6693 66c0 e369 7341
000000d0: f27b 8440 2664 10bd 9660 80c0 c4d7 4fc0
000000e0: b73d 7dbd 1184 6741 60ed 08c1 fe1c dcbb
000000f0: 2644 96c0 ada1 3640 2cc9 973a a843 80c0
00000100: 2f5e 4240 59e6 7841 f8a0 6cc0 ea58 a840
00000110: c8b0 d33c 3dfb 79c0 967d 6cc0 d464 6fc1
00000120: 6a38 e4c0 242a 423c fe76 2ec0 9496 00c1
00000130: f00c 73c0 5224 e93f 666a 82c0 2855 bbc0
00000140: d13f 1f41 bde8 84c0 9f82 d73c 9376 743d
00000150: 017d c840 4597 c040 3578 ae40 8e34 7cc0
00000160: f761 a43f 1573 e740 6ba0 9841 2d16 ecbf
00000170: b7d0 2341 e81a 87c0 1811 4440 da23 1cbd
00000180: 37d0 0540 6aee 8e3d 4fd4 b3c0 56a3 84c0
00000190: 6462 f240 9ff8 e940 9269 b23c 0a00 9140
000001a0: 807e 5bbd cfe9 7bc0 8700 89bc 16bc b5bf
000001b0: 5f79 7040 a0a1 24c0 cd5d 5d40 7b6e e7c0
000001c0: a868 8b41 6afa 9cc0 bfb3 b640 102a c9c0
000001d0: d08d 4fc1 6bd1 2341 d099 70c0 fd39 483d
000001e0: 3886 df3c 6333 a140 e78c 06c1 bb96 25c0
000001f0: e673 b2c0 b564 be3c 4ef2 72bc 3ed8 25c1
00000200: b2df d9bf ad61 283c 0fdc fe3f 886e 593d
00000210: f8c3 5b40 cb30 7340 ade1 8bc1 d3fd 50c0
00000220: 10ab 4941 9da8 d03f 1ee0 d940 2e9d ccc0
00000230: 62df bc40 dd84 dc3f ed02 ef40 7140 3c41
00000240: e83b ccc0 7a84 5641 cf3f 44bc b417 22bc
00000250: 77c6 4741 baa9 f03c 899f 66c0 da9e 7341
00000260: 1e43 8440 866d 38bd baec 53c0 4c30 55c0
00000270: 19cb f03b 5643 7441 c53d ffc0 6a01 66bd
00000280: 62f6 7bc0 9a4d 3a40 681b c2bc d252 82c0
00000290: f7a6 3d40 ef50 7b41 46e2 53c0 d7fb a040
000002a0: f45e 71bd 0663 8bc0 8dfb 86c0 8e74 78c1
000002b0: 789c 02c1 09ff 133c 2095 13c0 98b1 c7c0
000002c0: 2e71 82c0 3396 e83f ff9f 79c0 d3d4 d4c0
000002d0: dcee 2041 aa42 84c0 3315 67bd cb88 14bd
000002e0: 69a3 d840 4305 be40 3f91 a140 51fe 81c0
000002f0: 34b7 b03f 47af e640 73b8 9841 4f67 12c0
00000300: 24e5 2241 5a59 8ac0 7368 3340 0a96 003d
00000310: ea4b 1140 b3cf 80bb e00f bfc0 ff20 78c0
00000320: 68bd e040 4af0 ea40 526f 543d ffe0 8140
00000330: 568d dd3c 3896 7cc0 d0fb 9f3d bc47 cabf
00000340: 6d16 7140 7329 0ec0 f494 5d40 ddc3 e9c0
00000350: 1ca4 8c41 1b0f a0c0 c72f b740 8192 d0c0
00000360: c219 52c1 aac9 2841 ea4e 5dc0 d777 aa3c
00000370: 474c 26bd cca1 a340 1997 f8c0 5291 52c0
00000380: 95e1 aec0 09e4 003d 3bf8 043d 8bf6 27c1
00000390: e605 c5bf f2e7 10bd b9e3 1440 5817 63bc
000003a0: 2772 6640 3d5b 6840 aafc 8cc1 f3a4 4ac0
000003b0: 71c0 5041 44e9 c83f 7bb8 d540 5abc c2c0
000003c0: d99e bf40 05d4 d43f 9de8 e040 7d35 3e41
000003d0: 2c52 cbc0 fc5f 5a41 4aa9 f8bc 802d ddbc
000003e0: 4b68 4741 4916 b1bb 882c 44c0 28cf 6d41
000003f0: abb8 8140 3113 453c 66bf 87c0 ffbb 45c0
7.9465547 7.303424 0.03327932 3.9084916 -0.043251324 -4.050216 -0.048855938 -1.2944844
3.8039742 -1.9806697 3.4330502 -7.2708235 17.52839 -4.0593224 5.681388 -6.3402
-11.966016 10.265739 -3.3812861 -0.080454156 0.058231674 5.0422363 -8.248296 -2.5844963
-5.777282 -0.010866787 0.029759716 -10.9262085 -0.6172183 0.012125125 2.0138547 0.026497897
3.7944942 3.5859406 -17.561308 -3.2230802 13.374472 1.6460254 6.7190056 -5.919695
5.9382777 1.6125333 7.5536327 12.3299675 -6.389646 13.651133 0.086733036 -0.0012495933
12.480582 -0.04024854 -3.6027465 15.213351 4.14013 -0.03525176 -4.0117903 -3.2475443
-0.061826434 14.469743 -8.557953 -0.0067173233 -4.695819 2.853618 0.001158034 -4.008259
3.0369985 15.556237 -3.6973248 5.260854 0.025841132 -3.9059594 -3.6951652 -14.962116
-7.1318865 0.011850867 -2.7260127 -8.036762 -3.7976646 1.8214209 -4.075488 -5.854145
9.95308 -4.1534104 0.026307402 0.059683394 6.2652593 6.0184655 5.4521737 -3.9407077
1.2842396 7.232798 19.07833 -1.8444268 10.238456 -4.2220345 3.0635433 -0.03812013
2.0908334 0.069790676 -5.6196666 -4.1449385 7.5745106 7.3115993 0.021778855 4.531255
-0.053587437 -3.9361455 -0.016723884 -1.4198024 3.757408 -2.5723648 3.4588501 -7.2322364
17.426102 -4.905568 5.7094417 -6.2863846 -12.972122 10.238627 -3.759388 0.048883427
0.02728568 5.037523 -8.4094 -2.5873249 -5.5766478 0.02324138 -0.014828278 -10.3652935
-1.7021391 0.010277194 1.9910907 0.053083926 3.433836 3.799853 -17.485193 -3.2654922
12.604263 1.6301457 6.808608 -6.394187 5.9022684 1.7228047 7.469107 11.765733
-6.382313 13.407343 -0.011978104 -0.009893347 12.485953 0.029377807 -3.6034873 15.226282
4.133193 -0.045026325 -3.3113236 -3.3310728 0.00734843 15.266439 -7.97629 -0.056153692
-3.936913 2.9109864 -0.023694709 -4.07261 2.9633157 15.707259 -3.3106856 5.030742
-0.058928445 -4.355838 -4.218207 -15.528456 -8.1632 0.009032973 -2.3059769 -6.240429
-4.076316 1.8170837 -3.9003904 -6.6509795 10.058315 -4.1331377 -0.0564167 -0.03626327
6.7699475 5.9381423 5.04898 -4.0622945 1.3805909 7.208896 19.090063 -2.2875555
10.180943 -4.323407 2.80325 0.03139309 2.2702584 -0.0039310097 -5.970688 -3.877014
7.023121 7.341832 0.051863976 4.0587153 0.027044933 -3.9466686 0.07811701 -1.5803142
3.7669938 -2.2212799 3.4622164 -7.305159 17.580132 -5.001844 5.724582 -6.517884
-13.131289 10.549234 -3.4579415 0.020809097 -0.040600087 5.1135006 -7.7684445 -3.2901196
-5.465037 0.03146747 0.032463294 -10.497691 -1.5392425 -0.03537745 2.326399 -0.013860546
3.6007173 3.6305687 -17.623371 -3.1663177 13.046983 1.5696187 6.6787696 -6.085492
5.9881406 1.6627203 7.028395 11.888059 -6.3537807 13.648434 -0.03035416 -0.026999235
12.462962 -0.005404268 -3.065218 14.863075 4.0537925 0.012028501 -4.242114 -3.0895994

layer3.bias f4 [3]
00000000: d26e fbc0 6856 00c1 ed07 f3c0
-7.857278 -8.021095 -7.5947175

exp_avg f4 [150, 20]
00000000: 0400 0000 0400 0000 0400 0000 0400 0000
00000010: 0400 0000 0400 0000 0400 0000 0400 0000
00000020: 0400 0080 0400 0080 0400 0080 0400 0080
00000030: 0400 0000 0400 0080 0400 0000 0400 0080
00000040: 0400 0000 0400 0000 0400 0000 0400 0000
00000050: 0400 0000 0400 0000 0400 0000 0400 0000
00000060: 0400 0000 0400 0080 0400 0000 0400 0080
00000070: 0400 0000 0400 0080 0400 0000 0400 0080
00000080: 0400 0000 0400 0000 0400 0000 0400 0000
00000090: 0400 0000 0400 0000 0400 0000 0400 0080
000000a0: 0400 0000 0400 0000 0400 0000 0400 0000
000000b0: 0400 0000 0400 0000 0400 0000 0400 0000
000000c0: 0400 0000 0400 0000 0400 0000 0400 0000
000000d0: 0400 0000 0400 0000 0400 0000 0400 0000
000000e0: 0400 0000 0400 0000 0400 0000 0400 0000
000000f0: 7a2e 16bc 5722 203c 632f 47bf 2c19 f1bf
00000100: 512e 653c 3252 213c 5b78 6e3c 7f53 053f
00000110: c948 a0be 409e df3c f7a7 60c0 7617 62bf
00000120: 0767 8b3e 1638 26bd 0794 c240 1a93 a3be
00000130: c492 d040 147a 5a3f 5d9e adbf 696f 34bd
00000140: 0400 0000 0400 0000 0400 0000 0400 0000
00000150: 0400 0000 0400 0080 0400 0000 0400 0080
00000160: 0400 0080 0400 0080 0400 0080 0400 0080
00000170: 0400 0000 0400 0000 0400 0000 0400 0000
00000180: 0400 0080 0400 0000 0400 0080 0400 0000
00000190: 131f 54be c417 233e 4688 7cc0 52e6 5240
000001a0: 0842 633f 5dd4 9a3e f5a9 1ec0 d15a d33f
000001b0: a2bd 00bd 9276 1d3d 9c4f 93c0 dee4 a13d
000001c0: 7825 8ebf d609 1abe bca4 68c0 66d6 12bf
000001d0: 29a8 fabf 2a56 1bc2 e52a 4640 ad0c ac40
000001e0: 0400 0000 0400 0000 0400 0000 0400 0000
000001f0: 0400 0000 0400 0000 0400 0000 0400 0000
00000200: 0400 0000 0400 0000 0400 0000 0400 0000
00000210: 0400 0000 0400 0080 0400 0000 0400 0080
00000220: 0400 0000 0400 0000 0400 0000 0400 0080
00000230: 0400 0000 0400 0000 0400 0000 0400 0000
00000240: 0400 0080 0400 0000 0400 0080 0400 0000
00000250: 0400 0000 0400 0080 0400 0000 0400 0080
00000260: 0400 0080 0400 0000 0400 0080 0400 0000
00000270: 0400 0000 0400 0000 0400 0000 0400 0000
00000280: 0400 0000 0400 0080 0400 0000 0400 0080
00000290: 0400 0080 0400 0080 0400 0000 0400 0080
000002a0: 0400 0000 0400 0080 0400 0000 0400 0080
000002b0: 0400 0000 0400 0000 0400 0000 0400 0000
000002c0: 0400 0000 0400 0080 0400 0000 0400 0080
000002d0: 47c2 103e 3f25 813b c570 12bf 5e18 9a3e
000002e0: 5676 4b3d 14d8 543c a173 d93e 74c7 123e
000002f0: a5bb 82bc 7f38 643a fa17 5cbe 603d 84bc
00000300: 2dd2 663b 531d 0c3c b734 dd3e 0547 e03e
00000310: 163b f03e 7f49 75c0 9654 dfbf f8e8 933f
00000320: 0400 0000 0400 0000 0400 0000 0400 0000
00000330: 0400 0000 0400 0000 0400 0000 0400 0000
00000340: 0400 0080 0400 0000 0400 0080 0400 0000
00000350: 0400 0000 0400 0000 0400 0000 0400 0000
00000360: 0400 0000 0400 0000 0400 0000 0400 0000
00000370: f411 d43e 7c50 8bbc ac68 c741 fae8 c2bf
00000380: 2a9f 37bf 3786 843c 6765 41c1 2251 11bf
00000390: c68f 113d 55dc 51bb 8265 eb3f fd68 1c3e
000003a0: 8471 e3be c020 bfbd a204 e8bf e4a9 93c0
000003b0: c87d 5842 7c68 9f42 ebdc c33e e38c 9042
000003c0: 0400 0000 0400 0000 0400 0000 0400 0000
000003d0: 0400 0000 0400 0000 0400 0000 0400 0000
000003e0: 0400 0000 0400 0000 0400 0000 0400 0000
000003f0: 0400 0000 0400 0000 0400 0000 0400 0000
6e-45 6e-45 6e-45 6e-45 6e-45 6e-45 6e-45 6e-45
-6e-45 -6e-45 -6e-45 -6e-45 6e-45 -6e-45 6e-45 -6e-45
6e-45 6e-45 6e-45 6e-45 6e-45 6e-45 6e-45 6e-45
6e-45 -6e-45 6e-45 -6e-45 6e-45 -6e-45 6e-45 -6e-45
6e-45 6e-45 6e-45 6e-45 6e-45 6e-45 6e-45 -6e-45
6e-45 6e-45 6e-45 6e-45 6e-45 6e-45 6e-45 6e-45
6e-45 6e-45 6e-45 6e-45 6e-45 6e-45 6e-45 6e-45
6e-45 6e-45 6e-45 6e-45 -0.009166354 0.009773812 -0.7780668 -1.8835807
0.0139880935 0.009846257 0.014555062 0.5208053 -0.3130553 0.02729714 -3.5102518 -0.8831705
0.2722704 -0.04058083 6.0805697 -0.31948167 6.5179157 0.85342526 -1.3563954 -0.04405156
6e-45 6e-45 6e-45 6e-45 6e-45 -6e-45 6e-45 -6e-45
-6e-45 -6e-45 -6e-45 -6e-45 6e-45 6e-45 6e-45 6e-45
-6e-45 6e-45 -6e-45 6e-45 -0.20714979 0.15927035 -3.9458175 3.2953076
0.8877263 0.30240145 -2.4791234 1.651209 -0.031430848 0.038443156 -4.603468 0.07904981
-1.1105185 -0.15042815 -3.6350546 -0.57358396 -1.9582568 -38.834145 3.096368 5.3765473
6e-45 6e-45 6e-45 6e-45 6e-45 6e-45 6e-45 6e-45
6e-45 6e-45 6e-45 6e-45 6e-45 -6e-45 6e-45 -6e-45
6e-45 6e-45 6e-45 -6e-45 6e-45 6e-45 6e-45 6e-45
-6e-45 6e-45 -6e-45 6e-45 6e-45 -6e-45 6e-45 -6e-45
-6e-45 6e-45 -6e-45 6e-45 6e-45 6e-45 6e-45 6e-45
6e-45 -6e-45 6e-45 -6e-45 -6e-45 -6e-45 6e-45 -6e-45
6e-45 -6e-45 6e-45 -6e-45 6e-45 6e-45 6e-45 6e-45
6e-45 -6e-45 6e-45 -6e-45 0.14136611 0.0039412077 -0.5720332 0.30096716
0.0496734 0.01299097 0.4247103 0.14333898 -0.015958617 0.00087059283 -0.21493521 -0.016142547
0.003522049 0.008551913 0.4320428 0.43804184 0.4692008 -3.8326108 -1.7447689 1.1555471
6e-45 6e-45 6e-45 6e-45 6e-45 6e-45 6e-45 6e-45
-6e-45 6e-45 -6e-45 6e-45 6e-45 6e-45 6e-45 6e-45
6e-45 6e-45 6e-45 6e-45 0.41419947 -0.017006151 24.92611 -1.5227349
-0.7172724 0.01617728 -12.087256 -0.56764424 0.035537504 -0.0032022197 1.8390353 0.15274425
-0.44422543 -0.093324184 -1.8126414 -4.6144886 54.122833 79.70407 0.38254485 72.27517
6e-45 6e-45 6e-45 6e-45 6e-45 6e-45 6e-45 6e-45
6e-45 6e-45 6e-45 6e-45 6e-45 6e-45 6e-45 6e-45

exp_avg_sq f4 [150, 20]
00000000: f401 0000 f401 0000 f401 0000 f401 0000
00000010: f401 0000 f401 0000 f401 0000 f401 0000
00000020: f401 0000 f401 0000 f401 0000 f401 0000
00000030: f401 0000 f401 0000 f401 0000 f401 0000
00000040: f401 0000 f401 0000 f401 0000 f401 0000
00000050: f401 0000 f401 0000 f401 0000 f401 0000
00000060: f401 0000 f401 0000 f401 0000 f401 0000
00000070: f401 0000 f401 0000 f401 0000 f401 0000
00000080: f401 0000 f401 0000 f401 0000 f401 0000
00000090: f401 0000 f401 0000 f401 0000 f401 0000
000000a0: f401 0000 f401 0000 f401 0000 f401 0000
000000b0: f401 0000 f401 0000 f401 0000 f401 0000
000000c0: f401 0000 f401 0000 f401 0000 f401 0000
000000d0: f401 0000 f401 0000 f401 0000 f401 0000
000000e0: f401 0000 f401 0000 f401 0000 f401 0000
000000f0: 5334 6c41 c0b9 123f d6c9 4c44 42e1 0742
00000100: 7f5b d23f 254e b13d ab27 3f43 a3e2 3541
00000110: 45df 543f 1268 bc3d e37a 7a43 197f b642
00000120: 4b39 cc3f 2fc3 7c3e 111e f243 6b26 9842
00000130: ffcb 7045 5b1d c844 3767 1d46 ebc1 3d3e
00000140: f401 0000 f401 0000 f401 0000 f401 0000
00000150: f401 0000 f401 0000 f401 0000 f401 0000
00000160: f401 0000 f401 0000 f401 0000 f401 0000
00000170: f401 0000 f401 0000 f401 0000 f401 0000
00000180: f401 0000 f401 0000 f401 0000 f401 0000
00000190: 5c49 bd41 d8b6 723f 34b5 5445 4b06 b142
000001a0: 0a03 4a41 7966 5940 58de 6d44 1fbc 7842
000001b0: 14cb 0041 9cea 383f 1058 9f44 98d3 0d43
000001c0: c69f a740 e237 243f 27da b444 2c12 4142
000001d0: 5909 8346 7cf7 a846 7ff6 a246 c418 7446
000001e0: f401 0000 f401 0000 f401 0000 f401 0000
000001f0: f401 0000 f401 0000 f401 0000 f401 0000
00000200: f401 0000 f401 0000 f401 0000 f401 0000
00000210: f401 0000 f401 0000 f401 0000 f401 0000
00000220: f401 0000 f401 0000 f401 0000 f401 0000
00000230: f401 0000 f401 0000 f401 0000 f401 0000
00000240: f401 0000 f401 0000 f401 0000 f401 0000
00000250: f401 0000 f401 0000 f401 0000 f401 0000
00000260: f401 0000 f401 0000 f401 0000 f401 0000
00000270: f401 0000 f401 0000 f401 0000 f401 0000
00000280: f401 0000 f401 0000 f401 0000 f401 0000
00000290: f401 0000 f401 0000 f401 0000 f401 0000
000002a0: f401 0000 f401 0000 f401 0000 f401 0000
000002b0: f401 0000 f401 0000 f401 0000 f401 0000
000002c0: f401 0000 f401 0000 f401 0000 f401 0000
000002d0: 72e1 d03f eb55 863d 4a9f 0643 d2a7 8140
000002e0: 20e5 d03f 8483 613e 8026 6242 9049 7841
000002f0: 2998 d83f 4ee5 593e 2b59 7c42 59d0 cd40
00000300: cba9 ac3e 0699 033d fa5a bb42 f994 1141
00000310: 280d 1844 711e ca44 127d 5542 9f03 c044
00000320: f401 0000 f401 0000 f401 0000 f401 0000
00000330: f401 0000 f401 0000 f401 0000 f401 0000
00000340: f401 0000 f401 0000 f401 0000 f401 0000
00000350: f401 0000 f401 0000 f401 0000 f401 0000
00000360: f401 0000 f401 0000 f401 0000 f401 0000
00000370: 07c7 6843 65b2 da40 f039 9d46 11d2 0844
00000380: 0e98 5c43 dd5c dc41 a8d1 1846 03d4 b944
00000390: 3184 4a43 1986 c641 8b89 2146 16cd 7544
000003a0: c8e1 a142 a509 1642 58da 1446 6645 5d44
000003b0: ea1b 1148 342f 4248 6b57 5841 04ba 9748
000003c0: f401 0000 f401 0000 f401 0000 f401 0000
000003d0: f401 0000 f401 0000 f401 0000 f401 0000
000003e0: f401 0000 f401 0000 f401 0000 f401 0000
000003f0: f401 0000 f401 0000 f401 0000 f401 0000
7e-43 7e-43 7e-43 7e-43 7e-43 7e-43 7e-43 7e-43
7e-43 7e-43 7e-43 7e-43 7e-43 7e-43 7e-43 7e-43
7e-43 7e-43 7e-43 7e-43 7e-43 7e-43 7e-43 7e-43
7e-43 7e-43 7e-43 7e-43 7e-43 7e-43 7e-43 7e-43
7e-43 7e-43 7e-43 7e-43 7e-43 7e-43 7e-43 7e-43
7e-43 7e-43 7e-43 7e-43 7e-43 7e-43 7e-43 7e-43
7e-43 7e-43 7e-43 7e-43 7e-43 7e-43 7e-43 7e-43
7e-43 7e-43 7e-43 7e-43 14.762774 0.5731468 819.1537 33.96998
1.6434172 0.08657483 191.15495 11.367831 0.8315318 0.09199537 250.48003 91.24824
1.5954984 0.24683832 484.2349 76.075035 3852.7498 1600.9174 10073.804 0.18531005
7e-43 7e-43 7e-43 7e-43 7e-43 7e-43 7e-43 7e-43
7e-43 7e-43 7e-43 7e-43 7e-43 7e-43 7e-43 7e-43
7e-43 7e-43 7e-43 7e-43 23.66082 0.9481025 3403.3252 88.51229
12.625742 3.3968794 951.4741 62.183712 8.04958 0.72232985 1274.752 141.82654
5.2382536 0.6414777 1446.8173 48.267746 16772.674 21627.742 20859.248 15622.191
7e-43 7e-43 7e-43 7e-43 7e-43 7e-43 7e-43 7e-43
7e-43 7e-43 7e-43 7e-43 7e-43 7e-43 7e-43 7e-43
7e-43 7e-43 7e-43 7e-43 7e-43 7e-43 7e-43 7e-43
7e-43 7e-43 7e-43 7e-43 7e-43 7e-43 7e-43 7e-43
7e-43 7e-43 7e-43 7e-43 7e-43 7e-43 7e-43 7e-43
7e-43 7e-43 7e-43 7e-43 7e-43 7e-43 7e-43 7e-43
7e-43 7e-43 7e-43 7e-43 7e-43 7e-43 7e-43 7e-43
7e-43 7e-43 7e-43 7e-43 1.63188 0.06559356 134.62222 4.051736
1.6319923 0.22022825 56.537598 15.51796 1.6921436 0.21278879 63.08708 6.431683
0.33723292 0.032128356 93.67769 9.09887 608.20557 1616.9513 53.37214 1536.1132
7e-43 7e-43 7e-43 7e-43 7e-43 7e-43 7e-43 7e-43
7e-43 7e-43 7e-43 7e-43 7e-43 7e-43 7e-43 7e-43
7e-43 7e-43 7e-43 7e-43 232.77745 6.8342767 20124.969 547.2823
220.59396 27.545343 9780.414 1486.6254 202.51637 24.815477 10338.386 983.20447
80.94098 37.50942 9526.586 885.08435 148591.66 198844.81 13.521342 310736.12
7e-43 7e-43 7e-43 7e-43 7e-43 7e-43 7e-43 7e-43
7e-43 7e-43 7e-43 7e-43 7e-43 7e-43 7e-43 7e-43

exp_avg f4 [150]
00000000: 0400 0000 0400 0000 0400 0000 1501 d43f
00000010: 0400 0000 4b57 efc0 0400 0000 0400 0000
00000020: 0400 0000 470b 14be 0400 0000 e862 c941
00000030: 0400 0000 0400 0000 5b5c a3c0 e5b7 4b41
00000040: 0400 0000 0400 0000 40ed 323f fb7a 1d40
00000050: 0400 0000 0400 0000 6877 32c0 0400 0000
00000060: 0400 0000 0400 0000 a7b6 91c2 0400 0000
00000070: e22b 77c0 5ac2 38c0 0400 0000 0400 0000
00000080: 0400 0000 0400 0000 0400 0000 28aa 2b40
00000090: 040d 2fc0 0400 0000 0400 0000 42c1 cebe
000000a0: 0400 0000 0400 0000 0400 0000 b69d bbbe
000000b0: 0400 0000 e524 4b40 0400 0000 f986 6b40
000000c0: 2428 a641 0400 0000 fbed d0c0 0400 0000
000000d0: 0400 0000 0400 0000 187e f5be 0400 0000
000000e0: 0400 0000 d71a 6dbf 0000 0000 0400 0000
000000f0: 0400 0000 0400 0000 d775 05c1 0400 0000
00000100: 0400 0000 2a37 3ac0 550c 2b40 ce7f b741
00000110: 0400 0000 0400 0000 0400 0000 0400 0000
00000120: 0400 0000 0400 0000 3b65 6b40 3941 1fbf
00000130: 0400 0000 0192 0f42 0400 0000 0400 0000
00000140: 0400 0000 0400 0000 5d78 d940 0400 0000
00000150: f788 b740 0e56 4040 3ef8 3b40 0400 0000
00000160: 0400 0000 0400 0000 0400 0000 0400 0000
00000170: a296 88c0 0400 0000 0400 0000 0400 0000
00000180: a518 b83f 0400 0000 0400 0000 a3fc 3dc2
00000190: 0400 0000 0400 0000 5be3 cabf 0400 0000
000001a0: 0400 0000 0b79 153f 06c3 b341 00ab 20c1
000001b0: 0400 0000 cf56 7541 0400 0000 0400 0000
000001c0: 0400 0000 0400 0000 0400 0000 0400 0000
000001d0: 0400 0000 0400 0000 0400 0000 be34 8c40
000001e0: 0400 0000 0400 0000 0400 0000 0498 ccc0
000001f0: 0400 0000 0400 0000 0400 0080 0400 0000
00000200: d5ec 90c0 0400 0000 0400 0000 0400 0000
00000210: 0400 0000 0400 0000 0400 0000 0400 0000
00000220: 0400 0000 0400 0000 1826 9340 0400 0000
00000230: 60e7 7bc0 0400 0000 0400 0000 0400 0000
00000240: 0400 0000 c472 4a3f 0400 0000 0400 0000
00000250: 0400 0000 6168 bac0
6e-45 6e-45 6e-45 1.656283 6e-45 -7.479406 6e-45 6e-45
6e-45 -0.14457427 6e-45 25.173294 6e-45 6e-45 -5.105024 12.732396
6e-45 6e-45 0.69893265 2.4606311 6e-45 6e-45 -2.788538 6e-45
6e-45 6e-45 -72.85674 6e-45 -3.8620534 -2.8868623 6e-45 6e-45
6e-45 6e-45 6e-45 2.6822605 -2.7351694 6e-45 6e-45 -0.4038182
6e-45 6e-45 6e-45 -0.3664376 6e-45 3.1741269 6e-45 3.680113
20.7696 6e-45 -6.5290504 6e-45 6e-45 6e-45 -0.47947764 6e-45
6e-45 -0.9261908 0.0 6e-45 6e-45 6e-45 -8.3412695 6e-45
6e-45 -2.909617 2.6726277 22.937405 6e-45 6e-45 6e-45 6e-45
6e-45 6e-45 3.6780536 -0.62208897 6e-45 35.892582 6e-45 6e-45
6e-45 6e-45 6.795943 6e-45 5.7354693 3.0052524 2.9370265 6e-45
6e-45 6e-45 6e-45 6e-45 -4.268388 6e-45 6e-45 6e-45
1.4382521 6e-45 6e-45 -47.496716 6e-45 6e-45 -1.5850633 6e-45
6e-45 0.5838782 22.470226 -10.041748 6e-45 15.3336935 6e-45 6e-45
6e-45 6e-45 6e-45 6e-45 6e-45 6e-45 6e-45 4.3814383
6e-45 6e-45 6e-45 -6.3935566 6e-45 6e-45 -6e-45 6e-45
-4.52891 6e-45 6e-45 6e-45 6e-45 6e-45 6e-45 6e-45
6e-45 6e-45 4.5984 6e-45 -3.935997 6e-45 6e-45 6e-45
6e-45 0.7908137 6e-45 6e-45 6e-45 -5.8252416

exp_avg_sq f4 [150]
00000000: f401 0000 f401 0000 f401 0000 1c20 9e44
00000010: f401 0000 d416 bf45 f401 0000 f401 0000
00000020: f401 0000 f4d0 8a43 f401 0000 55e8 1d47
00000030: f401 0000 f401 0000 d2f0 c244 b203 f045
00000040: f401 0000 f401 0000 bf1a f243 974f 5b45
00000050: f401 0000 f401 0000 51c5 6945 f401 0000
00000060: f401 0000 f401 0000 7506 ad47 f401 0000
00000070: ceb9 7846 77fe f444 f401 0000 f401 0000
00000080: f401 0000 f401 0000 f401 0000 9aa0 6244
00000090: 4849 e543 f401 0000 f401 0000 b553 0444
000000a0: f401 0000 f401 0000 f401 0000 32a6 f842
000000b0: f401 0000 99bb 1345 f401 0000 6624 b044
000000c0: 73a6 ff46 f401 0000 e45a f344 f401 0000
000000d0: f401 0000 f401 0000 70e3 3a44 f401 0000
000000e0: f401 0000 1035 3f42 0000 0000 f401 0000
000000f0: f401 0000 f401 0000 f30e ea44 f401 0000
00000100: f401 0000 6f50 fd42 24d2 7144 53d0 b246
00000110: f401 0000 f401 0000 f401 0000 f401 0000
00000120: f401 0000 f401 0000 69fa 8e44 7d9e 2045
00000130: f401 0000 8960 0447 f401 0000 f401 0000
00000140: f401 0000 f401 0000 a500 6043 f401 0000
00000150: 3499 d044 5912 7644 839b 0c46 f401 0000
00000160: f401 0000 f401 0000 f401 0000 f401 0000
00000170: 53c3 d944 f401 0000 f401 0000 f401 0000
00000180: 3f19 0942 f401 0000 f401 0000 6dbf 2547
00000190: f401 0000 f401 0000 8257 f444 f401 0000
000001a0: f401 0000 0b86 3544 8f86 6946 4481 7446
000001b0: f401 0000 72ec 9848 f401 0000 f401 0000
000001c0: f401 0000 f401 0000 f401 0000 f401 0000
000001d0: f401 0000 f401 0000 f401 0000 1155 1e45
000001e0: f401 0000 f401 0000 f401 0000 f230 f444
000001f0: f401 0000 f401 0000 f401 0000 f401 0000
00000200: a12b 4243 f401 0000 f401 0000 f401 0000
00000210: f401 0000 f401 0000 f401 0000 f401 0000
00000220: f401 0000 f401 0000 067c ea44 f401 0000
00000230: 48be 1f44 f401 0000 f401 0000 f401 0000
00000240: f401 0000 de26 0443 f401 0000 54f0 2f22
00000250: f401 0000 fafd 3f46
7e-43 7e-43 7e-43 1265.0034 7e-43 6114.8535 7e-43 7e-43
7e-43 277.63245 7e-43 40424.332 7e-43 7e-43 1559.5256 7680.462
7e-43 7e-43 484.20895 3508.9744 7e-43 7e-43 3740.3323 7e-43
7e-43 7e-43 88588.914 7e-43 15918.451 1959.952 7e-43 7e-43
7e-43 7e-43 7e-43 906.5094 458.5725 7e-43 7e-43 529.3079
7e-43 7e-43 7e-43 124.3246 7e-43 2363.7249 7e-43 1409.1375
32723.225 7e-43 1946.8403 7e-43 7e-43 7e-43 747.5537 7e-43
7e-43 47.80182 0.0 7e-43 7e-43 7e-43 1872.4672 7e-43
7e-43 126.6571 967.28345 22888.162 7e-43 7e-43 7e-43 7e-43
7e-43 7e-43 1143.8253 2569.9055 7e-43 33888.535 7e-43 7e-43
7e-43 7e-43 224.00252 7e-43 1668.7876 984.2867 8998.878 7e-43
7e-43 7e-43 7e-43 7e-43 1742.1039 7e-43 7e-43 7e-43
34.274654 7e-43 7e-43 42431.426 7e-43 7e-43 1954.7346 7e-43
7e-43 726.0944 14945.64 15648.316 7e-43 313187.56 7e-43 7e-43
7e-43 7e-43 7e-43 7e-43 7e-43 7e-43 7e-43 2533.3167
7e-43 7e-43 7e-43 1953.5295 7e-43 7e-43 7e-43 7e-43
194.17043 7e-43 7e-43 7e-43 7e-43 7e-43 7e-43 7e-43
7e-43 7e-43 1875.8757 7e-43 638.97314 7e-43 7e-43 7e-43
7e-43 132.15182 7e-43 2.3844151e-18 7e-43 12287.494

exp_avg f4 [100, 150]
00000000: 0400 0000 0400 0000 0400 0000 0400 0000
00000010: 0400 0000 0400 0000 0400 0080 0400 0080
00000020: 0400 0080 0400 0080 0400 0000 0400 0000
00000030: 0400 0000 0400 0080 0400 0000 0400 0000
00000040: 0400 0000 0400 0000 0400 0000 0400 0080
00000050: 0400 0000 0400 0000 0400 0080 0400 0000
00000060: 0400 0000 0400 0000 0400 0080 0400 0000
00000070: 0400 0080 0400 0080 0400 0080 0400 0000
00000080: 0400 0080 0400 0080 0400 0000 0400 0000
00000090: 0400 0080 0400 0000 0400 0000 0400 0000
000000a0: 0400 0080 0400 0000 0400 0000 0400 0000
000000b0: 0400 0000 0400 0000 0400 0000 0400 0080
000000c0: 0400 0000 0400 0000 0400 0080 0400 0080
000000d0: 0400 0000 0400 0000 0000 0000 0400 0000
000000e0: 0400 0080 0400 0000 0000 0000 0400 0000
000000f0: 0400 0000 0400 0080 0400 0000 0400 0000
00000100: 0000 0000 0400 0000 0400 0080 0400 0080
00000110: 0400 0000 0400 0000 0400 0000 0400 0000
00000120: 0400 0080 0400 0000 0000 0000 0400 0000
00000130: 0400 0000 0400 0000 0400 0000 0400 0000
00000140: 0400 0080 0400 0000 0400 0000 0400 0000
00000150: 0400 0000 0400 0000 0400 0000 0400 0000
00000160: 0400 0000 0400 0000 0400 0000 0400 0080
00000170: 0400 0000 0400 0000 0400 0080 0400 0000
00000180: 0400 0000 0400 0080 0400 0000 0400 0080
00000190: 0400 0000 0400 0000 0400 0000 0400 0000
000001a0: 0400 0080 0400 0000 0400 0000 0400 0000
000001b0: 0400 0000 0400 0000 0400 0080 0400 0000
000001c0: 0400 0000 0400 0080 0400 0000 0400 0080
000001d0: 0400 0000 0400 0000 0000 0000 0400 0080
000001e0: 0400 0080 0400 0000 0000 0000 0400 0000
000001f0: 0400 0000 0000 0000 0400 0000 0400 0000
00000200: 0400 0000 0400 0000 0400 0000 0400 0000
00000210: 0400 0000 0400 0000 0400 0000 0400 0000
00000220: 0400 0000 0400 0080 0400 0000 0400 0000
00000230: 0400 0080 0400 0000 0400 0000 0400 0000
00000240: 0400 0000 0400 0000 0400 0000 0400 0000
00000250: 0400 0080 0400 0000 0400 0080 0400 0000
00000260: 0400 0080 0400 0080 0400 0080 f9ec 0b3d
00000270: 0400 0080 0400 0000 0400 0000 4c2a 2ec0
00000280: 0400 0080 1e4a a4c0 0400 0080 0400 0000
00000290: b273 32c1 0400 0000 0400 0080 0400 0000
000002a0: 0400 0080 bb2f 92c1 0400 0000 0400 0000
000002b0: 0400 0000 0400 0080 0400 0080 0400 0000
000002c0: 0400 0000 0400 0000 0400 0000 9652 c9be
000002d0: 0400 0080 0400 0080 0400 0080 0400 0080
000002e0: 0400 0080 0400 0080 0400 0080 0400 0080
000002f0: 0400 0000 e13b 0cbf 0400 0000 0400 0080
00000300: 0400 0080 6666 40be 0400 0080 0400 0080
00000310: 0400 0080 0400 0080 4a5f f6bd 0400 0000
00000320: 73a0 2ac1 0400 0000 0400 0080 0400 0080
00000330: 986c a3bc 0400 0080 0400 0080 0400 0080
00000340: 0000 0000 0400 0080 0400 0000 0400 0080
00000350: f013 c6c0 0400 0000 0400 0080 0400 0080
00000360: 6280 703b c26d b23d 0400 0000 0400 0080
00000370: 0400 0080 0400 0080 0400 0080 0400 0000
00000380: 0400 0080 fb7b ebc0 0400 0080 0400 0080
00000390: 0400 0080 0400 0080 0400 0080 0400 0080
000003a0: 0400 0080 0400 0000 0400 0080 0400 0000
000003b0: 8829 b9c1 0400 0080 0400 0000 0400 0000
000003c0: 0400 0080 0400 0080 9a88 35be 0400 0080
000003d0: 0400 0080 0400 0000 0400 0080 0400 0000
000003e0: 0400 0000 0400 0080 0400 0080 0400 0000
000003f0: d139 dbc0 0400 0080 0400 0080 1c6f c0c0
6e-45 6e-45 6e-45 6e-45 6e-45 6e-45 -6e-45 -6e-45
-6e-45 -6e-45 6e-45 6e-45 6e-45 -6e-45 6e-45 6e-45
6e-45 6e-45 6e-45 -6e-45 6e-45 6e-45 -6e-45 6e-45
6e-45 6e-45 -6e-45 6e-45 -6e-45 -6e-45 -6e-45 6e-45
-6e-45 -6e-45 6e-45 6e-45 -6e-45 6e-45 6e-45 6e-45
-6e-45 6e-45 6e-45 6e-45 6e-45 6e-45 6e-45 -6e-45
6e-45 6e-45 -6e-45 -6e-45 6e-45 6e-45 0.0 6e-45
-6e-45 6e-45 0.0 6e-45 6e-45 -6e-45 6e-45 6e-45
0.0 6e-45 -6e-45 -6e-45 6e-45 6e-45 6e-45 6e-45
-6e-45 6e-45 0.0 6e-45 6e-45 6e-45 6e-45 6e-45
-6e-45 6e-45 6e-45 6e-45 6e-45 6e-45 6e-45 6e-45
6e-45 6e-45 6e-45 -6e-45 6e-45 6e-45 -6e-45 6e-45
6e-45 -6e-45 6e-45 -6e-45 6e-45 6e-45 6e-45 6e-45
-6e-45 6e-45 6e-45 6e-45 6e-45 6e-45 -6e-45 6e-45
6e-45 -6e-45 6e-45 -6e-45 6e-45 6e-45 0.0 -6e-45
-6e-45 6e-45 0.0 6e-45 6e-45 0.0 6e-45 6e-45
6e-45 6e-45 6e-45 6e-45 6e-45 6e-45 6e-45 6e-45
6e-45 -6e-45 6e-45 6e-45 -6e-45 6e-45 6e-45 6e-45
6e-45 6e-45 6e-45 6e-45 -6e-45 6e-45 -6e-45 6e-45
-6e-45 -6e-45 -6e-45 0.03416154 -6e-45 6e-45 6e-45 -2.7213316
-6e-45 -5.1340475 -6e-45 6e-45 -11.153246 6e-45 -6e-45 6e-45
-6e-45 -18.273306 6e-45 6e-45 6e-45 -6e-45 -6e-45 6e-45
6e-45 6e-45 6e-45 -0.3932082 -6e-45 -6e-45 -6e-45 -6e-45
-6e-45 -6e-45 -6e-45 -6e-45 6e-45 -0.5477887 6e-45 -6e-45
-6e-45 -0.18789062 -6e-45 -6e-45 -6e-45 -6e-45 -0.12029894 6e-45
-10.664172 6e-45 -6e-45 -6e-45 -0.019949242 -6e-45 -6e-45 -6e-45
0.0 -6e-45 6e-45 -6e-45 -6.189934 6e-45 -6e-45 -6e-45
0.0036697616 0.08712341 6e-45 -6e-45 -6e-45 -6e-45 -6e-45 6e-45
-6e-45 -7.3588843 -6e-45 -6e-45 -6e-45 -6e-45 -6e-45 -6e-45
-6e-45 6e-45 -6e-45 6e-45 -23.145279 -6e-45 6e-45 6e-45
-6e-45 -6e-45 -0.1772789 -6e-45 -6e-45 6e-45 -6e-45 6e-45
6e-45 -6e-45 -6e-45 6e-45 -6.8508077 -6e-45 -6e-45 -6.013563

exp_avg_sq f4 [100, 150]
00000000: f401 0000 f401 0000 f401 0000 f401 0000
00000010: f401 0000 f401 0000 f401 0000 f401 0000
00000020: f401 0000 f401 0000 f401 0000 f401 0000
00000030: f401 0000 f401 0000 f401 0000 f401 0000
00000040: f401 0000 f401 0000 f401 0000 f401 0000
00000050: f401 0000 f401 0000 f401 0000 f401 0000
00000060: f401 0000 f401 0000 f401 0000 f401 0000
00000070: f401 0000 f401 0000 f401 0000 f401 0000
00000080: f401 0000 f401 0000 f401 0000 f401 0000
00000090: f401 0000 f401 0000 f401 0000 f401 0000
000000a0: f401 0000 f401 0000 f401 0000 f401 0000
000000b0: f401 0000 f401 0000 f401 0000 f401 0000
000000c0: f401 0000 f401 0000 f401 0000 f401 0000
000000d0: f401 0000 f401 0000 0000 0000 f401 0000
000000e0: f401 0000 f401 0000 0000 0000 f401 0000
000000f0: f401 0000 f401 0000 f401 0000 f401 0000
00000100: 0000 0000 f401 0000 f401 0000 f401 0000
00000110: f401 0000 f401 0000 f401 0000 f401 0000
00000120: f401 0000 f401 0000 0000 0000 f401 0000
00000130: f401 0000 f401 0000 f401 0000 f401 0000
00000140: f401 0000 f401 0000 f401 0000 f401 0000
00000150: f401 0000 f401 0000 f401 0000 f401 0000
00000160: f401 0000 f401 0000 f401 0000 f401 0000
00000170: f401 0000 f401 0000 f401 0000 f401 0000
00000180: f401 0000 f401 0000 f401 0000 f401 0000
00000190: f401 0000 f401 0000 f401 0000 f401 0000
000001a0: f401 0000 f401 0000 f401 0000 f401 0000
000001b0: f401 0000 f401 0000 f401 0000 f401 0000
000001c0: f401 0000 f401 0000 f401 0000 f401 0000
000001d0: f401 0000 f401 0000 0000 0000 f401 0000
000001e0: f401 0000 f401 0000 0000 0000 f401 0000
000001f0: f401 0000 0000 0000 f401 0000 f401 0000
00000200: f401 0000 f401 0000 f401 0000 f401 0000
00000210: f401 0000 f401 0000 f401 0000 f401 0000
00000220: f401 0000 f401 0000 f401 0000 f401 0000
00000230: f401 0000 f401 0000 f401 0000 f401 0000
00000240: f401 0000 f401 0000 f401 0000 f401 0000
00000250: f401 0000 f401 0000 f401 0000 f401 0000
00000260: f401 0000 f401 0000 f401 0000 0868 983e
00000270: f401 0000 f401 0000 f401 0000 6b1f 0b44
00000280: f401 0000 3b35 dd44 f401 0000 f401 0000
00000290: b561 9a45 b6cc 3e1a f401 0000 f401 0000
000002a0: f401 0000 4a5a 6b46 f401 0000 f401 0000
000002b0: 1115 0730 f401 0000 f401 0000 f401 0000
000002c0: f401 0000 f401 0000 6e1c 741e 42bc 5c42
000002d0: f401 0000 f401 0000 f401 0000 f401 0000
000002e0: f401 0000 ad70 053a b75c cb02 f401 0000
000002f0: f401 0000 59ce 9143 f401 0000 f401 0000
00000300: f401 0000 b045 6242 f401 0000 f401 0000
00000310: f401 0000 a114 3b18 d8fb 3941 f401 0000
00000320: fb50 9145 f401 0000 f401 0000 f401 0000
00000330: a543 023e f401 0000 f401 0000 37dc 4c3a
00000340: 0000 0000 f401 0000 f401 0000 f401 0000
00000350: cd8d 9744 f401 0000 f401 0000 8b48 d734
00000360: a963 8a3c 006c d23f f401 0000 f401 0000
00000370: f401 0000 f401 0000 f401 0000 f401 0000
00000380: f401 0000 9492 1545 f401 0000 f401 0000
00000390: f401 0000 f401 0000 f401 0000 f401 0000
000003a0: f401 0000 f401 0000 f401 0000 f401 0000
000003b0: a8fd c046 f401 0000 f401 0000 f401 0000
000003c0: f401 0000 f401 0000 a8f5 b13f f401 0000
000003d0: f401 0000 f401 0000 f401 0000 f401 0000
000003e0: f401 0000 f401 0000 f401 0000 f401 0000
000003f0: 3d7a 0b45 f401 0000 f401 0000 09c9 0e45
7e-43 7e-43 7e-43 7e-43 7e-43 7e-43 7e-43 7e-43
7e-43 7e-43 7e-43 7e-43 7e-43 7e-43 7e-43 7e-43
7e-43 7e-43 7e-43 7e-43 7e-43 7e-43 7e-43 7e-43
7e-43 7e-43 7e-43 7e-43 7e-43 7e-43 7e-43 7e-43
7e-43 7e-43 7e-43 7e-43 7e-43 7e-43 7e-43 7e-43
7e-43 7e-43 7e-43 7e-43 7e-43 7e-43 7e-43 7e-43
7e-43 7e-43 7e-43 7e-43 7e-43 7e-43 0.0 7e-43
7e-43 7e-43 0.0 7e-43 7e-43 7e-43 7e-43 7e-43
0.0 7e-43 7e-43 7e-43 7e-43 7e-43 7e-43 7e-43
7e-43 7e-43 0.0 7e-43 7e-43 7e-43 7e-43 7e-43
7e-43 7e-43 7e-43 7e-43 7e-43 7e-43 7e-43 7e-43
7e-43 7e-43 7e-43 7e-43 7e-43 7e-43 7e-43 7e-43
7e-43 7e-43 7e-43 7e-43 7e-43 7e-43 7e-43 7e-43
7e-43 7e-43 7e-43 7e-43 7e-43 7e-43 7e-43 7e-43
7e-43 7e-43 7e-43 7e-43 7e-43 7e-43 0.0 7e-43
7e-43 7e-43 0.0 7e-43 7e-43 0.0 7e-43 7e-43
7e-43 7e-43 7e-43 7e-43 7e-43 7e-43 7e-43 7e-43
7e-43 7e-43 7e-43 7e-43 7e-43 7e-43 7e-43 7e-43
7e-43 7e-43 7e-43 7e-43 7e-43 7e-43 7e-43 7e-43
7e-43 7e-43 7e-43 0.2976687 7e-43 7e-43 7e-43 556.4909
7e-43 1769.6635 7e-43 7e-43 4940.2134 3.9456443e-23 7e-43 7e-43
7e-43 15062.572 7e-43 7e-43 4.914265e-10 7e-43 7e-43 7e-43
7e-43 7e-43 1.29231316e-20 55.183846 7e-43 7e-43 7e-43 7e-43
7e-43 0.00050903374 2.9881385e-37 7e-43 7e-43 291.6121 7e-43 7e-43
7e-43 56.568054 7e-43 7e-43 7e-43 2.4179598e-24 11.623985 7e-43
4650.1226 7e-43 7e-43 7e-43 0.12721117 7e-43 7e-43 0.0007814797
0.0 7e-43 7e-43 7e-43 1212.4313 7e-43 7e-43 4.0099653e-07
0.016893225 1.6439209 7e-43 7e-43 7e-43 7e-43 7e-43 7e-43
7e-43 2393.1611 7e-43 7e-43 7e-43 7e-43 7e-43 7e-43
7e-43 7e-43 7e-43 7e-43 24702.828 7e-43 7e-43 7e-43
7e-43 7e-43 1.3903093 7e-43 7e-43 7e-43 7e-43 7e-43
7e-43 7e-43 7e-43 7e-43 2231.64 7e-43 7e-43 2284.5647
