checkpoints/dqn/checkpoint_ep300.pth (torch, 229962 bytes, 18 tensors)

layer1.weight f4 [150, 20]
-1.9375416 -2.9303136 -0.6511879 -0.6709289 -1.9208301 -2.2461321 -0.11892195 -0.33056563
-2.23272 -2.8509235 -1.7462971 -0.7756001 -3.5551553 1.8389959 -1.7723775 -0.20230328
-1.4441792 -1.2437574 0.34829792 -0.7183756 -0.8029678 -2.0619757 0.1206591 0.0035686872
-0.74265194 -3.1043575 -2.110582 -1.6258302 -0.99856985 0.23298581 -0.3347476 -0.22169676
-0.49893382 0.80192214 -0.4815313 0.17237993 0.07268339 0.13856658 0.08272208 -5.846364
-2.0850916 -0.16479063 -0.22189279 0.65823454 -4.828417 -1.1502218 -2.1353312 0.9459371
0.9476717 0.93708533 -1.4170496 0.39777958 -1.2759836 0.053497016 -0.7507207 -1.9131889
-1.3699529 -0.61278975 -0.5012999 -0.4300939 2.1410706 -0.18690589 -0.14341539 -0.07655566
1.1862469 -0.6367415 -0.00385655 -0.117076136 1.570279 -0.41045278 0.07953552 -0.077436976
0.3535266 -1.2122122 0.0839257 0.07537191 -0.23350391 -0.03843646 -3.0176044 -35.04057
-7.283343 -6.9367976 -0.23361263 -0.8691024 -5.805382 -7.603781 -1.5196366 -1.1578956
-2.629129 0.5968187 -0.7119803 0.5405363 1.4023585 -0.9970125 0.063181736 -0.09703195
-1.1629099 -1.3289256 -6.4323483 -4.5659394 -0.1337753 -1.4065211 0.88572866 -0.0128996195
-1.6603143 -0.16685392 -0.19913095 0.061963223 -1.6920474 -1.1929626 0.089234404 0.48693353
-0.84885925 -1.2162454 0.30979648 -0.21965426 -0.6903242 -0.0759681 0.23388392 -2.5087905
-2.4051626 -6.429337 -0.35239023 0.3553235 1.2691101 -1.4903408 0.1393137 -0.44807678
1.5038142 -2.2084205 -0.21279374 0.46909592 -1.5229607 -2.8414404 -0.7294038 -0.7163832
-1.0498813 -0.23746309 0.9662512 -5.2432585 -3.6787763 -0.68502015 -0.018402465 -0.6808766
-2.4869561 -3.2647421 -0.46718198 0.16978583 -0.35000804 -1.843887 0.021519648 -0.02317126
-1.3501704 1.7291741 -1.4497223 -0.32692277 -0.23898135 -1.717188 -2.719268 2.4725296
-2.7235277 -1.2277154 0.3257913 -0.656733 0.15729168 -2.935972 -0.79868466 -0.5651235
1.3767253 0.031793904 -0.0043696016 0.327075 2.0903223 -0.9095676 0.016585272 -1.2848998
0.086659715 -3.2829666 0.8582141 -1.1956888 1.177382 -5.2156672 0.60733956 0.25611752
-0.9768029 -5.918397 -0.22188003 -0.47616208 1.0217928 -3.9860365 -0.10998209 -0.53604925
1.6662084 -4.2962523 0.23113771 -0.11628949 1.2197504 0.012666279 -0.9506343 -2.4254754
0.97721064 -1.1857374 -0.6495396 -0.07237844 1.363985 3.60251 -0.13126501 -0.16088389
-3.0561204 -1.3095105 -0.06937554 0.6403999 2.2523708 1.235417 -0.22235547 -0.06927061
-0.12724969 -2.9167547 -0.3533538 -0.029045386 1.4282651 -4.290386 0.33373582 -0.607226
-0.2607798 -1.8703654 0.6422436 0.44710335 -0.40032798 -0.118302055 0.39428326 -0.6916406
-1.0189819 -0.14047122 -0.36764956 0.9102668 0.5311665 0.40567216 -93.31851 -1.2043073
-2.7263806 -1.2508081 -0.90616226 -0.28198615 -1.9054885 -4.770289 -0.0017751567 -0.29334804
-3.6692562 -8.642584 -1.0396461 -0.21499671 1.5520271 1.6712986 -1.4635891 -0.796972
00000000: 5d01 f8bf 428a 3bc0 40b4 26bf ffc1 2bbf
00000010: c3dd f5bf a1c0 0fc0 5a8d f3bd e63f a9be
00000020: e2e4 0ec0 8875 36c0 aa86 dfbf ba8d 46bf
00000030: aa87 63c0 3864 eb3f 44dd e2bf 9728 4fbe
00000040: ddda b8bf 7133 9fbf 1b54 b23e 77e7 37bf
00000050: 4c8f 4dbf 69f7 03c0 1e1c f73d a3e0 693b
00000060: 701e 3ebf cbad 46c0 c713 07c0 341b d0bf
00000070: 46a2 7fbf d593 6e3e 0a64 abbe 7a04 63be
00000080: 4174 ffbe c54a 4d3f 458b f6be 5d84 303e
00000090: 07db 943d 66e4 0d3e 326a a93d 6a15 bbc0
000000a0: 2472 05c0 e0be 28be dd37 63be 0f82 283f
000000b0: 6482 9ac0 783a 93bf 44a9 08c0 ef28 723f
000000c0: 9d9a 723f d3e4 6f3f e261 b5bf c4a9 cb3e
000000d0: 6e53 a3bf b01f 5b3d 3b2f 40bf 60e3 f4bf
000000e0: 9e5a afbf cadf 1cbf 3155 00bf 4535 dcbe
000000f0: 4d07 0940 4264 3fbe 7cdb 12be 37c9 9cbd
00000100: f0d6 973f 7e01 23bf 2cbe 7cbb 9dc5 efbd
00000110: e7fe c83f de26 d2be 85e3 a23d 4797 9ebd
00000120: 7001 b53e c529 9bbf 3de1 ab3d 975c 9a3d
00000130: a61b 6fbe 8d6f 1dbd 6e20 41c0 8b29 0cc2
00000140: 2511 e9c0 3ffa ddc0 2638 6fbe 7f7d 5ebf
00000150: b0c5 b9c0 2d52 f3c0 7483 c2bf ec35 94bf
00000160: a643 28c0 1cc9 183f 5744 36bf 9660 0a3f
00000170: 7c80 b33f 363c 7fbf 6d65 813d b0b8 c6bd
00000180: 3bda 94bf 3c1a aabf ccd5 cdc0 2d1c 92c0
00000190: 64fc 08be e208 b4bf 1dbf 623f ed58 53bc
000001a0: 2e85 d4bf c1db 2abe fce8 4bbe 26cd 7d3d
000001b0: 0295 d8bf 00b3 98bf 87c0 b63d 5a4f f93e
000001c0: d74e 59bf eead 9bbf a59d 9e3e 0ced 60be
000001d0: 16b9 30bf 2a95 9bbd 447f 6f3e 0690 20c0
000001e0: 2fee 19c0 21bd cdc0 7e6c b4be f6ec b53e
000001f0: 3372 a23f 7dc3 bebf 40a8 0e3e 526a e5be
00000200: fc7c c03f c356 0dc0 9ae6 59be 572d f03e
00000210: 60f0 c2bf 29da 35c0 35ba 3abf e464 37bf
00000220: 8362 86bf 8629 73be 3d5c 773f c6c8 a7c0
00000230: 1271 6bc0 7b5d 2fbf c4c0 96bc ee4d 2ebf
00000240: 4a2a 1fc0 89f1 50c0 7a32 efbe 56dc 2d3e
00000250: 4134 b3be 7d04 ecbf f949 b03c a7d1 bdbc
00000260: 62d2 acbf 9455 dd3f 8090 b9bf 6c62 a7be
00000270: 87b7 74be d1cc dbbf 7d08 2ec0 ed3d 1e40
00000280: 474e 2ec0 c725 9dbf 1ece a63e a71f 28bf
00000290: 1211 213e f7e6 3bc0 9976 4cbf efab 10bf
000002a0: 8938 b03f 533a 023d e02e 8fbb 6076 a73e
000002b0: d7c7 0540 6cd9 68bf d6dd 873c 9977 a4bf
000002c0: a67a b13d 201c 52c0 ebb3 5b3f 550c 99bf
000002d0: 74b4 963f bfe6 a6c0 9b7a 1b3f d621 833e
000002e0: c10f 7abf 8263 bdc0 8534 63be 84cb f3be
000002f0: 1bca 823f 391b 7fc0 4a3e e1bd 863a 09bf
00000300: 5146 d53f e67a 89c0 5daf 6c3e 2f29 eebd
00000310: c820 9c3f 3a86 4f3c c55c 73bf fd3a 1bc0
00000320: 7a2a 7a3f 3ec6 97bf 3a48 26bf 263b 94bd
00000330: 0f97 ae3f 868f 6640 566a 06be bfbe 24be
00000340: 7a97 43c0 0a9e a7bf c314 8ebd 3ff1 233f
00000350: d826 1040 2522 9e3f 27b1 63be c0dd 8dbd
00000360: be4d 02be 1cac 3ac0 caea b4be 97f0 edbc
00000370: 64d1 b63f d84a 89c0 6cdf aa3e 2a73 1bbf
00000380: ee84 85be 2268 efbf 146a 243f bbea e43e
00000390: caf7 ccbe 5948 f2bd 7fdf c93e 5c0f 31bf
000003a0: 006e 82bf b0d7 0fbe 903c bcbe 3f07 693f
000003b0: 87fa 073f 43b4 cf3e 14a3 bac2 be26 9abf
000003c0: 057d 2ec0 7b1a a0bf 40fa 67bf 7d60 90be
000003d0: 0ce7 f3bf 35a6 98c0 60ac e8ba b731 96be
000003e0: 18d5 6ac0 0648 0ac1 2013 85bf 1928 5cbe
000003f0: d3a8 c63f 1ded d53f e356 bbbf 5b06 4cbf

layer1.bias f4 [150]
-0.89662725 -1.2739326 -1.2763382 7.1153836 0.15120487 5.1233664 -3.2977505 -7.3820214
-3.811103 4.557584 -0.64898473 4.0759654 -1.7590387 -3.392161 -0.56940526 -10.379242
-7.8136597 -0.5969496 7.3783937 -9.402103 -0.7962764 -2.7586918 5.7251844 -1.0014248
-1.423939 -0.38668475 10.6147375 -0.6268062 8.156855 -4.111858 -1.6850306 -1.12887
-1.1289202 -4.301588 -0.23831213 1.1117382 4.181595 -0.508771 -0.9464228 -1.0512671
-1.5367025 -2.4777067 -0.36136228 2.7735014 -0.82547796 5.1525183 -2.1912644 2.2168064
5.9628897 -0.9811554 -7.4634953 -3.3183599 -2.9095812 -0.49401975 -1.8044415 0.061966907
-1.3114772 2.159668 -0.21903339 -0.8816665 -2.5906475 -0.7882413 1.6938561 -0.53057796
-0.23314111 10.134767 5.558251 11.3693075 -0.8884868 -0.6868816 -0.0967765 -0.45988277
-1.4000866 -1.984841 -1.7660774 4.0367217 -4.7842183 -2.6910253 -7.314821 -1.3601311
-4.12216 -3.0844793 2.8749664 1.1207067 3.5697303 3.6989486 -2.0040052 -3.022788
-0.9229934 -4.237446 -0.6929109 -2.3054333 5.1603017 -6.4785914 0.017636953 -2.5063028
1.9469912 -2.7712078 -2.3137574 12.380596 -0.58800316 -1.8815054 0.2542536 -5.2450643
-3.543485 -0.6416222 -4.893233 -3.452718 -4.243838 7.059595 -0.17668732 -0.14491516
-0.4066519 -1.2514658 -1.4342647 -1.8358682 -9.516057 -2.061419 -0.14306025 5.6301055
-4.182884 -0.33899015 -0.25898442 -0.101702854 -1.0319577 -0.16812918 -2.3844016 -0.33518696
2.334535 -0.91539615 -0.85869503 -1.0570993 -2.1819282 -0.4610812 -0.88132364 -1.7776045
-1.2373724 -2.2414036 1.8065054 -0.41148797 5.2794437 -4.1160383 -2.08163 -0.7033378
-4.2440205 -0.100476034 -0.5761705 -0.54641163 -1.2751262 4.2181106
00000000: 5d89 65bf 3910 a3bf 0d5f a3bf 39b1 e340
00000010: 73d5 1a3e 9ef2 a340 580e 53c0 8539 ecc0
00000020: 1de9 73c0 bad7 9140 dd23 26bf 4f6e 8240
00000030: 2e28 e1bf 2a19 59c0 8bc4 11bf 6011 26c1
00000040: 8009 fac0 b0d1 18bf cd1b ec40 046f 16c1
00000050: c5d8 4bbf 688e 30c0 b634 b740 b02e 80bf
00000060: a243 b6bf 8bfb c5be f7d5 2941 5f76 20bf
00000070: 7a82 0241 5794 83c0 15af d7bf d07e 90bf
00000080: 7580 90bf 9ca6 89c0 1808 74be 704d 8e3f
00000090: a0cf 8540 d13e 02bf c448 72bf ec8f 86bf
000000a0: abb2 c4bf bf92 1ec0 7a04 b9be 0c81 3140
000000b0: 8652 53bf 6ee1 a440 ad3d 0cc0 28e0 0d40
000000c0: fecf be40 002d 7bbf f4d4 eec0 0260 54c0
000000d0: 9436 3ac0 28f0 fcbe f0f7 e6bf 03d1 7d3d
000000e0: 7cde a7bf 0038 0a40 4a4a 60be e5b4 61bf
000000f0: 2bcd 25c0 2fca 49bf 47d0 d83f f5d3 07bf
00000100: 8bbc 6ebe 0128 2241 31dd b140 afe8 3541
00000110: df73 63bf 79d7 2fbf c232 c6bd c175 ebbe
00000120: 0a36 b3bf 450f febf d30e e2bf d32c 8140
00000130: 5118 99c0 c239 2cc0 0313 eac0 c718 aebf
00000140: bce8 83c0 1c68 45c0 73ff 3740 5173 8f3f
00000150: 7676 6440 93bb 6c40 9f41 00c0 5c75 41c0
00000160: 4c49 6cbf 2899 87c0 9c62 31bf 388c 13c0
00000170: 3121 a540 9f50 cfc0 5f7b 903c 4467 20c0
00000180: 0237 f93f 785b 31c0 9a14 14c0 ec16 4641
00000190: 6087 16bf 2bd5 f0bf 872d 823e 91d7 a7c0
000001a0: 75c8 62c0 5a41 24bf 5d95 9cc0 55f9 5cc0
000001b0: 85cd 87c0 34e8 e140 85ed 34be a464 14be
000001c0: ae34 d0be 0830 a0bf fc95 b7bf bbfd eabf
000001d0: c541 18c1 4aee 03c0 637e 12be d329 b440
000001e0: 30da 85c0 1e90 adbe 9b99 84be 9649 d0bd
000001f0: 3117 84bf 0e2a 2cbe 099a 18c0 a09d abbe
00000200: 0569 1540 6757 6abf 70d3 5bbf 084f 87bf
00000210: b6a4 0bc0 d612 ecbe 6d9e 61bf 8b88 e3bf
00000220: 3862 9ebf 2873 0fc0 923b e73f 8dae d2be
00000230: 34f1 a840 96b6 83c0 6d39 05c0 f20d 34bf
00000240: 04cf 87c0 61c6 cdbd e97f 13bf a2e1 0bbf
00000250: 5637 a3bf c3fa 8640

layer2.weight f4 [100, 150]
-0.021600114 0.030273644 -0.06777556 -0.2882376 0.20032449 -0.86018425 -0.00092157914 -2.2498996
1.1630732 -1.5493162 0.012473435 -1.533039 0.9029773 0.9290345 0.06301179 0.15124269
1.6259563 -0.1079039 0.19429745 -8.850833 -2.8798127 -1.2440517 -4.610378 0.04134641
-0.06818497 0.0024840166 -7.7045107 0.029492762 -1.0418401 -4.9495387 -1.2008827 -0.0031854853
0.072625786 -1.3004704 0.024063211 0.33161676 -1.6744779 0.03435161 0.00787769 -2.494848
0.15869981 -1.5629399 -0.021942396 1.6102173 -0.045102593 -0.3391014 -1.0029461 0.57857275
0.06768472 -0.6912451 -0.22302735 -3.9871702 -1.3197999 0.04600499 -0.069347344 -1.1969073
-2.1607764 -2.4054255 0.07059765 -0.9259289 0.013045795 -0.1451699 0.77545977 -0.040729973
-0.07359517 -3.8148973 -3.4179707 -1.9001757 -0.1702022 -0.011901069 0.090082884 0.0010635708
0.11944902 -0.07059306 0.042522393 -0.087609194 0.60362583 0.9828718 -1.8845036 0.026523054
0.6692821 -0.086237445 -0.70041007 -1.7249329 -1.4208134 -0.37723097 -0.6025885 0.772151
0.010940002 -0.04240011 -0.05209403 0.87261915 0.08892623 -0.21316926 0.35201365 -0.5265794
0.31517282 0.41043037 2.0679255 -8.040963 -0.0040805587 -0.026560485 -0.13740471 0.47341776
-0.11991768 1.3339372 -20.121063 -1.5940585 -2.3343284 -0.07618903 -0.021136506 0.060912166
-0.08651317 0.2576596 -0.12018815 -1.3432832 -0.5241215 0.03959939 -0.07325287 -3.7794437
-3.2428198 -0.09797441 -0.02557798 -0.72454923 -0.068897605 -0.058454797 -2.353964 -2.644992
-2.969006 1.0271198 0.016095014 -0.041629028 -2.5252512 -0.00593767 -0.035271943 -0.03953032
0.024927652 -0.113747425 1.0131562 -0.7637209 -0.49849343 -4.001719 0.95886976 -0.019551905
-0.034528513 2.1011841 -0.08435696 -0.03345263 -0.006782468 1.4803736 0.09483741 1.9937618
-0.8316604 -0.111100845 -1.277392 -6.120103 -0.99998003 3.9877298 -7.76202 -0.25218457
0.38260525 -2.154931 -2.587711 -0.47384322 0.20273374 -25.525818 -3.8297563 0.2518788
-4.9806366 1.4377546 -0.4260698 -0.4132219 -6.3763595 0.16718455 -1.2958753 2.729739
-0.25762472 1.2954371 -9.949355 3.3815756 -1.305971 -3.2462811 0.1216685 3.7191737
-0.42495993 1.0339111 -3.771445 -0.7469531 0.79701453 3.0835168 -3.5435922 1.0831674
-0.59488255 2.023447 -0.64489824 -4.5705504 1.1418792 -5.5193667 -4.078593 0.96423364
4.452434 1.8177432 0.77677584 -0.52377117 1.6452081 -1.7190514 -4.013915 3.566405
-0.040151406 -0.4868036 1.1917536 0.17307179 -1.7674825 1.173507 -0.03405664 -5.045889
-2.357873 -12.214744 -3.7363503 -1.4239026 -1.7375798 -1.3703476 0.8526228 -0.7168302
-0.4702759 -0.99160826 -3.4154882 -7.4473467 0.38352147 -0.41663128 -2.6332972 1.0047985
3.312959 -1.7590611 -8.104265 -9.074536 -3.0588195 -1.5456474 -0.4081214 3.4276075
-2.0927956 0.6248366 -3.2484505 0.80110174 -0.026139185 0.28722203 -0.093933955 -3.3507097
-0.33439 0.9196531 -1.5999495 0.3181554 0.81558824 -2.4620585 0.89100254 -1.4742004
00000000: b9f2 b0bc 6f00 f83c eacd 8abd e193 93be
00000010: dd21 4d3e 0935 5cbf 2196 71ba 5bfe 0fc0
00000020: 95df 943f fe4f c6bf 615d 4c3c 9f3a c4bf
00000030: 8529 673f 34d5 6d3f 530c 813d 5ddf 1a3e
00000040: 561f d03f b8fc dcbd e9f5 463e 039d 0dc1
00000050: da4e 38c0 163d 9fbf 3788 93c0 da5a 293d
00000060: 90a4 8bbd e2ca 223b 5a8b f6c0 ce9a f13c
00000070: 045b 85bf 9f62 9ec0 86b6 99bf 93c3 50bb
00000080: d4bc 943d d075 a6bf 3620 c53c acc9 a93e
00000090: 4b55 d6bf 46b4 0c3d 6d11 013c 97ab 1fc0
000000a0: 3482 223e 6a0e c8bf 8ac0 b3bc 9a1b ce3f
000000b0: 7fbd 38bd b39e adbe 8a60 80bf 581d 143f
000000c0: 499e 8a3d 70f5 30bf 4861 64be cc2d 7fc0
000000d0: 34ef a8bf ba6f 3c3d fb05 8ebd 4234 99bf
000000e0: 294a 0ac0 7ef2 19c0 8095 903d ad09 6dbf
000000f0: 08be 553c 6ba7 14be 8884 463f 79d4 26bd
00000100: 11b9 96bd 4727 74c0 08c0 5ac0 f538 f3bf
00000110: 7c49 2ebe b4fc 42bc 607d b83d 8467 8b3a
00000120: b0a1 f43d 1893 90bd f62b 2e3d 736c b3bd
00000130: 3987 1a3f 7c9d 7b3f 6a37 f1bf e046 d93c
00000140: 1256 2b3f 429d b0bd 134e 33bf 9aca dcbf
00000150: 37dd b5bf 6b24 c1be 3d43 1abf b0ab 453f
00000160: b23d 333c bdab 2dbd 8d60 55bd f863 5f3f
00000170: f51e b63d 0b49 5abe 223b b43e e8cd 06bf
00000180: 555e a13e ee23 d23e e458 0440 c9a7 00c1
00000190: 35b6 85bb 6095 d9bc d2b3 0cbe d063 f23e
000001a0: 6797 f5bd 74be aa3f f0f7 a0c1 1c0a ccbf
000001b0: a365 15c0 ff08 9cbd 7726 adbc 097f 793d
000001c0: d12d b1bd f6eb 833e 3425 f6bd b4f0 abbf
000001d0: d42c 06bf f832 223d 9a05 96bd 68e2 71c0
000001e0: 5c8a 4fc0 cfa6 c8bd e988 d1bc 0f7c 39bf
000001f0: 301a 8dbd 4c6e 6fbd 59a7 16c0 8d47 29c0
00000200: 3204 3ec0 a978 833f b1d9 833c 3383 2abd
00000210: b79d 21c0 c990 c2bb 5079 10bd 8bea 21bd
00000220: 1335 cc3c 69f4 e8bd 1aaf 813f 3783 43bf
00000230: 883a ffbe 150e 80c0 7d78 753f 512b a0bc
00000240: c56d 0dbd cd79 0640 58c3 acbd a005 09bd
00000250: 773f debb e27c bd3f 1e3a c23d 9633 ff3f
00000260: b2e7 54bf d788 e3bd 9581 a3bf e2d7 c3c0
00000270: b1fe 7fbf f736 7f40 7862 f8c0 561e 81be
00000280: d6e4 c33e 64ea 09c0 0f9d 25c0 949b f2be
00000290: 6f99 4f3e e034 ccc1 ba1a 75c0 42f6 803e
000002a0: 6061 9fc0 5808 b83f d225 dabe d291 d3be
000002b0: 230b ccc0 6d32 2b3e 3edf a5bf 0bb4 2e40
000002c0: 63e7 83be e2d0 a53f 8f30 1fc1 bc6b 5840
000002d0: 0f2a a7bf 12c3 4fc0 562d f93d f106 6e40
000002e0: 5994 d9be 3357 843f 5b5f 71c0 5238 3fbf
000002f0: 2509 4c3f 5758 4540 37ca 62c0 3ba5 8a3f
00000300: 394a 18bf 2880 0140 0d18 25bf f341 92c0
00000310: 1929 923f a79e b0c0 d583 82c0 04d8 763f
00000320: 577a 8e40 cfab e83f c8da 463f de15 06bf
00000330: 2e96 d23f e009 dcbf fe71 80c0 fb3f 6440
00000340: cd75 24bd 523e f9be 628b 983f bb39 313e
00000350: de3c e2bf 7a35 963f fa7e 0bbd ec77 a1c0
00000360: 64e7 16c0 976f 43c1 5d20 6fc0 7142 b6bf
00000370: 0469 debf 8d67 afbf 7d45 5a3f 2f82 37bf
00000380: 01c8 f0be 0ada 7dbf 5c97 5ac0 aa50 eec0
00000390: ed5c c43e b250 d5be f187 28c0 3d9d 803f
000003a0: 8507 5440 ea28 e1bf 12ab 01c1 4d31 11c1
000003b0: b3c3 43c0 c6d7 c5bf 4af5 d0be ec5d 5b40
000003c0: 5df0 05c0 4bf5 1f3f 9de6 4fc0 0115 4d3f
000003d0: d821 d6bc c40e 933e 7260 c0bd 0772 56c0
000003e0: 2b35 abbe 636e 6b3f 25cb ccbf 44e5 a23e
000003f0: 64ca 503f 5e92 1dc0 be18 643f 99b2 bcbf

layer2.bias f4 [100]
-0.8192141 -7.814786 -0.14230771 -2.7498965 -0.051094443 -1.6736227 -0.11541299 -0.18509308
-1.5113024 0.36899698 -1.1113677 5.768003 3.3819091 -1.328094 -1.1455709 -0.342877
0.24407935 -1.7351292 -0.30646172 -0.15487777 -0.0859045 0.40370715 -0.44779512 0.25431725
-0.11031315 -0.17683034 -0.122313954 -2.562944 1.4496505 -0.058689024 -0.7282215 -0.058654852
-4.729867 0.93192863 0.040861953 -0.16783127 -0.4931568 0.92760754 -3.1042454 -0.020328347
3.6177974 -4.525889 -3.983776 -2.0563192 4.4728584 -5.4893365 -0.059785493 -0.13421331
-0.928638 -0.14759138 0.07537113 1.3159763 -6.4045634 -0.12953584 -1.1143507 3.4527295
-0.087895684 -0.080503605 -0.018940974 -0.12838489 0.18476829 -7.7333846 -0.06803188 1.3565364
-5.646539 -4.348388 0.174424 1.6354283 -0.07900238 -2.4836407 -1.1632981 -2.2730587
0.7953436 -0.14221333 0.45866048 -0.6170278 -0.55472195 -4.020766 -0.2507406 2.103168
5.3870635 0.36303452 -0.027412057 -0.07220443 1.642488 1.2862012 -2.6654632 -0.8008102
1.3294395 -3.3328786 -3.1825595 2.5406165 -8.316465 -0.23446113 -0.93323356 -0.08152621
-0.5714144 -0.022473395 0.23173203 -0.85697734
00000000: 04b8 51bf ba12 fac0 1db9 11be 4efe 2fc0
00000010: 6848 51bd 4539 d6bf a55d ecbd 0a89 3dbe
00000020: 5b72 c1bf 2ced bc3e 4c41 8ebf 7b93 b840
00000030: 3371 5840 fcfe a9bf 11a2 92bf 938d afbe
00000040: f0ef 793e b718 debf 8de8 9cbe 4798 1ebe
00000050: b3ee afbd b4b2 ce3e 6745 e5be df35 823e
00000060: dceb e1bd 0313 35be bd7f fabd 4607 24c0
00000070: 268e b93f e763 70bd b96c 3abf 1240 70bd
00000080: 125b 97c0 e092 6e3f dd5e 273d f6db 2bbe
00000090: 0c7f fcbe b077 6d3f f5ab 46c0 a287 a6bc
000000a0: fe89 6740 15d4 90c0 30f6 7ec0 bc9a 03c0
000000b0: a821 8f40 a5a8 afc0 a2e1 74bd 376f 09be
000000c0: 38bb 6dbf 3222 17be 2e5c 9a3d e971 a83f
000000d0: 2ff2 ccc0 0ba5 04be 0ba3 8ebf 85f9 5c40
000000e0: a702 b4bd 13df a4bd 1a2a 9bbc 5477 03be
000000f0: e633 3d3e e377 f7c0 4c54 8bbd fca2 ad3f
00000100: 73b0 b4c0 ff25 8bc0 349c 323e b755 d13f
00000110: 00cc a1bd f8f3 1ec0 f4e6 94bf cb79 11c0
00000120: a39b 4b3f 5fa0 11be 8cd5 ea3e 89f5 1dbf
00000130: 4202 0ebf 1daa 80c0 1261 80be 4e9a 0640
00000140: d362 ac40 a9df b93e 408f e0bc ebdf 93bd
00000150: 0c3d d23f 3ea2 a43f f396 2ac0 e601 4dbf
00000160: 132b aa3f e24d 55c0 0eaf 4bc0 7699 2240
00000170: 3e10 05c1 9416 70be 65e8 6ebf 37f7 a6bd
00000180: 3748 12bf 201a b8bc 294b 6d3e de62 5bbf

layer3.weight f4 [3, 100]
7.440726 7.7445936 0.03327932 5.2188087 -0.05276366 -5.0277247 -0.042988263 -1.2944844
5.8753715 -4.8266006 2.6012845 -7.535748 15.51369 -12.502608 7.02762 -10.771758
-20.773682 10.053832 -3.3812861 -0.080454156 0.058231674 7.017106 -8.083931 -5.1267123
-8.612375 0.02076479 0.029759716 -24.032166 -5.0769253 0.012125125 2.0138547 0.026497897
3.675436 8.090065 -17.370827 -3.2230802 12.728485 1.5699916 6.6539464 -5.919695
6.6341996 1.5037003 8.369065 12.176943 -5.586812 11.288448 0.086733036 -0.0012495933
13.840892 -0.04024854 -5.8914795 16.531315 6.2159877 -0.03525176 -3.5179884 -2.9441087
-0.061826434 14.277189 -8.86128 -0.0067173233 -4.6122236 3.5704453 0.001158034 -6.1274624
2.775363 14.465811 -3.6973248 4.150113 0.025841132 -17.51579 -3.376549 -29.237215
-8.010706 0.011850867 -2.0901859 -6.621571 -3.351971 2.9202468 -4.075488 -7.286095
16.563505 -4.1534104 0.026307402 0.059683394 9.986601 10.931942 5.9340205 -8.343513
6.3175497 8.047905 39.31779 -6.0739846 12.638666 -4.078114 3.6263313 -0.03812013
5.254206 0.069790676 -5.4952145 -3.6339245 7.443486 8.497244 0.021778855 5.9140716
-0.015436472 -5.121898 -0.08445883 -1.3562795 5.7479014 -4.4643483 2.3880286 -7.591874
16.41283 -13.904315 7.201088 -9.471726 -22.121798 10.055355 -3.759388 0.048883427
0.02728568 6.96347 -8.5504675 -5.161036 -7.7473083 0.02324138 -0.014828278 -23.678083
-4.978289 -0.021461567 1.9910907 0.053083926 3.8264332 7.795725 -17.586834 -3.2654922
12.107611 1.5220505 6.8582835 -6.220467 6.6289306 1.5560483 8.474111 10.554776
-5.5628157 11.775918 -0.011978104 -0.009893347 13.853376 0.029377807 -6.0077634 16.28905
6.3691573 -0.045026325 -2.958699 -2.519439 0.00734843 15.266439 -8.384625 -0.056153692
-3.8488917 3.5627363 -0.023694709 -6.2173843 2.7676945 14.649177 -3.3106856 4.0953603
-0.058928445 -17.12029 -3.2695496 -29.156477 -9.324796 0.009032973 -1.9731398 -6.746045
-4.023738 2.9012861 -3.9003904 -7.4556932 16.689713 -4.1331377 -0.0564167 -0.004499461
10.520983 11.01563 6.008569 -8.198872 6.2677083 8.048908 39.62997 -6.017009
12.643798 -4.323407 3.43248 0.03139309 5.0179214 -0.0039310097 -6.0013094 -3.7605278
7.2517805 7.467172 0.051863976 6.4898458 0.029134424 -4.6688166 0.05688925 -1.5485493
5.865504 -5.3927984 3.1802318 -7.4697714 16.21523 -12.724667 7.0609145 -9.162974
-21.323502 10.569011 -3.4579415 0.020809097 -0.040600087 6.9177804 -7.69892 -4.8022656
-7.184651 0.03146747 0.032463294 -24.361496 -5.0734243 -0.03537745 2.326399 0.017904544
4.194873 7.8381476 -17.879293 -3.1663177 12.204931 1.5387707 6.8495154 -6.221781
6.6709886 1.4682045 7.678248 11.0855465 -5.5934787 11.881785 -0.03035416 -0.026999235
13.92962 -0.005404268 -5.2582655 16.861122 5.984892 0.012028501 -3.6271303 -3.067973
00000000: 6d1a ee40 b6d3 f740 e54f 083d 7b00 a740
00000010: b51e 58bd 1fe3 a0c0 7614 30bd aab1 a5bf
00000020: 0b03 bc40 8373 9ac0 727b 2640 d924 f1c0
00000030: 1338 7841 af0a 48c1 43e2 e040 1f59 2cc1
00000040: 8030 a6c1 7fdc 2041 fe66 58c0 26c5 a4bd
00000050: 5684 6e3d 228c e040 c857 01c1 070e a4c0
00000060: 4acc 09c1 ec1a aa3c a6ca f33c e041 c0c1
00000070: 2c76 a2c0 76a8 463c ffe2 0040 1e12 d93c
00000080: 583a 6b40 e870 0141 74f7 8ac1 f246 4ec0
00000090: e0a7 4b41 7cf5 c83f 21ed d440 246e bdc0
000000a0: 5d4b d440 4079 c03f b1e7 0541 c2d4 4241
000000b0: 2ac7 b2c0 7c9d 3441 17a1 b13d 65c9 a3ba
000000c0: 4b74 5d41 a7db 24bd 0087 bcc0 2240 8441
000000d0: 5fe9 c640 2664 10bd b926 61c0 476c 3cc0
000000e0: b73d 7dbd 5e6f 6441 cec7 0dc1 fe1c dcbb
000000f0: 5697 93c0 2d82 6440 2cc9 973a 2c14 c4c0
00000100: 8c9f 3140 f673 6741 f8a0 6cc0 bacd 8440
00000110: c8b0 d33c 5720 8cc1 6119 58c0 d1e5 e9c1
00000120: da2b 00c1 242a 423c 9bc5 05c0 e9e3 d3c0
00000130: b186 56c0 53e5 3a40 666a 82c0 b127 e9c0
00000140: 0f82 8441 bde8 84c0 9f82 d73c 9376 743d
00000150: 1ec9 1f41 3ce9 2e41 7fe3 bd40 077f 05c1
00000160: 5e29 ca40 38c4 0041 6b45 1d42 155e c2c0
00000170: fa37 4a41 e97f 82c0 d015 6840 da23 1cbd
00000180: 7522 a840 6aee 8e3d ccd8 afc0 3892 68c0
00000190: 0a31 ee40 b6f4 0741 9269 b23c 1340 bd40
000001a0: 42e9 7cbc 97e6 a3c0 c0f8 acbd 919a adbf
000001b0: cfee b740 f1db 8ec0 76d5 1840 a2f0 f2c0
000001c0: 7a4d 8341 1378 5ec1 506f e640 318c 17c1
000001d0: 71f9 b0c1 bce2 2041 d099 70c0 fd39 483d
000001e0: 3886 df3c bfd4 de40 b7ce 08c1 3527 a5c0
000001f0: f3e9 f7c0 b564 be3c 4ef2 72bc b76c bdc1
00000200: 254e 9fc0 2bd0 afbc 0fdc fe3f 886e 593d
00000210: 48e4 7440 9476 f940 d6b1 8cc1 d3fd 50c0
00000220: c6b8 4141 8dd2 c23f 0f77 db40 110e c7c0
00000230: 3320 d440 972c c73f f595 0741 5de0 2841
00000240: 9602 b2c0 296a 3c41 cf3f 44bc b417 22bc
00000250: 6ea7 5d41 baa9 f03c 993f c0c0 f94f 8241
00000260: 23d0 cb40 866d 38bd 535b 3dc0 7d3e 21c0
00000270: 19cb f03b 5643 7441 6d27 06c1 6a01 66bd
00000280: 3e54 76c0 df03 6440 681b c2bc d0f4 c6c0
00000290: e821 3140 0763 6a41 46e2 53c0 310d 8340
000002a0: f45e 71bd 5bf6 88c1 4d40 51c0 7740 e9c1
000002b0: 5d32 15c1 09ff 133c d88f fcbf 9adf d7c0
000002c0: 76c2 80c0 acae 3940 ff9f 79c0 0a95 eec0
000002d0: 8884 8541 aa42 84c0 3315 67bd 3770 93bb
000002e0: f255 2841 0540 3041 3246 c040 942e 03c1
000002f0: 1191 c840 54c8 0041 1785 1e42 568b c0c0
00000300: ff4c 4a41 5a59 8ac0 c1ad 5b40 0a96 003d
00000310: d092 a040 b3cf 80bb ba0a c0c0 7dac 70c0
00000320: 960e e840 13f3 ee40 526f 543d d1ac cf40
00000330: 51ab ee3c f266 95c0 b404 693d dd36 c6bf
00000340: 35b2 bb40 ce91 acc0 eb88 4b40 5e08 efc0
00000350: cbb8 8141 3c98 4bc1 03f3 e140 8b9b 12c1
00000360: 8896 aac1 ab1a 2941 ea4e 5dc0 d777 aa3c
00000370: 474c 26bd 755e dd40 8d5d f6c0 29ac 99c0
00000380: a9e8 e5c0 09e4 003d 3bf8 043d 58e4 c2c1
00000390: 7e59 a2c0 f2e7 10bd b9e3 1440 8dac 923c
000003a0: 663c 8640 1bd2 fa40 cb08 8fc1 f3a4 4ac0
000003b0: 6647 4341 70f6 c43f 3b2f db40 d418 c7c0
000003c0: bd78 d540 20ee bb3f 35b4 f540 665e 3141
000003d0: c7fd b2c0 cb1b 3e41 4aa9 f8bc 802d ddbc
000003e0: b9df 5e41 4916 b1bb b643 a8c0 94e3 8641
000003f0: 3c84 bf40 3113 453c e722 68c0 ab59 44c0

layer3.bias f4 [3]
-7.0711985 -7.0626016 -7.0262375
00000000: 4247 e2c0 d500 e2c0 f0d6 e0c0

exp_avg f4 [150, 20]
6e-45 6e-45 6e-45 6e-45 6e-45 6e-45 6e-45 6e-45
-6e-45 -6e-45 -6e-45 -6e-45 6e-45 -6e-45 6e-45 -6e-45
6e-45 6e-45 6e-45 6e-45 6e-45 6e-45 6e-45 6e-45
6e-45 -6e-45 6e-45 -6e-45 6e-45 -6e-45 6e-45 -6e-45
6e-45 6e-45 6e-45 6e-45 6e-45 6e-45 6e-45 -6e-45
6e-45 6e-45 6e-45 6e-45 6e-45 6e-45 6e-45 6e-45
6e-45 6e-45 6e-45 6e-45 6e-45 6e-45 6e-45 6e-45
6e-45 6e-45 6e-45 6e-45 -0.43724844 -0.1655345 -1.390971 -0.07973075
-0.19282193 -0.009608111 -1.3091931 -0.107302405 -0.12415534 0.012451474 -3.407883 -0.014843068
-0.02490117 -0.028543234 -1.8587322 -0.36470318 -8.016418 -4.1540375 -9.756627 -0.087379426
6e-45 6e-45 6e-45 6e-45 6e-45 -6e-45 6e-45 -6e-45
-6e-45 -6e-45 -6e-45 -6e-45 6e-45 6e-45 6e-45 6e-45
-6e-45 6e-45 -6e-45 6e-45 -11.156205 -0.05760344 -52.705936 -2.6089435
-7.0940967 -0.037915878 -59.908607 -3.000594 -1.3796017 -0.28337464 -8.586381 -5.8268228
-1.2781249 5.370188e-05 -11.59023 0.27979073 -25.77912 -8.359112 -281.24008 -186.68452
6e-45 6e-45 6e-45 6e-45 6e-45 6e-45 6e-45 6e-45
6e-45 6e-45 6e-45 6e-45 6e-45 -6e-45 6e-45 -6e-45
6e-45 6e-45 6e-45 -6e-45 6e-45 6e-45 6e-45 6e-45
-6e-45 6e-45 -6e-45 6e-45 6e-45 -6e-45 6e-45 -6e-45
-6e-45 6e-45 -6e-45 6e-45 6e-45 6e-45 6e-45 6e-45
6e-45 -6e-45 6e-45 -6e-45 -6e-45 -6e-45 6e-45 -6e-45
6e-45 -6e-45 6e-45 -6e-45 6e-45 6e-45 6e-45 6e-45
6e-45 -6e-45 6e-45 -6e-45 2.1904547 -0.15776588 26.388006 -2.8308787
0.7628681 -0.05007886 8.039567 -1.7276334 1.3492702 0.0033117754 4.740342 0.096846856
-0.054796994 -0.020676682 2.6255376 0.138997 74.20609 101.851166 23.295773 85.17936
6e-45 6e-45 6e-45 6e-45 6e-45 6e-45 6e-45 6e-45
-6e-45 6e-45 -6e-45 6e-45 6e-45 6e-45 6e-45 6e-45
6e-45 6e-45 6e-45 6e-45 -1.177151 0.04293703 -13.080603 1.3874068
-0.37374228 0.00567513 -6.8760414 1.0114417 -0.84152454 -0.010102154 -4.4307766 -0.23471697
0.020981992 -0.031098329 -1.9652387 -0.08181259 -42.105614 -53.83126 -0.31321862 -59.830555
6e-45 6e-45 6e-45 6e-45 6e-45 6e-45 6e-45 6e-45
6e-45 6e-45 6e-45 6e-45 6e-45 6e-45 6e-45 6e-45
00000000: 0400 0000 0400 0000 0400 0000 0400 0000
00000010: 0400 0000 0400 0000 0400 0000 0400 0000
00000020: 0400 0080 0400 0080 0400 0080 0400 0080
00000030: 0400 0000 0400 0080 0400 0000 0400 0080
00000040: 0400 0000 0400 0000 0400 0000 0400 0000
00000050: 0400 0000 0400 0000 0400 0000 0400 0000
00000060: 0400 0000 0400 0080 0400 0000 0400 0080
00000070: 0400 0000 0400 0080 0400 0000 0400 0080
00000080: 0400 0000 0400 0000 0400 0000 0400 0000
00000090: 0400 0000 0400 0000 0400 0000 0400 0080
000000a0: 0400 0000 0400 0000 0400 0000 0400 0000
000000b0: 0400 0000 0400 0000 0400 0000 0400 0000
000000c0: 0400 0000 0400 0000 0400 0000 0400 0000
000000d0: 0400 0000 0400 0000 0400 0000 0400 0000
000000e0: 0400 0000 0400 0000 0400 0000 0400 0000
000000f0: 07df dfbe e081 29be 560b b2bf e049 a3bd
00000100: 1d73 45be 576b 1dbc a493 a7bf 5dc1 dbbd
00000110: 2845 febd 4401 4c3c c11a 5ac0 5730 73bc
00000120: 8afd cbbc 80d3 e9bc f0ea edbf 60ba babe
00000130: 4043 00c1 e0ed 84c0 251b 1cc1 fcf3 b2bd
00000140: 0400 0000 0400 0000 0400 0000 0400 0000
00000150: 0400 0000 0400 0080 0400 0000 0400 0080
00000160: 0400 0080 0400 0080 0400 0080 0400 0080
00000170: 0400 0000 0400 0000 0400 0000 0400 0000
00000180: 0400 0080 0400 0000 0400 0080 0400 0000
00000190: d17f 32c1 96f1 6bbd e1d2 52c2 eef8 26c0
000001a0: d702 e3c0 ae4d 1bbd 6aa2 6fc2 bb09 40c0
000001b0: ca96 b0bf 7b16 91be d161 09c1 5575 bac0
000001c0: 9999 a3bf f43d 6138 9571 39c1 bb40 8f3e
000001d0: a33b cec1 ecbe 05c1 bb9e 8cc3 3daf 3ac3
000001e0: 0400 0000 0400 0000 0400 0000 0400 0000
000001f0: 0400 0000 0400 0000 0400 0000 0400 0000
00000200: 0400 0000 0400 0000 0400 0000 0400 0000
00000210: 0400 0000 0400 0080 0400 0000 0400 0080
00000220: 0400 0000 0400 0000 0400 0000 0400 0080
00000230: 0400 0000 0400 0000 0400 0000 0400 0000
00000240: 0400 0080 0400 0000 0400 0080 0400 0000
00000250: 0400 0000 0400 0080 0400 0000 0400 0080
00000260: 0400 0080 0400 0000 0400 0080 0400 0000
00000270: 0400 0000 0400 0000 0400 0000 0400 0000
00000280: 0400 0000 0400 0080 0400 0000 0400 0080
00000290: 0400 0080 0400 0080 0400 0000 0400 0080
000002a0: 0400 0000 0400 0080 0400 0000 0400 0080
000002b0: 0400 0000 0400 0000 0400 0000 0400 0000
000002c0: 0400 0000 0400 0080 0400 0000 0400 0080
000002d0: 6930 0c40 618d 21be a31a d341 1e2d 35c0
000002e0: 534b 433f 7e1f 4dbd 11a2 0041 1723 ddbf
000002f0: e3b4 ac3f 5f0a 593b e2b0 9740 a557 c63d
00000300: d072 60bd 2562 a9bc cf08 2840 3b55 0e3e
00000310: 8569 9442 ccb3 cb42 be5d ba41 d55b aa42
00000320: 0400 0000 0400 0000 0400 0000 0400 0000
00000330: 0400 0000 0400 0000 0400 0000 0400 0000
00000340: 0400 0080 0400 0000 0400 0080 0400 0000
00000350: 0400 0000 0400 0000 0400 0000 0400 0000
00000360: 0400 0000 0400 0000 0400 0000 0400 0000
00000370: e2ac 96bf bdde 2f3d 264a 51c1 8c96 b13f
00000380: 265b bfbe 71f6 b93b 8808 dcc0 ec76 813f
00000390: 276e 57bf 8183 25bc ecc8 8dc0 a559 70be
000003a0: 6de2 ab3c ecc1 febc f18c fbbf 5c8d a7bd
000003b0: 266c 28c2 3653 57c2 315e a0be 7d52 6fc2
000003c0: 0400 0000 0400 0000 0400 0000 0400 0000
000003d0: 0400 0000 0400 0000 0400 0000 0400 0000
000003e0: 0400 0000 0400 0000 0400 0000 0400 0000
000003f0: 0400 0000 0400 0000 0400 0000 0400 0000

exp_avg_sq f4 [150, 20]
7e-43 7e-43 7e-43 7e-43 7e-43 7e-43 7e-43 7e-43
7e-43 7e-43 7e-43 7e-43 7e-43 7e-43 7e-43 7e-43
7e-43 7e-43 7e-43 7e-43 7e-43 7e-43 7e-43 7e-43
7e-43 7e-43 7e-43 7e-43 7e-43 7e-43 7e-43 7e-43
7e-43 7e-43 7e-43 7e-43 7e-43 7e-43 7e-43 7e-43
7e-43 7e-43 7e-43 7e-43 7e-43 7e-43 7e-43 7e-43
7e-43 7e-43 7e-43 7e-43 7e-43 7e-43 7e-43 7e-43
7e-43 7e-43 7e-43 7e-43 5.20708 0.52819216 251.61621 40.406857
3.3459709 0.420173 298.20642 17.547367 1.0414784 0.04989505 169.52933 9.639442
1.2906648 0.16582578 243.22086 33.901245 2412.603 2311.381 3115.588 0.09647111
7e-43 7e-43 7e-43 7e-43 7e-43 7e-43 7e-43 7e-43
7e-43 7e-43 7e-43 7e-43 7e-43 7e-43 7e-43 7e-43
7e-43 7e-43 7e-43 7e-43 173.11243 1.8827233 23847.75 1660.604
80.95871 9.886761 11600.308 1126.486 47.71102 3.376603 2804.8333 188.0953
30.584099 1.135231 4068.766 70.505745 15999.778 129594.59 319720.7 155226.34
7e-43 7e-43 7e-43 7e-43 7e-43 7e-43 7e-43 7e-43
7e-43 7e-43 7e-43 7e-43 7e-43 7e-43 7e-43 7e-43
7e-43 7e-43 7e-43 7e-43 7e-43 7e-43 7e-43 7e-43
7e-43 7e-43 7e-43 7e-43 7e-43 7e-43 7e-43 7e-43
7e-43 7e-43 7e-43 7e-43 7e-43 7e-43 7e-43 7e-43
7e-43 7e-43 7e-43 7e-43 7e-43 7e-43 7e-43 7e-43
7e-43 7e-43 7e-43 7e-43 7e-43 7e-43 7e-43 7e-43
7e-43 7e-43 7e-43 7e-43 41.083508 2.1555748 7028.976 804.5262
12.720789 0.76276225 4596.5464 1151.3203 10.310445 0.638588 4479.744 699.9043
6.2142487 0.115259476 2095.1382 84.10902 101100.266 24402.434 7640.969 104995.875
7e-43 7e-43 7e-43 7e-43 7e-43 7e-43 7e-43 7e-43
7e-43 7e-43 7e-43 7e-43 7e-43 7e-43 7e-43 7e-43
7e-43 7e-43 7e-43 7e-43 35.510563 0.79626685 4808.1997 587.2493
18.665062 1.0774866 4665.378 1187.7471 11.4211645 1.2321107 3348.5896 553.9405
25.790636 5.9598646 1597.5436 96.62902 53282.902 22838.398 1.9646122 101596.625
7e-43 7e-43 7e-43 7e-43 7e-43 7e-43 7e-43 7e-43
7e-43 7e-43 7e-43 7e-43 7e-43 7e-43 7e-43 7e-43
00000000: f401 0000 f401 0000 f401 0000 f401 0000
00000010: f401 0000 f401 0000 f401 0000 f401 0000
00000020: f401 0000 f401 0000 f401 0000 f401 0000
00000030: f401 0000 f401 0000 f401 0000 f401 0000
00000040: f401 0000 f401 0000 f401 0000 f401 0000
00000050: f401 0000 f401 0000 f401 0000 f401 0000
00000060: f401 0000 f401 0000 f401 0000 f401 0000
00000070: f401 0000 f401 0000 f401 0000 f401 0000
00000080: f401 0000 f401 0000 f401 0000 f401 0000
00000090: f401 0000 f401 0000 f401 0000 f401 0000
000000a0: f401 0000 f401 0000 f401 0000 f401 0000
000000b0: f401 0000 f401 0000 f401 0000 f401 0000
000000c0: f401 0000 f401 0000 f401 0000 f401 0000
000000d0: f401 0000 f401 0000 f401 0000 f401 0000
000000e0: f401 0000 f401 0000 f401 0000 f401 0000
000000f0: 66a0 a640 9a37 073f c09d 7b43 9fa0 2142
00000100: 6324 5640 ea20 d73e 6c1a 9543 0261 8c41
00000110: 2a4f 853f c05e 4c3d 8287 2943 283b 1a41
00000120: 8134 a53f 3cce 293e 8a38 7343 e09a 0742
00000130: a6c9 1645 1976 1045 68b9 4245 a592 c53d
00000140: f401 0000 f401 0000 f401 0000 f401 0000
00000150: f401 0000 f401 0000 f401 0000 f401 0000
00000160: f401 0000 f401 0000 f401 0000 f401 0000
00000170: f401 0000 f401 0000 f401 0000 f401 0000
00000180: f401 0000 f401 0000 f401 0000 f401 0000
00000190: c81c 2d43 14fd f03f 804f ba46 5493 cf44
000001a0: dcea a142 2c30 1e41 3b41 3546 8dcf 8c44
000001b0: 16d8 3e42 431a 5840 554d 2f45 6618 3c43
000001c0: 3cac f441 404f 913f 424c 7e45 f102 8d42
000001d0: 1dff 7946 4c1d fd47 161d 9c48 9696 1748
000001e0: f401 0000 f401 0000 f401 0000 f401 0000
000001f0: f401 0000 f401 0000 f401 0000 f401 0000
00000200: f401 0000 f401 0000 f401 0000 f401 0000
00000210: f401 0000 f401 0000 f401 0000 f401 0000
00000220: f401 0000 f401 0000 f401 0000 f401 0000
00000230: f401 0000 f401 0000 f401 0000 f401 0000
00000240: f401 0000 f401 0000 f401 0000 f401 0000
00000250: f401 0000 f401 0000 f401 0000 f401 0000
00000260: f401 0000 f401 0000 f401 0000 f401 0000
00000270: f401 0000 f401 0000 f401 0000 f401 0000
00000280: f401 0000 f401 0000 f401 0000 f401 0000
00000290: f401 0000 f401 0000 f401 0000 f401 0000
000002a0: f401 0000 f401 0000 f401 0000 f401 0000
000002b0: f401 0000 f401 0000 f401 0000 f401 0000
000002c0: f401 0000 f401 0000 f401 0000 f401 0000
000002d0: 8355 2442 f0f4 0940 cfa7 db45 ad21 4944
000002e0: 5a88 4b41 6344 433f 5fa4 8f45 40ea 8f44
000002f0: 95f7 2441 817a 233f f4fd 8b45 e0f9 2e44
00000300: 20db c640 290d ec3d 36f2 0245 d137 a842
00000310: 2276 c547 dea4 be46 c1c7 ee45 f011 cd47
00000320: f401 0000 f401 0000 f401 0000 f401 0000
00000330: f401 0000 f401 0000 f401 0000 f401 0000
00000340: f401 0000 f401 0000 f401 0000 f401 0000
00000350: f401 0000 f401 0000 f401 0000 f401 0000
00000360: f401 0000 f401 0000 f401 0000 f401 0000
00000370: d10a 0e42 25d8 4b3f 9941 9645 f5cf 1244
00000380: 0c52 9541 15eb 893f 06cb 9145 e877 9444
00000390: 17bd 3641 ceb5 9d3f 6f49 5145 317c 0a44
000003a0: 3953 ce41 36b7 be40 65b1 c744 0f42 c142
000003b0: e722 5047 cc6c b246 6a78 fb3f 506e c647
000003c0: f401 0000 f401 0000 f401 0000 f401 0000
000003d0: f401 0000 f401 0000 f401 0000 f401 0000
000003e0: f401 0000 f401 0000 f401 0000 f401 0000
000003f0: f401 0000 f401 0000 f401 0000 f401 0000

exp_avg f4 [150]
6e-45 6e-45 6e-45 -4.5150833 6e-45 -92.98915 6e-45 6e-45
6e-45 30.355295 6e-45 -19.288422 6e-45 6e-45 6e-45 244.1174
6e-45 6e-45 -1.8783628 24.158998 6e-45 6e-45 2.281462 6e-45
6e-45 6e-45 -17.381905 6e-45 4.9972343 6e-45 6e-45 6e-45
6e-45 6e-45 6e-45 -0.1794297 0.5019227 6e-45 6e-45 6e-45
6e-45 6e-45 6e-45 -34.657253 6e-45 -2.2134404 6e-45 0.001948266
3.036705 6e-45 6e-45 6e-45 6e-45 6e-45 6e-45 6e-45
6e-45 -2.086096 0.0 6e-45 6e-45 6e-45 -0.16096534 6e-45
6e-45 -0.42641088 -50.094788 -3.8316824 6e-45 6e-45 6e-45 6e-45
6e-45 6e-45 6e-45 -5.2684608 6e-45 -113.31232 6e-45 6e-45
6e-45 6e-45 -1.6377733 1.5777589 -2.7096112 2.1395617 -3.8449326 6e-45
6e-45 6e-45 6e-45 6e-45 -0.16107383 6e-45 62.914043 6e-45
0.14189546 6e-45 6e-45 1.6991562 6e-45 6e-45 0.159026 6e-45
6e-45 6e-45 -4.4822235 93.08861 6e-45 -429.39764 6e-45 6e-45
6e-45 6e-45 6e-45 6e-45 6e-45 6e-45 6e-45 4.163156
6e-45 6e-45 6e-45 6e-45 6e-45 6e-45 6e-45 6e-45
-3.0268302 6e-45 6e-45 6e-45 6e-45 6e-45 6e-45 6e-45
6e-45 6e-45 -0.3833924 6e-45 1.975759 6e-45 6e-45 6e-45
6e-45 13.618418 6e-45 4.1972783e-07 6e-45 0.69723034
00000000: 0400 0000 0400 0000 0400 0000 907b 90c0
00000010: 0400 0000 72fa b9c2 0400 0000 0400 0000
00000020: 0400 0000 a5d7 f241 0400 0000 b04e 9ac1
00000030: 0400 0000 0400 0000 0400 0000 0e1e 7443
00000040: 0400 0000 0400 0000 316e f0bf a145 c141
00000050: 0400 0000 0400 0000 7903 1240 0400 0000
00000060: 0400 0000 0400 0000 240e 8bc1 0400 0000
00000070: 58e9 9f40 0400 0000 0400 0000 0400 0000
00000080: 0400 0000 0400 0000 0400 0000 6bbc 37be
00000090: 027e 003f 0400 0000 0400 0000 0400 0000
000000a0: 0400 0000 0400 0000 0400 0000 07a1 0ac2
000000b0: 0400 0000 02a9 0dc0 0400 0000 f65c ff3a
000000c0: 6059 4240 0400 0000 0400 0000 0400 0000
000000d0: 0400 0000 0400 0000 0400 0000 0400 0000
000000e0: 0400 0000 9982 05c0 0000 0000 0400 0000
000000f0: 0400 0000 0400 0000 19d4 24be 0400 0000
00000100: 0400 0000 8752 dabe 1061 48c2 493a 75c0
00000110: 0400 0000 0400 0000 0400 0000 0400 0000
00000120: 0400 0000 0400 0000 0400 0000 3b97 a8c0
00000130: 0400 0000 e89f e2c2 0400 0000 0400 0000
00000140: 0400 0000 0400 0000 8ea2 d1bf 01f4 c93f
00000150: 456a 2dc0 94ee 0840 6013 76c0 0400 0000
00000160: 0400 0000 0400 0000 0400 0000 0400 0000
00000170: 8af0 24be 0400 0000 fba7 7b42 0400 0000
00000180: 0b4d 113e 0400 0000 0400 0000 f37d d93f
00000190: 0400 0000 0400 0000 b6d7 223e 0400 0000
000001a0: 0400 0000 0400 0000 606e 8fc0 5e2d ba42
000001b0: 0400 0000 e6b2 d6c3 0400 0000 0400 0000
000001c0: 0400 0000 0400 0000 0400 0000 0400 0000
000001d0: 0400 0000 0400 0000 0400 0000 9338 8540
000001e0: 0400 0000 0400 0000 0400 0000 0400 0000
000001f0: 0400 0000 0400 0000 0400 0000 0400 0000
00000200: 96b7 41c0 0400 0000 0400 0000 0400 0000
00000210: 0400 0000 0400 0000 0400 0000 0400 0000
00000220: 0400 0000 0400 0000 024c c4be 0400 0000
00000230: ace5 fc3f 0400 0000 0400 0000 0400 0000
00000240: 0400 0000 0ae5 5941 0400 0000 f456 e134
00000250: 0400 0000 b07d 323f

exp_avg_sq f4 [150]
7e-43 7e-43 7e-43 786.75555 7e-43 38603.0 7e-43 7e-43
7e-43 13674.402 7e-43 11558.835 7e-43 7e-43 7e-43 277172.22
7e-43 7e-43 176.18845 7877.45 7e-43 7e-43 1652.3069 7e-43
7e-43 7e-43 45537.992 7e-43 1251.6469 7e-43 7e-43 7e-43
7e-43 7e-43 7e-43 276.05066 214.881 7e-43 4.42124e-13 7e-43
7e-43 7e-43 7e-43 22320.443 7e-43 265.49658 7e-43 11082.845
902.449 7e-43 7e-43 7e-43 7e-43 7e-43 7e-43 7e-43
7e-43 121.47365 0.0 7e-43 7e-43 7e-43 183.12816 7e-43
7e-43 1921.956 6426.5576 92804.25 7e-43 7e-43 7e-43 7e-43
7e-43 7e-43 7e-43 947.616 7e-43 94680.43 7e-43 7e-43
7e-43 7e-43 306.12854 3226.812 443.967 84.397224 539.3177 7e-43
7e-43 7e-43 7e-43 7e-43 672.5913 7e-43 4113.992 7e-43
37.26888 7e-43 7e-43 719.75995 7e-43 7e-43 1551.1157 7e-43
7e-43 0.00022396007 4352.535 31402.506 7e-43 1.3021722e+06 7e-43 7e-43
7e-43 7e-43 7e-43 7e-43 7e-43 7e-43 7e-43 2787.1946
7e-43 7e-43 7e-43 7e-43 7e-43 7e-43 7e-43 7e-43
975.96075 7e-43 7e-43 7e-43 7e-43 7e-43 7e-43 7e-43
7e-43 7e-43 6.1425395 7e-43 142.80733 7e-43 7e-43 7e-43
7e-43 3080.8035 7e-43 26.13671 7e-43 392.30646
00000000: f401 0000 f401 0000 f401 0000 5bb0 4444
00000010: f401 0000 00cb 1647 f401 0000 f401 0000
00000020: f401 0000 9ca9 5546 f401 0000 579b 3446
00000030: f401 0000 f401 0000 f401 0000 8756 8748
00000040: f401 0000 f401 0000 3e30 3043 9a2b f645
00000050: f401 0000 f401 0000 d289 ce44 f401 0000
00000060: f401 0000 f401 0000 fee1 3147 f401 0000
00000070: b374 9c44 f401 0000 f401 0000 f401 0000
00000080: f401 0000 f401 0000 f401 0000 7c06 8a43
00000090: 89e1 5643 f401 0000 c9e4 f82a f401 0000
000000a0: f401 0000 f401 0000 f401 0000 e360 ae46
000000b0: f401 0000 90bf 8443 f401 0000 612b 2d46
000000c0: bc9c 6144 f401 0000 f401 0000 f401 0000
000000d0: f401 0000 f401 0000 f401 0000 f401 0000
000000e0: f401 0000 82f2 f242 0000 0000 f401 0000
000000f0: f401 0000 f401 0000 cf20 3743 f401 0000
00000100: f401 0000 983e f044 76d4 c845 2042 b547
00000110: f401 0000 f401 0000 f401 0000 f401 0000
00000120: f401 0000 f401 0000 f401 0000 6de7 6c44
00000130: f401 0000 37ec b847 f401 0000 f401 0000
00000140: f401 0000 f401 0000 7410 9943 feac 4945
00000150: c7fb dd43 61cb a842 55d4 0644 f401 0000
00000160: f401 0000 f401 0000 f401 0000 f401 0000
00000170: d825 2844 f401 0000 f08f 8045 f401 0000
00000180: 5513 1542 f401 0000 f401 0000 a3f0 3344
00000190: f401 0000 f401 0000 b4e3 c144 f401 0000
000001a0: f401 0000 d3d6 6a39 4804 8845 0355 f546
000001b0: f401 0000 e2f4 9e49 f401 0000 f401 0000
000001c0: f401 0000 f401 0000 f401 0000 f401 0000
000001d0: f401 0000 f401 0000 f401 0000 1d33 2e45
000001e0: f401 0000 f401 0000 f401 0000 f401 0000
000001f0: f401 0000 f401 0000 f401 0000 f401 0000
00000200: 7dfd 7344 f401 0000 f401 0000 f401 0000
00000210: f401 0000 f401 0000 f401 0000 f401 0000
00000220: f401 0000 f401 0000 af8f c440 f401 0000
00000230: adce 0e43 f401 0000 f401 0000 f401 0000
00000240: f401 0000 db8c 4045 f401 0000 fb17 d141
00000250: f401 0000 3a27 c443

exp_avg f4 [100, 150]
6e-45 6e-45 6e-45 6e-45 6e-45 6e-45 -6e-45 -6e-45
-6e-45 -6e-45 6e-45 6e-45 6e-45 -6e-45 6e-45 6e-45
6e-45 6e-45 6e-45 -6e-45 6e-45 6e-45 -6e-45 6e-45
6e-45 6e-45 -6e-45 6e-45 -6e-45 -6e-45 -6e-45 6e-45
-6e-45 -6e-45 6e-45 6e-45 -6e-45 6e-45 6e-45 6e-45
-6e-45 6e-45 6e-45 6e-45 6e-45 6e-45 6e-45 -6e-45
6e-45 6e-45 -6e-45 -6e-45 6e-45 6e-45 0.0 6e-45
-6e-45 6e-45 0.0 6e-45 6e-45 -6e-45 6e-45 6e-45
0.0 6e-45 -6e-45 -6e-45 6e-45 6e-45 6e-45 6e-45
-6e-45 6e-45 0.0 6e-45 6e-45 6e-45 6e-45 6e-45
-6e-45 6e-45 6e-45 6e-45 6e-45 6e-45 6e-45 6e-45
6e-45 6e-45 6e-45 -6e-45 6e-45 6e-45 6e-45 6e-45
6e-45 -6e-45 6e-45 -6e-45 6e-45 6e-45 6e-45 6e-45
-6e-45 6e-45 6e-45 6e-45 6e-45 6e-45 -6e-45 6e-45
6e-45 -6e-45 6e-45 -6e-45 6e-45 6e-45 0.0 -6e-45
-6e-45 6e-45 0.0 6e-45 6e-45 0.0 6e-45 6e-45
6e-45 6e-45 6e-45 6e-45 6e-45 6e-45 6e-45 6e-45
6e-45 -6e-45 6e-45 6e-45 -6e-45 6e-45 6e-45 6e-45
6e-45 6e-45 6e-45 6e-45 -6e-45 6e-45 -6e-45 6e-45
-6e-45 -6e-45 -6e-45 -6e-45 -6e-45 6e-45 6e-45 6e-45
-6e-45 6e-45 -6e-45 6e-45 6e-45 -6e-45 -6e-45 6e-45
-6e-45 6e-45 6e-45 6e-45 -6e-45 -6e-45 -6e-45 6e-45
6e-45 6e-45 6e-45 6e-45 -6e-45 -6e-45 -6e-45 -6e-45
-6e-45 -6e-45 6e-45 -6e-45 6e-45 6e-45 6e-45 -6e-45
-6e-45 6e-45 -6e-45 -6e-45 -6e-45 -6e-45 6e-45 6e-45
6e-45 6e-45 -6e-45 -6e-45 -6e-45 -6e-45 -6e-45 -6e-45
0.0 -6e-45 6e-45 -6e-45 6e-45 6e-45 -6e-45 6e-45
6e-45 6e-45 6e-45 -6e-45 -6e-45 -6e-45 -6e-45 6e-45
-6e-45 6e-45 -6e-45 -6e-45 -6e-45 -6e-45 -6e-45 -6e-45
-6e-45 6e-45 -6e-45 6e-45 6e-45 -6e-45 6e-45 6e-45
-6e-45 -6e-45 6e-45 -6e-45 -6e-45 6e-45 -6e-45 6e-45
6e-45 -6e-45 -6e-45 6e-45 -6e-45 -6e-45 -6e-45 6e-45
00000000: 0400 0000 0400 0000 0400 0000 0400 0000
00000010: 0400 0000 0400 0000 0400 0080 0400 0080
00000020: 0400 0080 0400 0080 0400 0000 0400 0000
00000030: 0400 0000 0400 0080 0400 0000 0400 0000
00000040: 0400 0000 0400 0000 0400 0000 0400 0080
00000050: 0400 0000 0400 0000 0400 0080 0400 0000
00000060: 0400 0000 0400 0000 0400 0080 0400 0000
00000070: 0400 0080 0400 0080 0400 0080 0400 0000
00000080: 0400 0080 0400 0080 0400 0000 0400 0000
00000090: 0400 0080 0400 0000 0400 0000 0400 0000
000000a0: 0400 0080 0400 0000 0400 0000 0400 0000
000000b0: 0400 0000 0400 0000 0400 0000 0400 0080
000000c0: 0400 0000 0400 0000 0400 0080 0400 0080
000000d0: 0400 0000 0400 0000 0000 0000 0400 0000
000000e0: 0400 0080 0400 0000 0000 0000 0400 0000
000000f0: 0400 0000 0400 0080 0400 0000 0400 0000
00000100: 0000 0000 0400 0000 0400 0080 0400 0080
00000110: 0400 0000 0400 0000 0400 0000 0400 0000
00000120: 0400 0080 0400 0000 0000 0000 0400 0000
00000130: 0400 0000 0400 0000 0400 0000 0400 0000
00000140: 0400 0080 0400 0000 0400 0000 0400 0000
00000150: 0400 0000 0400 0000 0400 0000 0400 0000
00000160: 0400 0000 0400 0000 0400 0000 0400 0080
00000170: 0400 0000 0400 0000 0400 0000 0400 0000
00000180: 0400 0000 0400 0080 0400 0000 0400 0080
00000190: 0400 0000 0400 0000 0400 0000 0400 0000
000001a0: 0400 0080 0400 0000 0400 0000 0400 0000
000001b0: 0400 0000 0400 0000 0400 0080 0400 0000
000001c0: 0400 0000 0400 0080 0400 0000 0400 0080
000001d0: 0400 0000 0400 0000 0000 0000 0400 0080
000001e0: 0400 0080 0400 0000 0000 0000 0400 0000
000001f0: 0400 0000 0000 0000 0400 0000 0400 0000
00000200: 0400 0000 0400 0000 0400 0000 0400 0000
00000210: 0400 0000 0400 0000 0400 0000 0400 0000
00000220: 0400 0000 0400 0080 0400 0000 0400 0000
00000230: 0400 0080 0400 0000 0400 0000 0400 0000
00000240: 0400 0000 0400 0000 0400 0000 0400 0000
00000250: 0400 0080 0400 0000 0400 0080 0400 0000
00000260: 0400 0080 0400 0080 0400 0080 0400 0080
00000270: 0400 0080 0400 0000 0400 0000 0400 0000
00000280: 0400 0080 0400 0000 0400 0080 0400 0000
00000290: 0400 0000 0400 0080 0400 0080 0400 0000
000002a0: 0400 0080 0400 0000 0400 0000 0400 0000
000002b0: 0400 0080 0400 0080 0400 0080 0400 0000
000002c0: 0400 0000 0400 0000 0400 0000 0400 0000
000002d0: 0400 0080 0400 0080 0400 0080 0400 0080
000002e0: 0400 0080 0400 0080 0400 0000 0400 0080
000002f0: 0400 0000 0400 0000 0400 0000 0400 0080
00000300: 0400 0080 0400 0000 0400 0080 0400 0080
00000310: 0400 0080 0400 0080 0400 0000 0400 0000
00000320: 0400 0000 0400 0000 0400 0080 0400 0080
00000330: 0400 0080 0400 0080 0400 0080 0400 0080
00000340: 0000 0000 0400 0080 0400 0000 0400 0080
00000350: 0400 0000 0400 0000 0400 0080 0400 0000
00000360: 0400 0000 0400 0000 0400 0000 0400 0080
00000370: 0400 0080 0400 0080 0400 0080 0400 0000
00000380: 0400 0080 0400 0000 0400 0080 0400 0080
00000390: 0400 0080 0400 0080 0400 0080 0400 0080
000003a0: 0400 0080 0400 0000 0400 0080 0400 0000
000003b0: 0400 0000 0400 0080 0400 0000 0400 0000
000003c0: 0400 0080 0400 0080 0400 0000 0400 0080
000003d0: 0400 0080 0400 0000 0400 0080 0400 0000
000003e0: 0400 0000 0400 0080 0400 0080 0400 0000
000003f0: 0400 0080 0400 0080 0400 0080 0400 0000

exp_avg_sq f4 [100, 150]
7e-43 7e-43 7e-43 7e-43 7e-43 7e-43 7e-43 7e-43
7e-43 7e-43 7e-43 7e-43 7e-43 7e-43 7e-43 7e-43
7e-43 7e-43 7e-43 7e-43 7e-43 7e-43 7e-43 7e-43
7e-43 7e-43 7e-43 7e-43 7e-43 7e-43 7e-43 7e-43
7e-43 7e-43 7e-43 7e-43 7e-43 7e-43 7e-43 7e-43
7e-43 7e-43 7e-43 7e-43 7e-43 7e-43 7e-43 7e-43
7e-43 7e-43 7e-43 7e-43 7e-43 7e-43 0.0 7e-43
7e-43 7e-43 0.0 7e-43 7e-43 7e-43 7e-43 7e-43
0.0 7e-43 7e-43 7e-43 7e-43 7e-43 7e-43 7e-43
7e-43 7e-43 0.0 7e-43 7e-43 7e-43 7e-43 7e-43
7e-43 7e-43 7e-43 7e-43 7e-43 7e-43 7e-43 7e-43
7e-43 7e-43 7e-43 7e-43 7e-43 7e-43 7e-43 7e-43
7e-43 7e-43 7e-43 7e-43 7e-43 7e-43 7e-43 7e-43
7e-43 7e-43 7e-43 7e-43 7e-43 7e-43 7e-43 7e-43
7e-43 7e-43 7e-43 7e-43 7e-43 7e-43 0.0 7e-43
7e-43 7e-43 0.0 7e-43 7e-43 0.0 7e-43 7e-43
7e-43 7e-43 7e-43 7e-43 7e-43 7e-43 7e-43 7e-43
7e-43 7e-43 7e-43 7e-43 7e-43 7e-43 7e-43 7e-43
7e-43 7e-43 7e-43 7e-43 7e-43 7e-43 7e-43 7e-43
7e-43 7e-43 7e-43 7e-43 7e-43 7e-43 7e-43 7e-43
7e-43 7e-43 7e-43 7e-43 7e-43 7e-43 7e-43 7e-43
7e-43 7e-43 7e-43 7e-43 7e-43 7e-43 7e-43 7e-43
7e-43 7e-43 7e-43 7e-43 7e-43 7e-43 7e-43 7e-43
7e-43 7e-43 7e-43 7e-43 7e-43 7e-43 7e-43 7e-43
7e-43 7e-43 7e-43 7e-43 7e-43 7e-43 7e-43 7e-43
7e-43 7e-43 7e-43 7e-43 7e-43 7e-43 7e-43 7e-43
0.0 7e-43 7e-43 7e-43 7e-43 7e-43 7e-43 7e-43
7e-43 7e-43 7e-43 7e-43 7e-43 7e-43 7e-43 7e-43
7e-43 7e-43 7e-43 7e-43 7e-43 7e-43 7e-43 7e-43
7e-43 7e-43 7e-43 7e-43 7e-43 7e-43 7e-43 7e-43
7e-43 7e-43 7e-43 7e-43 7e-43 7e-43 7e-43 7e-43
7e-43 7e-43 7e-43 7e-43 7e-43 7e-43 7e-43 7e-43
00000000: f401 0000 f401 0000 f401 0000 f401 0000
00000010: f401 0000 f401 0000 f401 0000 f401 0000
00000020: f401 0000 f401 0000 f401 0000 f401 0000
00000030: f401 0000 f401 0000 f401 0000 f401 0000
00000040: f401 0000 f401 0000 f401 0000 f401 0000
00000050: f401 0000 f401 0000 f401 0000 f401 0000
00000060: f401 0000 f401 0000 f401 0000 f401 0000
00000070: f401 0000 f401 0000 f401 0000 f401 0000
00000080: f401 0000 f401 0000 f401 0000 f401 0000
00000090: f401 0000 f401 0000 f401 0000 f401 0000
000000a0: f401 0000 f401 0000 f401 0000 f401 0000
000000b0: f401 0000 f401 0000 f401 0000 f401 0000
000000c0: f401 0000 f401 0000 f401 0000 f401 0000
000000d0: f401 0000 f401 0000 0000 0000 f401 0000
000000e0: f401 0000 f401 0000 0000 0000 f401 0000
000000f0: f401 0000 f401 0000 f401 0000 f401 0000
00000100: 0000 0000 f401 0000 f401 0000 f401 0000
00000110: f401 0000 f401 0000 f401 0000 f401 0000
00000120: f401 0000 f401 0000 0000 0000 f401 0000
00000130: f401 0000 f401 0000 f401 0000 f401 0000
00000140: f401 0000 f401 0000 f401 0000 f401 0000
00000150: f401 0000 f401 0000 f401 0000 f401 0000
00000160: f401 0000 f401 0000 f401 0000 f401 0000
00000170: f401 0000 f401 0000 f401 0000 f401 0000
00000180: f401 0000 f401 0000 f401 0000 f401 0000
00000190: f401 0000 f401 0000 f401 0000 f401 0000
000001a0: f401 0000 f401 0000 f401 0000 f401 0000
000001b0: f401 0000 f401 0000 f401 0000 f401 0000
000001c0: f401 0000 f401 0000 f401 0000 f401 0000
000001d0: f401 0000 f401 0000 0000 0000 f401 0000
000001e0: f401 0000 f401 0000 0000 0000 f401 0000
000001f0: f401 0000 0000 0000 f401 0000 f401 0000
00000200: f401 0000 f401 0000 f401 0000 f401 0000
00000210: f401 0000 f401 0000 f401 0000 f401 0000
00000220: f401 0000 f401 0000 f401 0000 f401 0000
00000230: f401 0000 f401 0000 f401 0000 f401 0000
00000240: f401 0000 f401 0000 f401 0000 f401 0000
00000250: f401 0000 f401 0000 f401 0000 f401 0000
00000260: f401 0000 f401 0000 f401 0000 f401 0000
00000270: f401 0000 f401 0000 f401 0000 f401 0000
00000280: f401 0000 f401 0000 f401 0000 f401 0000
00000290: f401 0000 f401 0000 f401 0000 f401 0000
000002a0: f401 0000 f401 0000 f401 0000 f401 0000
000002b0: f401 0000 f401 0000 f401 0000 f401 0000
000002c0: f401 0000 f401 0000 f401 0000 f401 0000
000002d0: f401 0000 f401 0000 f401 0000 f401 0000
000002e0: f401 0000 f401 0000 f401 0000 f401 0000
000002f0: f401 0000 f401 0000 f401 0000 f401 0000
00000300: f401 0000 f401 0000 f401 0000 f401 0000
00000310: f401 0000 f401 0000 f401 0000 f401 0000
00000320: f401 0000 f401 0000 f401 0000 f401 0000
00000330: f401 0000 f401 0000 f401 0000 f401 0000
00000340: 0000 0000 f401 0000 f401 0000 f401 0000
00000350: f401 0000 f401 0000 f401 0000 f401 0000
00000360: f401 0000 f401 0000 f401 0000 f401 0000
00000370: f401 0000 f401 0000 f401 0000 f401 0000
00000380: f401 0000 f401 0000 f401 0000 f401 0000
00000390: f401 0000 f401 0000 f401 0000 f401 0000
000003a0: f401 0000 f401 0000 f401 0000 f401 0000
000003b0: f401 0000 f401 0000 f401 0000 f401 0000
000003c0: f401 0000 f401 0000 f401 0000 f401 0000
000003d0: f401 0000 f401 0000 f401 0000 f401 0000
000003e0: f401 0000 f401 0000 f401 0000 f401 0000
000003f0: f401 0000 f401 0000 f401 0000 f401 0000
