checkpoints/dqn/checkpoint_ep16.pth (torch, 230155 bytes, 18 tensors)

layer1.weight f4 [150, 20]
000000 73 6b ab 3c e5 89 5b be a3 2d 00 be a4 ce 54 3e
       0.02092526 -0.21439321 -0.12517409 0.20781952
000010 94 54 d0 be 99 75 d9 be b9 ab 0a bd 50 0d 0f be
       -0.40689528 -0.42472532 -0.033855174 -0.13969922
000020 15 bc 66 bd b5 78 f6 3e 58 66 bb be 7f e5 fe be
       -0.056331713 0.48138967 -0.3660152 -0.49784467
000030 3d 59 b8 3e 41 59 33 bf d3 44 8e 3e ae 77 df be
       0.36005583 -0.70058066 0.27786884 -0.43645996
000040 59 c1 61 3e 60 af 88 3c 4c 25 ca bd b8 60 ef bc
       0.22046413 0.016685188 -0.09870395 -0.029220924
000050 13 65 ea 3d ff 95 c4 be 41 d9 80 3e 71 39 88 be
       0.114450596 -0.38395688 0.25165752 -0.26606324
000060 a2 f6 a9 be ff d5 49 bf b1 e2 58 be 27 43 0e bf
       -0.33195978 -0.7884216 -0.21180226 -0.55571216
000070 e2 9f de be 8f 25 76 be 7d a3 86 be 1f 54 98 3b
       -0.43481356 -0.24037765 -0.26296607 0.0046487
000080 41 7e 38 bd 9c 4e 5b 3d b1 f6 24 3e a4 cc 11 3e
       -0.04504228 0.053541765 0.1610973 0.1423822
000090 f6 50 d6 3c e9 e1 52 be eb d3 c1 be 7f d0 14 bd
       0.026161652 -0.2059399 -0.37856993 -0.03633165
0000a0 01 09 15 3e 04 7c 23 be 66 a2 5e 3e 5c 9e a4 be
       0.14554216 -0.15965277 0.21741638 -0.3215207
0000b0 bf 73 01 bf 82 87 ff bd 82 e9 a7 be 6e 9c b9 bd
       -0.5056724 -0.12477018 -0.3279534 -0.0906304
0000c0 bc bd 63 be a5 6b fb be d0 74 06 3d 1b 15 27 be
       -0.22240347 -0.49105564 0.032826245 -0.16316645
0000d0 25 d7 eb 3d 2f 41 31 3d fa 31 6f bd ed f6 25 3e
       0.11515645 0.043275055 -0.05839727 0.16207476
0000e0 f5 f0 37 3d 56 28 e3 bc 29 67 67 3e c5 d5 bf bd
       0.04490753 -0.027729195 0.22597946 -0.09366945
0000f0 7b 20 f2 bd bd f8 11 be eb cf 3a 3e 25 59 08 3e
       -0.118226014 -0.14255042 0.18243377 0.13315256
000100 76 98 b1 3d b1 62 3b be 2b d5 c9 bd 61 74 18 bd
       0.08671658 -0.18299367 -0.09855112 -0.037220363
000110 0f 61 b3 bd f2 f9 89 3e f6 13 ca bd 05 80 43 be
       -0.08758747 0.26948506 -0.098670885 -0.19091804
000120 30 97 ac be ea 3b 16 be 37 10 6c be d1 3a fa bd
       -0.33709097 -0.14671293 -0.2305306 -0.122182496
000130 f5 0c 08 bf 07 4e 23 be 61 38 ca bd 39 b3 65 bd
       -0.5314477 -0.15947734 -0.09874035 -0.056079123
000140 a3 07 a8 3e c9 0d 15 bf bc 47 04 3d db 5b d6 3d
       0.32818326 -0.5822416 0.032294974 0.10466739
000150 80 c1 dc be 14 88 a9 bd 11 10 b0 bd 17 7e 68 bd
       -0.4311638 -0.08277908 -0.085968144 -0.056760874
000160 70 88 cf be 96 cf 51 be 68 13 19 3d 3c 82 45 be
       -0.4053378 -0.20489344 0.037372023 -0.19287962
000170 65 2a c0 be 76 3e 69 bd 9c 01 1c 3c a7 8e d6 3d
       -0.37532344 -0.056944333 0.009521868 0.104764275
000180 fa 0b 00 3e be 4f e3 bd e8 fc 39 3e f0 7c 29 3e
       0.12504569 -0.11099194 0.18162882 0.16551566
000190 e0 f5 11 be 64 75 5b bc e8 cd 89 3d 4c 99 5d 3e
       -0.1425395 -0.013394687 0.067287266 0.2164051
0001a0 28 87 dc bd 15 3b 11 be 99 31 3d 3d 3f 4a 93 be
       -0.107679665 -0.14182694 0.046189878 -0.28767583
0001b0 2b c5 f7 bd 17 81 83 3e bb a2 44 be 8c 52 93 bd
       -0.12098154 0.25684425 -0.19202702 -0.07193479
0001c0 57 3e 81 3d 4a 6a e6 bc ac f0 cd bd d2 fe 34 3e
       0.063107185 -0.028126854 -0.1005567 0.17675331
0001d0 b8 27 ab be 07 53 9e bd b6 af 29 bd a7 98 0a 3e
       -0.3342874 -0.0773068 -0.041427337 0.13534795
0001e0 dd 4c 00 3d 3f 6c c0 3d 7e 1f dc bd e0 8b 97 3d
       0.031323303 0.09395646 -0.10748194 0.07399726
0001f0 3a 1f 47 bd 99 97 62 be 6b 3a 9f 3d 60 d4 22 3e
       -0.048613764 -0.22128142 0.07774814 0.15901327
000200 e9 40 0a bc 6f f9 9e 3d 41 9b 96 3d e8 a7 02 be
       -0.008438327 0.077624194 0.07353831 -0.12759364
000210 04 21 10 be da 1e 8e 3d cb 1f 05 be 8d b9 6e bd
       -0.14075094 0.06939478 -0.1300041 -0.058282424
000220 b6 ac a7 bd 95 09 43 be a6 10 8b 3b db 7e a1 bd
       -0.08187239 -0.19046624 0.004243928 -0.07885524
000230 ca 1f c0 3d 28 db 2f be 7b 9a 7b 3e 82 7d cc bd
       0.09381063 -0.17173445 0.24570648 -0.09984876
000240 29 16 61 be 62 fd d5 be 8e 17 3b bd 59 9e 5b 3e
       -0.2198111 -0.41794878 -0.04567676 0.21447124
000250 8b 7a 21 be d8 86 1d 3e e5 24 e7 bb ac 07 30 3e
       -0.15769403 0.1538347 -0.0070539587 0.17190427
000260 2e f5 16 be 1c 13 bd bd 6b 48 59 3e b5 05 1d 3d
       -0.14741966 -0.092321604 0.21219032 0.03833552
000270 0d 2e c1 3d 09 11 7c 3d 19 5f 8f bc b4 81 04 3d
       0.094326116 0.061539683 -0.0175014 0.032350257
000280 14 e4 59 be e3 52 4e bd 6b 18 58 be 3c 16 d6 bd
       -0.21278411 -0.050372016 -0.21103065 -0.104534596
000290 58 6a 13 3c cd 45 3f 3e 0d 24 62 be e1 0c e9 3d
       0.008997522 0.1867897 -0.22084065 0.113794096
0002a0 ad 16 bc bd f3 23 a2 bd 39 f5 5b 3d b4 5b 41 3e
       -0.091840126 -0.07917013 0.05370066 0.18882638
0002b0 d7 f0 7d bd bf a9 92 bd 3f a1 64 bd 23 47 56 3e
       -0.06199726 -0.07161283 -0.05581784 0.20925574
0002c0 cc 16 22 be d0 b7 78 bd f6 50 38 be 2f cc 0b bd
       -0.15829009 -0.060722172 -0.17999634 -0.03413027
0002d0 49 f6 5c be ab f4 ae bd 6e 33 c3 3d ca c7 84 bc
       -0.21578325 -0.085427605 0.09531294 -0.016208548
0002e0 05 30 30 be 7d 66 05 bc c2 df 78 bd e0 be c1 3e
       -0.17205818 -0.008142111 -0.060760267 0.3784094
0002f0 45 2c e1 bd e1 c8 ec bd 90 d9 8e be 5d b5 12 bd
       -0.10994772 -0.11561752 -0.27900362 -0.035817493
000300 e1 62 8e be ce 02 ed be 42 69 01 bf 73 36 c1 bd
       -0.27809814 -0.46291202 -0.50551236 -0.094342135
000310 1f 85 1b be 23 27 6c 3e b6 3f d1 bd cd 9f 9a bd
       -0.151875 0.23061804 -0.1021723 -0.07550011
000320 7c 34 00 3e ba 24 04 bf fa 61 24 3e 9a bd 9b be
       0.12520021 -0.5161854 0.16053 -0.30418092
000330 03 87 22 bf 03 fd 16 bf f4 d0 26 be 6e 84 b3 be
       -0.6348726 -0.58979815 -0.16290647 -0.35061973
000340 fc 26 8b bd cc d5 dd 3e 0c 3a 97 3e 80 4c 9b 3b
       -0.06794545 0.43327177 0.29536474 0.004739344
000350 6e 5d 70 3e b7 78 92 3d f6 ab 9d bd 66 06 12 bf
       0.2347314 0.07151931 -0.076988146 -0.57041013
000360 f5 f5 52 3e 21 89 a3 be 19 6e 5c 3e e4 9b 91 3e
       0.20601638 -0.3194056 0.21526374 0.28439248
000370 2f 8c 1d 3d 0e d7 59 be eb 82 57 be eb 7c 89 be
       0.038463768 -0.21273443 -0.21046035 -0.26853117
000380 28 ba 34 3d 60 ba d5 bd 0c b0 af bd c4 ff d4 3d
       0.044122845 -0.10435939 -0.085785 0.10400346
000390 79 1b 0d bd 4c 15 14 be 2a 84 75 be ba 0a 95 bd
       -0.034450028 -0.14461249 -0.23976198 -0.072774366
0003a0 39 9d 88 3e 83 87 b9 3d fd f3 77 bc 75 6a e8 bd
       0.2668245 0.0905905 -0.015133855 -0.1134843
0003b0 7f da 81 3e 0e f1 22 3e 79 84 35 be fa cb 63 3e
       0.25362012 0.15912268 -0.17726316 0.2224578
0003c0 8b fe 11 be 61 f3 f4 3e 4b 76 49 3b 99 c2 3a be
       -0.14257257 0.47841933 0.0030740674 -0.18238296
0003d0 51 24 cb bc ae 02 fe bc 21 87 59 3e a3 e5 9f bd
       -0.02479759 -0.031007137 0.21242954 -0.078074716
0003e0 27 91 f7 3d 03 fd 25 be 3c a6 6f 3d 36 a0 13 be
       0.120882325 -0.16209798 0.058508143 -0.14416584
0003f0 ce 46 5f 3e fd ac f4 3e 1b 8c a6 3e 06 97 00 be
       0.21804354 0.4778823 0.32528767 -0.12557611

layer1.bias f4 [150]
000000 76 58 b5 3d 06 3d 68 3e c7 31 76 bd 60 f2 20 3e
       0.08854763 0.22679529 -0.060106065 0.15717459
000010 a8 d1 db 3d a1 50 70 3d 9f e8 92 bd 53 3c 5d 3e
       0.10733348 0.058670644 -0.07173275 0.21605043
000020 9c 3e a1 bd 26 94 14 be f6 e5 1e be fb 1c fd 3d
       -0.0787327 -0.14509639 -0.1551741 0.12359043
000030 99 99 10 3d 33 be 81 3e f2 90 37 3e 40 8c 06 3d
       0.035302732 0.25340423 0.17926386 0.032848597
000040 28 b7 34 3e df 54 92 bd 44 a5 4b 3e 22 60 80 3e
       0.17647994 -0.07145094 0.19887263 0.25073344
000050 ad d2 a3 bd 3e bc 09 be 1c 96 3a bd fb ab 4a bd
       -0.079991676 -0.13450715 -0.04555331 -0.04948042
000060 a8 58 22 be 1c 68 b1 3e ba 62 8b 3e d8 3f 4a 3a
       -0.15854132 0.34649742 0.2722376 0.0007715202
000070 55 8f 9c 3d 32 6d 71 be 69 df 05 bd f0 41 28 be
       0.07644526 -0.23576811 -0.032683764 -0.16431403
000080 0a 43 d5 39 87 b6 97 3e af 68 db bc 00 7c 06 3e
       0.00040676474 0.29631445 -0.026783315 0.1313324
000090 7b 4c 1d be 63 f7 b6 3d e9 9c 64 3e 8a 38 44 be
       -0.15361206 0.08933904 0.22325481 -0.19162193
0000a0 c8 8e 0f 3e a6 f9 28 3e 80 21 38 be 2f bf c4 3d
       0.1401931 0.16501483 -0.17981529 0.09606778
0000b0 e5 f6 70 3e 76 5d a4 bb 64 96 c6 3d 63 bb c4 3d
       0.23531683 -0.005016024 0.096966535 0.09606054
0000c0 a3 88 03 be e0 a7 23 3e 3f aa 1b 3e 30 e9 17 bc
       -0.12845092 0.15982008 0.15201662 -0.009271905
0000d0 35 ea 07 be b9 71 f5 bc 3d 4d 88 bd 1c be dd bc
       -0.13272937 -0.029961454 -0.06655357 -0.02706819
0000e0 ff 0a 2b 3e b5 82 bd 3d 0b 31 f6 3d 71 a7 77 3e
       0.16703413 0.09253446 0.12021073 0.24184968
0000f0 45 de 09 be ba f1 12 3d ff 7c a4 39 16 a9 5f 3d
       -0.13463695 0.03587506 0.00031373647 0.054604612
000100 2a 9a 91 3e 55 74 3e 3e 0e 44 2f 3e 95 95 25 be
       0.2843793 0.18599065 0.17115805 -0.16170342
000110 96 a8 1c be e2 2c de bc 0b d5 0c be 6b 63 61 bd
       -0.15298685 -0.027121011 -0.13753144 -0.055026453
000120 e7 6d 16 3e bb c1 cc 3c fb 14 33 3d 46 2b 0d bd
       0.14690362 0.024994722 0.04372118 -0.034465097
000130 8d 36 b9 bd 2a 46 7c 3e b0 f9 81 bd 81 66 e1 3d
       -0.09043608 0.2463614 -0.06346452 0.11005879
000140 57 df 32 3d f0 7b 89 3e 32 f7 22 3e 11 ea 09 3e
       0.043670025 0.2685237 0.1591461 0.13468195
000150 d5 b5 ea 3d b9 0c ec bd 13 b6 10 3e eb 09 8f 3c
       0.11460463 -0.11525864 0.14131956 0.017460784
000160 69 71 2c be 86 e6 4c be cd 8c 8f 3d ab 0c c8 bc
       -0.16840138 -0.20009813 0.070092775 -0.024420103
000170 ef 66 3d 3e 94 95 3d 3a b1 4d 78 3d 1f 07 00 3e
       0.18496297 0.0007232067 0.060620967 0.12502716
000180 e8 a8 37 be 24 73 e5 bd 90 b5 0e 3d f7 5d 4a 3e
       -0.17935526 -0.11203602 0.03484112 0.19762407
000190 db 55 8e 3d 58 88 bb bd 79 18 37 bc 57 aa 18 be
       0.069499694 -0.09156865 -0.011175268 -0.1490873
0001a0 f9 8b 7b 3e 81 f3 80 3e fd 9f 0f 3c 7d 62 42 be
       0.24565114 0.2518578 0.0087661715 -0.18982883
0001b0 b3 34 e4 bd 33 24 af 3d f7 a5 02 3e fa 4a 38 3e
       -0.11142864 0.08551826 0.12758623 0.17997351
0001c0 51 e8 16 be 6c f2 06 be 05 ce ca 3d b7 76 8d bd
       -0.14737059 -0.13178414 0.09902576 -0.06907409
0001d0 1d c9 0a bc f5 86 5c 3e 4d de 06 3d 4e ab da 3d
       -0.008470801 0.21535857 0.032926846 0.10677205
0001e0 a7 a7 7c 3e 8a 91 85 bd e6 5e 32 be 2e 85 31 bd
       0.2467333 -0.065219 -0.17419013 -0.0433399
0001f0 33 04 48 be 5a d9 e4 bd bc 31 08 be 79 e1 e9 3c
       -0.19532852 -0.11174269 -0.13300222 0.028549897
000200 af e7 1c be ef da 91 3d f4 d2 28 3e 2c 24 b8 bd
       -0.15322755 0.071218364 0.16486722 -0.08991274
000210 f0 2c cd bd 76 7e 6f bd a1 30 2a 3e c6 d2 61 3e
       -0.10018337 -0.058470212 0.16620113 0.2205306
000220 d0 82 ef 3d 3e 86 64 bd a7 a8 14 3e 78 65 80 3b
       0.116948724 -0.055792086 0.14517461 0.003918346
000230 38 20 5a be ee 76 15 3e 60 44 8a bd 98 db 87 3e
       -0.21301353 0.1459615 -0.06751323 0.26534724
000240 67 2a 23 be 81 68 0e be d3 a8 2a be 4d 07 1f 3e
       -0.15934144 -0.13907053 -0.16665964 0.15530129
000250 9a 97 4a bd 37 36 78 3e
       -0.049460985 0.24239431

layer2.weight f4 [100, 150]
000000 28 d8 39 3c 1a 74 9b 3c 31 48 4d 3d b4 73 ce 3d
       0.01134304 0.01897626 0.050117675 0.10080662
000010 18 a1 33 bd 4c 68 80 bd c8 eb 60 3d 67 fa 62 bd
       -0.043854803 -0.06269893 0.05491236 -0.055414584
000020 9c 3d 22 bd 0f 98 e5 bc fd 5d 7d 3c 80 0e 73 bd
       -0.039609537 -0.028026609 0.015464303 -0.05934
000030 98 b7 62 bc 93 40 9c 3d 3a 62 88 bc 1a 2f 84 bd
       -0.0138377175 0.07629504 -0.0166484 -0.064542964
000040 cb 9d 0f bd 64 34 38 3d 5d ea 21 bc 36 97 1a 3c
       -0.035062592 0.04497184 -0.009882537 0.009435466
000050 99 f2 1d bd 93 00 0b bd 72 46 25 bd 77 50 b0 3c
       -0.038561437 -0.033936094 -0.040350385 0.021522744
000060 73 e6 8e 3d be c4 8e 3d 4c 2f 38 3c 9a 7f f0 bb
       0.069775485 0.06971119 0.011241745 -0.00733943
000070 12 7d 55 bd b3 e9 84 bd e3 68 4b 3a fb 7e 0b 3d
       -0.05212123 -0.06489887 0.0007759465 0.034056645
000080 be 94 68 bd e9 fb 0b bd c0 26 ce 3c 40 9d 4f bd
       -0.056782477 -0.034175787 0.025164962 -0.050687075
000090 0c 1f 5d bd f4 0f 3e bd 8c ca d6 bc 59 7a 85 bd
       -0.053984687 -0.046401933 -0.026219629 -0.065174766
0000a0 ac 4f b9 bd d5 31 24 bd 20 36 89 3d b3 48 88 3b
       -0.09048399 -0.040086586 0.06699777 0.004159057
0000b0 d4 ce 92 bd bb b8 8a bc 36 07 14 bd 7e bc 8b bc
       -0.071683556 -0.01693379 -0.03613969 -0.017057654
0000c0 c4 e4 25 bb 0d 7d 29 bc af c8 86 3d 79 30 85 bd
       -0.0025313357 -0.010344756 0.06581246 -0.06503386
0000d0 03 1d 92 bd bd 4e 67 bd 9a 8e 23 3d 49 0c a3 3c
       -0.0713444 -0.056471575 0.039930917 0.019903319
0000e0 35 f3 53 3d c3 00 c3 bc 71 10 87 3d c3 6d af bd
       0.051745612 -0.023804074 0.06594933 -0.08565857
0000f0 48 47 3b 3d ea 0e c7 bd f8 04 46 bd cf 2b 5b bd
       0.045722276 -0.097196415 -0.048344582 -0.053508576
000100 bc 3c 77 3c 91 7d dc bd cc 58 08 3d 81 3a 8b bd
       0.015090164 -0.107661374 0.03328781 -0.06798268
000110 ee 7d 60 3c d3 a3 cb bd 9c a9 48 bd ce 10 4d bc
       0.013701899 -0.09943356 -0.048989877 -0.012516214
000120 f2 ef a5 bd 13 44 1a 3d 4e 5d ad bc 10 d9 a8 bc
       -0.081024066 0.037662577 -0.021162655 -0.020611316
000130 cb 0a 01 3d ac 79 6c 3c c0 56 c7 3c 84 61 5a 3d
       0.031504434 0.014433306 0.024333358 0.053315654
000140 2c 44 32 3d ba ae 99 3d 7e 6a 2c 3d 0f 85 7c 3d
       0.043522045 0.075040296 0.042093746 0.061650332
000150 d3 d4 84 bd e5 4e 6f 3d ff 14 6a 3c 32 d7 e4 bc
       -0.064859055 0.05842485 0.014287232 -0.027934644
000160 dc 39 97 bd 3b 7d 99 3b 1b e6 51 3d 1e 17 25 3d
       -0.07384083 0.004684118 0.051244836 0.04030525
000170 94 a6 bc bd c5 42 20 3c ea d1 ae bc 31 d9 67 bd
       -0.0921146 0.009781544 -0.02134033 -0.056603614
000180 97 e5 36 3d c8 da 06 3b 78 b5 ae bd 96 19 e4 bd
       0.044652548 0.002057718 -0.08530706 -0.11137693
000190 19 87 73 bd 85 12 5d bd 11 23 a8 3c a7 50 72 bd
       -0.05945501 -0.05397274 0.020524533 -0.059158947
0001a0 fc 17 59 ba 05 cb e1 bc 87 7d d3 bc 65 6b 89 bd
       -0.0008281467 -0.027562628 -0.025816692 -0.06709937
0001b0 86 6f dc bc 30 f3 0b 3a 1c df f9 3b 02 05 82 3d
       -0.026908647 0.0005338667 0.0076254737 0.063486114
0001c0 be a7 00 be 31 a6 5f bd ce c7 92 3b dc be d1 bb
       -0.12563989 -0.05460185 0.004479385 -0.006400926
0001d0 d8 67 65 3c 37 9b 60 bd 53 84 96 3d 2b 26 13 bd
       0.014001809 -0.054835524 0.073494576 -0.03592507
0001e0 e8 05 89 bd 71 59 63 3d f7 82 f8 3b ac 12 6f 3d
       -0.0669058 0.05550522 0.0075839716 0.058367416
0001f0 94 52 aa bd d3 97 98 bd 65 80 8a 3d c6 9b ab bd
       -0.08316532 -0.07450833 0.067627706 -0.08379321
000200 81 85 9c bd be 33 5b bc c4 be c2 bd c0 27 19 bd
       -0.07642651 -0.0133790355 -0.09509042 -0.037391424
000210 62 a3 1d 3d 7a 39 6c bd 77 91 ad bb 8f 23 28 bd
       0.038485892 -0.057672 -0.005296882 -0.041049536
000220 d7 ae b2 3d d8 f1 b3 bd d5 93 db bc 6a 0d 38 bc
       0.08724754 -0.087863624 -0.02680389 -0.011233667
000230 2e 46 4e bc 13 a0 2d bd 99 77 30 bd 85 28 3d 3c
       -0.012589974 -0.042388987 -0.043082807 0.011545305
000240 03 99 da 3c 74 da a2 3d 17 ee 5c 3c 3d 97 b8 3c
       0.02668429 0.07951823 0.013484499 0.022533054
000250 62 f6 b3 bd 71 8a 8e 3c 60 58 b3 3d ce e9 1b 3e
       -0.08787228 0.017399998 0.087570906 0.15225908
000260 28 94 4f bd dc 0a 46 3d 16 ad 98 3d 41 5f 51 3b
       -0.050678402 0.0483502 0.074548885 0.0031947645
000270 ec 46 24 bd c5 d9 9e 3d 97 23 35 3d 22 5a 15 be
       -0.0401067 0.0775638 0.044223394 -0.14585164
000280 55 6b 2e bd 03 b7 23 be ee 2b 2c be c1 0a 4b be
       -0.04258283 -0.15987782 -0.16813633 -0.19828321
000290 4c 79 af 3d ae 31 e9 3c 14 30 48 bc d3 4f 02 bd
       0.085680574 0.028466072 -0.012218494 -0.031814408
0002a0 a6 8d 17 3d 9f a1 07 3e c4 41 82 bd cc 9e 3e be
       0.03700032 0.13245247 -0.063602 -0.18615264
0002b0 45 8e 86 be 32 8c 48 3d 01 9b bf 3b d8 f2 cc be
       -0.26280418 0.048961826 0.0058473353 -0.40029025
0002c0 60 d5 27 bc 1c 64 34 be eb f5 09 3e b4 fb a0 bd
       -0.010243744 -0.17616314 0.13472717 -0.078605086
0002d0 5e 2d 57 3e 74 be ce 3a 0d 62 82 be 6e bf 6a be
       0.210134 0.0015773312 -0.25465432 -0.22924587
0002e0 67 4e 94 3d 8a 03 b4 ba fb a1 53 3d 06 c2 8c 3d
       0.072415166 -0.0013733965 0.05166815 0.068729445
0002f0 90 3a a3 3d 05 7e c2 3d 80 47 28 be 7e de cc 3d
       0.07970154 0.094966926 -0.16433525 0.100033745
000300 7b e5 37 3c 26 38 42 3d 10 91 a7 bd bb d2 cc 3d
       0.011224146 0.04741683 -0.08181965 0.10001131
000310 8b f8 f7 bd 6b 48 a8 bd 12 4f 32 be 16 10 03 be
       -0.12107953 -0.08216938 -0.17412975 -0.12799105
000320 6c e0 64 be e3 35 59 be c9 82 cd 3d 39 57 4a bd
       -0.22351235 -0.21211962 0.10034711 -0.04939959
000330 73 22 4f be 70 f6 84 be 2d 53 bc bd 75 a8 72 3e
       -0.20227985 -0.25969267 -0.09195552 0.23697074
000340 18 39 83 3d 3c 19 e8 3c 5c d9 2e 3d 95 e9 2b 3e
       0.06407374 0.028332345 0.04268776 0.16788323
000350 49 1d 7e 3c 83 c7 4e be 9f 67 1e 3e 9d c2 a5 3c
       0.015509912 -0.20193295 0.15469216 0.0202344
000360 a5 0a d1 bc 50 f8 2c be 06 a8 26 bc b9 5b 92 bd
       -0.025517771 -0.16891599 -0.010171896 -0.07146401
000370 98 92 f7 bc 33 77 c0 3e 5f 4a 13 3e ef a2 76 be
       -0.030221269 0.37590942 0.14383839 -0.24085592
000380 d5 73 72 bd ad 0d 7b be 8a 01 ae bd 93 15 56 3e
       -0.059192497 -0.24516936 -0.08496387 0.20906667
000390 84 52 10 be c7 bf da bc 73 ba 42 3e 62 38 a7 3d
       -0.14093977 -0.026702775 0.19016437 0.08165051
0003a0 2b a6 8d 3d 91 59 c5 bc 8a 38 04 bd 01 18 2e be
       0.0691646 -0.02409056 -0.032280482 -0.17001344
0003b0 42 0a 41 be 34 fe 36 be 51 34 9b 3d 12 21 31 3e
       -0.1885157 -0.17870408 0.07578338 0.17297772
0003c0 2d 46 fd 3d 85 86 8c 3c c9 cd d6 3d f7 ec 2c 3e
       0.123669006 0.017153988 0.10488469 0.1688727
0003d0 75 94 73 3d 01 33 68 be 29 8f 53 bc 3d 31 fe 3d
       0.05946775 -0.22675706 -0.01291255 0.12411735
0003e0 2d d5 3b 3d 31 f5 1d bd 85 3e 62 3d 58 f2 38 3e
       0.045857597 -0.03856391 0.055235405 0.18061197
0003f0 8c 2d 7c be 47 ca 80 3d 2f e8 70 bc e5 9d 77 3d
       -0.2462675 0.06288581 -0.014703794 0.060453314

layer2.bias f4 [100]
000000 cf b4 d0 3c 19 fc e2 3d 9c e2 5a 3c d2 fa 7f 3d
       0.025476841 0.1108324 0.013359692 0.06249506
000010 bf 74 2c bd 50 22 21 3e 7b 7a 8c bd f1 40 8f bd
       -0.042103525 0.15735745 -0.06859299 -0.069948085
000020 16 84 62 3d fa d8 8a bc f6 74 37 bc 89 0c b2 3b
       0.05530175 -0.016949166 -0.011197319 0.005433623
000030 b6 25 90 3a 03 d8 82 bd 58 b0 00 3d e8 c2 f8 3d
       0.0010997567 -0.06388857 0.031418175 0.121465504
000040 f6 3e af bd 85 4e 38 bd 54 98 28 3d e6 66 9d bd
       -0.08556931 -0.044996757 0.041160896 -0.07685642
000050 6c d5 8f bd 90 a2 01 3e dc 7c 88 3b 7e d6 42 bd
       -0.07023129 0.12659669 0.004165275 -0.047567837
000060 e0 79 b5 b9 f0 21 5a 3d 9e 56 d6 3d 10 8b a7 bc
       -0.00034613814 0.05325502 0.1046574 -0.020452052
000070 cd f3 1f 3e 66 40 70 3d a2 3c df 3d ff 61 f0 bc
       0.15620346 0.058655165 0.10900237 -0.029343603
000080 f8 14 2b 3d 44 97 0a bd 11 67 8e 3d 00 8d 01 3d
       0.041768044 -0.033835664 0.06953252 0.03162861
000090 80 eb bf 3d 1a 5b cc 3d 36 87 1a 3e 24 9d 10 3d
       0.0937109 0.09978314 0.15090641 0.03530611
0000a0 84 33 26 3d f8 db 13 3e 25 86 81 bd b5 31 36 3d
       0.040576473 0.1443938 -0.06324414 0.044480998
0000b0 87 94 fe 3d b6 8f 00 3d c9 67 a5 bc ba 92 4e bd
       0.12430673 0.031387053 -0.02019109 -0.050432898
0000c0 1e 00 d2 bc 8f 7f c0 3d 43 57 c9 3c 3d 2d c3 bb
       -0.025634822 0.0939933 0.024577742 -0.0059563206
0000d0 95 f8 0e 3e 37 b2 07 3d 0e cd 04 3e 9a 48 54 3d
       0.13962014 0.033128943 0.12968847 0.05182705
0000e0 91 e8 41 3c 14 ef 61 bd e0 cb 9a 3d 87 1a 39 3d
       0.011835233 -0.055159643 0.07558417 0.045191314
0000f0 da ab 75 3d 62 12 67 3c 69 5a 7f 3d 45 11 5a bd
       0.059978344 0.014103504 0.06234208 -0.053239126
000100 c9 44 8f 3c bc 59 ee bd 08 47 4c bb 26 30 71 bd
       0.017488854 -0.11638209 -0.0031170268 -0.05888381
000110 7d 39 ef bc 3b 8a 27 3d 2c 45 83 3d 93 8a 65 3d
       -0.029202217 0.04090331 0.06409678 0.056040358
000120 76 ef 7e bc d4 ef 68 3d 15 53 c9 3d 24 f8 54 3d
       -0.015560022 0.056869343 0.098303 0.051994458
000130 34 94 b1 3d bf e4 73 bc d7 93 11 3d ef 90 1b bd
       0.08670846 -0.01488608 0.03554138 -0.037980016
000140 67 e9 c1 3c 6b 95 21 3d df 59 36 3e aa 30 00 3e
       0.023670865 0.039449137 0.1780772 0.12518564
000150 e5 b9 85 3c ee 22 3f 3c 6d 0b bd bd c3 b9 2e bd
       0.016323993 0.011666043 -0.09230695 -0.042657625
000160 7e c6 9e 3d d8 be 5d 3d 78 fa f1 ba 71 d9 c0 3c
       0.07752703 0.05413708 -0.0018461486 0.023541184
000170 30 ba ba 3d de 28 90 3d 37 1a 44 bd ae f1 1a 3e
       0.09117544 0.07039045 -0.047876563 0.15131256
000180 e4 fa d5 3d d9 e4 17 3d 73 4e 36 bc ff 53 29 3e
       0.10448244 0.03708348 -0.011127102 0.16535948

layer3.weight f4 [3, 100]
000000 d3 2a 61 3d 8f 09 9d 3d c7 88 3c 3d c3 14 20 be
       0.05497248 0.07667839 0.04602888 -0.1563292
000010 50 ae 1c bd b8 84 38 3e b7 8f 79 3a c2 6a 43 3c
       -0.038252175 0.18019378 0.00095200114 0.0119273085
000020 48 6f 70 3e 30 12 70 bd 95 b1 48 be 1c f9 67 be
       0.2347995 -0.058611095 -0.19598992 -0.22653621
000030 08 e1 f9 3c 9c c1 ef bd 38 aa f9 3c 81 3a 8d 3e
       0.030502811 -0.1170685 0.030476674 0.27583697
000040 b4 60 18 3d 03 75 73 3e 47 3a 32 3e 39 e9 42 be
       0.0372016 0.23775105 0.17405044 -0.1903428
000050 c7 bb bc bc 66 f4 83 3e b4 3c 95 bd 49 6a a4 3e
       -0.023038758 0.257724 -0.07286969 0.3211234
000060 cf 19 26 be ba 14 03 3e 01 6f 0f 3e 40 7c c9 bc
       -0.16220783 0.12800875 0.14007188 -0.02459538
000070 b9 8f 66 3e 81 ad f5 bd b8 be f4 bd 28 de 02 3e
       0.22515763 -0.11995984 -0.11950439 0.12780058
000080 36 11 64 3e 34 b5 91 be b2 c3 91 3e e6 08 42 3e
       0.2227219 -0.2845856 0.28469616 0.18948707
000090 6c 36 5d 3e 6f 5f 0b 3e 7c d8 8b 3e 64 05 50 3e
       0.21602792 0.13610624 0.27313602 0.20314556
0000a0 eb 17 02 3e 6b 1d 2d 3e 94 e9 ff bc 66 a2 f2 3d
       0.12704436 0.16905753 -0.031239308 0.11847381
0000b0 ce 46 e6 bd f2 37 47 be 89 bd 95 3d d8 3d f4 bb
       -0.11243974 -0.19454935 0.073115416 -0.0074536614
0000c0 99 ad 02 bd bc 3f 64 3e 98 14 2e be 17 62 fa 3d
       -0.031903837 0.22289938 -0.17000043 0.122257404
0000d0 e0 13 87 3e dc 25 82 bd 8d 59 43 3e ae 15 07 3e
       0.2638235 -0.06354877 0.1907713 0.13191864
0000e0 a5 c1 2c 3e 84 17 02 3e c1 f4 0e be be 4f 85 bd
       0.16870745 0.12704283 -0.13960554 -0.0650935
0000f0 44 d6 84 bd 98 0d 64 3e 77 00 f3 3c 27 4f f5 bc
       -0.064861804 0.2227081 0.029663308 -0.02994497
000100 2f 6e 6e 3d f9 7b 9b bd a5 56 aa 3c 12 34 98 bd
       0.058210548 -0.07592005 0.020793268 -0.074318066
000110 05 26 86 3e f8 da db 3c 90 3a 18 3e a8 3b 69 3d
       0.26200882 0.02683781 0.1486609 0.05694166
000120 c8 15 a8 bd 79 7f 43 3e bc 26 82 3e e2 62 51 bd
       -0.082072794 0.19091596 0.25420177 -0.051119693
000130 0d a2 ca bd 38 8a 79 be 44 20 06 bd a0 a0 a4 bc
       -0.0989419 -0.24369133 -0.032745615 -0.020096123
000140 d2 00 2a be 54 12 c7 3b c4 b6 88 3e ea 53 6e 3e
       -0.16601875 0.006075183 0.2670194 0.23274198
000150 87 b9 8c bd 82 1c 94 3e 39 3a 3a be 9c 87 d9 bd
       -0.06871324 0.28928 -0.18186273 -0.106215686
000160 fd 3a 53 be 42 2d 8f 3e ae 61 44 3d 8f 15 b8 bd
       -0.20627971 0.27964216 0.047944717 -0.08988487
000170 4e ed 9f 3e f9 c8 fc 3d e4 12 8a bd 70 fb 73 3e
       0.31235737 0.1234302 -0.06741884 0.23826385
000180 e6 a3 2c 3e f6 fa ab bd 8f 37 62 bd 22 77 2d 3e
       0.16859397 -0.083974764 -0.055228766 0.16939977
000190 e4 1e 13 3d 2c 3d 34 3e 1e 67 7e bc e4 ed fa bd
       0.03591813 0.1760146 -0.015527515 -0.12252405
0001a0 b4 e3 72 3d 5f 29 87 3e 13 66 bb 3d f1 2d 56 bd
       0.059299186 0.2639875 0.091503285 -0.052289907
0001b0 84 ba ef bd 0c d1 c5 bd f0 50 14 be cc f5 6c bd
       -0.11705497 -0.09659013 -0.14484 -0.057851598
0001c0 e5 65 4f bc 82 61 25 be fd 8e 11 3e 27 98 7c 3c
       -0.012658571 -0.16150478 0.14214702 0.015417135
0001d0 84 f9 99 3c e7 fc 5b 3e 60 00 5f 3e 57 f4 05 be
       0.018795736 0.21483193 0.21777487 -0.1308149
0001e0 c8 a9 b8 3d 60 3d 55 3e 66 74 69 bb 9c 19 63 3e
       0.09016758 0.20824194 -0.0035622357 0.22177738
0001f0 0a 64 7b be df 5c 38 3e 46 a4 49 3e 57 48 94 bd
       -0.2454988 0.18004178 0.19691572 -0.0724036
000200 76 ac 86 3e 56 8a 29 be 5e c3 2b be 70 c4 2f be
       0.26303452 -0.16556677 -0.16773745 -0.17164779
000210 80 b4 2c 3e 0f 02 9a bc 32 1c 86 3e d8 7b 80 3e
       0.1686573 -0.01879981 0.26193386 0.25094485
000220 fc 51 7d 3e 40 cb 31 3e ea b3 02 3e 05 c1 88 3e
       0.24738306 0.1736269 0.12763944 0.26709762
000230 13 92 8a 3e b1 95 72 3e 0c 26 0f 3d dd 39 8b 3e
       0.2706457 0.23689915 0.034948394 0.27192584
000240 68 1e 7f be 8e 74 08 be f1 4b c4 3b 3a 92 5e 3d
       -0.24913943 -0.13325712 0.0059904982 0.05433867
000250 ba 03 cb bd 51 ba 33 3e 08 25 7c bb 40 cb 07 3e
       -0.0991282 0.17551543 -0.003847422 0.13261127
000260 09 bb 8b 3e 74 22 36 be 57 5f 46 3e db a0 3a 3e
       0.27291134 -0.1778658 0.19372307 0.18225424
000270 d8 76 32 3e 90 8e 47 3e 00 8f a5 bd ff 85 0a be
       0.17428148 0.19487977 -0.08083916 -0.13527678
000280 24 77 3b bd 39 0e 79 3e 82 16 28 3e 93 a9 03 bd
       -0.04576792 0.24321832 0.16414836 -0.03214414
000290 5a d6 22 bc 8e 33 a4 3d 3e bf 3b bd ad b2 8e 3d
       -0.009938801 0.08017646 -0.04583668 0.069676735
0002a0 4f 2e 59 3e 24 06 30 be 37 7a 4e 3e 93 6f 95 bd
       0.21209072 -0.17189842 0.20163809 -0.07296672
0002b0 50 08 2b 3d 27 7f 2f 3e 12 32 30 3e 3d f1 87 3d
       0.041755974 0.17138349 0.172066 0.066378094
0002c0 b3 c1 a6 bd d4 4d 52 be 15 77 c7 3d bc 54 29 bd
       -0.08142414 -0.20537502 0.0973951 -0.041340575
0002d0 31 46 2c be 1e d2 3b be 81 e4 86 3e 04 cb 1a 3e
       -0.16823651 -0.18341872 0.2634621 0.15116507
0002e0 80 2f c2 bb cd 52 2c 3e 52 d9 2c be b3 15 e9 bd
       -0.0059260726 0.16828461 -0.16879776 -0.11381092
0002f0 74 ee 25 bd 07 19 75 3e b2 41 50 3e 90 5e b1 bd
       -0.04051061 0.23935328 0.20337561 -0.086606145
000300 0a 62 2c 3e 74 c5 24 3e 2c df 3e 3e 7a d5 27 3e
       0.16834274 0.16090947 0.18639821 0.16390029
000310 eb 72 07 3e 46 bf a6 bd eb 13 19 be 47 95 51 3e
       0.13227431 -0.08141951 -0.14949004 0.20467101
000320 8b 8d a9 b9 fe ec 8f 3d 1f 0d 11 3d d7 18 00 bd
       -0.0003233965 0.070276245 0.035412904 -0.03127369
000330 50 62 9b 3d 25 12 70 3e b3 2f 3d bd 3d a4 84 3d
       0.07587111 0.23444422 -0.046188068 0.064766385
000340 69 18 84 3d 93 89 f2 3c 46 ca 9d 3d cf 2d cf bd
       0.06449968 0.029606616 0.07704596 -0.10116159
000350 2c 9d 9c 3c 5b f9 b9 bc aa 2f 87 bd 45 80 12 3e
       0.019117914 -0.02270191 -0.06600888 0.14306743
000360 94 68 84 3d 0d 20 89 bd d9 79 60 bb e1 04 04 be
       0.06465259 -0.06695566 -0.0034252314 -0.12892486
000370 65 e6 9d 3d 70 d2 73 3e 36 2e ae 3c 74 0c 91 3e
       0.0770996 0.23810744 0.02126227 0.28329813
000380 1c d0 7f be 4b a3 cf bc c6 1a 41 3e b9 0b fd 3d
       -0.24981731 -0.025346419 0.1885787 0.123557515
000390 e3 63 61 3e 7f 3f 27 be e1 97 f2 bd 44 f7 92 3b
       0.2201076 -0.16332816 -0.11845375 0.0044850428
0003a0 aa 77 2f 3e 33 0f 94 3c b9 fd 7f 3e 64 bb 29 3e
       0.17135492 0.018073654 0.24999131 0.1657539
0003b0 52 be 23 3e 01 08 79 3e 6a 28 9d 3e 3e b4 91 3e
       0.1599057 0.2431946 0.30694896 0.28457826
0003c0 d4 2f 4d bd d0 ee 34 3e df bc a6 3c 86 2b 83 3d
       -0.05009444 0.17669225 0.020353733 0.06404786
0003d0 80 08 80 be c6 5d 3c bd 34 e5 0c bd 6a f0 24 3d
       -0.25006485 -0.045987867 -0.034398273 0.04026834
0003e0 cb 4e df 3c d2 5f 6e 3e 54 83 5c be 84 09 d7 3d
       0.027259251 0.2327874 -0.21534473 0.10499862
0003f0 4d 5a 48 3e b4 ca 0d be 60 6d 3b 3d 69 a9 16 3e
       0.19565697 -0.13846856 0.045758605 0.14713062

layer3.bias f4 [3]
000000 df ef 78 bd 90 57 22 3e e2 a5 a8 3d
       -0.060775634 0.15853715 0.08234765

exp_avg f4 [150, 20]
000000 87 2c 48 3a 24 7a 81 3a e2 89 2e 3c c2 b0 1b 3c
       0.00076360296 0.000987832 0.010652991 0.009502592
000010 af b5 07 3a 32 dc c4 39 e2 3a 60 3c 34 32 45 3c
       0.0005176914 0.00037548091 0.013685914 0.012035895
000020 f2 00 65 37 b6 57 f1 36 53 12 f4 b8 ee 6e a5 39
       1.3649684e-05 7.1925706e-06 -0.0001163824 0.00031553901
000030 aa 08 ff 39 ea 9d 58 39 a4 23 a1 3c df fa 92 3a
       0.00048643845 0.00020658193 0.019670315 0.0011213681
000040 38 de 00 3d 01 79 c9 3c cc 68 8d 3b b9 c6 c5 3c
       0.031461924 0.024593832 0.0043154713 0.02414261
000050 b0 4d 03 39 b2 47 06 b8 cc 89 bd 3a a2 fd 96 ba
       0.00012522074 -3.201486e-05 0.0014460622 -0.001151968
000060 d7 26 ba b7 3a 3d a2 b6 5a f2 dd b9 bb bf 0d b9
       -2.2191014e-05 -4.835104e-06 -0.0004233297 -0.00013518233
000070 70 c9 69 b6 40 38 a0 36 fd 53 c3 3a 81 a5 3c 39
       -3.4836958e-06 4.77492e-06 0.001490235 0.00017990732
000080 3c d7 71 39 5a d2 0a b8 66 a7 1c 3c 4c b7 2a bb
       0.00023063732 -3.309767e-05 0.009561395 -0.0026049195
000090 8c 46 0c 3c 40 84 39 bc c2 61 14 39 6e dc 9c 3b
       0.008561742 -0.011323035 0.00014150798 0.0047870195
0000a0 a0 ed b9 b7 4d 61 40 39 60 0b 1e ba 8a c0 58 3b
       -2.2164371e-05 0.00018346794 -0.00060289167 0.0033073747
0000b0 29 c0 ee b7 b4 af 4c 37 24 50 0c ba 76 52 c8 39
       -2.8461292e-05 1.2200257e-05 -0.0005352518 0.0003820841
0000c0 f7 a8 14 39 50 26 b7 38 f4 6b dc 3b b3 40 4e 3b
       0.00014177324 8.733256e-05 0.006726736 0.003147167
0000d0 c1 00 02 39 4b b6 6d 39 61 7e 93 3b c3 5d 8e 3b
       0.00012398047 0.0002266999 0.0045011495 0.0043446734
0000e0 c8 c3 e3 ba fd 51 55 bc 1a dd 0e 3b e6 ad 1e bb
       -0.0017377073 -0.013020036 0.0021799267 -0.0024212538
0000f0 05 7c e0 b6 f6 5d eb 35 e4 9b e4 39 54 2f c9 38
       -6.690158e-06 1.7536211e-06 0.00043603696 9.5932424e-05
000100 99 9b 39 84 12 fe 16 02 71 32 f9 84 70 8f 1b 02
       -2.1818092e-36 1.1093174e-37 -5.858594e-36 1.1428766e-37
000110 5c c8 52 0b 34 2d 1e 02 cf 4b d5 0d 9f b1 1a 02
       4.0595262e-32 1.1620979e-37 1.3145389e-30 1.1365108e-37
000120 15 b7 52 0b 3c a5 71 37 98 f8 44 0c 34 d3 e6 39
       4.0582264e-32 1.4403191e-05 1.5174099e-31 0.00044026377
000130 09 42 2b b8 47 66 c3 38 cd 9c 37 b7 04 98 1f ba
       -4.0831077e-05 9.317375e-05 -1.0944158e-05 -0.0006088021
000140 64 fe 14 3a e1 27 46 3a 4f a7 69 3c 9e 78 1b 3c
       0.0005683659 0.0007559043 0.014261081 0.009489207
000150 c2 55 83 39 9a 7b 82 39 3d 54 b1 3b a2 45 1e 3c
       0.00025050162 0.00024887623 0.0054116533 0.009660156
000160 d8 71 68 39 05 34 0e 39 c1 e9 08 3c cb b4 af 3b
       0.00022167654 0.00013561554 0.0083565125 0.0053621284
000170 34 9f 52 39 c6 0d d5 39 56 3d 0c 3c 71 29 11 3c
       0.00020086468 0.00040636788 0.0085595455 0.008859978
000180 de 73 db 3c 67 9f a5 3c bf 0f 47 3c af b9 d8 3c
       0.026788648 0.02021761 0.01214975 0.026455728
000190 90 09 fe b7 c4 48 cf 38 35 19 15 bb 60 ae 93 bb
       -3.0283612e-05 9.884083e-05 -0.002275062 -0.004506871
0001a0 5b 11 50 38 de 26 29 b5 e1 96 38 3b 70 eb 2a b7
       4.9607228e-05 -6.3013965e-07 0.0028166103 -1.0187607e-05
0001b0 5d d1 60 b7 89 86 8f b8 ed 6a ee ba 5e 13 56 bb
       -1.3400187e-05 -6.8438305e-05 -0.0018189825 -0.0032665352
0001c0 07 03 0c 38 e4 ae 12 b8 f2 f3 23 3b 00 25 cd 3a
       3.338142e-05 -3.4971992e-05 0.002501723 0.0015651286
0001d0 84 25 f7 ba c8 36 08 bb a8 91 57 3a 6f 7f f7 bb
       -0.0018855785 -0.0020784605 0.00082233036 -0.007553033
0001e0 35 44 1d 02 ab 70 16 02 a2 67 10 02 75 ce 13 02
       1.1554113e-37 1.1052594e-37 1.060919e-37 1.0859105e-37
0001f0 ab 70 16 02 35 44 1d 02 6a 97 1b 02 e1 ed 15 02
       1.1052594e-37 1.1554113e-37 1.1431055e-37 1.1015059e-37
000200 35 44 1d 02 35 44 1d 02 6c f3 18 02 91 4e 12 02
       1.1554113e-37 1.1554113e-37 1.1237055e-37 1.0748933e-37
000210 00 00 00 00 ab 70 16 02 00 00 00 00 5c 62 15 02
       0.0 1.1052594e-37 0.0 1.0975019e-37
000220 0a 21 1d 02 63 28 1e 02 d8 a7 14 02 b0 22 12 02
       1.154402e-37 1.1619597e-37 1.0921492e-37 1.0736341e-37
000230 61 74 1a 3a 66 f9 75 3a 95 fc 79 3c c3 43 35 3c
       0.00058919756 0.00093831716 0.015257974 0.011063519
000240 28 2a af 39 48 a3 a2 39 e4 75 e1 3b 16 a0 3c 3c
       0.0003341001 0.00031020702 0.0068805087 0.011512777
000250 1e d0 90 39 c8 17 2c 39 3c f4 20 3c 60 d8 ca 3b
       0.0002762088 0.00016412057 0.009823855 0.0061903447
000260 fe 14 65 39 97 67 00 3a a2 b7 17 3c 32 ce 31 3c
       0.00021846962 0.00048982486 0.00926009 0.010852383
000270 18 f5 e4 3c 80 81 b2 3c a6 1c 6f 3c af 1d ee 3c
       0.027948901 0.021790266 0.014594233 0.029066889
000280 00 00 00 00 00 00 00 00 00 00 00 00 00 00 00 00
       0.0 0.0 0.0 0.0
000290 00 00 00 00 00 00 00 00 00 00 00 00 00 00 00 00
       0.0 0.0 0.0 0.0
0002a0 00 00 00 00 00 00 00 00 00 00 00 00 00 00 00 00
       0.0 0.0 0.0 0.0
0002b0 00 00 00 00 00 00 00 00 00 00 00 00 00 00 00 00
       0.0 0.0 0.0 0.0
0002c0 00 00 00 00 00 00 00 00 00 00 00 00 00 00 00 00
       0.0 0.0 0.0 0.0
0002d0 54 66 b5 b9 8c fc 41 39 d2 82 03 bc 6a 7a 0c 3b
       -0.0003459925 0.00018499995 -0.008026795 0.002143527
0002e0 74 4c f7 38 e9 d6 ce 38 77 76 88 3a 02 3a 4c 3b
       0.00011792118 9.8628756e-05 0.0010411282 0.0031162505
0002f0 14 de a7 37 25 0c be 37 fe 49 18 39 11 c7 99 3a
       2.0011365e-05 2.265542e-05 0.00014523414 0.00117323
000300 0f 54 fc 37 0c 70 db 38 c0 4f 4f 39 ec 93 af 3a
       3.0079884e-05 0.00010463604 0.00019770768 0.0013395525
000310 5a 9d 87 bc 09 c9 57 bc c5 98 b9 3a 24 40 c4 ba
       -0.016554523 -0.013170489 0.0014159909 -0.0014972729
000320 ef 38 37 3a d4 d7 5e 39 52 d4 89 3c 14 ce 0f 3b
       0.000698938 0.00021251972 0.016824875 0.00219429
000330 98 8a 25 39 c3 84 59 39 8a f8 23 3b c3 06 c4 3b
       0.00015787256 0.0002074419 0.0025019967 0.0059822514
000340 68 fa e0 39 84 77 99 39 48 65 5e 3c f9 4f 48 3c
       0.00042911177 0.0002927148 0.013573952 0.012226098
000350 6e 55 fa 39 9c 80 60 39 92 e2 8d 3c ce e2 ae 3b
       0.00047747366 0.00021410215 0.017319951 0.005337096
000360 34 a3 20 3d ac 82 0e bb 25 42 33 3c 6e 41 e2 3c
       0.039218143 -0.0021745367 0.010941063 0.02761909
000370 82 c1 15 39 2c b3 0e 39 c0 0c 81 3b a3 84 2d 3b
       0.00014281835 0.00013608922 0.0039382875 0.0026476763
000380 6a cd 81 38 ac 51 15 38 a7 53 01 3b 07 30 03 3a
       6.189461e-05 3.560043e-05 0.0019733699 0.000500441
000390 dc f5 76 37 3c 33 58 37 96 86 8f 3a 0c f4 44 3a
       1.4719986e-05 1.2886532e-05 0.0010950144 0.00075131725
0003a0 df 80 f6 38 79 41 ab 38 8e 43 7f 3b 46 d9 37 3a
       0.00011754198 8.166111e-05 0.0038950178 0.0007013272
0003b0 04 4d 11 3c 80 7b 81 3b be a4 39 3b bf 79 92 3b
       0.00886846 0.00395149 0.0028326954 0.0044700797
0003c0 70 63 cb b9 aa a7 92 ba 72 75 02 bc 92 a5 5c bc
       -0.00038793264 -0.0011188884 -0.007962571 -0.013467209
0003d0 98 9e f9 b9 e1 7b 06 ba ca d2 27 bc 27 e0 c3 bc
       -0.00047611143 -0.0005130154 -0.010243127 -0.023910595
0003e0 f0 fb ab b6 2a 5d c3 b8 92 da 89 3a 72 12 12 bb
       -5.1255265e-06 -9.315678e-05 0.001051741 -0.0022288826
0003f0 3b bc c6 b8 f7 08 ee b9 1b 76 cd bb c1 ba 47 bc
       -9.4764364e-05 -0.00045401577 -0.006270183 -0.012190522

exp_avg_sq f4 [150, 20]
000000 36 c4 ed 36 8b 72 1c 36 7d 38 3f 3b 45 e3 b3 3a
       7.0859924e-06 2.3312484e-06 0.0029177957 0.0013724348
000010 fc 24 f8 34 26 c9 5d 35 84 f5 0f 3a c8 06 a1 3a
       4.622051e-07 8.2621625e-07 0.0005491602 0.0012285346
000020 fc 48 ba 32 1a 2d 18 34 12 46 93 37 94 09 ba 37
       2.168644e-08 1.4172511e-07 1.7556395e-05 2.2177388e-05
000030 dd 99 56 35 40 a8 ac 34 57 5e 83 3a 79 2e 08 39
       7.9945113e-07 3.2159915e-07 0.0010022622 0.00012987283
000040 d4 b6 81 3c be 92 3a 3c 27 7c cd 3a f0 78 e0 3b
       0.01583425 0.011387525 0.0015677259 0.0068503544
000050 56 68 ba 36 75 ea 9e 35 05 5f 81 3b fd 4e e9 3a
       5.5553783e-06 1.1840153e-06 0.003948095 0.001780003
000060 57 9a 87 33 91 b8 d6 32 b9 23 1e 38 78 bd 8b 37
       6.3145016e-08 2.499681e-08 3.7703405e-05 1.665832e-05
000070 f9 aa 46 33 5d 15 36 33 ab 1b fc 37 69 2f b2 38
       4.6255966e-08 4.2394607e-08 3.0053625e-05 8.496532e-05
000080 3d 8b c3 34 17 cc 95 35 7f fb 00 3a db 7e 07 3b
       3.642289e-07 1.1160763e-06 0.00049202883 0.0020674977
000090 d7 99 23 3c f7 58 fa 3b c8 8a 85 37 f0 11 99 3b
       0.009985409 0.00764 1.591946e-05 0.004671328
0000a0 89 10 36 36 82 b1 44 34 a8 97 c8 3a 2e 21 3a 39
       2.7129738e-06 1.83185e-07 0.0015303986 0.00017750703
0000b0 d0 16 10 33 af c9 f6 32 dc 2c 95 36 15 10 61 37
       3.354836e-08 2.8729884e-08 4.4457684e-06 1.34147895e-05
0000c0 a9 cf 83 33 3c 10 07 33 5c 05 9c 38 e5 b4 6b 38
       6.137936e-08 3.1446902e-08 7.439658e-05 5.6196837e-05
0000d0 a9 fb c6 33 88 ed 97 34 21 16 e3 38 ed 92 89 39
       9.26587e-08 2.8298768e-07 0.00010828325 0.00026240145
0000e0 c1 e3 bb 3b 7d 21 a5 3b 98 30 39 3a 8b 98 f3 3a
       0.0057339375 0.0050393925 0.0007064431 0.001858489
0000f0 28 c6 4d 35 c8 83 2a 35 e3 2d 92 3a c9 10 8a 3a
       7.6656806e-07 6.35217e-07 0.0011152591 0.0010533567
000100 47 48 94 31 3b a6 5d 30 9c 8a 55 36 b7 45 8d 35
       4.315584e-09 8.063556e-10 3.1820155e-06 1.0525608e-06
000110 ff 5c 28 33 8a cf 84 2d be 1e b6 37 45 23 dc 31
       3.9200128e-08 1.5098828e-11 2.1710406e-05 6.4068524e-09
000120 48 43 0c 32 c4 23 36 35 63 da cd 34 49 8c a3 3a
       8.1643705e-09 6.785233e-07 3.8343123e-07 0.0012477721
000130 42 b7 23 38 a2 14 85 38 44 a1 18 38 eb 19 40 39
       3.90329e-05 6.3457774e-05 3.6389814e-05 0.00018320202
000140 88 cc 10 36 7c 2e b3 35 9a 31 bf 3a 80 e6 81 3a
       2.1576725e-06 1.3350068e-06 0.0014586926 0.0009910613
000150 8d cd 27 34 e9 7b a7 34 67 ac 2e 39 be d7 df 39
       1.5627866e-07 3.119633e-07 0.00016658158 0.00042694615
000160 de a8 03 34 8d 63 d4 33 83 f2 26 39 c8 ae 15 39
       1.2261759e-07 9.8901275e-08 0.00015921336 0.00014274858
000170 96 5b 35 34 29 9d 55 35 b9 b3 10 39 92 55 3c 3a
       1.6890257e-07 7.957738e-07 0.00013799862 0.0007184382
000180 36 a2 55 3b 95 75 49 3b df 1c 37 3a 7c 09 41 3b
       0.0032597906 0.003074025 0.0006985198 0.0029455116
000190 ea ce af 35 29 9c 86 35 bd 21 c4 3a 93 75 9c 3a
       1.3098736e-06 1.0029227e-06 0.0014963668 0.0011936895
0001a0 71 77 b3 33 d4 4f 40 33 91 78 09 39 2e 40 1c 38
       8.357063e-08 4.4776087e-08 0.00013110253 3.725307e-05
0001b0 9d 16 1e 34 e4 d0 ef 32 22 6b d1 38 a1 c8 78 38
       1.4723123e-07 2.7918254e-08 9.985852e-05 5.9314658e-05
0001c0 ff 5d dc 33 78 0e a8 35 f6 f8 92 38 04 5e b7 3a
       1.0261646e-07 1.2521186e-06 7.008195e-05 0.0013989811
0001d0 d6 cb e7 39 ee c6 5d 3a 9d 0b c4 39 45 b9 cc 3a
       0.00044211623 0.0008460124 0.00037392686 0.001561918
0001e0 7d 16 3b 26 6f 08 37 27 12 0b f0 27 ec 7a a2 25
       6.4909135e-16 2.5400924e-15 6.6625384e-15 2.8185815e-16
0001f0 5f ae 35 27 7d 16 3b 26 24 38 d3 2b a0 f7 c9 2b
       2.5213323e-15 6.4909135e-16 1.5008034e-12 1.4350639e-12
000200 7d 16 3b 26 5f ae 35 26 bb 41 d1 2b ab 22 13 2a
       6.4909135e-16 6.3033307e-16 1.4868587e-12 1.306825e-13
000210 00 00 00 00 5f ae 35 27 00 00 00 00 43 a0 27 2b
       0.0 2.5213323e-15 0.0 5.9552726e-13
000220 b2 b9 b5 2b 60 f3 e0 2b 4d 1e f5 2b f3 78 ef 24
       1.2912364e-12 1.5983707e-12 1.7416707e-12 1.03854624e-16
000230 bc ae a2 36 c8 63 40 36 42 06 4a 3b 74 a7 03 3b
       4.848318e-06 2.866831e-06 0.0030826484 0.0020088824
000240 72 9a e8 34 37 c8 52 35 93 e4 f4 39 27 5c 88 3a
       4.332574e-07 7.852245e-07 0.00046709608 0.001040344
000250 6e eb 7b 34 e1 84 74 34 21 7e 90 39 49 73 9f 39
       2.3461845e-07 2.2772612e-07 0.00027559794 0.00030412737
000260 c3 7f c2 34 21 9a cf 35 94 9d a1 39 42 fe b5 3a
       3.6228275e-07 1.5467559e-06 0.00030825718 0.0013884979
000270 5b bf ee 3b b6 b5 f7 3b 79 64 a8 3a 7d 28 d2 3b
       0.007285995 0.0075595034 0.0012847326 0.006413518
000280 00 00 00 00 00 00 00 00 00 00 00 00 00 00 00 00
       0.0 0.0 0.0 0.0
000290 00 00 00 00 00 00 00 00 00 00 00 00 00 00 00 00
       0.0 0.0 0.0 0.0
0002a0 00 00 00 00 00 00 00 00 00 00 00 00 00 00 00 00
       0.0 0.0 0.0 0.0
0002b0 00 00 00 00 00 00 00 00 00 00 00 00 00 00 00 00
       0.0 0.0 0.0 0.0
0002c0 00 00 00 00 00 00 00 00 00 00 00 00 00 00 00 00
       0.0 0.0 0.0 0.0
0002d0 b8 a9 2d 36 2e 06 4b 35 c8 1e a7 3a 2e a5 9a 39
       2.5877798e-06 7.5632386e-07 0.0012750262 0.00029496237
0002e0 b8 d8 d9 33 a4 c9 8f 34 be aa c2 38 b3 de eb 39
       1.0144271e-07 2.6782538e-07 9.282444e-05 0.00044988617
0002f0 1e af 0d 31 26 66 6f 32 26 bd 1b 36 0d 4f 84 37
       2.0617743e-09 1.3934857e-08 2.3206899e-06 1.5772437e-05
000300 20 30 96 32 49 52 33 34 ae ae d8 36 4b 91 01 39
       1.7484183e-08 1.6700609e-07 6.457637e-06 0.00012356525
000310 ba 8e af 3b 80 46 d5 3b ce c1 48 38 2d 79 0a 3b
       0.0053575905 0.0065086484 4.786421e-05 0.0021129355
000320 0e c2 6f 37 f9 12 9b 35 6a 71 f6 3b bd 89 ab 3a
       1.4290692e-05 1.1553922e-06 0.007520844 0.0013087314
000330 2c 0a 1b 34 00 e6 bd 34 40 a4 e0 37 ea 5b 74 39
       1.44392e-07 3.537134e-07 2.6779366e-05 0.00023303894
000340 27 b6 fa 34 ad 3d 0c 35 fd 1a 07 3a ea bd 75 3a
       4.6698662e-07 5.2243814e-07 0.0005153863 0.00093743077
000350 ba 9d 9a 35 ff 90 55 35 1e 54 a6 3a ac 50 31 38
       1.1519799e-06 7.955968e-07 0.0012689864 4.227522e-05
000360 25 e6 18 3d 80 d8 c3 3c 11 6e 8c 3b 8e 45 9d 3c
       0.037328858 0.023906946 0.004285582 0.019198205
000370 c5 6f c9 34 3b e3 d1 33 80 8e 2f 39 7e c9 75 38
       3.752049e-07 9.773654e-08 0.00016742386 5.8600206e-05
000380 32 ad 1f 33 c3 ec f9 32 b8 38 1b 38 2a 2d ed 37
       3.7177593e-08 2.9095082e-08 3.7007703e-05 2.8273633e-05
000390 62 39 0e 32 05 60 18 32 e4 00 fd 36 06 ac 31 37
       8.278535e-09 8.869397e-09 7.5400912e-06 1.0590074e-05
0003a0 89 f6 1a 33 d0 bd 73 33 44 36 3c 38 e6 08 45 38
       3.608014e-08 5.675048e-08 4.487323e-05 4.6976747e-05
0003b0 33 37 59 3a eb 5a 10 3a 30 9b 21 39 dc ba ce 39
       0.00082861184 0.0005506712 0.00015411968 0.00039430603
0003c0 7c 29 9e 36 c5 bf b0 36 46 57 32 3b d0 28 43 3b
       4.7135964e-06 5.2675337e-06 0.0027212664 0.0029778965
0003d0 dc c0 00 35 92 c0 c3 35 8d 4b 1c 3a 80 68 24 3b
       4.7964363e-07 1.4584678e-06 0.00059621857 0.00250867
0003e0 a5 00 12 34 17 35 a3 34 87 12 70 39 8c 48 ed 39
       1.3597544e-07 3.0399744e-07 0.00022895086 0.00045258214
0003f0 bc 72 c3 34 59 4c f3 35 e9 2b 90 39 cf 1d a5 3a
       3.640506e-07 1.8127131e-06 0.00027498536 0.0012597385

exp_avg f4 [150]
000000 ae ea ef 3c 0b ce c5 3b bc 1c b5 3a f4 a6 a9 38
       0.029286709 0.006036525 0.0013817768 8.0896454e-05
000010 e8 ec b1 3c a0 0e 6f bb ea 6e 1f 02 de 67 c7 3c
       0.021719411 -0.0036477223 1.1713306e-37 0.02434152
000020 00 00 00 00 32 df d7 bb 04 64 f7 3c 5a 13 00 3c
       0.0 -0.0065878863 0.030199058 0.007817114
000030 c2 81 70 bc 08 35 d1 bc ee 77 00 3d 00 00 00 00
       -0.014679374 -0.025537983 0.031364374 0.0
000040 c7 2d bb bb d4 a2 8f 3d 25 a0 45 3c 19 c5 d7 3c
       -0.005712244 0.07013479 0.012062107 0.0263391
000050 e0 3d e2 3a 79 9e f2 3b af fe 44 bc 84 6a 68 bc
       0.0017260872 0.0074041453 -0.012023612 -0.014185552
000060 10 7f de bb d5 9f d2 bc 33 be d5 3c 91 59 9b 3b
       -0.0067900494 -0.02571098 0.02609167 0.0047409018
000070 e2 04 48 3b 27 59 1a 02 86 80 cb 3b 36 d3 18 3d
       0.0030520489 1.1339719e-37 0.0062103895 0.0373108
000080 b2 7e ab bb f4 85 98 bb 00 00 00 00 f8 1f b6 3c
       -0.005233609 -0.0046546403 0.0 0.02223204
000090 00 00 00 00 c8 10 1b 3a 3a 88 28 3b 42 fc d0 3b
       0.0 0.00059152814 0.0025715963 0.0063777277
0000a0 98 7d 3b 3c ac d6 6c 3c 00 00 00 00 5a f1 9c bc
       0.011443518 0.014455479 0.0 -0.019158054
0000b0 f5 f9 3b bd 82 39 f1 3a e0 46 cf 3c 2c f6 88 bc
       -0.045892674 0.001840398 0.02530235 -0.016718946
0000c0 4a fa f7 bc ed 42 3d bd 90 a2 09 3a 3e 7e 97 3a
       -0.030270714 -0.046206404 0.0005250359 0.0011558009
0000d0 48 07 9b 3c 7e 73 20 bd ca fc 13 bc 0e 15 17 bd
       0.01892437 -0.039172642 -0.009032438 -0.036885314
0000e0 0e 16 9d 3c ce 05 15 bd 16 c8 9d 3c 07 3a 89 3c
       0.019175556 -0.03638249 0.019260447 0.016751302
0000f0 8c 4f 01 bc 3c 5d d1 3c b3 1b db 3b 48 f6 f8 bc
       -0.007892501 0.025557153 0.0066866516 -0.030390874
000100 ec 9c b3 3c 30 e9 5b bc 77 8d 92 3b 56 4f d0 bb
       0.021925412 -0.013422295 0.0044724303 -0.006357114
000110 1a ba 1d bd 40 e5 9a 38 66 3f 94 3c 34 80 42 3d
       -0.03850756 7.3859934e-05 0.018096637 0.047485545
000120 20 c0 d1 bb 4b fa 90 3b 35 cf d3 3b 57 6f 36 3c
       -0.006401077 0.0044243685 0.00646391 0.011134944
000130 8b b1 f0 3c 28 45 66 ba 79 4a 60 bc a4 69 88 bb
       0.029381534 -0.0008784109 -0.013689631 -0.004162984
000140 ba 52 9d bb 2f 13 a4 bb ea f9 c3 3c 39 6a f8 bb
       -0.0048011215 -0.0050071697 0.02392288 -0.007581022
000150 bf b4 15 3d 3a 6d c1 bc 4d 5e bf 3c 52 34 1d 3c
       0.036549326 -0.023611654 0.023360396 0.009594994
000160 00 00 00 00 2b d6 dc 3c fb 14 0d 3d 11 08 c1 3c
       0.0 0.026957592 0.034443837 0.023563417
000170 c8 e9 a8 3c 0c 99 97 3b 09 35 d5 3c f8 93 08 bd
       0.020619288 0.004626399 0.026026266 -0.03334424
000180 00 00 00 00 10 ab 4c ba 24 6c 53 3c cf b0 2f 3b
       0.0 -0.0007807473 0.012904201 0.0026808267
000190 64 2d 48 3c e6 6a 07 3d df 09 18 bd c9 19 07 3d
       0.012217853 0.03306093 -0.03711879 0.032983575
0001a0 b0 18 3c 3c e4 fd d3 3c 68 6f 18 bc d7 68 18 bd
       0.011480495 0.0258779 -0.009303905 -0.037209358
0001b0 68 54 d6 ba e3 d3 ae bc 91 9a ce 3c 70 fc 07 3c
       -0.0016352059 -0.02134127 0.025220187 0.008299932
0001c0 c9 fd 19 bd f5 d7 09 3c 5e 6d 83 bc 00 00 00 00
       -0.037595544 0.008413305 -0.016043361 0.0
0001d0 99 ab 33 bc 13 bc 37 3d 6b d8 86 3c b8 15 b2 bd
       -0.010966205 0.044857096 0.016460618 -0.08695549
0001e0 79 18 1f 3d f4 5b e3 bb 00 00 00 00 22 2d 3d 3c
       0.0388417 -0.006938452 0.0 0.011546405
0001f0 26 9e a1 bc c2 7c 8e bd a1 f3 5a bc 37 e0 b0 bc
       -0.019728731 -0.069573894 -0.01336375 -0.021591289
000200 00 00 00 00 dd 98 19 bd e8 95 3e 3b e1 bb 71 bc
       0.0 -0.037499297 0.002908105 -0.0147542665
000210 de 38 64 3b e0 3d 73 bc 6c 4f e8 bc 9c 41 40 bb
       0.0034823935 -0.014846295 -0.028358184 -0.0029335981
000220 89 e6 79 bc c6 28 11 3d 6d 39 60 3c bd e2 a1 3c
       -0.015252718 0.035439275 0.013685566 0.019761438
000230 94 e3 b3 bb 87 f2 61 3c c8 62 0a bc d9 c7 b0 3c
       -0.005489776 0.013790733 -0.008446403 0.02157967
000240 a6 63 53 bd 00 00 00 00 a4 44 df 3c 14 0a 05 3c
       -0.051608704 0.0 0.02725441 0.008120079
000250 18 a5 9d 3c 9c af 02 bc
       0.019243762 -0.007976439
