checkpoints/dqn/checkpoint_ep400.pth (torch, 229962 bytes, 18 tensors)

layer1.weight f4 [150, 20]
-1.9375416 -2.9303136 -0.6511879 -0.6709289 -1.9208301 -2.2461321 -0.11892195 -0.33056563
-2.23272 -2.8509235 -1.7462971 -0.7756001 -3.5551553 1.8389959 -1.7723775 -0.20230328
-1.4441792 -1.2437574 0.34829792 -0.7183756 -0.8029678 -2.0619757 0.1206591 0.0035686872
-0.74265194 -3.1043575 -2.110582 -1.6258302 -0.99856985 0.23298581 -0.3347476 -0.22169676
-0.49893382 0.80192214 -0.4815313 0.17237993 0.07268339 0.13856658 0.08272208 -5.846364
-2.116857 -0.19655602 -0.25365853 0.626469 -4.828417 -1.1819866 -2.1353312 0.9141716
0.9476717 0.93708533 -1.4170496 0.39777958 -1.2759836 0.053497016 -0.7507207 -1.9131889
-1.4017178 -0.644554 -0.53306466 -0.4618587 0.32607865 0.350057 0.08668317 -0.16196805
-1.5865467 -0.40927783 0.03680412 0.13610254 0.3678649 -0.9901739 0.23806648 -0.056030165
-0.16243899 -0.45986274 -0.100414954 -0.0348166 0.25172564 -0.26529345 -2.7610455 -33.056446
-7.315107 -6.9367976 -0.26537833 -0.8691024 -5.805382 -7.603781 -1.5196366 -1.1578956
-2.629129 0.5968187 -0.7119803 0.5405363 1.3705935 -0.9970125 0.031415932 -0.09703195
-1.1311455 -1.3606905 -6.4005847 -4.5977035 -0.78122467 2.6213574 0.11804415 0.26013103
-1.8867606 0.5191032 0.04233558 0.040600136 -1.1261045 2.8983438 0.28015214 0.07001936
-1.2142495 -3.178052 0.19529593 -0.27916828 -0.21571329 1.0367944 -1.0583429 -2.260849
-2.4051626 -6.429337 -0.35239023 0.3553235 1.2691101 -1.4903408 0.1393137 -0.44807678
1.5038142 -2.2084205 -0.21279374 0.46909592 -1.5229607 -2.8414404 -0.7294038 -0.7163832
-1.0498813 -0.23746309 0.9662512 -5.2432585 -3.6787763 -0.68502015 -0.018402465 -0.6808766
-2.4869561 -3.2647421 -0.46718198 0.16978583 -0.35000804 -1.843887 0.021519648 -0.02317126
-1.3501704 1.7291741 -1.4497223 -0.32692277 -0.23898135 -1.717188 -2.719268 2.4725296
-2.7235277 -1.2277154 0.3257913 -0.656733 0.15729168 -2.935972 -0.79868466 -0.5651235
1.3767253 0.031793904 -0.0043696016 0.327075 2.0903223 -0.9095676 0.016585272 -1.2848998
0.086659715 -3.2829666 0.8582141 -1.1956888 -1.7740579 -8.644262 0.20120364 -0.705813
0.4613379 -3.0383985 -0.08534476 0.14388719 -1.4839331 -4.8633933 0.13882071 -0.039391134
-0.25253287 -0.8541465 0.06802904 0.378072 -0.042831093 -0.47837308 -0.46727568 -2.5760243
0.97721064 -1.1857374 -0.6495396 -0.07237844 1.363985 3.60251 -0.13126501 -0.16088389
-3.0561204 -1.3095105 -0.06937554 0.6403999 2.2523708 1.235417 -0.22235547 -0.06927061
-0.12724969 -2.9167547 -0.3533538 -0.029045386 -0.52750784 -5.266282 0.009363062 0.119084075
0.09006233 -7.20684 -0.17976068 -0.45625573 0.48083675 -1.7623353 0.3896618 0.101994745
-0.9917013 -3.6224127 -0.24616364 0.13672249 -0.020406209 -0.36014977 -110.93951 -2.2940063
-2.7263806 -1.2508081 -0.90616226 -0.28198615 -1.9054885 -4.770289 -0.0017751567 -0.29334804
-3.6692562 -8.642584 -1.0396461 -0.21499671 1.5520271 1.6712986 -1.4635891 -0.796972
00000000: 5d01 f8bf 428a 3bc0 40b4 26bf ffc1 2bbf
00000010: c3dd f5bf a1c0 0fc0 5a8d f3bd e63f a9be
00000020: e2e4 0ec0 8875 36c0 aa86 dfbf ba8d 46bf
00000030: aa87 63c0 3864 eb3f 44dd e2bf 9728 4fbe
00000040: ddda b8bf 7133 9fbf 1b54 b23e 77e7 37bf
00000050: 4c8f 4dbf 69f7 03c0 1e1c f73d a3e0 693b
00000060: 701e 3ebf cbad 46c0 c713 07c0 341b d0bf
00000070: 46a2 7fbf d593 6e3e 0a64 abbe 7a04 63be
00000080: 4174 ffbe c54a 4d3f 458b f6be 5d84 303e
00000090: 07db 943d 66e4 0d3e 326a a93d 6a15 bbc0
000000a0: 967a 07c0 fb45 49be 88df 81be 4660 203f
000000b0: 6482 9ac0 564b 97bf 44a9 08c0 2607 6a3f
000000c0: 9d9a 723f d3e4 6f3f e261 b5bf c4a9 cb3e
000000d0: 6e53 a3bf b01f 5b3d 3b2f 40bf 60e3 f4bf
000000e0: 7d6b b3bf 7e01 25bf ed76 08bf be78 ecbe
000000f0: c8f3 a63e ac3a b33e f286 b13d f4da 25be
00000100: f613 cbbf dd8c d1be ebbf 163d 775e 0b3e
00000110: ca58 bc3e 097c 7dbf b3c7 733e e37f 65bd
00000120: 6856 26be 2173 ebbe 5ba6 cdbd da9b 0ebd
00000130: 2fe2 803e 8bd4 87be f8b4 30c0 cd39 04c2
00000140: 5b15 eac0 3ffa ddc0 abdf 87be 7f7d 5ebf
00000150: b0c5 b9c0 2d52 f3c0 7483 c2bf ec35 94bf
00000160: a643 28c0 1cc9 183f 5744 36bf 9660 0a3f
00000170: 9c6f af3f 363c 7fbf fead 003d b0b8 c6bd
00000180: 60c9 90bf 1b2b aebf 97d1 ccc0 6320 93c0
00000190: 57fe 47bf 52c4 2740 22c1 f13d e52f 853e
000001a0: 5f81 f1bf f3e3 043f 1368 2d3d 544c 263d
000001b0: 3124 90bf 777e 3940 1a70 8f3e 4f66 8f3d
000001c0: 876c 9bbf 3465 4bc0 a8fb 473e 25ef 8ebe
000001d0: f2e3 5cbe aeb5 843f c877 87bf c0b1 10c0
000001e0: 2fee 19c0 21bd cdc0 7e6c b4be f6ec b53e
000001f0: 3372 a23f 7dc3 bebf 40a8 0e3e 526a e5be
00000200: fc7c c03f c356 0dc0 9ae6 59be 572d f03e
00000210: 60f0 c2bf 29da 35c0 35ba 3abf e464 37bf
00000220: 8362 86bf 8629 73be 3d5c 773f c6c8 a7c0
00000230: 1271 6bc0 7b5d 2fbf c4c0 96bc ee4d 2ebf
00000240: 4a2a 1fc0 89f1 50c0 7a32 efbe 56dc 2d3e
00000250: 4134 b3be 7d04 ecbf f949 b03c a7d1 bdbc
00000260: 62d2 acbf 9455 dd3f 8090 b9bf 6c62 a7be
00000270: 87b7 74be d1cc dbbf 7d08 2ec0 ed3d 1e40
00000280: 474e 2ec0 c725 9dbf 1ece a63e a71f 28bf
00000290: 1211 213e f7e6 3bc0 9976 4cbf efab 10bf
000002a0: 8938 b03f 533a 023d e02e 8fbb 6076 a73e
000002b0: d7c7 0540 6cd9 68bf d6dd 873c 9977 a4bf
000002c0: a67a b13d 201c 52c0 ebb3 5b3f 550c 99bf
000002d0: 5414 e3bf e64e 0ac1 5408 4e3e 29b0 34bf
000002e0: 7b34 ec3e 1f75 42c0 3cc9 aebd 2a57 133e
000002f0: 85f1 bdbf eba0 9bc0 0427 0e3e 9958 21bd
00000300: fd4b 81be 58a9 5abf cf52 8b3d a792 c13e
00000310: a86f 2fbd 51ed f4be c23e efbe 95dd 24c0
00000320: 7a2a 7a3f 3ec6 97bf 3a48 26bf 263b 94bd
00000330: 0f97 ae3f 868f 6640 566a 06be bfbe 24be
00000340: 7a97 43c0 0a9e a7bf c314 8ebd 3ff1 233f
00000350: d826 1040 2522 9e3f 27b1 63be c0dd 8dbd
00000360: be4d 02be 1cac 3ac0 caea b4be 97f0 edbc
00000370: c10a 07bf 6285 a8c0 8767 193c 5ae2 f33d
00000380: 9972 b83d 6f9e e6c0 2f13 38be 5a9a e9be
00000390: 3c30 f63e 3494 e1bf c081 c73e 9fe2 d03d
000003a0: 23e0 7dbf 9cd5 67c0 5212 7cbe fb00 0c3e
000003b0: ec2a a7bc 8d65 b8be 07e1 ddc2 00d1 12c0
000003c0: 057d 2ec0 7b1a a0bf 40fa 67bf 7d60 90be
000003d0: 0ce7 f3bf 35a6 98c0 60ac e8ba b731 96be
000003e0: 18d5 6ac0 0648 0ac1 2013 85bf 1928 5cbe
000003f0: d3a8 c63f 1ded d53f e356 bbbf 5b06 4cbf

layer1.bias f4 [150]
-0.89662725 -1.2739326 -1.3081034 8.376748 0.119439036 5.629738 -3.2977505 -7.3820214
-3.811103 6.2727027 -0.64898473 4.5811 -1.7590387 -3.392161 -0.56940526 -11.8566
-7.8136597 -0.5969496 8.5412 -9.611959 -0.7962764 -2.7586918 5.435309 -1.0014248
-1.423939 -0.38668475 10.3873 -0.6268062 8.676325 -4.111858 -1.6850306 -1.12887
-1.1289202 -4.301588 -0.23831213 -0.72375625 3.933732 -0.508771 -0.9464228 -1.0830324
-1.5367025 -2.4777067 -0.36136228 5.6174283 -0.82547796 4.0767694 -2.1912644 -1.3566765
7.194459 -0.9811554 -7.4999065 -3.3183599 -2.9095812 -0.5232182 -1.8044415 0.030201089
-1.3114772 2.5615492 -0.21903339 -1.0924455 -2.5906475 -0.7882413 -0.9438549 -0.53057796
-0.23314111 9.341605 6.124571 11.932314 -0.8919941 -0.6868816 -0.0967765 -0.49164847
-1.4000866 -1.984841 -1.7660774 4.16184 -4.7842183 -2.3168871 -7.314821 -1.3601311
-4.12216 -3.0844793 4.308215 1.4132912 4.8162875 1.3821898 -1.5835743 -3.022788
-0.9229934 -4.237446 -0.6929109 -2.3054333 5.8194127 -6.4785914 -0.73942566 -2.5063028
-0.31283078 -2.7712078 -2.3137574 14.058237 -0.58800316 -1.8815054 -0.70089155 -5.2450643
-3.543485 -1.2533437 -7.617528 -3.1076868 -4.243838 7.827036 -0.17668732 -0.14491516
-0.4066519 -1.2514658 -1.4342647 -1.8676335 -9.516057 -2.061419 -0.14306025 5.643351
-4.182884 -0.33899015 -0.25898442 -0.101702854 -1.0319577 -0.16812918 -2.3844016 2.3190644
1.6629148 -0.91539615 -0.85869503 -1.0570993 -2.1819282 -0.4610812 -0.88132364 -1.7776045
-1.2373724 -2.2414036 3.113643 -0.41148797 7.5915637 -4.1160383 -2.08163 -0.7033378
-4.2440205 0.47783905 -0.5761705 -0.8868233 -1.2751262 -0.39989522
00000000: 5d89 65bf 3910 a3bf ef6f a7bf 2907 0641
00000010: 749c f43d d026 b440 580e 53c0 8539 ecc0
00000020: 1de9 73c0 fbb9 c840 dd23 26bf 5f98 9240
00000030: 2e28 e1bf 2a19 59c0 8bc4 11bf a2b4 3dc1
00000040: 8009 fac0 b0d1 18bf c1a8 0841 96ca 19c1
00000050: c5d8 4bbf 688e 30c0 0dee ad40 b02e 80bf
00000060: a243 b6bf 8bfb c5be 6132 2641 5f76 20bf
00000070: 3ad2 0a41 5794 83c0 15af d7bf d07e 90bf
00000080: 7580 90bf 9ca6 89c0 1808 74be 1748 39bf
00000090: 44c2 7b40 d13e 02bf c448 72bf cea0 8abf
000000a0: abb2 c4bf bf92 1ec0 7a04 b9be f9c1 b340
000000b0: 8652 53bf e574 8240 ad3d 0cc0 93a7 adbf
000000c0: 0239 e640 002d 7bbf 3cff efc0 0260 54c0
000000d0: 9436 3ac0 a1f1 05bf f0f7 e6bf 4668 f73c
000000e0: 7cde a7bf 6cf0 2340 4a4a 60be 41d5 8bbf
000000f0: 2bcd 25c0 2fca 49bf 7aa0 71bf f5d3 07bf
00000100: 8bbc 6ebe 3777 1541 7cfc c340 c2ea 3e41
00000110: ba59 64bf 79d7 2fbf c232 c6bd 59b9 fbbe
00000120: 0a36 b3bf 450f febf d30e e2bf cb2d 8540
00000130: 5118 99c0 e147 14c0 0313 eac0 c718 aebf
00000140: bce8 83c0 1c68 45c0 e6dc 8940 bae6 b43f
00000150: 071f 9a40 98eb b03f 90b2 cabf 5c75 41c0
00000160: 4c49 6cbf 2899 87c0 9c62 31bf 388c 13c0
00000170: a138 ba40 9f50 cfc0 004b 3dbf 4467 20c0
00000180: 5b2b a0be 785b 31c0 9a14 14c0 8aee 6041
00000190: 6087 16bf 2bd5 f0bf a16d 33bf 91d7 a7c0
000001a0: 75c8 62c0 916d a0bf cac2 f3c0 57e4 46c0
000001b0: 85cd 87c0 1477 fa40 85ed 34be a464 14be
000001c0: ae34 d0be 0830 a0bf fc95 b7bf 9d0e efbf
000001d0: c541 18c1 4aee 03c0 637e 12be 5596 b440
000001e0: 30da 85c0 1e90 adbe 9b99 84be 9649 d0bd
000001f0: 3117 84bf 0e2a 2cbe 099a 18c0 8d6b 1440
00000200: 64da d43f 6757 6abf 70d3 5bbf 084f 87bf
00000210: b6a4 0bc0 d612 ecbe 6d9e 61bf 8b88 e3bf
00000220: 3862 9ebf 2873 0fc0 ed45 4740 8dae d2be
00000230: 17ee f240 96b6 83c0 6d39 05c0 f20d 34bf
00000240: 04cf 87c0 52a7 f43e e97f 13bf da06 63bf
00000250: 5637 a3bf 11bf ccbe

layer2.weight f4 [100, 150]
-0.021600114 0.030273644 -0.06777556 -0.2882376 0.20032449 -0.7209411 -0.00092157914 -2.2498996
1.1630732 -1.5681345 0.012473435 -1.533039 0.9029773 0.9290345 0.06301179 0.038733564
1.6259563 -0.1079039 0.19429745 -8.850833 -2.8798127 -1.2440517 -4.610378 0.04134641
-0.06818497 0.0024840166 -7.7045107 0.029492762 -1.0418401 -4.9495387 -1.2008827 -0.0031854853
0.072625786 -1.3004704 0.024063211 0.33161676 -1.6744779 0.03435161 0.00787769 -2.494848
0.15869981 -1.5629399 -0.021942396 1.6102173 -0.045102593 -0.3391014 -1.0029461 0.57857275
0.06768472 -0.6912451 -0.22302735 -3.9871702 -1.3197999 0.04600499 -0.069347344 -1.1969073
-2.1607764 -2.4054255 0.07059765 -0.9259289 0.013045795 -0.1451699 0.77545977 -0.040729973
-0.07359517 -3.8148973 -3.493237 -1.9001757 -0.1702022 -0.011901069 0.090082884 0.0010635708
0.11944902 -0.07059306 0.042522393 -0.087609194 0.60362583 0.87196267 -1.8845036 0.026523054
0.6692821 -0.086237445 -0.70041007 -1.7249329 -1.4208134 -0.37723097 -0.6025885 0.772151
0.010940002 -0.04240011 -0.05209403 0.87261915 0.08892623 -0.21316926 0.35201365 -0.5265794
0.31517282 0.41043037 2.0679255 -8.040963 -0.0040805587 -0.026560485 -0.13740471 0.47341776
-0.11991768 1.3339372 -20.121063 -1.7042999 -2.3343284 -0.22337928 -0.021136506 0.060912166
-0.08651317 0.2576596 -0.12018815 -1.3432832 -0.5241215 0.03959939 -0.07325287 -3.7794437
-3.2428198 -0.09797441 -0.02557798 -0.72454923 -0.068897605 -0.058454797 -2.353964 -2.644992
-2.969006 1.0271198 0.016095014 -0.041629028 -2.5252512 -0.00593767 -0.035271943 -0.03953032
0.024927652 -0.113747425 1.0131562 -0.7637209 -0.49849343 -4.001719 0.95886976 -0.019551905
-0.034528513 2.1011841 -0.08435696 -0.03345263 -0.006782468 1.4803736 0.09483741 1.9937618
-0.8316604 -0.111100845 -1.277392 -6.120103 -0.99998003 3.9877298 -7.76202 -0.25218457
0.38260525 -2.227088 -2.587711 -0.47384322 0.20273374 -25.525818 -3.8297563 0.2518788
-4.9806366 1.0617193 -0.4260698 -0.4132219 -6.3763595 0.16718455 -1.2958753 2.729739
-0.25762472 1.2954371 -9.949355 3.3815756 -1.305971 -3.2462811 0.1216685 3.7191737
-0.42495993 1.0339111 -3.771445 -0.7469531 0.79701453 3.0835168 -3.5435922 1.0831674
-0.59488255 2.023447 -0.64489824 -4.5705504 1.1418792 -5.5193667 -4.078593 0.96423364
4.452434 1.8177432 0.77677584 -0.52377117 1.6452081 -1.7190514 -4.013915 3.2741725
-0.040151406 -0.4868036 1.1917536 0.17307179 -1.816496 1.173507 -0.03405664 -4.906184
-2.4444697 -12.363254 -3.7363503 -1.4239026 -1.7375798 -1.3703476 0.8526228 -0.7168302
-0.4702759 -1.1827382 -3.4154882 -7.4473467 0.38352147 -0.41663128 -2.6332972 1.0047985
3.312959 -1.8434857 -8.104265 -9.074536 -3.4521222 -1.5456474 -0.4081214 3.4276075
-2.0927956 0.6248366 -3.2484505 0.80110174 -0.026139185 0.28722203 -0.093933955 -3.3507097
-0.33439 0.9196531 -1.5999495 0.3181554 0.4579725 -2.4620585 0.89100254 -1.4742004
00000000: b9f2 b0bc 6f00 f83c eacd 8abd e193 93be
00000010: dd21 4d3e 998f 38bf 2196 71ba 5bfe 0fc0
00000020: 95df 943f a2b8 c8bf 615d 4c3c 9f3a c4bf
00000030: 8529 673f 34d5 6d3f 530c 813d 16a7 1e3d
00000040: 561f d03f b8fc dcbd e9f5 463e 039d 0dc1
00000050: da4e 38c0 163d 9fbf 3788 93c0 da5a 293d
00000060: 90a4 8bbd e2ca 223b 5a8b f6c0 ce9a f13c
00000070: 045b 85bf 9f62 9ec0 86b6 99bf 93c3 50bb
00000080: d4bc 943d d075 a6bf 3620 c53c acc9 a93e
00000090: 4b55 d6bf 46b4 0c3d 6d11 013c 97ab 1fc0
000000a0: 3482 223e 6a0e c8bf 8ac0 b3bc 9a1b ce3f
000000b0: 7fbd 38bd b39e adbe 8a60 80bf 581d 143f
000000c0: 499e 8a3d 70f5 30bf 4861 64be cc2d 7fc0
000000d0: 34ef a8bf ba6f 3c3d fb05 8ebd 4234 99bf
000000e0: 294a 0ac0 7ef2 19c0 8095 903d ad09 6dbf
000000f0: 08be 553c 6ba7 14be 8884 463f 79d4 26bd
00000100: 11b9 96bd 4727 74c0 3291 5fc0 f538 f3bf
00000110: 7c49 2ebe b4fc 42bc 607d b83d 8467 8b3a
00000120: b0a1 f43d 1893 90bd f62b 2e3d 736c b3bd
00000130: 3987 1a3f f238 5f3f 6a37 f1bf e046 d93c
00000140: 1256 2b3f 429d b0bd 134e 33bf 9aca dcbf
00000150: 37dd b5bf 6b24 c1be 3d43 1abf b0ab 453f
00000160: b23d 333c bdab 2dbd 8d60 55bd f863 5f3f
00000170: f51e b63d 0b49 5abe 223b b43e e8cd 06bf
00000180: 555e a13e ee23 d23e e458 0440 c9a7 00c1
00000190: 35b6 85bb 6095 d9bc d2b3 0cbe d063 f23e
000001a0: 6797 f5bd 74be aa3f f0f7 a0c1 8026 dabf
000001b0: a365 15c0 8abd 64be 7726 adbc 097f 793d
000001c0: d12d b1bd f6eb 833e 3425 f6bd b4f0 abbf
000001d0: d42c 06bf f832 223d 9a05 96bd 68e2 71c0
000001e0: 5c8a 4fc0 cfa6 c8bd e988 d1bc 0f7c 39bf
000001f0: 301a 8dbd 4c6e 6fbd 59a7 16c0 8d47 29c0
00000200: 3204 3ec0 a978 833f b1d9 833c 3383 2abd
00000210: b79d 21c0 c990 c2bb 5079 10bd 8bea 21bd
00000220: 1335 cc3c 69f4 e8bd 1aaf 813f 3783 43bf
00000230: 883a ffbe 150e 80c0 7d78 753f 512b a0bc
00000240: c56d 0dbd cd79 0640 58c3 acbd a005 09bd
00000250: 773f debb e27c bd3f 1e3a c23d 9633 ff3f
00000260: b2e7 54bf d788 e3bd 9581 a3bf e2d7 c3c0
00000270: b1fe 7fbf f736 7f40 7862 f8c0 561e 81be
00000280: d6e4 c33e 9c88 0ec0 0f9d 25c0 949b f2be
00000290: 6f99 4f3e e034 ccc1 ba1a 75c0 42f6 803e
000002a0: 6061 9fc0 6be6 873f d225 dabe d291 d3be
000002b0: 230b ccc0 6d32 2b3e 3edf a5bf 0bb4 2e40
000002c0: 63e7 83be e2d0 a53f 8f30 1fc1 bc6b 5840
000002d0: 0f2a a7bf 12c3 4fc0 562d f93d f106 6e40
000002e0: 5994 d9be 3357 843f 5b5f 71c0 5238 3fbf
000002f0: 2509 4c3f 5758 4540 37ca 62c0 3ba5 8a3f
00000300: 394a 18bf 2880 0140 0d18 25bf f341 92c0
00000310: 1929 923f a79e b0c0 d583 82c0 04d8 763f
00000320: 577a 8e40 cfab e83f c8da 463f de15 06bf
00000330: 2e96 d23f e009 dcbf fe71 80c0 0b8c 5140
00000340: cd75 24bd 523e f9be 628b 983f bb39 313e
00000350: f182 e8bf 7a35 963f fa7e 0bbd 76ff 9cc0
00000360: 3172 1cc0 e3cf 45c1 5d20 6fc0 7142 b6bf
00000370: 0469 debf 8d67 afbf 7d45 5a3f 2f82 37bf
00000380: 01c8 f0be f763 97bf 5c97 5ac0 aa50 eec0
00000390: ed5c c43e b250 d5be f187 28c0 3d9d 803f
000003a0: 8507 5440 57f7 ebbf 12ab 01c1 4d31 11c1
000003b0: 92ef 5cc0 c6d7 c5bf 4af5 d0be ec5d 5b40
000003c0: 5df0 05c0 4bf5 1f3f 9de6 4fc0 0115 4d3f
000003d0: d821 d6bc c40e 933e 7260 c0bd 0772 56c0
000003e0: 2b35 abbe 636e 6b3f 25cb ccbf 44e5 a23e
000003f0: 5f7b ea3e 5e92 1dc0 be18 643f 99b2 bcbf

layer2.bias f4 [100]
-0.93169916 -8.190344 -0.14230771 -2.8005035 -0.051094443 -2.1612694 -0.11541299 -0.18509308
-0.5802603 0.013600207 -1.2594256 3.9800756 2.2746787 -1.6132724 -0.715529 -0.7709439
-0.17274837 -1.9418309 -0.30646172 -0.15487777 -0.0859045 -0.51557356 -0.4812526 0.21387301
-1.5942084 -0.17683034 -0.122313954 -2.7265062 0.9900523 -0.058689024 -1.0369071 -0.058654852
-4.298399 2.0545266 0.061629873 -0.16783127 -0.8669801 1.7277787 -3.1360114 0.023865372
3.210749 -5.5799503 -4.5520463 -3.2478325 4.4436316 -7.3263373 -0.059785493 -0.13421331
-1.2609552 -0.14759138 -1.1210705 0.5727449 -6.5462246 -0.12953584 -1.1143507 0.029465279
-0.087895684 -0.57110137 -0.13446486 -0.12838489 0.6066467 -7.1916723 -0.06803188 -0.35385096
-7.2614717 -5.0370593 0.174424 0.6211707 -0.07900238 -2.5611715 -1.1632981 -2.223612
0.5013159 2.2241898 -0.9160431 0.6593753 -0.55472195 -5.730971 -0.2507406 1.9868269
6.3533053 0.36303452 -0.027412057 -0.07220443 0.6535132 -0.58020306 -2.7656 -0.9511699
0.7207375 -1.6194662 -2.0243163 0.2909789 -5.999304 -0.26622683 -1.7164011 -0.08152621
-0.7599958 -0.022473395 0.21552579 -0.85697734
00000000: d683 6ebf a60b 03c1 1db9 11be 733b 33c0
00000010: 6848 51bd 3d52 0ac0 a55d ecbd 0a89 3dbe
00000020: f08b 14bf 67d3 5e3c dc34 a1bf 8fb9 7e40
00000030: 5694 1140 b67f cebf e92c 37bf 945c 45bf
00000040: f3e4 30be ea8d f8bf 8de8 9cbe 4798 1ebe
00000050: b3ee afbd a1fc 03bf be66 f6be 8701 5b3e
00000060: 050f ccbf 0313 35be bd7f fabd 147f 2ec0
00000070: 1174 7d3f e763 70bd 5fb9 84bf 1240 70bd
00000080: 7c8c 89c0 5d7d 0340 9b6f 7c3d f6db 2bbe
00000090: 68f2 5dbf da27 dd3f 69b4 48c0 5081 c33c
000000a0: e97c 4d40 f48e b2c0 5daa 91c0 7ddc 4fc0
000000b0: 3b32 8e40 5b71 eac0 a2e1 74bd 376f 09be
000000c0: fb66 a1bf 3222 17be 3d7f 8fbf 699f 123f
000000d0: ac7a d1c0 0ba5 04be 0ba3 8ebf 2b61 f13c
000000e0: a702 b4bd b333 12bf 28b1 09be 5477 03be
000000f0: 334d 1b3f 2e22 e6c0 4c54 8bbd f42b b5be
00000100: fa5d e8c0 972f a1c0 349c 323e 0b05 1f3f
00000110: 00cc a1bd 3cea 23c0 f4e6 94bf a94f 0ec0
00000120: 3d56 003f 2059 0e40 cd81 6abf d2cc 283f
00000130: 4202 0ebf 1d64 b7c0 1261 80be 5850 fe3f
00000140: 474e cb40 a9df b93e 408f e0bc ebdf 93bd
00000150: a44c 273f 3088 14bf 97ff 30c0 df7f 73bf
00000160: 4182 383f ab4a cfbf 668e 01c0 30fb 943e
00000170: 4cfa bfc0 e24e 88be 08b3 dbbf 37f7 a6bd
00000180: 168f 42bf 201a b8bc cbb2 5c3e de62 5bbf

layer3.weight f4 [3, 100]
7.5255446 6.9847565 0.03327932 5.3592834 -0.05276366 -5.182745 -0.042988263 -1.2944844
6.617788 -5.791039 2.6892943 -7.285863 15.072468 -12.5984 8.679391 -10.588617
-24.493654 10.053832 -3.3812861 -0.080454156 0.058231674 8.896442 -8.276531 -5.063197
-20.396439 0.02076479 0.029759716 -24.343483 -5.415924 0.012125125 2.0405931 0.026497897
5.5715446 9.310609 -15.073693 -3.2230802 12.6216545 4.3278694 6.6539464 -5.7851534
7.5330124 0.28076106 8.102626 11.182533 -6.0214725 10.46225 0.086733036 -0.0012495933
13.460877 -0.04024854 -6.1108813 15.285033 5.548639 -0.03525176 -3.5179884 -3.1993382
-0.061826434 14.220423 -8.78589 -0.0067173233 -4.7930074 4.4501147 0.001158034 -4.319854
3.5500612 14.274654 -3.6973248 6.0678024 0.025841132 -17.411983 -3.376549 -30.029566
-6.689859 -3.3003638 -1.7816246 -18.549076 -3.351971 4.46882 -4.075488 -8.659355
18.106117 -4.1534104 0.026307402 0.059683394 9.512502 13.946615 5.791666 -8.400367
4.3003974 7.744204 43.118767 -5.7108226 12.286054 -4.0463796 3.2008684 -0.03812013
5.7144604 0.069790676 -5.546226 -3.6339245 7.390263 8.766511 0.021778855 5.9741306
-0.015436472 -5.9120946 -0.08445883 -1.3562795 6.441685 -4.0948277 2.4704804 -7.250533
15.792754 -13.690628 8.3940115 -9.301893 -23.062878 9.9063225 -3.759388 0.048883427
0.02728568 8.864423 -8.424155 -5.2237425 -20.770533 0.02324138 -0.014828278 -23.771975
-5.464582 -0.021461567 1.7661365 0.053083926 5.298006 9.068055 -14.71055 -3.2654922
11.888141 4.3527765 6.8265195 -6.56408 7.5324435 0.26886615 8.452847 10.281172
-6.0122313 11.192238 -0.011978104 -0.009893347 13.834796 0.029377807 -5.657442 17.088604
5.3148 -0.045026325 -2.958699 -3.1720445 0.00734843 15.021353 -8.384625 -0.056153692
-4.254615 4.426541 -0.023694709 -3.392198 3.565631 14.02738 -3.3106856 6.370959
-0.058928445 -16.984535 -3.2695496 -29.922592 -8.527991 -3.3140452 -1.7571992 -19.126694
-4.023738 4.4745727 -3.9003904 -8.574108 17.956673 -4.1331377 -0.0564167 -0.004499461
9.707044 14.091143 5.8427267 -8.389594 4.20915 7.802467 43.226994 -5.9931903
12.448121 -4.323407 3.9531894 0.03139309 5.962013 -0.0039310097 -6.083187 -3.7605278
7.182258 7.8277335 0.051863976 6.6756186 0.029134424 -4.9167585 0.05688925 -1.5485493
6.4937835 -5.820302 3.054876 -7.320916 15.651675 -12.51929 8.716357 -9.150885
-24.890318 10.481445 -3.4579415 0.020809097 -0.040600087 8.728459 -7.59906 -4.7705016
-20.609138 0.03146747 0.032463294 -24.506517 -5.5232906 -0.03537745 2.326399 0.017904544
4.9757814 8.515599 -14.735677 -3.1663177 12.204931 4.420519 6.8495154 -6.2188034
7.5387893 0.18143225 7.509045 10.829749 -5.9895425 11.268061 -0.03035416 -0.026999235
13.75972 -0.005404268 -6.272576 15.349983 5.3602085 0.012028501 -3.6271303 -3.155846
00000000: 43d1 f040 2083 df40 e54f 083d 407f ab40
00000010: b51e 58bd 0cd9 a5c0 7614 30bd aab1 a5bf
00000020: ebc4 d340 3150 b9c0 661d 2c40 ca25 e9c0
00000030: d428 7141 0c93 49c1 c9de 0a41 fa6a 29c1
00000040: 01f3 c3c1 7fdc 2041 fe66 58c0 26c5 a4bd
00000050: 5684 6e3d d457 0e41 ac6c 04c1 b605 a2c0
00000060: e82b a3c1 ec1a aa3c a6ca f33c 74bf c2c1
00000070: 404f adc0 76a8 463c 1499 0240 1e12 d93c
00000080: 184a b240 41f8 1441 d92d 71c1 f246 4ec0
00000090: 4cf2 4941 e87d 8a40 21ed d440 fa1f b9c0
000000a0: 700e f140 eabf 8f3e 5ba4 0141 a8eb 3241
000000b0: e7af c0c0 6065 2741 17a1 b13d 65c9 a3ba
000000c0: c15f 5741 a7db 24bd 578c c3c0 7f8f 7441
000000d0: 738e b140 2664 10bd b926 61c0 f5c1 4cc0
000000e0: b73d 7dbd da86 6341 0193 0cc1 fe1c dcbb
000000f0: 5160 99c0 5767 8e40 2cc9 973a 3e3c 8ac0
00000100: 3434 6340 fc64 6441 f8a0 6cc0 702b c240
00000110: c8b0 d33c be4b 8bc1 6119 58c0 8d3c f0c1
00000120: 5313 d6c0 2939 53c0 460c e4bf 8264 94c1
00000130: b186 56c0 9300 8f40 666a 82c0 b88c 0ac1
00000140: 54d9 9041 bde8 84c0 9f82 d73c 9376 743d
00000150: 3533 1841 5625 5f41 5455 b940 e767 06c1
00000160: db9c 8940 85d0 f740 9e79 2c42 0fbf b6c0
00000170: ad93 4441 f17b 81c0 07db 4c40 da23 1cbd
00000180: dcdc b640 6aee 8e3d af7a b1c0 3892 68c0
00000190: 097d ec40 a143 0c41 9269 b23c 142c bf40
000001a0: 42e9 7cbc e12f bdc0 c0f8 acbd 919a adbf
000001b0: 4922 ce40 d408 83c0 5a1c 1e40 5e04 e8c0
000001c0: 1faf 7c41 d00c 5bc1 df4d 0641 8ed4 14c1
000001d0: c680 b8c1 4c80 1e41 d099 70c0 fd39 483d
000001e0: 3886 df3c add4 0d41 57c9 06c1 e628 a7c0
000001f0: 0d2a a6c1 b564 be3c 4ef2 72bc 012d bec1
00000200: dbdd aec0 2bd0 afbc c310 e23f 886e 593d
00000210: 4489 a940 c116 1141 6a5e 6bc1 d3fd 50c0
00000220: d335 3e41 f249 8b40 d972 da40 f20c d2c0
00000230: c709 f140 d3a8 893e dc3e 0741 ae7f 2441
00000240: 3364 c0c0 6813 3341 cf3f 44bc b417 22bc
00000250: 535b 5d41 baa9 f03c c409 b5c0 76b5 8841
00000260: d712 aa40 866d 38bd 535b 3dc0 c702 4bc0
00000270: 19cb f03b 7657 7041 6d27 06c1 6a01 66bd
00000280: ce25 88c0 39a6 8d40 681b c2bc c619 59c0
00000290: 4c33 6440 2670 6041 46e2 53c0 e5de cb40
000002a0: f45e 71bd 54e0 87c1 4d40 51c0 7861 efc1
000002b0: a772 08c1 5119 54c0 e7eb e0bf 7803 99c1
000002c0: 76c2 80c0 b32f 8f40 ff9f 79c0 8c2f 09c1
000002d0: 44a7 8f41 aa42 84c0 3315 67bd 3770 93bb
000002e0: 0d50 1b41 5275 6141 9ef7 ba40 c73b 06c1
000002f0: 5bb1 8640 cfad f940 71e8 2c42 37c8 bfc0
00000300: 812b 4741 5a59 8ac0 0e01 7d40 0a96 003d
00000310: cfc8 be40 b3cf 80bb 78a9 c2c0 7dac 70c0
00000320: 0fd5 e540 cb7c fa40 526f 543d ab9e d540
00000330: 51ab ee3c 1656 9dc0 b404 693d dd36 c6bf
00000340: 13cd cf40 ea3f bac0 1783 4340 f244 eac0
00000350: 436d 7a41 034f 48c1 3376 0b41 066a 12c1
00000360: 5f1f c7c1 00b4 2741 ea4e 5dc0 d777 aa3c
00000370: 474c 26bd c5a7 0b41 802b f3c0 f3a7 98c0
00000380: 84df a4c1 09e4 003d 3bf8 043d 590d c4c1
00000390: ccbe b0c0 f2e7 10bd b9e3 1440 8dac 923c
000003a0: 9a39 9f40 e53f 0841 55c5 6bc1 f3a4 4ac0
000003b0: 6647 4341 e474 8d40 3b2f db40 7000 c7c0
000003c0: c33d f140 60c9 393e 194a f040 a746 2d41
000003d0: 55aa bfc0 fa49 3441 4aa9 f8bc 802d ddbc
000003e0: d027 5c41 4916 b1bb f1b8 c8c0 8899 7541
000003f0: d486 ab40 3113 453c e722 68c0 62f9 49c0

layer3.bias f4 [3]
-6.742064 -5.652848 -6.195359
00000000: fdbe d7c0 21e4 b4c0 6240 c6c0

exp_avg f4 [150, 20]
6e-45 6e-45 6e-45 6e-45 6e-45 6e-45 6e-45 6e-45
-6e-45 -6e-45 -6e-45 -6e-45 6e-45 -6e-45 6e-45 -6e-45
6e-45 6e-45 6e-45 6e-45 6e-45 6e-45 6e-45 6e-45
6e-45 -6e-45 6e-45 -6e-45 6e-45 -6e-45 6e-45 -6e-45
6e-45 6e-45 6e-45 6e-45 6e-45 6e-45 6e-45 -6e-45
6e-45 6e-45 6e-45 6e-45 6e-45 6e-45 6e-45 6e-45
6e-45 6e-45 6e-45 6e-45 6e-45 6e-45 6e-45 6e-45
6e-45 6e-45 6e-45 6e-45 0.0060542095 0.07888672 -3.1958702 0.06333154
0.04773572 9.46779e-06 -0.17610121 0.1446939 0.23696905 0.07698986 0.85944515 0.57953143
0.18423069 0.061476972 1.9265903 0.7445101 -3.5873816 -3.915271 -4.9001436 0.06142808
6e-45 6e-45 6e-45 6e-45 6e-45 -6e-45 6e-45 -6e-45
-6e-45 -6e-45 -6e-45 -6e-45 6e-45 6e-45 6e-45 6e-45
-6e-45 6e-45 -6e-45 6e-45 0.2069863 -0.05423506 2.8239944 4.9011593
0.2889338 -0.010548409 7.2182975 1.7486001 0.15101096 -0.008071387 3.282976 -3.7930105
0.27027655 -0.25915655 3.4163582 0.883417 13.821689 14.825624 26.985964 10.724106
6e-45 6e-45 6e-45 6e-45 6e-45 6e-45 6e-45 6e-45
6e-45 6e-45 6e-45 6e-45 6e-45 -6e-45 6e-45 -6e-45
6e-45 6e-45 6e-45 -6e-45 6e-45 6e-45 6e-45 6e-45
-6e-45 6e-45 -6e-45 6e-45 6e-45 -6e-45 6e-45 -6e-45
-6e-45 6e-45 -6e-45 6e-45 6e-45 6e-45 6e-45 6e-45
6e-45 -6e-45 6e-45 -6e-45 -6e-45 -6e-45 6e-45 -6e-45
6e-45 -6e-45 6e-45 -6e-45 6e-45 6e-45 6e-45 6e-45
6e-45 -6e-45 6e-45 -6e-45 0.3657026 0.41884005 6.772668 11.446749
0.15521528 0.038820334 1.9634908 1.5164992 0.17816782 0.021449931 1.4026387 0.013458761
1.0779397 0.48181504 13.257057 10.323788 39.88486 0.8270714 13.08249 20.075525
6e-45 6e-45 6e-45 6e-45 6e-45 6e-45 6e-45 6e-45
-6e-45 6e-45 -6e-45 6e-45 6e-45 6e-45 6e-45 6e-45
6e-45 6e-45 6e-45 6e-45 0.2296947 0.02796626 2.4918332 -0.41590372
0.06339999 0.0017240437 1.0441189 -0.098138966 0.004392667 0.06671959 0.17015573 1.264937
0.046652123 0.073253915 0.51266736 1.0713773 9.005626 2.6682403 0.044803396 0.032999963
6e-45 6e-45 6e-45 6e-45 6e-45 6e-45 6e-45 6e-45
6e-45 6e-45 6e-45 6e-45 6e-45 6e-45 6e-45 6e-45
00000000: 0400 0000 0400 0000 0400 0000 0400 0000
00000010: 0400 0000 0400 0000 0400 0000 0400 0000
00000020: 0400 0080 0400 0080 0400 0080 0400 0080
00000030: 0400 0000 0400 0080 0400 0000 0400 0080
00000040: 0400 0000 0400 0000 0400 0000 0400 0000
00000050: 0400 0000 0400 0000 0400 0000 0400 0000
00000060: 0400 0000 0400 0080 0400 0000 0400 0080
00000070: 0400 0000 0400 0080 0400 0000 0400 0080
00000080: 0400 0000 0400 0000 0400 0000 0400 0000
00000090: 0400 0000 0400 0000 0400 0000 0400 0080
000000a0: 0400 0000 0400 0000 0400 0000 0400 0000
000000b0: 0400 0000 0400 0000 0400 0000 0400 0000
000000c0: 0400 0000 0400 0000 0400 0000 0400 0000
000000d0: 0400 0000 0400 0000 0400 0000 0400 0000
000000e0: 0400 0000 0400 0000 0400 0000 0400 0000
000000f0: 6462 c63b 5c8f a13d 2389 4cc0 f7b3 813d
00000100: 8886 433d d9d7 1e37 e053 34be a32a 143e
00000110: 04a8 723e dcac 9d3d 9904 5c3f 2c5c 143f
00000120: f8a6 3c3e 47cf 7b3d 839a f63f 3798 3e3f
00000130: a997 65c0 cd93 7ac0 facd 9cc0 039c 7b3d
00000140: 0400 0000 0400 0000 0400 0000 0400 0000
00000150: 0400 0000 0400 0080 0400 0000 0400 0080
00000160: 0400 0080 0400 0080 0400 0080 0400 0080
00000170: 0400 0000 0400 0000 0400 0000 0400 0000
00000180: 0400 0080 0400 0000 0400 0080 0400 0000
00000190: 37f4 533e 9525 5ebd 53bc 3440 4cd6 9c40
000001a0: 22ef 933e 3cd3 2cbc 4bfc e640 21d2 df3f
000001b0: 9ea2 1a3e da3d 04bc 471c 5240 afc0 72c0
000001c0: b061 8a3e 2bb0 84be 9da5 5a40 9e27 623f
000001d0: a325 5d41 c235 6d41 41e3 d741 f095 2b41
000001e0: 0400 0000 0400 0000 0400 0000 0400 0000
000001f0: 0400 0000 0400 0000 0400 0000 0400 0000
00000200: 0400 0000 0400 0000 0400 0000 0400 0000
00000210: 0400 0000 0400 0080 0400 0000 0400 0080
00000220: 0400 0000 0400 0000 0400 0000 0400 0080
00000230: 0400 0000 0400 0000 0400 0000 0400 0000
00000240: 0400 0080 0400 0000 0400 0080 0400 0000
00000250: 0400 0000 0400 0080 0400 0000 0400 0080
00000260: 0400 0080 0400 0000 0400 0080 0400 0000
00000270: 0400 0000 0400 0000 0400 0000 0400 0000
00000280: 0400 0000 0400 0080 0400 0000 0400 0080
00000290: 0400 0080 0400 0080 0400 0000 0400 0080
000002a0: 0400 0000 0400 0080 0400 0000 0400 0080
000002b0: 0400 0000 0400 0000 0400 0000 0400 0000
000002c0: 0400 0000 0400 0080 0400 0000 0400 0080
000002d0: 5f3d bb3e 3472 d63e b2b9 d840 e225 3741
000002e0: c1f0 1e3e 1202 1f3d ab53 fb3f a51c c23f
000002f0: a071 363e c4b7 af3c aa89 b33f 2382 5c3c
00000300: eef9 893f 76b0 f63e e81c 5441 3c2e 2541
00000310: 198a 1f42 f4ba 533f e151 5141 ad9a a041
00000320: 0400 0000 0400 0000 0400 0000 0400 0000
00000330: 0400 0000 0400 0000 0400 0000 0400 0000
00000340: 0400 0080 0400 0000 0400 0080 0400 0000
00000350: 0400 0000 0400 0000 0400 0000 0400 0000
00000360: 0400 0000 0400 0000 0400 0000 0400 0000
00000370: 1635 6b3e 8019 e53c 327a 1f40 55f1 d4be
00000380: dbd7 813d 4ff9 e13a b0a5 853f 15fd c8bd
00000390: 5df0 8f3b 48a4 883d 4e3d 2e3e 75e9 a13f
000003a0: 4c16 3f3d 2606 963d 2b3e 033f e422 893f
000003b0: 0b17 1041 73c4 2a40 c483 373d f82a 073d
000003c0: 0400 0000 0400 0000 0400 0000 0400 0000
000003d0: 0400 0000 0400 0000 0400 0000 0400 0000
000003e0: 0400 0000 0400 0000 0400 0000 0400 0000
000003f0: 0400 0000 0400 0000 0400 0000 0400 0000

exp_avg_sq f4 [150, 20]
7e-43 7e-43 7e-43 7e-43 7e-43 7e-43 7e-43 7e-43
7e-43 7e-43 7e-43 7e-43 7e-43 7e-43 7e-43 7e-43
7e-43 7e-43 7e-43 7e-43 7e-43 7e-43 7e-43 7e-43
7e-43 7e-43 7e-43 7e-43 7e-43 7e-43 7e-43 7e-43
7e-43 7e-43 7e-43 7e-43 7e-43 7e-43 7e-43 7e-43
7e-43 7e-43 7e-43 7e-43 7e-43 7e-43 7e-43 7e-43
7e-43 7e-43 7e-43 7e-43 7e-43 7e-43 7e-43 7e-43
7e-43 7e-43 7e-43 7e-43 3.1870573 1.09748 586.5003 119.90845
1.449529 0.12253029 324.9647 119.58817 1.2478292 1.7007171 243.59727 53.674988
0.58779037 0.35418338 431.46747 281.91055 5744.714 6949.444 6708.8843 1.0616384
7e-43 7e-43 7e-43 7e-43 7e-43 7e-43 7e-43 7e-43
7e-43 7e-43 7e-43 7e-43 7e-43 7e-43 7e-43 7e-43
7e-43 7e-43 7e-43 7e-43 9.885573 6.4278755 930.24286 594.0529
1.938825 0.7030059 509.80872 340.20828 1.249846 0.7545205 425.7415 206.63303
1.3851235 1.565578 601.7511 259.77325 6588.582 12133.027 8962.18 9950.052
7e-43 7e-43 7e-43 7e-43 7e-43 7e-43 7e-43 7e-43
7e-43 7e-43 7e-43 7e-43 7e-43 7e-43 7e-43 7e-43
7e-43 7e-43 7e-43 7e-43 7e-43 7e-43 7e-43 7e-43
7e-43 7e-43 7e-43 7e-43 7e-43 7e-43 7e-43 7e-43
7e-43 7e-43 7e-43 7e-43 7e-43 7e-43 7e-43 7e-43
7e-43 7e-43 7e-43 7e-43 7e-43 7e-43 7e-43 7e-43
7e-43 7e-43 7e-43 7e-43 7e-43 7e-43 7e-43 7e-43
7e-43 7e-43 7e-43 7e-43 7.8516474 0.62499624 2442.4255 123.00486
2.2076368 0.18217604 1379.4036 171.08034 1.1435565 0.06381078 1133.1702 15.336236
7.9240828 1.6957806 636.3969 932.18164 9381.438 2121.145 4553.2476 14707.635
7e-43 7e-43 7e-43 7e-43 7e-43 7e-43 7e-43 7e-43
7e-43 7e-43 7e-43 7e-43 7e-43 7e-43 7e-43 7e-43
7e-43 7e-43 7e-43 7e-43 0.15536962 0.020472884 17.842955 5.8278613
0.01561404 0.003496284 3.713589 1.8013018 0.020048818 0.006708152 7.719216 2.9062746
0.014974174 0.015528385 8.941454 5.486237 146.08984 100.555626 0.0049352148 1.6023895
7e-43 7e-43 7e-43 7e-43 7e-43 7e-43 7e-43 7e-43
7e-43 7e-43 7e-43 7e-43 7e-43 7e-43 7e-43 7e-43
00000000: f401 0000 f401 0000 f401 0000 f401 0000
00000010: f401 0000 f401 0000 f401 0000 f401 0000
00000020: f401 0000 f401 0000 f401 0000 f401 0000
00000030: f401 0000 f401 0000 f401 0000 f401 0000
00000040: f401 0000 f401 0000 f401 0000 f401 0000
00000050: f401 0000 f401 0000 f401 0000 f401 0000
00000060: f401 0000 f401 0000 f401 0000 f401 0000
00000070: f401 0000 f401 0000 f401 0000 f401 0000
00000080: f401 0000 f401 0000 f401 0000 f401 0000
00000090: f401 0000 f401 0000 f401 0000 f401 0000
000000a0: f401 0000 f401 0000 f401 0000 f401 0000
000000b0: f401 0000 f401 0000 f401 0000 f401 0000
000000c0: f401 0000 f401 0000 f401 0000 f401 0000
000000d0: f401 0000 f401 0000 f401 0000 f401 0000
000000e0: f401 0000 f401 0000 f401 0000 f401 0000
000000f0: bff8 4b40 3a7a 8c3f 05a0 1244 20d1 ef42
00000100: 2b8a b93f 29f1 fa3d 7b7b a243 252d ef42
00000110: deb8 9f3f 19b1 d93f e798 7343 30b3 5642
00000120: 6e79 163f 8657 b53e d6bb d743 8df4 8c43
00000130: b685 b345 8d2b d945 13a7 d145 c4e3 873f
00000140: f401 0000 f401 0000 f401 0000 f401 0000
00000150: f401 0000 f401 0000 f401 0000 f401 0000
00000160: f401 0000 f401 0000 f401 0000 f401 0000
00000170: f401 0000 f401 0000 f401 0000 f401 0000
00000180: f401 0000 f401 0000 f401 0000 f401 0000
00000190: 4f2b 1e41 28b1 cd40 8b8f 6844 6383 1444
000001a0: 6b2b f83f 32f8 333f 84e7 fe43 a91a aa43
000001b0: f4fa 9f3f 4128 413f e9de d443 0ea2 4e43
000001c0: ba4b b13f dc64 c83f 1270 1644 fae2 8143
000001d0: a8e4 cd45 1c94 3d46 b808 0c46 3578 1b46
000001e0: f401 0000 f401 0000 f401 0000 f401 0000
000001f0: f401 0000 f401 0000 f401 0000 f401 0000
00000200: f401 0000 f401 0000 f401 0000 f401 0000
00000210: f401 0000 f401 0000 f401 0000 f401 0000
00000220: f401 0000 f401 0000 f401 0000 f401 0000
00000230: f401 0000 f401 0000 f401 0000 f401 0000
00000240: f401 0000 f401 0000 f401 0000 f401 0000
00000250: f401 0000 f401 0000 f401 0000 f401 0000
00000260: f401 0000 f401 0000 f401 0000 f401 0000
00000270: f401 0000 f401 0000 f401 0000 f401 0000
00000280: f401 0000 f401 0000 f401 0000 f401 0000
00000290: f401 0000 f401 0000 f401 0000 f401 0000
000002a0: f401 0000 f401 0000 f401 0000 f401 0000
000002b0: f401 0000 f401 0000 f401 0000 f401 0000
000002c0: f401 0000 f401 0000 f401 0000 f401 0000
000002d0: b240 fb40 c1ff 1f3f cfa6 1845 7d02 f642
000002e0: ec49 0d40 5b8c 3a3e ea6c ac44 9114 2b43
000002f0: 0f60 923f 3aaf 823d 72a5 8d44 3961 7541
00000300: 1692 fd40 570f d93f 6719 1f44 a00b 6944
00000310: c195 1246 5292 0445 fb49 8e45 8ace 6546
00000320: f401 0000 f401 0000 f401 0000 f401 0000
00000330: f401 0000 f401 0000 f401 0000 f401 0000
00000340: f401 0000 f401 0000 f401 0000 f401 0000
00000350: f401 0000 f401 0000 f401 0000 f401 0000
00000360: f401 0000 f401 0000 f401 0000 f401 0000
00000370: 3719 1f3e c0b6 a73c 5fbe 8e41 d77d ba40
00000380: 08d2 7f3c e921 653b 71ab 6d40 0f91 e63f
00000390: 6b3d a43c 0fd0 db3b d103 f740 6700 3a40
000003a0: 3d56 753c c46a 7e3c 3210 0f41 418f af40
000003b0: 0017 1243 7b1c c942 95b7 a13b 191b cd3f
000003c0: f401 0000 f401 0000 f401 0000 f401 0000
000003d0: f401 0000 f401 0000 f401 0000 f401 0000
000003e0: f401 0000 f401 0000 f401 0000 f401 0000
000003f0: f401 0000 f401 0000 f401 0000 f401 0000

exp_avg f4 [150]
6e-45 6e-45 6e-45 -0.69128084 6e-45 6.086022 6e-45 6e-45
6e-45 10.982052 6e-45 3.6630576 6e-45 6e-45 6e-45 -131.78894
6e-45 6e-45 2.7551003 -5.3905773 6e-45 6e-45 -0.56676793 6e-45
6e-45 6e-45 72.09954 6e-45 -3.6064415 6e-45 6e-45 6e-45
6e-45 6e-45 6e-45 6e-45 -0.62731797 6e-45 6e-45 6e-45
6e-45 6e-45 6e-45 -4.872135 6e-45 -1.3499588 6e-45 0.0018804104
-14.881453 6e-45 6e-45 6e-45 6e-45 6e-45 6e-45 6e-45
6e-45 0.12624057 0.0 6e-45 6e-45 6e-45 -6e-45 6e-45
6e-45 -1.7982308 0.092756465 7.8100834 6e-45 6e-45 6e-45 6e-45
6e-45 6e-45 6e-45 0.05828796 6e-45 17.748861 6e-45 6e-45
6e-45 6e-45 -4.358775 -0.014635999 -3.9231048 0.058810644 -1.3509097 6e-45
6e-45 6e-45 6e-45 6e-45 -1.6335589 6e-45 6e-45 6e-45
0.0029891515 6e-45 6e-45 10.712401 6e-45 6e-45 6e-45 6e-45
6e-45 6e-45 4.913092 -32.27071 6e-45 84.69784 6e-45 6e-45
6e-45 6e-45 6e-45 6e-45 6e-45 6e-45 6e-45 -2.43753
6e-45 6e-45 6e-45 6e-45 6e-45 6e-45 6e-45 -0.6584775
0.6863826 6e-45 6e-45 6e-45 6e-45 6e-45 6e-45 6e-45
6e-45 6e-45 0.7765435 6e-45 0.42119098 6e-45 6e-45 6e-45
6e-45 4.732676 6e-45 6e-45 6e-45 6e-45
00000000: 0400 0000 0400 0000 0400 0000 c8f7 30bf
00000010: 0400 0000 b1c0 c240 0400 0000 0400 0000
00000020: 0400 0000 7cb6 2f41 0400 0000 896f 6a40
00000030: 0400 0000 0400 0000 0400 0000 f8c9 03c3
00000040: 0400 0000 0400 0000 9053 3040 9c7f acc0
00000050: 0400 0000 0400 0000 b417 11bf 0400 0000
00000060: 0400 0000 0400 0000 f732 9042 0400 0000
00000070: f0cf 66c0 0400 0000 0400 0000 0400 0000
00000080: 0400 0000 0400 0000 0400 0000 0400 0000
00000090: e997 20bf 0400 0000 0400 0000 0400 0000
000000a0: 0400 0000 0400 0000 0400 0000 88e8 9bc0
000000b0: 0400 0000 73cb acbf 0400 0000 1a78 f63a
000000c0: 6e1a 6ec1 0400 0000 0400 0000 0400 0000
000000d0: 0400 0000 0400 0000 0400 0000 0400 0000
000000e0: 0400 0000 3545 013e 0000 0000 0400 0000
000000f0: 0400 0000 0400 0000 0400 0080 0400 0000
00000100: 0400 0000 6d2c e6bf 1af7 bd3d 34ec f940
00000110: 0400 0000 0400 0000 0400 0000 0400 0000
00000120: 0400 0000 0400 0000 0400 0000 5bbf 6e3d
00000130: 0400 0000 abfd 8d41 0400 0000 0400 0000
00000140: 0400 0000 0400 0000 167b 8bc0 d4cb 6fbc
00000150: 2614 7bc0 6ee3 703d 9cea acbf 0400 0000
00000160: 0400 0000 0400 0000 0400 0000 0400 0000
00000170: 7518 d1bf 0400 0000 0400 0000 0400 0000
00000180: a4e5 433b 0400 0000 0400 0000 ff65 2b41
00000190: 0400 0000 0400 0000 0400 0000 0400 0000
000001a0: 0400 0000 0400 0000 0d38 9d40 3515 01c2
000001b0: 0400 0000 4b65 a942 0400 0000 0400 0000
000001c0: 0400 0000 0400 0000 0400 0000 0400 0000
000001d0: 0400 0000 0400 0000 0400 0000 7e00 1cc0
000001e0: 0400 0000 0400 0000 0400 0000 0400 0000
000001f0: 0400 0000 0400 0000 0400 0000 fb91 28bf
00000200: c5b6 2f3f 0400 0000 0400 0000 0400 0000
00000210: 0400 0000 0400 0000 0400 0000 0400 0000
00000220: 0400 0000 0400 0000 8ecb 463f 0400 0000
00000230: 58a6 d73e 0400 0000 0400 0000 0400 0000
00000240: 0400 0000 1572 9740 0400 0000 0400 0000
00000250: 0400 0000 0400 0000

exp_avg_sq f4 [150]
7e-43 7e-43 7e-43 1357.277 7e-43 2071.3916 7e-43 7e-43
7e-43 3889.1138 7e-43 36.408047 7e-43 7e-43 7e-43 105880.695
7e-43 7e-43 402.4403 998.1048 7e-43 7e-43 155.64435 7e-43
7e-43 7e-43 57015.91 7e-43 38.145847 7e-43 7e-43 7e-43
7e-43 7e-43 7e-43 7e-43 1.2758582 7e-43 7e-43 7e-43
7e-43 7e-43 7e-43 166.29594 7e-43 460.93265 7e-43 0.054984335
3719.6267 7e-43 7e-43 7e-43 7e-43 7e-43 7e-43 7e-43
7e-43 32.33084 0.0 7e-43 7e-43 7e-43 1.8436174e-15 7e-43
7e-43 10.666857 23.311174 9659.994 7e-43 7e-43 7e-43 7e-43
7e-43 7e-43 7e-43 73.25049 7e-43 10814.344 7e-43 7e-43
7e-43 7e-43 3797.0984 0.07402141 3077.7996 101.417694 145.83028 7e-43
7e-43 7e-43 7e-43 7e-43 202.7446 7e-43 7e-43 7e-43
0.010767386 7e-43 7e-43 12945.961 7e-43 7e-43 7e-43 7e-43
7e-43 2.3855599e-23 8921.756 3503.88 7e-43 46302.516 7e-43 7e-43
7e-43 7e-43 7e-43 7e-43 7e-43 7e-43 7e-43 16.610798
7e-43 7e-43 7e-43 7e-43 7e-43 7e-43 7e-43 1.5779568
37.95626 7e-43 7e-43 7e-43 7e-43 7e-43 7e-43 7e-43
7e-43 7e-43 471.66144 7e-43 96.28205 7e-43 7e-43 7e-43
7e-43 178.07222 7e-43 7e-43 7e-43 7e-43
00000000: f401 0000 f401 0000 f401 0000 dda8 a944
00000010: f401 0000 4476 0145 f401 0000 f401 0000
00000020: f401 0000 d211 7345 f401 0000 d7a1 1142
00000030: f401 0000 f401 0000 f401 0000 59cc ce47
00000040: f401 0000 f401 0000 5c38 c943 b586 7944
00000050: f401 0000 f401 0000 f4a4 1b43 f401 0000
00000060: f401 0000 f401 0000 e9b7 5e47 f401 0000
00000070: 5995 1842 f401 0000 f401 0000 f401 0000
00000080: f401 0000 f401 0000 f401 0000 f401 0000
00000090: 524f a33f f401 0000 f401 0000 f401 0000
000000a0: f401 0000 f401 0000 f401 0000 c34b 2643
000000b0: f401 0000 6177 e643 f401 0000 4137 613d
000000c0: 077a 6845 f401 0000 f401 0000 f401 0000
000000d0: f401 0000 f401 0000 f401 0000 f401 0000
000000e0: f401 0000 c852 0142 0000 0000 f401 0000
000000f0: f401 0000 f401 0000 bdd8 0427 f401 0000
00000100: f401 0000 72ab 2a41 497d ba41 faef 1646
00000110: f401 0000 f401 0000 f401 0000 f401 0000
00000120: f401 0000 f401 0000 f401 0000 4080 9242
00000130: f401 0000 60f9 2846 f401 0000 f401 0000
00000140: f401 0000 f401 0000 9351 6d45 8998 973d
00000150: cb5c 4045 dcd5 ca42 8dd4 1143 f401 0000
00000160: f401 0000 f401 0000 f401 0000 f401 0000
00000170: 9ebe 4a43 f401 0000 f401 0000 f401 0000
00000180: b169 303c f401 0000 f401 0000 d847 4a46
00000190: f401 0000 f401 0000 f401 0000 f401 0000
000001a0: f401 0000 9ab7 e619 0667 0b46 14fe 5a45
000001b0: f401 0000 84de 3447 f401 0000 f401 0000
000001c0: f401 0000 f401 0000 f401 0000 f401 0000
000001d0: f401 0000 f401 0000 f401 0000 eae2 8441
000001e0: f401 0000 f401 0000 f401 0000 f401 0000
000001f0: f401 0000 f401 0000 f401 0000 7dfa c93f
00000200: 36d3 1742 f401 0000 f401 0000 f401 0000
00000210: f401 0000 f401 0000 f401 0000 f401 0000
00000220: f401 0000 f401 0000 aad4 eb43 f401 0000
00000230: 6990 c042 f401 0000 f401 0000 f401 0000
00000240: f401 0000 7d12 3243 f401 0000 f401 0000
00000250: f401 0000 f401 0000

exp_avg f4 [100, 150]
6e-45 6e-45 6e-45 6e-45 6e-45 6e-45 -6e-45 -6e-45
-6e-45 -6e-45 6e-45 6e-45 6e-45 -6e-45 6e-45 -6e-45
6e-45 6e-45 6e-45 -6e-45 6e-45 6e-45 -6e-45 6e-45
6e-45 6e-45 -6e-45 6e-45 -6e-45 -6e-45 -6e-45 6e-45
-6e-45 -6e-45 6e-45 6e-45 -6e-45 6e-45 6e-45 6e-45
-6e-45 6e-45 6e-45 6e-45 6e-45 6e-45 6e-45 -6e-45
6e-45 6e-45 -6e-45 -6e-45 6e-45 6e-45 0.0 6e-45
-6e-45 6e-45 0.0 6e-45 6e-45 -6e-45 6e-45 6e-45
0.0 6e-45 6e-45 -6e-45 6e-45 6e-45 6e-45 6e-45
-6e-45 6e-45 0.0 6e-45 6e-45 -6e-45 6e-45 6e-45
-6e-45 6e-45 6e-45 6e-45 6e-45 6e-45 6e-45 6e-45
6e-45 6e-45 6e-45 -6e-45 6e-45 6e-45 6e-45 6e-45
6e-45 -6e-45 6e-45 -6e-45 6e-45 6e-45 6e-45 6e-45
-6e-45 6e-45 6e-45 -6e-45 6e-45 -6e-45 -6e-45 6e-45
6e-45 -6e-45 6e-45 -6e-45 6e-45 6e-45 0.0 -6e-45
-6e-45 6e-45 0.0 6e-45 6e-45 0.0 6e-45 6e-45
6e-45 6e-45 6e-45 6e-45 6e-45 6e-45 6e-45 6e-45
6e-45 -6e-45 6e-45 6e-45 -6e-45 6e-45 6e-45 6e-45
6e-45 6e-45 6e-45 6e-45 -6e-45 6e-45 -6e-45 6e-45
-6e-45 -6e-45 -6e-45 -6e-45 -6e-45 6e-45 6e-45 6e-45
-6e-45 -6e-45 -6e-45 6e-45 6e-45 -6e-45 -6e-45 6e-45
-6e-45 6e-45 6e-45 6e-45 -6e-45 -6e-45 -6e-45 6e-45
6e-45 6e-45 6e-45 6e-45 -6e-45 -6e-45 -6e-45 -6e-45
-6e-45 -6e-45 6e-45 -6e-45 6e-45 6e-45 6e-45 -6e-45
-6e-45 6e-45 -6e-45 -6e-45 -6e-45 -6e-45 6e-45 6e-45
6e-45 6e-45 -6e-45 -6e-45 -6e-45 -6e-45 -6e-45 6e-45
0.0 -6e-45 6e-45 -6e-45 6e-45 6e-45 -6e-45 6e-45
6e-45 6e-45 6e-45 -6e-45 -6e-45 -6e-45 -6e-45 6e-45
-6e-45 6e-45 -6e-45 -6e-45 -6e-45 -6e-45 -6e-45 -6e-45
-6e-45 6e-45 -6e-45 6e-45 6e-45 -6e-45 6e-45 6e-45
-6e-45 -6e-45 6e-45 -6e-45 -6e-45 6e-45 -6e-45 6e-45
6e-45 -6e-45 -6e-45 6e-45 6e-45 -6e-45 -6e-45 6e-45
00000000: 0400 0000 0400 0000 0400 0000 0400 0000
00000010: 0400 0000 0400 0000 0400 0080 0400 0080
00000020: 0400 0080 0400 0080 0400 0000 0400 0000
00000030: 0400 0000 0400 0080 0400 0000 0400 0080
00000040: 0400 0000 0400 0000 0400 0000 0400 0080
00000050: 0400 0000 0400 0000 0400 0080 0400 0000
00000060: 0400 0000 0400 0000 0400 0080 0400 0000
00000070: 0400 0080 0400 0080 0400 0080 0400 0000
00000080: 0400 0080 0400 0080 0400 0000 0400 0000
00000090: 0400 0080 0400 0000 0400 0000 0400 0000
000000a0: 0400 0080 0400 0000 0400 0000 0400 0000
000000b0: 0400 0000 0400 0000 0400 0000 0400 0080
000000c0: 0400 0000 0400 0000 0400 0080 0400 0080
000000d0: 0400 0000 0400 0000 0000 0000 0400 0000
000000e0: 0400 0080 0400 0000 0000 0000 0400 0000
000000f0: 0400 0000 0400 0080 0400 0000 0400 0000
00000100: 0000 0000 0400 0000 0400 0000 0400 0080
00000110: 0400 0000 0400 0000 0400 0000 0400 0000
00000120: 0400 0080 0400 0000 0000 0000 0400 0000
00000130: 0400 0000 0400 0080 0400 0000 0400 0000
00000140: 0400 0080 0400 0000 0400 0000 0400 0000
00000150: 0400 0000 0400 0000 0400 0000 0400 0000
00000160: 0400 0000 0400 0000 0400 0000 0400 0080
00000170: 0400 0000 0400 0000 0400 0000 0400 0000
00000180: 0400 0000 0400 0080 0400 0000 0400 0080
00000190: 0400 0000 0400 0000 0400 0000 0400 0000
000001a0: 0400 0080 0400 0000 0400 0000 0400 0080
000001b0: 0400 0000 0400 0080 0400 0080 0400 0000
000001c0: 0400 0000 0400 0080 0400 0000 0400 0080
000001d0: 0400 0000 0400 0000 0000 0000 0400 0080
000001e0: 0400 0080 0400 0000 0000 0000 0400 0000
000001f0: 0400 0000 0000 0000 0400 0000 0400 0000
00000200: 0400 0000 0400 0000 0400 0000 0400 0000
00000210: 0400 0000 0400 0000 0400 0000 0400 0000
00000220: 0400 0000 0400 0080 0400 0000 0400 0000
00000230: 0400 0080 0400 0000 0400 0000 0400 0000
00000240: 0400 0000 0400 0000 0400 0000 0400 0000
00000250: 0400 0080 0400 0000 0400 0080 0400 0000
00000260: 0400 0080 0400 0080 0400 0080 0400 0080
00000270: 0400 0080 0400 0000 0400 0000 0400 0000
00000280: 0400 0080 0400 0080 0400 0080 0400 0000
00000290: 0400 0000 0400 0080 0400 0080 0400 0000
000002a0: 0400 0080 0400 0000 0400 0000 0400 0000
000002b0: 0400 0080 0400 0080 0400 0080 0400 0000
000002c0: 0400 0000 0400 0000 0400 0000 0400 0000
000002d0: 0400 0080 0400 0080 0400 0080 0400 0080
000002e0: 0400 0080 0400 0080 0400 0000 0400 0080
000002f0: 0400 0000 0400 0000 0400 0000 0400 0080
00000300: 0400 0080 0400 0000 0400 0080 0400 0080
00000310: 0400 0080 0400 0080 0400 0000 0400 0000
00000320: 0400 0000 0400 0000 0400 0080 0400 0080
00000330: 0400 0080 0400 0080 0400 0080 0400 0000
00000340: 0000 0000 0400 0080 0400 0000 0400 0080
00000350: 0400 0000 0400 0000 0400 0080 0400 0000
00000360: 0400 0000 0400 0000 0400 0000 0400 0080
00000370: 0400 0080 0400 0080 0400 0080 0400 0000
00000380: 0400 0080 0400 0000 0400 0080 0400 0080
00000390: 0400 0080 0400 0080 0400 0080 0400 0080
000003a0: 0400 0080 0400 0000 0400 0080 0400 0000
000003b0: 0400 0000 0400 0080 0400 0000 0400 0000
000003c0: 0400 0080 0400 0080 0400 0000 0400 0080
000003d0: 0400 0080 0400 0000 0400 0080 0400 0000
000003e0: 0400 0000 0400 0080 0400 0080 0400 0000
000003f0: 0400 0000 0400 0080 0400 0080 0400 0000

exp_avg_sq f4 [100, 150]
7e-43 7e-43 7e-43 7e-43 7e-43 7e-43 7e-43 7e-43
7e-43 7e-43 7e-43 7e-43 7e-43 7e-43 7e-43 7e-43
7e-43 7e-43 7e-43 7e-43 7e-43 7e-43 7e-43 7e-43
7e-43 7e-43 7e-43 7e-43 7e-43 7e-43 7e-43 7e-43
7e-43 7e-43 7e-43 7e-43 7e-43 7e-43 7e-43 7e-43
7e-43 7e-43 7e-43 7e-43 7e-43 7e-43 7e-43 7e-43
7e-43 7e-43 7e-43 7e-43 7e-43 7e-43 0.0 7e-43
7e-43 7e-43 0.0 7e-43 7e-43 7e-43 7e-43 7e-43
0.0 7e-43 7e-43 7e-43 7e-43 7e-43 7e-43 7e-43
7e-43 7e-43 0.0 7e-43 7e-43 7e-43 7e-43 7e-43
7e-43 7e-43 7e-43 7e-43 7e-43 7e-43 7e-43 7e-43
7e-43 7e-43 7e-43 7e-43 7e-43 7e-43 7e-43 7e-43
7e-43 7e-43 7e-43 7e-43 7e-43 7e-43 7e-43 7e-43
7e-43 7e-43 7e-43 7e-43 7e-43 7e-43 7e-43 7e-43
7e-43 7e-43 7e-43 7e-43 7e-43 7e-43 0.0 7e-43
7e-43 7e-43 0.0 7e-43 7e-43 0.0 7e-43 7e-43
7e-43 7e-43 7e-43 7e-43 7e-43 7e-43 7e-43 7e-43
7e-43 7e-43 7e-43 7e-43 7e-43 7e-43 7e-43 7e-43
7e-43 7e-43 7e-43 7e-43 7e-43 7e-43 7e-43 7e-43
7e-43 7e-43 7e-43 7e-43 7e-43 7e-43 7e-43 7e-43
7e-43 7e-43 7e-43 7e-43 7e-43 7e-43 7e-43 7e-43
7e-43 7e-43 7e-43 7e-43 7e-43 7e-43 7e-43 7e-43
7e-43 7e-43 7e-43 7e-43 7e-43 7e-43 7e-43 7e-43
7e-43 7e-43 7e-43 7e-43 7e-43 7e-43 7e-43 7e-43
7e-43 7e-43 7e-43 7e-43 7e-43 7e-43 7e-43 7e-43
7e-43 7e-43 7e-43 7e-43 7e-43 7e-43 7e-43 7e-43
0.0 7e-43 7e-43 7e-43 7e-43 7e-43 7e-43 7e-43
7e-43 7e-43 7e-43 7e-43 7e-43 7e-43 7e-43 7e-43
7e-43 7e-43 7e-43 7e-43 7e-43 7e-43 7e-43 7e-43
7e-43 7e-43 7e-43 7e-43 7e-43 7e-43 7e-43 7e-43
7e-43 7e-43 7e-43 7e-43 7e-43 7e-43 7e-43 7e-43
7e-43 7e-43 7e-43 7e-43 7e-43 7e-43 7e-43 7e-43
00000000: f401 0000 f401 0000 f401 0000 f401 0000
00000010: f401 0000 f401 0000 f401 0000 f401 0000
00000020: f401 0000 f401 0000 f401 0000 f401 0000
00000030: f401 0000 f401 0000 f401 0000 f401 0000
00000040: f401 0000 f401 0000 f401 0000 f401 0000
00000050: f401 0000 f401 0000 f401 0000 f401 0000
00000060: f401 0000 f401 0000 f401 0000 f401 0000
00000070: f401 0000 f401 0000 f401 0000 f401 0000
00000080: f401 0000 f401 0000 f401 0000 f401 0000
00000090: f401 0000 f401 0000 f401 0000 f401 0000
000000a0: f401 0000 f401 0000 f401 0000 f401 0000
000000b0: f401 0000 f401 0000 f401 0000 f401 0000
000000c0: f401 0000 f401 0000 f401 0000 f401 0000
000000d0: f401 0000 f401 0000 0000 0000 f401 0000
000000e0: f401 0000 f401 0000 0000 0000 f401 0000
000000f0: f401 0000 f401 0000 f401 0000 f401 0000
00000100: 0000 0000 f401 0000 f401 0000 f401 0000
00000110: f401 0000 f401 0000 f401 0000 f401 0000
00000120: f401 0000 f401 0000 0000 0000 f401 0000
00000130: f401 0000 f401 0000 f401 0000 f401 0000
00000140: f401 0000 f401 0000 f401 0000 f401 0000
00000150: f401 0000 f401 0000 f401 0000 f401 0000
00000160: f401 0000 f401 0000 f401 0000 f401 0000
00000170: f401 0000 f401 0000 f401 0000 f401 0000
00000180: f401 0000 f401 0000 f401 0000 f401 0000
00000190: f401 0000 f401 0000 f401 0000 f401 0000
000001a0: f401 0000 f401 0000 f401 0000 f401 0000
000001b0: f401 0000 f401 0000 f401 0000 f401 0000
000001c0: f401 0000 f401 0000 f401 0000 f401 0000
000001d0: f401 0000 f401 0000 0000 0000 f401 0000
000001e0: f401 0000 f401 0000 0000 0000 f401 0000
000001f0: f401 0000 0000 0000 f401 0000 f401 0000
00000200: f401 0000 f401 0000 f401 0000 f401 0000
00000210: f401 0000 f401 0000 f401 0000 f401 0000
00000220: f401 0000 f401 0000 f401 0000 f401 0000
00000230: f401 0000 f401 0000 f401 0000 f401 0000
00000240: f401 0000 f401 0000 f401 0000 f401 0000
00000250: f401 0000 f401 0000 f401 0000 f401 0000
00000260: f401 0000 f401 0000 f401 0000 f401 0000
00000270: f401 0000 f401 0000 f401 0000 f401 0000
00000280: f401 0000 f401 0000 f401 0000 f401 0000
00000290: f401 0000 f401 0000 f401 0000 f401 0000
000002a0: f401 0000 f401 0000 f401 0000 f401 0000
000002b0: f401 0000 f401 0000 f401 0000 f401 0000
000002c0: f401 0000 f401 0000 f401 0000 f401 0000
000002d0: f401 0000 f401 0000 f401 0000 f401 0000
000002e0: f401 0000 f401 0000 f401 0000 f401 0000
000002f0: f401 0000 f401 0000 f401 0000 f401 0000
00000300: f401 0000 f401 0000 f401 0000 f401 0000
00000310: f401 0000 f401 0000 f401 0000 f401 0000
00000320: f401 0000 f401 0000 f401 0000 f401 0000
00000330: f401 0000 f401 0000 f401 0000 f401 0000
00000340: 0000 0000 f401 0000 f401 0000 f401 0000
00000350: f401 0000 f401 0000 f401 0000 f401 0000
00000360: f401 0000 f401 0000 f401 0000 f401 0000
00000370: f401 0000 f401 0000 f401 0000 f401 0000
00000380: f401 0000 f401 0000 f401 0000 f401 0000
00000390: f401 0000 f401 0000 f401 0000 f401 0000
000003a0: f401 0000 f401 0000 f401 0000 f401 0000
000003b0: f401 0000 f401 0000 f401 0000 f401 0000
000003c0: f401 0000 f401 0000 f401 0000 f401 0000
000003d0: f401 0000 f401 0000 f401 0000 f401 0000
000003e0: f401 0000 f401 0000 f401 0000 f401 0000
000003f0: f401 0000 f401 0000 f401 0000 f401 0000
