checkpoints/enhanced_dqn/checkpoint_ep300.pth (torch, 687002 bytes, 33 tensors)

layer1.weight f4 [150, 20]
0	0x3f0197dc	0.50622344
1	0xc0ca6696	-6.3250227
2	0xbe30166b	-0.17196052
3	0x3ebf4622	0.37358195
4	0x3f8f5ea0	1.1200752
5	0xc0ec18cb	-7.3780265
6	0xbe8e2ed8	-0.27770114
7	0xbfbcce3e	-1.475044
8	0x3fd9fd70	1.7030468
9	0x3f4902cd	0.785199
10	0x3ef774c0	0.4833126
11	0xbe80f928	-0.2519009
12	0xbf97e05e	-1.1865346
13	0xbeabce00	-0.33555603
14	0x3f1f49bd	0.6222189
15	0xbe3c820a	-0.18408981
16	0x3e077d4c	0.1323139
17	0xbc227127	-0.009914673
18	0xc0b95736	-5.791896
19	0xc05b2501	-3.4241335
20	0xc05425b8	-3.3148022
21	0xc02dc909	-2.7153952
22	0x3ea0dba4	0.31417572
23	0xbf229487	-0.63507885
24	0xc009914a	-2.1494927
25	0xbf5b138a	-0.8557669
26	0xbf11d7c7	-0.56969875
27	0xc04242b7	-3.035322
28	0x406844e3	3.6292045
29	0xc049f33d	-3.155471
30	0xbe83c7fe	-0.2573852
31	0xc039257c	-2.8929129
32	0xc05e2bed	-3.471431
33	0x3f3bf616	0.7342237
34	0x3f335ab6	0.7006029
35	0x3eb966e4	0.36211312
36	0x3e8a76cd	0.27043763
37	0xbf588592	-0.8457881
38	0xbde71ccd	-0.1128479
39	0xc0f1b535	-7.55337
40	0x41144727	9.267371
41	0x403c1fdb	2.9394443
42	0x3f9fd238	1.2486029
43	0x3ffcef8b	1.9760603
44	0x411e7c09	9.905282
45	0x4111d5c8	9.114693
46	0x405a1568	3.4075565
47	0x40da6e08	6.8259315
48	0x412168fe	10.088133
49	0x3eb49da5	0.35276523
50	0xbe3fb6c1	-0.18722059
51	0x3dbac683	0.09119894
52	0xc0815efb	-4.0428443
53	0xc11e75a9	-9.903726
54	0xc07e5a8b	-3.9742763
55	0xc08fb8e6	-4.4913206
56	0x3fda2233	1.7041687
57	0xbd775b52	-0.060389824
58	0xbda39917	-0.07988184
59	0xbf06944d	-0.5257004
60	0x3edfc278	0.43703055
61	0xbfd7f587	-1.6871804
62	0x40232f4b	2.5497615
63	0x3ff44c4f	1.9085788
64	0x3f07bf44	0.53026223
65	0xc05dda0c	-3.4664335
66	0xbf6214d0	-0.8831301
67	0x3f80e172	1.00688
68	0x3e8ee94d	0.2791237
69	0xc033a662	-2.8070302
70	0xbeebe3e5	-0.46072307
71	0xbf2dc181	-0.6787339
72	0xc07a27d4	-3.908681
73	0xc0be8c6a	-5.9546404
74	0xbf16442f	-0.5869779
75	0xc01305cc	-2.2972288
76	0x409a778f	4.8270946
77	0xc04968b7	-3.1470163
78	0x3fcb398b	1.5876936
79	0xc02f9dec	-2.7440138
80	0xc0a9e81c	-5.3095837
81	0x41777eec	15.468487
82	0xc06fb20d	-3.7452424
83	0xbc9c535d	-0.01908272
84	0x408a9b78	4.331478
85	0x412e3eb5	10.890309
86	0x3fb7cd34	1.4359498
87	0x40139bc4	2.3063822
88	0x407985a4	3.8987818
89	0x4042c5dc	3.0433264
90	0xbf0917d4	-0.53551984
91	0xbe4835a4	-0.19551712
92	0xc0d8fdd0	-6.780983
93	0x408c59c7	4.385959
94	0xbf8bb1e0	-1.0913658
95	0xbf415128	-0.7551446
96	0x3d2108e5	0.039315123
97	0x3f01cd48	0.5070386
98	0xbf8319c1	-1.0242234
99	0x407d0a7e	3.9537654
100	0xc0440f51	-3.0634348
101	0x40722758	3.7836514
102	0xbf9c8b69	-1.2230045
103	0x4042f46c	3.0461683
104	0xc08efe21	-4.4685216
105	0x3f0c2dfb	0.5475766
106	0xc0baba0f	-5.835212
107	0xc0b44434	-5.6333256
108	0x3fdf1f56	1.7431438
109	0xc0567b46	-3.351274
110	0x3e5ed680	0.21761513
111	0x3fbf3084	1.4936681
112	0x3f802563	1.001141
113	0x3f02847d	0.5098341
114	0xc02e098f	-2.7193334
115	0xc01d4f3a	-2.4579606
116	0xc0084fe2	-2.1298757
117	0xc0037c45	-2.0544598
118	0xbf1d5d2e	-0.61470306
119	0x3fa8c683	1.3185581
120	0xc0902309	-4.5042768
121	0x3f305413	0.6887829
122	0x3d48ec85	0.049053688
123	0xbf583465	-0.8445495
124	0x3d83a652	0.064282075
125	0x400c9db6	2.197126
126	0x3e4c82af	0.19971727
127	0xbf8c3a9f	-1.095539
128	0xc09d2412	-4.910653
129	0x3de8c6e6	0.11366062
130	0xbf933ad2	-1.1502326
131	0xbfded34e	-1.7408235
132	0x40097f66	2.1484008
133	0xc0e402c2	-7.1253366
134	0xbf83c2ff	-1.0293883
135	0xc025dab3	-2.5914733
136	0x3ffa5c5e	1.9559438
137	0xbe711e77	-0.23546778
138	0x3fa31d0f	1.2743243
139	0xbfde319c	-1.735889
140	0xbfc44fd8	-1.5336866
141	0xc15e4043	-13.890689
142	0xbf456d71	-0.7712012
143	0xbe13465f	-0.14382313
144	0xc0bfe12b	-5.9962363
145	0xc142c4c0	-12.173035
146	0xbe9319cf	-0.28730628
147	0xc02c3dcb	-2.6912715
148	0xbfc1545b	-1.5103868
149	0xc065d39d	-3.5910408
150	0xbe802aaf	-0.25032565
151	0xbdd92c15	-0.10604111
152	0x3ea73a92	0.32661873
153	0x3fa37620	1.2770424
154	0xbe33cdd0	-0.1755898
155	0xbf2003ed	-0.6250599
156	0xbf8b11b6	-1.086478
157	0xbfc65d44	-1.5497212
158	0x3fd8f116	1.6948574
159	0xc1e179d1	-28.18448
160	0x40ac1f29	5.3788037
161	0x3f90c808	1.1311045
162	0x3f792cd0	0.97334003
163	0x3f993690	1.1969776
164	0x408e3281	4.443665
165	0x404047c9	3.0043814
166	0x3feecb19	1.865573
167	0x3fbfa0fa	1.4971001
168	0xbefa4e1f	-0.48887727
169	0xc05201c6	-3.2813582
170	0x3f00a139	0.50246006
171	0xbe3e5f3a	-0.18591014
172	0x3e83cbc5	0.257414
173	0x402b5916	2.6773124
174	0x3f9008f8	1.1252737
175	0x3fd5908c	1.6684737
176	0x3f0cadad	0.5495251
177	0x3e00e7e2	0.12588456
178	0xbfd3e265	-1.6553465
179	0xbfe33dc7	-1.7753228
180	0xbfe94aa1	-1.82259
181	0xc0d35ab5	-6.6048226
182	0x3d6f8e46	0.058485292
183	0x3d7abff9	0.061218236
184	0xbf8644fb	-1.0489801
185	0x4077e9ff	3.873657
186	0xbfb416fd	-1.4069515
187	0xbea57cb8	-0.32321715
188	0x406be8ad	3.6860764
189	0x40516269	3.2716315
190	0x3fb65524	1.4244733
191	0xbfc8fb61	-1.5701715
192	0xc07b15c2	-3.923203
193	0x3f7e1c0b	0.9926154
194	0xbf1ef551	-0.62093073
195	0xbebfae53	-0.37437686
196	0xbf628034	-0.8847687
197	0x3eee8400	0.46585083
198	0xbee66c87	-0.45004675
199	0x3d8bb6d6	0.068219826
200	0x4070422d	3.754039
201	0x3edea336	0.43483895
202	0xbfde4514	-1.7364831
203	0xbf41e811	-0.7574473
204	0x40447a8c	3.0699797
205	0xc08c63c4	-4.3871784
206	0x401edd51	2.482258
207	0x4019101e	2.3916087
208	0x3ea2fa76	0.31831712
209	0xc0d13447	-6.5376315
210	0xbf027b31	-0.50969225
211	0x3bd3775b	0.0064534373
212	0xc0cddff8	-6.43359
213	0xc06633af	-3.5969045
214	0x3ed58059	0.41699484
215	0x3fa408d3	1.2815193
216	0x407ec9ec	3.9810743
217	0xbf573912	-0.8407146
218	0xc0b6ff59	-5.7186704
219	0xbf166f52	-0.5876361
220	0xc08b36f5	-4.3504586
221	0xc04396cf	-3.0560796
222	0x3f93ad1a	1.1537201
223	0x3df630df	0.1202104
224	0xc064e66a	-3.5765634
225	0x400cd80e	2.200687
226	0x3f8847bd	1.0646893
227	0x3ec52a86	0.38509005
228	0x3da8899d	0.08229373
229	0x4015c64e	2.3402286
230	0x3ed01bbc	0.4064616
231	0x3f873e4c	1.0565886
232	0x3ef35416	0.4752509
233	0x3fcea6c1	1.6144639
234	0x3f298381	0.66216284
235	0xbfa3b24b	-1.2788786
236	0x3f8586e5	1.0431792
237	0x4061b042	3.526383
238	0xbf855d20	-1.0419044
239	0xc07f6013	-3.990239
240	0xc1056599	-8.337304
241	0xc1a17614	-20.182655
242	0x3faf41b6	1.3691928
243	0xbdb84534	-0.089975744
244	0xc142f39c	-12.184475
245	0xc18e5561	-17.791689
246	0xbf67e1a4	-0.90578675
247	0x3f8fe2c1	1.1241075
248	0x404a7883	3.1636055
249	0x406686f2	3.6019864
250	0x40607930	3.5073967
251	0x3fc716a1	1.5553781
252	0xc0f775f5	-7.733149
253	0xc1650b75	-14.315297
254	0xbfa0ac08	-1.25525
255	0x3f180e0b	0.5939643

layer1.bias f4 [150]
0	0x4137c848	11.486397
1	0xc00837c0	-2.1284027
2	0xbfaa3b09	-1.3299266
3	0x3ff5b645	1.9196249
4	0xc0185e6d	-2.3807633
5	0x3f824d45	1.0179831
6	0x40919b04	4.550173
7	0xc0a660c2	-5.1993113
8	0x40fc1ef0	7.8787766
9	0xc03ae845	-2.9204266
10	0x40367d33	2.8513916
11	0x407ed375	3.9816563
12	0xc000ff6b	-2.0155895
13	0xc0bb19c6	-5.846896
14	0xbfeb226f	-1.8369883
15	0x4038617f	2.8809507
16	0xbe7d9f7d	-0.24767871
17	0x40613112	3.51862
18	0xbead4324	-0.33840287
19	0xc0324802	-2.785645
20	0x3e72cc48	0.2371074
21	0x3ecec666	0.4038574
22	0xbf9b222b	-1.2119802
23	0xbd70b50e	-0.058766417
24	0x403fdf1e	2.997993
25	0x40771a7e	3.860992
26	0x404840cc	3.128955
27	0x409ab7b6	4.8349257
28	0x40828968	4.079273
29	0x40f7d747	7.745029
30	0x40c442d7	6.133159
31	0x403811cc	2.8760862
32	0xc13292d7	-11.16085
33	0xc03c6604	-2.9437265
34	0x3f0bbf36	0.5458864
35	0x3f11a23b	0.5688817
36	0x4074d708	3.8256245
37	0xbf6a8981	-0.91616064
38	0x3e8d196f	0.27558467
39	0xc000cc25	-2.01246
40	0x40293088	2.643587
41	0xc0183612	-2.3783002
42	0x40816177	4.0431476
43	0xc0086fbe	-2.1318202
44	0x412b215a	10.695642
45	0xbe8aa6eb	-0.27080473
46	0xbf4e14a3	-0.8050024
47	0x40a78f83	5.2362685
48	0xc0bce2a7	-5.9026675
49	0xbfd39a60	-1.6531487
50	0x3eec9117	0.46204445
51	0x3d206e5b	0.039167743
52	0x3f168781	0.5880051
53	0x3f20b585	0.62776977
54	0xc0001482	-2.0012517
55	0x409a4df1	4.8220143
56	0x409d53c7	4.9164767
57	0xbf1edc61	-0.6205502
58	0xbf95943b	-1.1685861
59	0xc12f8cbf	-10.971862
60	0xbff834ce	-1.9391115
61	0xbef4fb98	-0.478482
62	0x405a38fb	3.4097278
63	0x407cd92e	3.9507556
64	0x40dc1e2e	6.878684
65	0xbfa268b2	-1.26882
66	0xc077934c	-3.8683653
67	0xc0061452	-2.0949903
68	0xc0b7df71	-5.7460256
69	0x4041301f	3.018562
70	0x40a21675	5.0652413
71	0xc0ed97e1	-7.42479
72	0xc05a37bb	-3.4096515
73	0x3fa4d4f4	1.2877488
74	0x3f334d4d	0.70039827
75	0xc02b678a	-2.6781945
76	0x40f8784f	7.764686
77	0x40c0ee74	6.029108
78	0xc00c88a7	-2.1958406
79	0x401a88a7	2.4145906
80	0xc05e9972	-3.4781156
81	0xc08f9105	-4.4864526
82	0x3f3001d6	0.687528
83	0x3fbec7ed	1.4904763
84	0x4038aa03	2.8853767
85	0xbfeee35d	-1.8663136
86	0xbfce8e09	-1.6137096
87	0x408ccd71	4.4000783
88	0x3f1729f6	0.590484
89	0xbfa580fe	-1.292999
90	0x40a24cdf	5.0718837
91	0x400a54a3	2.1614158
92	0xc1217294	-10.090473
93	0x3e773434	0.24141008
94	0x3ed51ee1	0.4162512
95	0xbedce816	-0.43145818
96	0xc01bf8a4	-2.4370508
97	0xbf74a943	-0.9557077
98	0x412ed529	10.927041
99	0xbffc453a	-1.9708626
100	0x40db134b	6.846105
101	0xc08d0745	-4.4071374
102	0xc00baa42	-2.1822667
103	0xbddd6c3e	-0.10811661
104	0xbf176073	-0.59131545
105	0x3ff7e83e	1.936775
106	0xbee29093	-0.44250926
107	0xbf03a53d	-0.5142401
108	0x4025a6d5	2.5883076
109	0x40499067	3.1494386
110	0xbf6e3dd0	-0.9306307
111	0xbf0d894c	-0.55287623
112	0xbe64652a	-0.22304216
113	0x3f31a5f6	0.6939386
114	0xc027a56c	-2.6194715
115	0xc00f77ef	-2.2416952
116	0xc0b2cd0e	-5.587531
117	0xc112525f	-9.14511
118	0x409fbe3f	4.9919734
119	0x4089101e	4.2832174
120	0xc05e6c02	-3.4753423
121	0xbf0c4c3b	-0.5480382
122	0x40a08902	5.0167246
123	0x408bc971	4.36834
124	0xbf817e31	-1.0116636
125	0xbde56317	-0.112005405
126	0xbe2e5b59	-0.17027034
127	0xc006bd80	-2.1053162
128	0xbf0aef24	-0.5427115
129	0x4058c944	3.3872843
130	0x40680e3f	3.6258695
131	0xc0c147b2	-6.040002
132	0x40177642	2.366593
133	0xbf82359c	-1.017261
134	0xc13973ef	-11.590804
135	0x4032a7a3	2.7914817
136	0x40ddb523	6.9283614
137	0xc0294985	-2.6451123
138	0x403a9d60	2.9158554
139	0x3ec6cacf	0.38826606
140	0xc0309bb3	-2.7595031
141	0x402b4096	2.675817
142	0xc0ced45d	-6.4634233
143	0xbfc2b4d3	-1.5211433
144	0x40d29826	6.581073
145	0x3df5b3ca	0.11997183
146	0x40c1c604	6.055422
147	0x3ec47d75	0.38376966
148	0x3f6fbda5	0.9364875
149	0xbfbaf6fa	-1.4606621

layer2.weight f4 [128, 150]
0	0x3f17d673	0.593116
1	0x3e85ffe9	0.26171806
2	0xc0665836	-3.599134
3	0xbdc012d1	-0.09378589
4	0xbf012813	-0.50451773
5	0x3de16851	0.11006225
6	0x3efc53b3	0.49282607
7	0xbf34d991	-0.7064448
8	0xbf4b62e2	-0.7944776
9	0x3d129299	0.035784338
10	0xc030cba9	-2.7624304
11	0x3df7f545	0.12107328
12	0x3e5c2179	0.21497144
13	0x3f55c429	0.8350244
14	0xbe2a3491	-0.16621615
15	0xbdf2729c	-0.11838266
16	0x3d75d807	0.060020473
17	0xbf2aff35	-0.66795665
18	0x3d05f1d4	0.03270133
19	0xbea2fb7e	-0.31832498
20	0xbf2bb30d	-0.67070085
21	0xc004d9b5	-2.0757878
22	0x3f45b9a3	0.77236384
23	0x3fadd25a	1.3579819
24	0x3e057c2b	0.13035648
25	0x3d547e8a	0.05187849
26	0xbfa3e4f7	-1.280425
27	0xbf8a4bb0	-1.0804348
28	0xbff10b14	-1.8831506
29	0x3ec1617e	0.37769693
30	0xc000e42a	-2.013926
31	0xc0089eee	-2.1347003
32	0x3f7663db	0.9624612
33	0xbf4a25c7	-0.78963894
34	0xbf966af1	-1.1751386
35	0x3fa47be6	1.2850311
36	0x3ebece84	0.37266934
37	0xbe3858e2	-0.18002656
38	0xbea40abc	-0.3203944
39	0xbf24f3bf	-0.6443443
40	0x3eca4e56	0.3951289
41	0x3f62faa5	0.88663703
42	0xbe52b5eb	-0.20577209
43	0xbf0ffa85	-0.5624164
44	0x3ebed6bc	0.37273204
45	0xbf57f9f4	-0.84365773
46	0x3e23139d	0.1592545
47	0xbf94b867	-1.1618775
48	0xbfe27fe5	-1.769528
49	0x3fc9431f	1.5723609
50	0x3ea12643	0.31474504
51	0xbefdeb87	-0.49593756
52	0xbf4630ff	-0.7741851
53	0xbeb5da80	-0.35518265
54	0xbf9961da	-1.1982987
55	0xbea84c14	-0.32870543
56	0xbea325e7	-0.31864855
57	0xc0618481	-3.5237124
58	0x3e0c79a5	0.13718279
59	0xbf7b4ff4	-0.98168874
60	0xbda045eb	-0.07825836
61	0x3f590f36	0.84788835
62	0x3f5ca066	0.8618225
63	0xbfa9c05d	-1.326183
64	0xbea0a167	-0.3137314
65	0xbf8abd2f	-1.0838984
66	0x3e1b04a6	0.15138492
67	0xbf4dd621	-0.8040486
68	0x3f233ce9	0.63764817
69	0xbea0f003	-0.31433114
70	0xbf3109f8	-0.69155836
71	0xc0068e9a	-2.1024537
72	0x3e6a9752	0.22909287
73	0x3e017446	0.12642011
74	0xbf91ab58	-1.1380415
75	0xbf62bdbe	-0.88570774
76	0xc0193f49	-2.3944876
77	0xbf5dfa46	-0.8671001
78	0xbe35cd60	-0.17754126
79	0xbf8640a0	-1.0488472
80	0xbe7448b5	-0.2385586
81	0xbf86389d	-1.0486027
82	0xbeac30f3	-0.33631095
83	0x3ecc4f0e	0.39904064
84	0xbf121f67	-0.57079166
85	0xbece3ff8	-0.4028318
86	0x3f5b5cb4	0.8568833
87	0x3f672d8e	0.90303886
88	0xbed42c83	-0.4144021
89	0x3f216eac	0.63059497
90	0x3fce8cc6	1.6136711
91	0x3fb4be4a	1.4120572
92	0xbd81c84a	-0.0633703
93	0xbfb5ac04	-1.419312
94	0xbfd0a62a	-1.6300709
95	0xbef47bfe	-0.4775085
96	0xbfe5c296	-1.7950008
97	0xbf99a91e	-1.2004735
98	0xbf6bf425	-0.9216941
99	0x3e09e330	0.13465571
100	0xbf5387ae	-0.82628906
101	0xbf9e3aed	-1.2361733
102	0xbe881b56	-0.26583356
103	0x3db4649f	0.088082545
104	0xbf5a3e16	-0.85250986
105	0xbdef08d4	-0.11671606
106	0xbf25dbbc	-0.64788413
107	0xbf0b8ce5	-0.54511863
108	0x3f24ec34	0.6442292
109	0xbee7b0fb	-0.45252213
110	0xbec0aefb	-0.376335
111	0xbee8379e	-0.45354933
112	0x3d2f7231	0.04283351
113	0x3facdba2	1.3504527
114	0xc02bfede	-2.6874309
115	0x3f606f72	0.8767005
116	0xbf2685c6	-0.6504787
117	0xbfa709cc	-1.3049865
118	0xbed60ff4	-0.41809046
119	0xbfae910c	-1.3638015
120	0x3e7ab045	0.24481304
121	0x3f020d16	0.5080122
122	0xbf67fc49	-0.9061933
123	0xbf94b2dc	-1.1617084
124	0x3e529a5e	0.20566699
125	0xbf940fcd	-1.1567322
126	0x3d9091d6	0.07059066
127	0xbe0ecc66	-0.1394516
128	0xbf4587d3	-0.77160376
129	0xbf5ca262	-0.86185277
130	0xbfc9ad95	-1.5756098
131	0xbfc69f08	-1.5517282
132	0x3fab9391	1.3404409
133	0xbe97e3bf	-0.29665944
134	0x3f360adf	0.7111034
135	0xbfb25675	-1.3932635
136	0x3e086fa1	0.13323833
137	0xbc70a945	-0.0146887945
138	0x3d27f649	0.04100636
139	0xbf5d8435	-0.86529857
140	0xbeeddf48	-0.46459413
141	0xbef79455	-0.48355356
142	0x3fdd91cd	1.731012
143	0xbfea6481	-1.8311921
144	0x3f2804ef	0.6563253
145	0xbf58cceb	-0.8468768
146	0xbfb0b9cb	-1.38067
147	0x3e95d73f	0.29265782
148	0x3ece41d3	0.40284595
149	0xbf74778d	-0.9549492
150	0xbea6db11	-0.3258901
151	0x3d882605	0.06647877
152	0x3e0e965e	0.13924548
153	0xc03216df	-2.782646
154	0xbbb831f4	-0.0056211893
155	0xbf420e55	-0.7580312
156	0xbffd8217	-1.9805325
157	0xbfd7baf6	-1.6853931
158	0xbf7482c0	-0.9551201
159	0xbf5b826e	-0.85745895
160	0xbfb4dfcb	-1.4130796
161	0x3f9f4720	1.2443581
162	0xbf825b0a	-1.0184033
163	0xbfc05a32	-1.5027525
164	0xbf13a73c	-0.57677054
165	0x3e7b60ff	0.2454872
166	0xbf9c23fd	-1.2198483
167	0xc0562e18	-3.3465633
168	0x3d6858d7	0.05672535
169	0x3fa24364	1.2676816
170	0xbf3ec881	-0.74524695
171	0x3fb1ef15	1.3901087
172	0x3f20a603	0.62753314
173	0xc019f9f9	-2.4058821
174	0x3ec0b3ce	0.3763718
175	0xc02daf22	-2.7138143
176	0xbef363a4	-0.47536957
177	0x3e755298	0.23957288
178	0xbff092f7	-1.879485
179	0x3f6acbc2	0.9171716
180	0x3ed607dc	0.4180287
181	0xbfe25386	-1.7681739
182	0xbff0f123	-1.8823589
183	0xbf80a8c7	-1.0051507
184	0xbef8de39	-0.48607042
185	0xbeaa3f18	-0.33251262
186	0xbfa8e10a	-1.3193676
187	0x3f211ad8	0.62931585
188	0x3c9b2a1e	0.018940981
189	0x3f29111f	0.6604175
190	0x3d8716d5	0.06596152
191	0xbfcd9d29	-1.6063586
192	0xbf146692	-0.5796901
193	0x3fa0705e	1.2534292
194	0x3fde1881	1.7351228
195	0xbfb8eba6	-1.4446914
196	0xbee1559c	-0.44010627
197	0xbec20731	-0.37896112
198	0x3ff6183d	1.9226147
199	0xbec81626	-0.39079398
200	0xc03aace3	-2.9168022
201	0x3ec7a605	0.3899385
202	0xc0b40a6c	-5.626272
203	0x3e6a50cc	0.22882384
204	0xc0660c55	-3.5945027
205	0x3efe7366	0.49697417
206	0xbc60ece4	-0.013728354
207	0x3fbb234f	1.462015
208	0xbfbce2db	-1.4756731
209	0xbff1541f	-1.8853797
210	0x3f254a2a	0.6456629
211	0x3d336cb4	0.04380484
212	0x3f7f0b1a	0.99626315
213	0xbf982a8b	-1.1887983
214	0xbf80c980	-1.0061493
215	0xbec95e53	-0.39329776
216	0xbf5cf35d	-0.8630884
217	0xc0728661	-3.7894518
218	0x3f9dc981	1.2327119
219	0x3edf03df	0.4355764
220	0xbf01cc73	-0.5070259
221	0xbfa1e03c	-1.2646556
222	0x407e42b7	3.972822
223	0x3f196edc	0.59934783
224	0xc00a0a5f	-2.156883
225	0x3f2297d9	0.6351295
226	0xbf410b47	-0.7540783
227	0xbdf1a208	-0.11798483
228	0x3da7d656	0.08195178
229	0xbfca63ea	-1.5811741
230	0xc04b7355	-3.1789143
231	0xbf566751	-0.837514
232	0xbec63b25	-0.38717
233	0x3edd98cb	0.43280634
234	0x3f81f618	1.0153227
235	0xbe11a1d7	-0.14221893
236	0xc00a65fa	-2.1624742
237	0x3f30b0a4	0.6901953
238	0x3fa9dcb7	1.3270482
239	0xbf7dc302	-0.99125683
240	0x3f0407cb	0.5157439
241	0x3e893e31	0.2680526
242	0xbf8f7557	-1.1207684
243	0xc00fc75c	-2.246543
244	0x401c1170	2.4385643
245	0x3ece20de	0.4025945
246	0xc0438339	-3.0548842
247	0x3f073ad9	0.5282417
248	0xbf1481f9	-0.5801082
249	0xbfc23e00	-1.5175171
250	0xbfd6969a	-1.676471
251	0xbfa59b23	-1.2937969
252	0xbe3decab	-0.18547313
253	0x3ec592ed	0.38588658
254	0xbfc3f1db	-1.5308183
255	0xc01b619d	-2.4278328

layer2.bias f4 [128]
0	0xbeee93bd	-0.4659709
1	0xbeafdebc	-0.3434962
2	0xbe8207e9	-0.2539666
3	0xbf8f097a	-1.1174767
4	0xbea679d6	-0.32514828
5	0xbdad76d7	-0.084699325
6	0x3e9ab187	0.30213568
7	0x3f0b3edc	0.5439279
8	0xbd8e93f7	-0.06961816
9	0xbeba62b7	-0.36403438
10	0x3e9422ff	0.2893295
11	0xbf4a6cb4	-0.7907212
12	0x3f061af7	0.52384895
13	0xbf06e051	-0.5268603
14	0xbdd25e61	-0.102719076
15	0xbda8050e	-0.08204089
16	0xbe727123	-0.2367597
17	0x3d0763e6	0.033054255
18	0x3f9b84c5	1.2149893
19	0xbee58c82	-0.4483376
20	0x3e7632b7	0.24042784
21	0xbcd3d573	-0.025858616
22	0xbfb91e68	-1.4462404
23	0xbc0fc5d7	-0.008775196
24	0xbfb6d80c	-1.4284682
25	0xbe22417a	-0.1584529
26	0xbd43350a	-0.047658004
27	0xbe04e35d	-0.12977357
28	0x3f43cea2	0.7648717
29	0xbdffc4c9	-0.12488706
30	0x3f089537	0.53352684
31	0x3e3c8a6d	0.1841218
32	0x3f8a9896	1.0827816
33	0x3f2bcd27	0.6710991
34	0x3f7e4c7b	0.9933545
35	0x3f56895d	0.8380335
36	0x3ef207cb	0.4727157
37	0xbe2d0506	-0.16896448
38	0x3d8a7df4	0.06762305
39	0x3d1caa58	0.03824839
40	0xbdc24401	-0.09485627
41	0xbf4cd77c	-0.80016303
42	0xbe850de7	-0.2598717
43	0x3f7b84e7	0.9824967
44	0xc0442020	-3.0644608
45	0xbece8408	-0.40335107
46	0x3fc09efb	1.5048517
47	0xbd25ef92	-0.040511675
48	0x3dfe7de0	0.124263525
49	0x3fa01522	1.2506449
50	0xbe1ef898	-0.15524518
51	0xbd94bc61	-0.07262493
52	0x3e66965e	0.22518298
53	0x3cb4d55d	0.022074396
54	0xbfb93340	-1.4468765
55	0xbcbe2ff3	-0.023216223
56	0xbdf50697	-0.119641475
57	0xbfb49777	-1.4108723
58	0xbe25e33b	-0.16199963
59	0xbcac3023	-0.021019047
60	0xbe9f7f10	-0.31151628
61	0xc0b34dae	-5.6032324
62	0xbb51d7ee	-0.0032019573
63	0xbea8e0e5	-0.3298408
64	0x3f606820	0.8765888
65	0xbdefaab3	-0.1170248
66	0xbe3cce91	-0.18438174
67	0x3d35cb6d	0.044383455
68	0x3c82c5ed	0.015963519
69	0x3f6497b8	0.89294004
70	0x3cd60739	0.02612649
71	0xbc3c3d8a	-0.011489281
72	0xbf29efae	-0.6638135
73	0x3d73e7d2	0.059547253
74	0xbd7878f4	-0.060662225
75	0x3f98e24e	1.1944063
76	0xbeb7c930	-0.3589568
77	0xbdd789be	-0.10524319
78	0x3dd8203e	0.10553025
79	0xc00552c6	-2.083177
80	0xbd538757	-0.051642742
81	0xbee927fe	-0.45538324
82	0x3bf74ba5	0.0075468593
83	0xbff74d7c	-1.9320521
84	0x3e3a9505	0.18220909
85	0xbdd69b4e	-0.10478841
86	0x3dd441fe	0.103641495
87	0xbcc2278f	-0.023700504
88	0x3ecc42c1	0.3989468
89	0xbed96514	-0.4245993
90	0x3f802fbc	1.0014567
91	0xbe2cc711	-0.16872813
92	0xc01b4487	-2.4260576
93	0xbe0fde16	-0.14049563
94	0x3cb84755	0.022494951
95	0xc012ccf2	-2.2937589
96	0x3d8740d9	0.066041656
97	0xbf13a1e1	-0.5766888
98	0x3ca85322	0.020547453
99	0xbcceef50	-0.025260597
100	0x3bec06da	0.007202965
101	0xbf3c84db	-0.7364022
102	0x3f722c63	0.9459898
103	0x3d758589	0.059941802
104	0x3e7a052f	0.2441604
105	0x3f96e2d8	1.1787977
106	0xbe810887	-0.25201818
107	0xbf1141ff	-0.5674133
108	0xbf0aaf35	-0.54173595
109	0x3f17bcda	0.5927254
110	0x3e0f42fb	0.13990395
111	0xbdcf8b77	-0.10134023
112	0xbd4f4b32	-0.05060882
113	0xbdd98fd7	-0.106231384
114	0x3e8cba3f	0.27485844
115	0xbdb8e991	-0.09028924
116	0xbecbf838	-0.39837813
117	0x3d6d1786	0.05788376
118	0xbeed63a8	-0.46365094
119	0xbe0300a0	-0.12793207
120	0xc02b389e	-2.6753306
121	0x3fc82cd3	1.5638679
122	0xbdcd3aa1	-0.10020948
123	0x3d992faf	0.07479798
124	0xbf3d1e87	-0.73874706
125	0xbdebfcb5	-0.115228094
126	0xbe58354a	-0.21114078
127	0x3f1f4f47	0.6223034

value_stream.0.weight f4 [128, 128]
0	0xbdb43008	-0.08798224
1	0xbd309606	-0.043111823
2	0xbc5db033	-0.013530779
3	0x3d0a53d2	0.033771344
4	0xbc6c4141	-0.014419855
5	0x3d5930d5	0.053025085
6	0x3d51315f	0.051072475
7	0x3cf9ac96	0.030477803
8	0xbd823578	-0.063578546
9	0xbc13bd70	-0.009017333
10	0xbc39296f	-0.011301382
11	0xbdd87a9b	-0.1057026
12	0x3d4fa1b9	0.05069134
13	0xbcf4cf19	-0.029883908
14	0xbd348b3a	-0.04407809
15	0xbd42b134	-0.047532275
16	0x3d8fe18c	0.070254415
17	0xbdbd8b46	-0.0925508
18	0xbd019687	-0.031637695
19	0xbd4c7b93	-0.049922537
20	0x3d20d37f	0.0392642
21	0xbd086a92	-0.03330476
22	0xbd9d0e9c	-0.07668802
23	0x3cda6b70	0.026662558
24	0xbac9d1e7	-0.0015397639
25	0xbd45a208	-0.04825023
26	0xbdaf12a8	-0.0854848
27	0xbd783344	-0.060595766
28	0xbd91245a	-0.07087012
29	0xbddfcbaf	-0.109275214
30	0xbd54e945	-0.051980276
31	0xbdbb5aec	-0.09148201
32	0xbdf1830a	-0.11792572
33	0xbcb6869c	-0.022280984
34	0xbd3d7672	-0.046255536
35	0xbe892d40	-0.26792336
36	0xbd356f28	-0.04429546
37	0x3cfdd9f2	0.030987713
38	0x3cb1e641	0.021716239
39	0xbd045783	-0.03231002
40	0x3c9e696b	0.019337377
41	0xbd961ab6	-0.073293135
42	0xbdd352ee	-0.10318552
43	0xbda09426	-0.07840757
44	0xbde1e887	-0.11030679
45	0xbd0f0b71	-0.03492302
46	0xbcf453dc	-0.029825144
47	0x3cac4925	0.021030972
48	0xbcb4526a	-0.022011954
49	0xbe2516bf	-0.16121958
50	0xbd7e5096	-0.06208857
51	0xbc169c6b	-0.009192566
52	0x3c2b6586	0.010461217
53	0x3d98fa5a	0.07469626
54	0xbd8ce596	-0.068797275
55	0xbce0bf37	-0.027434928
56	0x3ca34e72	0.019934867
57	0xbbbdaebd	-0.0057886527
58	0xbdaab13a	-0.083345845
59	0x3d43925d	0.047747005
60	0xbb1f10c1	-0.002427146
61	0xbd4cf0b7	-0.05003425
62	0xbb2c1698	-0.0026258584
63	0xbe09278e	-0.13393995
64	0xbc242c96	-0.010020396
65	0xbd98f8ad	-0.07469306
66	0xbe05b72a	-0.13058153
67	0xbcc22393	-0.023698604
68	0xbd635f49	-0.055510793
69	0xbdb148c2	-0.086564556
70	0xbe0a9e1a	-0.13536873
71	0xbb6029ad	-0.0034204528
72	0xbe528291	-0.2055762
73	0xbc119ab4	-0.008886982
74	0xbdc45882	-0.09587194
75	0xbd821c3c	-0.063530415
76	0xbc09707c	-0.008388635
77	0xbda9a422	-0.08283259
78	0xbc9927fe	-0.018695828
79	0xbe33b99a	-0.1755127
80	0x3d64f598	0.05589828
81	0xbd9ec666	-0.07752685
82	0xbdb7fcfb	-0.08983799
83	0xbc90a44c	-0.017656468
84	0xbbbd70fa	-0.00578129
85	0x3d1d66fa	0.038428284
86	0xbdc4b07e	-0.09603976
87	0xbc96cf31	-0.018409343
88	0xbdbe80b4	-0.09301892
89	0xbd1b26b1	-0.037878696
90	0xbd3be8d0	-0.045876324
91	0xbc4dfc0b	-0.012572299
92	0xbd85a168	-0.065249264
93	0x3cc34e4b	0.023841044
94	0xbd0f99c8	-0.035058767
95	0xbc03a701	-0.008035422
96	0xbc9edb2d	-0.01939162
97	0xbdb59b70	-0.08867538
98	0x3d7926af	0.060827907
99	0x3c75671a	0.014978195
100	0x3cfb3a89	0.03066756
101	0xbd8d036e	-0.0688542
102	0xbd5c4321	-0.053774957
103	0xbd55b4d9	-0.052174423
104	0x3cde5ab1	0.027142854
105	0xbc8fd19d	-0.017556006
106	0x3b3dffc8	0.0028991569
107	0x3d4eef37	0.0505211
108	0xbe11db62	-0.14243844
109	0xbd08d38b	-0.033404868
110	0x3cb3396f	0.021877972
111	0x3d3cae43	0.046064626
112	0xbd994b6a	-0.07485087
113	0xbdaa33a3	-0.0831063
114	0x3cb4b216	0.022057574
115	0xbb5e2144	-0.003389434
116	0xbdfa3898	-0.12217826
117	0x3d822e73	0.06356516
118	0xbc52a064	-0.012855623
119	0xbb6d79d1	-0.0036235938
120	0xbc9e6094	-0.019333161
121	0xbca9ae65	-0.02071304
122	0x3cce58cc	0.025188826
123	0xbd4e83a6	-0.05041852
124	0xbd8b1af7	-0.067922525
125	0x3d47069a	0.04859028
126	0xbdc194fe	-0.09452246
127	0x3b00fd32	0.0019682166
128	0xbea5da14	-0.32392943
129	0xbd43d78d	-0.047812987
130	0x3dba8da8	0.0910905
131	0xbed14879	-0.40875605
132	0xbd0e59f5	-0.03475376
133	0x3d748782	0.059699543
134	0x3e2776da	0.16353932
135	0x3de83d82	0.11339857
136	0x3e19cca4	0.1501947
137	0xbf22dc48	-0.6361737
138	0xbf222167	-0.6333222
139	0xbec3cd2c	-0.3824247
140	0x3dc0a5b9	0.09406609
141	0xbdad1080	-0.08450413
142	0x3e5ecd44	0.2175799
143	0xbd962538	-0.07331318
144	0x3a8c1090	0.0010686088
145	0xbcaa907f	-0.020820854
146	0xbe3c6c85	-0.18400772
147	0xbe726727	-0.23672162
148	0x3ee201ee	0.44142097
149	0x3e918dad	0.28428403
150	0x3eaa08ab	0.33209738
151	0x3ea2e78f	0.3181729
152	0x3c97be37	0.018523319
153	0x3f0aa9c0	0.5416527
154	0xbf9d1af2	-1.2273848
155	0xbd9e635a	-0.077337936
156	0xbf158e2f	-0.5842008
157	0x3ebb34a4	0.365636
158	0x3e3084b0	0.17238116
159	0xbed89fde	-0.4230947
160	0xbc92e109	-0.01792957
161	0xbe79c300	-0.24390793
162	0x3aa7966d	0.0012785919
163	0x3cec2964	0.02882833
164	0xbe8719a2	-0.26386744
165	0x3d7fab41	0.06241918
166	0xbdb6ff81	-0.08935452
167	0xbe8316e8	-0.25603414
168	0x3d9f8801	0.077896126
169	0x3dc16712	0.09443487
170	0xbf8964a7	-1.0733842
171	0xc038a716	-2.885198
172	0x3f16d027	0.58911365
173	0x3d7ce86d	0.061745096
174	0x3c9ae3e6	0.018907499
175	0x3d4573b0	0.04820603
176	0x3eb1a0f1	0.346931
177	0xbd099b5f	-0.03359544
178	0x3d845218	0.06460971
179	0x3e03d8b7	0.12875639
180	0xbf120f43	-0.5705454
181	0x3d608177	0.054810967
182	0xbeeb885b	-0.46002468
183	0x3e8fb355	0.28066507
184	0x3b693825	0.0035586443
185	0xbf0e4665	-0.55576164
186	0xbf75cd16	-0.9601606
187	0xbd8831ae	-0.06650101
188	0x3e90d85b	0.28290066
189	0xbfef4de6	-1.8695648
190	0xbcd9ff87	-0.026611103
191	0xbeb34f55	-0.35021463
192	0xbf1e35c9	-0.6180082
193	0x3d9674ab	0.073464714
194	0x3e85e2d8	0.2614963
195	0xbd192163	-0.037385356
196	0xbd11fb96	-0.03564032
197	0xbed669aa	-0.4187749
198	0xbee918b5	-0.45526662
199	0xbed7dc7c	-0.42160404
200	0xbf365018	-0.71215963
201	0x3e480e46	0.19536695
202	0x3d8b7cbb	0.068109
203	0xbea50552	-0.32230622
204	0xbde98d17	-0.11403864
205	0xbd89619a	-0.06708069
206	0x3e96f62c	0.2948469
207	0xbf0b4fa1	-0.5441838
208	0x3eaa4dfe	0.33262628
209	0xbf51b92c	-0.81923175
210	0x3cba6489	0.022753017
211	0xbf28d9af	-0.6595716
212	0x3dab8b0a	0.08376129
213	0x3cc41802	0.023937229
214	0x3d38a58b	0.04507975
215	0x3d856d3d	0.06514976
216	0xbf19e44f	-0.60113996
217	0xbf552fce	-0.8327607
218	0xbefb6197	-0.49097893
219	0x3e727460	0.23677206
220	0x3ebd8304	0.3701402
221	0x3d9cb0a1	0.07650877
222	0x3e088722	0.13332799
223	0xbf007a85	-0.5018695
224	0x3f10fb62	0.5663358
225	0xbe281269	-0.16413273
226	0x3cb41c8d	0.02198627
227	0x3d8c057c	0.068369836
228	0x3d131a89	0.035913978
229	0x3e5699d7	0.20957123
230	0xbf0f1f9a	-0.55907595
231	0x3ead5c0d	0.33859292
232	0xbdfb27e8	-0.12263471
233	0xbe21e0f6	-0.15808472
234	0x3c84436b	0.016145429
235	0xbf16a7c2	-0.5884973
236	0xbec52730	-0.3850646
237	0xbf1e37cb	-0.61803883
238	0x3e3dd1cd	0.18537064
239	0xbcf41241	-0.02979386
240	0x3d4c1e2e	0.04983347
241	0xbb3eff05	-0.0029143703
242	0x3e18e4ee	0.1493108
243	0xbea3d64d	-0.31999436
244	0xbf3d26de	-0.7388743
245	0x3e713247	0.23554336
246	0xbddcb960	-0.10777545
247	0xbbe30417	-0.006927978
248	0xbe5a6e75	-0.21331199
249	0xbc0d52cb	-0.008625696
250	0xbcd3df46	-0.025863301
251	0xbe758c5e	-0.23979327
252	0xbeada533	-0.339151
253	0x3d90dea2	0.07073714
254	0xbf2e45ed	-0.6807545
255	0xbf01571b	-0.5052354

value_stream.0.bias f4 [128]
0	0xbe8e5cf1	-0.27805284
1	0xbb629c7c	-0.0034578135
2	0x4124c3b8	10.297783
3	0xc0689b15	-3.6344655
4	0xbdfb360d	-0.12266169
5	0xbfba7b4c	-1.4568877
6	0x4097c3cd	4.7426515
7	0xbfd288cd	-1.6447998
8	0xbe71a346	-0.2359744
9	0xbee2fabd	-0.44331923
10	0x40fe4b44	7.9466877
11	0xbeb617b7	-0.35564968
12	0x41168c5a	9.4092655
13	0xc1725f27	-15.148231
14	0xc05b6a6c	-3.4283705
15	0xbf033e48	-0.5126691
16	0xc0e78403	-7.2348647
17	0x415c44d8	13.766808
18	0x407208c8	3.781786
19	0xbfbb4728	-1.463109
20	0x41822f96	16.273235
21	0x4166a079	14.414178
22	0xbf322834	-0.69592595
23	0xbf8e8919	-1.1135589
24	0x41560cbc	13.378109
25	0xbf31b389	-0.69414574
26	0x40593925	3.3941128
27	0x415f9edc	13.976284
28	0x412ffc88	10.999153
29	0x40ace699	5.403149
30	0xc14c6a28	-12.775917
31	0xc014088d	-2.313022
32	0x411aafb2	9.667894
33	0xbf2c1b35	-0.67229015
34	0xc0b904d8	-5.7818413
35	0xbf98ee1c	-1.1947665
36	0xbfc762e9	-1.557706
37	0xbee6c0f1	-0.45069078
38	0x41a65df2	20.795872
39	0x407fa66f	3.9945333
40	0xc0346c42	-2.8191075
41	0x409314d2	4.5962915
42	0xbf085ae4	-0.5326369
43	0xbaebeba5	-0.0017999305
44	0x41537c57	13.217856
45	0xbe8da48c	-0.27664602
46	0x418bc1cf	17.469633
47	0xbea39360	-0.31948376
48	0x417b5876	15.709097
49	0x40c80b65	6.251391
50	0x41226fb0	10.152267
51	0xbf8f8732	-1.1213133
52	0xbebd9372	-0.37026554
53	0xbe826efa	-0.25475293
54	0xbe888d9f	-0.26670548
55	0x3f9f88bb	1.2463602
56	0x40b828dc	5.7549877
57	0xbd98cf14	-0.07461372
58	0xbd788f52	-0.060683556
59	0xc0de5eb5	-6.949061
60	0xc088d56d	-4.276053
61	0xbfb64d10	-1.4242268
62	0xbec0abe4	-0.37631142
63	0x41023679	8.138299
64	0x4183e99e	16.48907
65	0xbd49b3cd	-0.049243737
66	0xc019313c	-2.39363
67	0x410845cb	8.517039
68	0xbe3e6fb6	-0.18597302
69	0x40a449bc	5.134001
70	0x40d1f546	6.5611906
71	0xbdd1e08a	-0.102479056
72	0x40e3bb88	7.116642
73	0xc007e22a	-2.123179
74	0xbf0db74b	-0.5535781
75	0x410b9aaf	8.725265
76	0xbf3c25c0	-0.734951
77	0xc058ce36	-3.387586
78	0x4042df7f	3.044891
79	0xc0b9ccbd	-5.8062425
80	0xbe29d489	-0.16584982
81	0x40f2451b	7.5709357
82	0xbefb3da9	-0.4907048
83	0xbe3bac78	-0.1832751
84	0xbed42321	-0.4143305
85	0xbf0c57ad	-0.5482128
86	0x41741124	15.254185
87	0xbd81fda8	-0.06347209
88	0xbea53c35	-0.32272497
89	0xbea7f04d	-0.32800522
90	0x41566128	13.39872
91	0xbd134a01	-0.035959247
92	0xbe8162eb	-0.2527078
93	0xc1114e62	-9.081636
94	0xbd12e804	-0.0358658
95	0x3f446902	0.7672273
96	0xbe9ba51e	-0.30399412
97	0xbf500320	-0.8125477
98	0xc084522e	-4.1350317
99	0xbf247404	-0.64239526
100	0xc104f20a	-8.309092
101	0x412df26c	10.871685
102	0xbf9bdf77	-1.2177571
103	0xc044e725	-3.076608
104	0x405925ef	3.3929403
105	0x402b02be	2.6720424
106	0xbf428ec9	-0.7599912
107	0xc09908cc	-4.782324
108	0x4148ade1	12.542451
109	0xbcae5cfd	-0.021284575
110	0xbe2eee2a	-0.1708304
111	0xbe3fecfd	-0.18742748
112	0x410adc94	8.678852
113	0x40ee340b	7.443853
114	0xbfa61f40	-1.2978287
115	0x4134b016	11.29299
116	0x41814ee0	16.163513
117	0xc1526e9d	-13.152005
118	0x4167a70a	14.478281
119	0xbca6eed7	-0.02037756
120	0x414d2ec7	12.82392
121	0x40f17c1a	7.546399
122	0xc130de65	-11.054296
123	0xbff608ad	-1.9221398
124	0x40b2b932	5.585107
125	0xc154dbaf	-13.303634
126	0xbe01d4cc	-0.12678832
127	0xc00bbb07	-2.1832902

value_stream.2.weight f4 [1, 128]
0	0x3cb12d48	0.021628037
1	0xc0b20c8f	-5.564033
2	0x414dc36b	12.860209
3	0x3dc4504f	0.0958563
4	0xbfdb600a	-1.7138684
5	0xc0856d4c	-4.169592
6	0xc167180e	-14.443373
7	0xbfde87f7	-1.7385243
8	0x3d2cee5a	0.042219497
9	0xbeada779	-0.33916834
10	0x41284b3d	10.518369
11	0xbf92dc13	-1.1473411
12	0xc04278f1	-3.0386317
13	0xc08866ed	-4.262564
14	0xbe9f7ec0	-0.3115139
15	0xc04321f9	-3.0489485
16	0xc0bd78f1	-5.9210134
17	0x40a332e9	5.0999646
18	0x40a5c822	5.1806803
19	0x407f1f7e	3.9862971
20	0x40a6fdf1	5.2184987
21	0xc193f635	-18.495218
22	0x40972c3f	4.724151
23	0x3fed1541	1.8522111
24	0x40b70415	5.7192483
25	0xbebccac9	-0.36873463
26	0x410de901	8.869386
27	0x41276753	10.462726
28	0x40bc1433	5.8774657
29	0x413fcab5	11.986989
30	0xc0caebd8	-6.3412895
31	0x3c0a4945	0.00844032
32	0x41194062	9.578218
33	0x3faf7dbd	1.3710247
34	0xc0171378	-2.3605633
35	0xc044f104	-3.0772104
36	0xc0884a38	-4.25906
37	0x3d8692fb	0.06571003
38	0xc1a14701	-20.15967
39	0xc14f95d1	-12.974076
40	0x3c72192d	0.01477651
41	0xc0bc980a	-5.8935595
42	0xc096a135	-4.7071786
43	0xc0c8c9aa	-6.274617
44	0x410bb41d	8.731473
45	0xbf49248d	-0.785714
46	0x414ca48d	12.790174
47	0xbd28f68a	-0.041250743
48	0x4097cddb	4.743879
49	0xc1123658	-9.1382675
50	0x3f841be8	1.0321016
51	0xbfec1d98	-1.8446531
52	0x3ff5b015	1.9194361
53	0x3b3dc26f	0.0028955003
54	0xbbdf011e	-0.006805553
55	0xbffaac51	-1.9583837
56	0xc1634ca1	-14.206208
57	0x40015592	2.0208478
58	0x3e4e443e	0.2014322
59	0x3fd6a719	1.6769744
60	0x3e2b077c	0.16702074
61	0xc08d04c9	-4.406834
62	0x3c7b852a	0.015351573
63	0xc188a0cf	-17.07852
64	0x4114e233	9.305224
65	0x3d8f2893	0.06990161
66	0xc058d889	-3.3882163
67	0x4057b63a	3.3704972
68	0x3b8b36d9	0.0042484817
69	0xc1345eb1	-11.273118
70	0x411179c5	9.092229
71	0xc08424e9	-4.1295056
72	0xc14449cf	-12.26802
73	0x3d051f95	0.032500822
74	0xc05b6f58	-3.428671
75	0xc0955ca4	-4.6675587
76	0x40730733	3.7973144
77	0xc02c3835	-2.6909306
78	0xc100220f	-8.008315
79	0xbe7dd5e2	-0.24788621
80	0x3d1ae1ec	0.037813112
81	0xc096ce48	-4.712681
82	0xbf0dd0ab	-0.5539653
83	0xbbacf33f	-0.0052780206
84	0xbf157d99	-0.5839477
85	0xbdfb0138	-0.12256092
86	0xc1a095c0	-20.07312
87	0xc06ffb22	-3.749703
88	0xbf00ab89	-0.5026174
89	0xc03f9a84	-2.993806
90	0xc1dce810	-27.613312
91	0xc06ca7b3	-3.6977355
92	0xc0032b3f	-2.0495145
93	0x403d0ca1	2.9538958
94	0xc0403864	-3.0034418
95	0x40dbee7c	6.872862
96	0x3d4ea27a	0.05044792
97	0x40873dba	4.226285
98	0x3fe0a4c0	1.7550278
99	0xc055042d	-3.3283799
100	0xbf883525	-1.0641218
101	0x4032e6f5	2.7953465
102	0xc07a9991	-3.915623
103	0x3c1e3e28	0.009658374
104	0xc17eec96	-15.93276
105	0x3cd543ec	0.026033364
106	0xbeb93464	-0.36172783
107	0xbf755796	-0.9583677
108	0x3ef21319	0.47280195
109	0xc1018904	-8.095951
110	0xbb69dd69	-0.003568495
111	0xc06e19b1	-3.720318
112	0x413ddeaf	11.866866
113	0xbff162a2	-1.8858225
114	0xbe0bff6b	-0.13671653
115	0x418301f8	16.375961
116	0x40f62c8b	7.6929374
117	0xc0d7fd83	-6.7496963
118	0xc190fdfe	-18.12402
119	0xc00a4bea	-2.1608834
120	0x415f7467	13.965919
121	0xc082f91b	-4.0929084
122	0xc0d44d2e	-6.6344213
123	0xbfdfbcc2	-1.7479479
124	0xc054d9a3	-3.3257835
125	0x3f408880	0.7520828
126	0xc073da93	-3.8102157
127	0x3e18dcb0	0.14927936

advantage_stream.0.weight f4 [128, 128]
0	0x3e0294ce	0.12752077
1	0xbf855399	-1.0416137
2	0xbde8ac21	-0.11360956
3	0xbeb957b5	-0.36199728
4	0xbd97d896	-0.07414357
5	0x3d7be72d	0.061499763
6	0x3d485157	0.048905697
7	0xbd5f7053	-0.05455048
8	0xbd1d1a3e	-0.038355105
9	0xbebd3bf0	-0.3695979
10	0xbf365694	-0.7122586
11	0xbefe5b04	-0.49678814
12	0xbcde69c3	-0.02715004
13	0xbe8adb0f	-0.27120253
14	0xbb2dcdc3	-0.0026520349
15	0xbdadfee9	-0.08495886
16	0xbe6eb212	-0.23310116
17	0xbd9d8a0a	-0.076923445
18	0xbf2681cd	-0.6504181
19	0x3d801882	0.062546745
20	0xbde240d7	-0.110475235
21	0x3d869cab	0.06572851
22	0xbcc1b192	-0.023644242
23	0xbcb5e086	-0.022201788
24	0xbdd1069e	-0.1020634
25	0xbbc486af	-0.005997501
26	0xbfa1f5ba	-1.2653115
27	0x3c3ce6fd	0.011529681
28	0xbd072c44	-0.0330012
29	0xbd0dad8b	-0.03458933
30	0x3bd25f0e	0.006420023
31	0xbde2f15d	-0.11081193
32	0xbf041157	-0.5158896
33	0xbe10dbba	-0.14146319
34	0xbe327077	-0.17425714
35	0xbfd394aa	-1.6529744
36	0xbe92db8d	-0.2868313
37	0xbd473d91	-0.0486427
38	0x3dbd80d6	0.09253089
39	0xbf096122	-0.5366384
40	0x3d5e8fd0	0.05433637
41	0xbf10c1fb	-0.5654599
42	0x3d83f809	0.06443793
43	0xbfbf2e0a	-1.4935925
44	0xbf7c5fae	-0.98583496
45	0xbd696d13	-0.056988787
46	0x3dd9c1bd	0.10632656
47	0xbda9abee	-0.08284746
48	0xbdabbc44	-0.08385518
49	0x3f002e0a	0.5007025
50	0x3d890be4	0.06691721
51	0x3d0369df	0.03208339
52	0x3d0fed94	0.03513868
53	0xbd5863fe	-0.052829735
54	0xbd98c36c	-0.07459149
55	0x3d43e0cb	0.0478218
56	0x3d2f8d0e	0.04285913
57	0xbc59cd7a	-0.013293618
58	0xbfb47505	-1.4098212
59	0xbca1c813	-0.019748723
60	0xbbda6264	-0.006664561
61	0xbf9d88dc	-1.2307391
62	0x3d85c6a4	0.06532028
63	0xbec02c3e	-0.37533754
64	0xbf37296f	-0.715476
65	0x3d529e59	0.051420543
66	0x3d0fa383	0.035068046
67	0xbf7920db	-0.9731576
68	0xbd3fd871	-0.046837274
69	0xbfd5895e	-1.6682546
70	0xbe9cf9f3	-0.30659446
71	0xbddb53bd	-0.10709331
72	0x3e0f1efe	0.13976666
73	0x3d91e40c	0.071235746
74	0xbd0276d8	-0.03185162
75	0xbf3f4c5f	-0.7472591
76	0x3ac35b8a	0.00149046
77	0xbd8846ea	-0.06654151
78	0xbca8138f	-0.020517139
79	0xbe8699ad	-0.2628912
80	0x3c25d1fa	0.010120863
81	0x3e62d670	0.22152114
82	0x3d8a353b	0.06748434
83	0xbeca3814	-0.3949591
84	0xbd3ff7de	-0.046867244
85	0x3d791b4c	0.060817048
86	0xbf1129b0	-0.56704235
87	0x3e30c69b	0.17263262
88	0x3c165747	0.009176082
89	0x3d262c12	0.040569372
90	0x3eeff40f	0.4686589
91	0xbd97b319	-0.07407207
92	0xbe7d96b1	-0.24764515
93	0xbcc0baef	-0.023526637
94	0xbff908d0	-1.9455814
95	0x3e5c1be8	0.2149502
96	0x3b8bd1b3	0.0042669415
97	0x3e71a705	0.23598869
98	0xbd2e84b5	-0.042607028
99	0xbc9816cc	-0.018565558
100	0x3d3c8442	0.04602457
101	0x3c65f94d	0.014036489
102	0x3ddf956e	0.10917173
103	0xbd8084d4	-0.06275335
104	0xbc85e906	-0.016346466
105	0xbf20110e	-0.62526023
106	0xbea1a12f	-0.31568286
107	0xbe1563c0	-0.14588833
108	0xbc03936a	-0.008030752
109	0x3e6ac95e	0.22928378
110	0xbed09e69	-0.40745857
111	0x3c85daf8	0.016339764
112	0xbcd5bc19	-0.026090669
113	0x3d5c68a8	0.053810745
114	0xbdea1e28	-0.11431533
115	0x3ecd355b	0.4007977
116	0x3e9d2a6c	0.30696428
117	0x3b6d2f1c	0.003619141
118	0x3e35a886	0.17740068
119	0xbc36e85c	-0.011163797
120	0x3e924485	0.285679
121	0xbeed2950	-0.4632058
122	0xbd872a2a	-0.06599839
123	0xbf4ba0b1	-0.7954207
124	0xbdea76dd	-0.114484526
125	0xbd3002cf	-0.04297143
126	0xbd496e26	-0.04917731
127	0xbe8111d0	-0.25208902
128	0xbeddbbb7	-0.43307278
129	0xbe9cf19c	-0.30653083
130	0xbce27c90	-0.027647287
131	0xbcbe4dd0	-0.023230463
132	0xbd6111ed	-0.054948736
133	0x3cb929ad	0.02260288
134	0x3e155a7a	0.14585295
135	0x3f71408c	0.94239116
136	0xbed45dae	-0.41477722
137	0x3d90169a	0.07035561
138	0x3da24e53	0.079250954
139	0xbf4c51e5	-0.7981246
140	0x3ed1899a	0.40925294
141	0xbeabd89e	-0.33563703
142	0xbd37b67f	-0.044851776
143	0xbc02f689	-0.007993349
144	0xbf9d40f6	-1.228545
145	0x3d8c28ad	0.06843696
146	0xbfb28c99	-1.3949157
147	0xbcdae047	-0.026718272
148	0xbd9cc02f	-0.076538436
149	0xbc76dbb6	-0.015067032
150	0xbe187642	-0.14888862
151	0x3e142a9c	0.14469379
152	0xbe713324	-0.23554665
153	0xbf1e3358	-0.61797094
154	0xbfb09ff2	-1.3798811
155	0xbd86d02a	-0.06582673
156	0xbde09143	-0.109652065
157	0x3dc1702f	0.094452254
158	0xbd84319f	-0.06454777
159	0xbd1570c8	-0.03648451
160	0x3e3a428e	0.18189451
161	0xbfc16e0d	-1.511171
162	0xbe9157da	-0.28387338
163	0xbf81fec8	-1.0155878
164	0x3e3d0e83	0.18462567
165	0xbd57b0c1	-0.0526588
166	0xbf99dd42	-1.2020648
167	0xbec63025	-0.38708606
168	0xbd9ccf8a	-0.076567724
169	0x3df3c9ee	0.119037494
170	0x3ea171c3	0.31532106
171	0xbfa4e5c3	-1.2882618
172	0xbfa83951	-1.3142492
173	0xbdfb7e4d	-0.12279949
174	0xbf27a012	-0.6547862
175	0x3d354278	0.044252843
176	0xbcfd5110	-0.030922443
177	0xbf8b3492	-1.0875418
178	0xbc768ad7	-0.01504775
179	0xbf04aab9	-0.51823
180	0x3f102b54	0.56316113
181	0x3bab68f9	0.0052310196
182	0x3d13b641	0.036062483
183	0x3aaadaf7	0.0013035227
184	0xbd41ecda	-0.04734502
185	0x3e0108ba	0.12600985
186	0xbf0121b8	-0.50442076
187	0xbc05502c	-0.00813679
188	0xbdffc142	-0.12488033
189	0xbcf69041	-0.030098082
190	0x3d8b6d26	0.06807928
191	0x3e92e634	0.28691256
192	0xbedd4f9c	-0.432248
193	0x3d8c4fb7	0.06851142
194	0x3f81bfa9	1.0136615
195	0x3e881e7b	0.26585755
196	0x3c56b653	0.013104993
197	0x3d9834be	0.07431935
198	0x3ed96fd1	0.42468122
199	0xbcff8c9f	-0.031194983
200	0x3eceba13	0.40376338
201	0x3d36d0e7	0.04463282
202	0x3cf7128f	0.030160217
203	0xbf4cf571	-0.80062014
204	0xbcb5c15f	-0.022186933
205	0x3d001156	0.031266533
206	0x3d6d102c	0.05787675
207	0xbe12595b	-0.14291899
208	0xbd85d983	-0.06535628
209	0xbeccf141	-0.40027812
210	0x3cb8acc0	0.022543311
211	0x3ef9e36a	0.48806316
212	0xbcfe5eaa	-0.031050999
213	0xbd93bb24	-0.072134286
214	0x3ec2714d	0.37977067
215	0xbf60b452	-0.87775147
216	0x3db5e7ea	0.08882125
217	0xbdae2337	-0.085028104
218	0x3ed4acbb	0.41538033
219	0xbd5750c4	-0.05256726
220	0xbeeb8899	-0.46002653
221	0x3c295132	0.0103343
222	0xbff2c80b	-1.8967298
223	0xbe929460	-0.28628826
224	0xbd855ab4	-0.06511441
225	0x3f2737e0	0.65319633
226	0x3c771ebf	0.015083014
227	0x3c080d96	0.00830402
228	0xbd72ad1e	-0.05924713
229	0xbf8ae5a2	-1.0851328
230	0xbf37556b	-0.7161471
231	0xbd20e6de	-0.039282672
232	0x3e184824	0.1487127
233	0xbe63d6dc	-0.22249931
234	0xbf6ad2ab	-0.91727704
235	0x3d77bbe4	0.06048192
236	0xbe690e8b	-0.22759454
237	0xbf004956	-0.501119
238	0xbfa7a5e7	-1.3097504
239	0x3d1193b5	0.035541255
240	0x3db3af1a	0.08773632
241	0x3d8eaa57	0.069660835
242	0xbca0bbfe	-0.019620892
243	0xbeddf84a	-0.43353492
244	0xbee3348f	-0.44376037
245	0xbd721efb	-0.059111577
246	0x3ddf81e6	0.10913448
247	0xbc53a10b	-0.012916814
248	0xbf906720	-1.1281471
249	0xbf678b51	-0.90446955
250	0xbdb1f7b2	-0.08689822
251	0xbd845a07	-0.06462484
252	0xbf9519f7	-1.1648549
253	0x3b831284	0.00400001
254	0xbd9def47	-0.07711654
255	0xbdebdba0	-0.115164995

advantage_stream.0.bias f4 [128]
0	0xbfb85a6d	-1.4402596
1	0xbfa69e8a	-1.3017132
2	0xbcc17e07	-0.023619665
3	0xbfa0ce4c	-1.2562957
4	0xbf1eb2c4	-0.61991525
5	0xbfaa6728	-1.3312731
6	0xbf58b174	-0.8464577
7	0xbedc6f7a	-0.430538
8	0xbf938edb	-1.1527971
9	0xbf7c0806	-0.9844974
10	0xbe25af8b	-0.16180246
11	0xbf8a84f7	-1.0821828
12	0xbf185a45	-0.5951274
13	0xbfa3b888	-1.279069
14	0xbf0c93ed	-0.54913217
15	0xbf0ae910	-0.54261875
16	0xbea0d4e9	-0.31412438
17	0xbf49f6fa	-0.7889248
18	0xbebc088b	-0.36725268
19	0xbfe1c1bd	-1.7637249
20	0xbfc380cf	-1.5273684
21	0xbeef1d2d	-0.46701947
22	0xbf997f06	-1.199189
23	0xbb0d41b5	-0.0021554057
24	0xbf89d212	-1.0767233
25	0xbe43a6ff	-0.19106673
26	0xbf7e12cc	-0.9924743
27	0xbfa307ed	-1.2736794
28	0xbfbdbc5c	-1.4823108
29	0xbf1c9659	-0.6116691
30	0xbfe00152	-1.7500403
31	0xbe3c2e10	-0.18376946
32	0xbf496f83	-0.7868578
33	0xbf99cc02	-1.2015383
34	0xc0080522	-2.1253133
35	0xbf66d46d	-0.90167886
36	0xbeded362	-0.43520647
37	0xbf4b0408	-0.79303026
38	0xbfad040c	-1.351686
39	0xbbbf05c1	-0.0058295433
40	0xbfb022db	-1.3760637
41	0xbef4fde5	-0.47849956
42	0xbeb2fd9f	-0.34959123
43	0xbed87b90	-0.4228177
44	0xbf8d3093	-1.1030449
45	0xbf746f9c	-0.954828
46	0xbf3d9060	-0.74048424
47	0xbed75204	-0.4205476
48	0xbed7b71e	-0.42131895
49	0xbef0b2c2	-0.4701138
50	0xc009e3f7	-2.1545389
51	0xbf2caf29	-0.67454773
52	0xbff3b4a0	-1.9039497
53	0xbfc47a4f	-1.5349826
54	0xbfc69669	-1.5514652
55	0xbf0d6a97	-0.5524077
56	0xbeceee78	-0.40416312
57	0xbd3979b1	-0.04528207
58	0xbf797d1b	-0.9745652
59	0xbfbd4fed	-1.4790016
60	0xbf3e7a88	-0.7440572
61	0xbf2cd094	-0.67505765
62	0xbf97ac19	-1.1849395
63	0xbfefffaf	-1.8749903
64	0xbfb9b595	-1.450854
65	0xbfa27cd1	-1.2694341
66	0xbfc503a8	-1.5391741
67	0xbfa127da	-1.2590287
68	0xbec650da	-0.3873356
69	0xc002a87a	-2.041533
70	0xbe915d10	-0.28391314
71	0xc004c8c4	-2.0747538
72	0xbd63582b	-0.055504005
73	0xbf6fe3fe	-0.93707263
74	0xc017ac44	-2.3698893
75	0xbf902f23	-1.1264385
76	0xbf86e3e6	-1.0538299
77	0xbff1a404	-1.8878179
78	0xbff14397	-1.8848752
79	0xbfec9596	-1.848315
80	0xbf6a581d	-0.915407
81	0xbf595eda	-0.84910357
82	0xbfc89a09	-1.5672008
83	0xbe2e7dbd	-0.17040153
84	0xbefd29a5	-0.49445835
85	0xbf83117f	-1.0239714
86	0xc059174f	-3.3920476
87	0xbff94abe	-1.9475935
88	0xbfb7d90c	-1.4363112
89	0xbde2673b	-0.11054846
90	0xbf562f15	-0.8366559
91	0xbfcb2c96	-1.5872982
92	0xbf915343	-1.1353534
93	0xbf76a3c6	-0.9634365
94	0xbeb13add	-0.34615222
95	0xbfc4437e	-1.5333097
96	0xbeb6f80c	-0.3573612
97	0xbf3d6c41	-0.7399331
98	0xbf8390d8	-1.0278578
99	0xbf1429ce	-0.5787629
100	0xbf324c62	-0.696478
101	0xbeb44e91	-0.3521619
102	0xbf85d0bd	-1.0454327
103	0xbf6f7d04	-0.93550134
104	0xbf422913	-0.75843924
105	0xbf9bd39c	-1.2173953
106	0xbf4f6f49	-0.8102918
107	0xbf83cc78	-1.0296774
108	0xbfa762e1	-1.307705
109	0xbf84f7d0	-1.0388126
110	0xbf9a85d2	-1.2072089
111	0xb937f4b1	-0.00017543395
112	0xbf50cf5f	-0.81566423
113	0xbf2c4655	-0.6729482
114	0xc004546c	-2.0676527
115	0xbd625820	-0.055259824
116	0xbfc3cc7a	-1.5296776
117	0xbf94e2d7	-1.1631726
118	0xbfd7f562	-1.687176
119	0xbf85c253	-1.0449928
120	0xbf97a07c	-1.1845851
121	0xbf9b093f	-1.2112197
122	0xbfaffba1	-1.3748666
123	0xbf4f9019	-0.8107925
124	0xbef2fe80	-0.47459793
125	0xbe485694	-0.19564277
126	0xc00ec823	-2.2309654
127	0xbf23a19c	-0.6391847

advantage_stream.2.weight f4 [3, 128]
0	0x3fdfb92f	1.7478389
1	0x3f55f889	0.8358236
2	0xc00b120f	-2.1729772
3	0xbfe8fdfd	-1.8202511
4	0x3f784a81	0.96988684
5	0xc01839d8	-2.3785305
6	0xbf965381	-1.1744233
7	0xbefa5b53	-0.488978
8	0xbfa34b71	-1.2757398
9	0xbfba88eb	-1.4573034
10	0xbf58be1f	-0.846651
11	0x401a51f6	2.4112525
12	0x3fb94298	1.4473448
13	0x3f825fc9	1.0185481
14	0x3f1fa445	0.6236003
15	0x40136a03	2.3033454
16	0x3d8dff40	0.06933451
17	0xc02e81a3	-2.7266624
18	0x401eb349	2.4796927
19	0xbfd7a950	-1.6848545
20	0x3f0c30ac	0.5476177
21	0xc02dfb9d	-2.7184823
22	0xc02f5837	-2.7397592
23	0xc002f1cd	-2.0460083
24	0xbd47b575	-0.048757035
25	0xc01b5979	-2.427336
26	0xbffe7511	-1.9879476
27	0xbf1a21a1	-0.60207564
28	0x404b6e21	3.1785967
29	0xbf9fed5e	-1.2494314
30	0xbff28124	-1.894566
31	0xbdac26eb	-0.084058605
32	0x40131ea0	2.2987442
33	0x3e67e85e	0.22647235
34	0x3f779fff	0.9672851
35	0x3e8ca45c	0.27469146
36	0xc00670c6	-2.1006331
37	0xbee409a2	-0.445386
38	0xbfc8526a	-1.5650151
39	0xbf58f822	-0.8475362
40	0x3fd2c614	1.6466699
41	0xbf91e092	-1.1396658
42	0x3d9137c4	0.070907146
43	0x3f6fbb31	0.93645006
44	0xc029bb66	-2.652063
45	0x3f0e17aa	0.5550486
46	0xc07a9629	-3.915415
47	0xbfacffe6	-1.3515594
48	0xbfc6a705	-1.551972
49	0xbf721c4d	-0.94574434
50	0x3f7e37eb	0.99304074
51	0xbfb2dbf0	-1.397337
52	0xbfda86cb	-1.7072386
53	0xc007564c	-2.1146421
54	0xbf5e4af4	-0.8683312
55	0xc0486ce7	-3.1316469
56	0xc00c0ddc	-2.188346
57	0xbe395cdd	-0.18101831
58	0x407c6b6b	3.9440563
59	0xbfd5c52a	-1.6700795
60	0x3f023e8d	0.50876695
61	0x3fb2534c	1.393167
62	0x40097b65	2.1481564
63	0xbf6c1405	-0.9221805
64	0x3fedfc31	1.8592588
65	0x3e9239eb	0.28559813
66	0x3fe0e6ae	1.7570398
67	0xc00ba613	-2.1820114
68	0x401304e0	2.2971725
69	0xbfb7e076	-1.4365375
70	0x3f41860c	0.75595164
71	0x3e9959e6	0.299514
72	0xbe6a9208	-0.22907269
73	0x3ef0db34	0.4704224
74	0x3f96bf33	1.1777099
75	0x3fa93d5a	1.3221848
76	0x3f88ba9d	1.068195
77	0x4019ba86	2.4020095
78	0x3c7ad436	0.015309384
79	0x4005f86e	2.093288
80	0x402c398a	2.691012
81	0x3f895d4b	1.0731596
82	0xc04518e3	-3.079644
83	0x3cdc26c7	0.02687396
84	0x3f84cd4d	1.0375153
85	0xbee2450a	-0.44193298
86	0x3f82a4cf	1.0206546
87	0xbf261bad	-0.6488598
88	0x3f90f4c6	1.1324699
89	0x3e101ca2	0.14073423
90	0x3ffb89e5	1.9651457
91	0x4010d8a7	2.2632234
92	0xbf671c21	-0.90277296
93	0x3e83cf5f	0.2574415
94	0x3e97439a	0.29543763
95	0x3fba1dd9	1.4540359
96	0xc0503fc3	-3.2538917
97	0xc0198d30	-2.3992424
98	0x3f4c5693	0.798196
99	0x3f8a72b0	1.081625
100	0x3f62bd44	0.88570046
101	0xbbba9889	-0.005694453
102	0xbfcabe59	-1.583934
103	0x3f7e286b	0.9928042
104	0xc0056a6e	-2.084621
105	0x4022de49	2.5448172
106	0xc020b283	-2.5108955
107	0xbf71a806	-0.9439701
108	0xbfe061c3	-1.7529835
109	0x3f590969	0.84779984
110	0xc00ad75b	-2.1693943
111	0xbd99ae7f	-0.075039856
112	0x3e881cb6	0.26584405
113	0x4062e77c	3.5453787
114	0x3f695949	0.91151863
115	0x3ff25046	1.8930748
116	0x3f40bc4c	0.7528732
117	0xbff59021	-1.918461
118	0xbf416682	-0.7554704
119	0x3f24db7d	0.6439741
120	0xc017fc9b	-2.3747928
121	0x403c99fa	2.946898
122	0xc00a6508	-2.1624165
123	0x3f13aa2f	0.57681555
124	0x3c20e0e4	0.009819243
125	0xc060589c	-3.5054083
126	0x3e603f88	0.21899235
127	0x3fe9c9fc	1.8264766
128	0xbf7aa976	-0.97914827
129	0xbfcf1418	-1.6178007
130	0x4011fbff	2.2810056
131	0x402afa80	2.6715393
132	0xc063a7c1	-3.557114
133	0x3f71286f	0.9420232
134	0x3f95a068	1.1689577
135	0xc007e46d	-2.123317
136	0x402dbadf	2.7145307
137	0x3fbb69ee	1.4641702
138	0xc032ac26	-2.791757
139	0xbf9623a4	-1.1729627
140	0x3ff4513d	1.9087292
141	0xbf4ab6dd	-0.7918528
142	0xbfe2b507	-1.7711495
143	0x3f35a378	0.7095256
144	0x3d6f5350	0.058429062
145	0x3fe26245	1.768624
146	0xbfb53d0a	-1.4159253
147	0xbf2359ea	-0.6380907
148	0x3ee8f823	0.45501813
149	0x401957e3	2.3959892
150	0x40097348	2.1476612
151	0x3fa7a503	1.3097233
152	0xbef33404	-0.47500622
153	0x3ffa53d8	1.9556837
154	0x3fb87389	1.4410259
155	0xbfce8ddd	-1.6137043
156	0xbfcd7f8b	-1.6054548
157	0x4010cbcd	2.262439
158	0x3fca6667	1.5812501
159	0x3c9d7088	0.019218698
160	0xc06f8687	-3.742586
161	0xc005bb6f	-2.089565
162	0x3f82d42a	1.0220997
163	0xbfa1f7f9	-1.26538
164	0x3ed85514	0.4225241
165	0x40128ca6	2.2898345
166	0x3f0f412b	0.55958813
167	0x3f815c88	1.0106363
168	0xc062d056	-3.5439658
169	0x3f84bf57	1.0370892
170	0x3d198751	0.037482563
171	0x3f833772	1.0251296
172	0xbf09b3c4	-0.53789926
173	0xbfda2a34	-1.7044129
174	0x3f998fe2	1.1997035
175	0x3fab79e9	1.3396579
176	0x4022bdf5	2.542844
177	0x3fb67648	1.4254847
178	0x3e90882b	0.28228888
179	0xbf970175	-1.179732
180	0x3f1a16e9	0.6019121
181	0x3f580819	0.84387356
182	0xbff98850	-1.9494724
183	0x40550b84	3.3288279
184	0x407f0082	3.984406
185	0x3ea53527	0.32267115
186	0xc07428fc	-3.8150015
187	0x3fff9e5c	1.9970202
188	0xbfbc7de0	-1.4725914
189	0xc02673eb	-2.600825
190	0xc0607a09	-3.5074484
191	0x400b803c	2.1797018
192	0xc082ab69	-4.083424
193	0x407bffba	3.9374833
194	0xbecd8b30	-0.40145254
195	0x3fadf320	1.3589821
196	0xbf302c56	-0.6881765
197	0x3fb3bcaf	1.4041957
198	0xc012e696	-2.2953238
199	0xc00cff88	-2.2030964
200	0x3f0172c7	0.5056576
201	0x3f3a8b31	0.7286864
202	0xbf30ce64	-0.6906493
203	0x3eb73e28	0.3578961
204	0xbe4b44cd	-0.19850464
205	0xc003cd9d	-2.0594246
206	0xbf82515f	-1.0181082
207	0xbf588554	-0.8457844
208	0xc022cdc1	-2.5438082
209	0xbfda0e1b	-1.7035555
210	0x3f3eaa64	0.74478745
211	0x3d4e01b4	0.050294593
212	0xbe956b66	-0.291835
213	0xbfb069fc	-1.3782344
214	0xc02f1e6e	-2.7362323
215	0x3ef0827c	0.46974552
216	0xbf94ca16	-1.1624172
217	0xbd01aa4b	-0.031656545
218	0xbf2f1fe7	-0.68408054
219	0x3f3d2139	0.7387882
220	0x3d8d6843	0.06904652
221	0x3fedaf14	1.8569055
222	0x3f93907b	1.1528467
223	0xbf856298	-1.0420713
224	0x405b0003	3.4218757
225	0x40071c8f	2.111118
226	0xbff258d4	-1.8933358
227	0xc03934fb	-2.8938587
228	0x3f099382	0.53740704
229	0xbd443cb2	-0.047909446
230	0x3f8ee178	1.1162558
231	0xbfcaef59	-1.5854293
232	0x3f0529bb	0.520168
233	0x3f0389f7	0.5138239
234	0x3f881818	1.0632353
235	0xbfbc22bb	-1.4698099
236	0xbf253910	-0.64540195
237	0xc0276818	-2.6157284
238	0x3f30a464	0.6900084
239	0x3ed0c2a8	0.4077351
240	0x3fd1874d	1.6369416
241	0xbecdead9	-0.40218237
242	0xc00df4bb	-2.2180622
243	0xc0718e25	-3.7743008
244	0xbf5cf5d7	-0.8631262
245	0x3f89478a	1.0724957
246	0x400075e9	2.0071967
247	0xc05722a0	-3.3614883
248	0x3ff93cb6	1.9471653
249	0xbf647333	-0.8923828
250	0x3f9fbd70	1.2479687
251	0x3f848c29	1.0355273
252	0x3e066de4	0.13127857
253	0x406c8317	3.695501
254	0xbfa51805	-1.2897955
255	0xc04b66d6	-3.1781516

advantage_stream.2.bias f4 [3]
0	0x40831ce5	4.097277
1	0x408abe21	4.335709
2	0x4079c331	3.9025385
