checkpoints/enhanced_dqn/checkpoint_ep500.pth (torch, 687002 bytes, 33 tensors)

layer1.weight f4 [150, 20]
0	0xbf45ed2c	-0.7731502
1	0xc125483e	-10.330137
2	0x3df47a0b	0.1193734
3	0x3d723a27	0.05913749
4	0x3fbee07c	1.4912257
5	0xc0e62901	-7.1925054
6	0xbeff39b2	-0.49848706
7	0xbf92c50f	-1.1466388
8	0xbf121730	-0.5706663
9	0xc06a8d1a	-3.6648622
10	0xbd9ac856	-0.07557742
11	0x3f1b30af	0.6062116
12	0xbf9694db	-1.1764177
13	0xc0902d2a	-4.505513
14	0x3e7b4f18	0.2454189
15	0xbf2c4fed	-0.6730946
16	0xbe28bb80	-0.16477776
17	0xbf4f6b74	-0.81023335
18	0xc0f48518	-7.641247
19	0xc0588cf6	-3.3836036
20	0xc05425b8	-3.3148022
21	0xc02dc909	-2.7153952
22	0x3ea0dba4	0.31417572
23	0xbf229487	-0.63507885
24	0xc009914a	-2.1494927
25	0xbf5b138a	-0.8557669
26	0xbf11d7c7	-0.56969875
27	0xc04242b7	-3.035322
28	0x406844e3	3.6292045
29	0xc049f33d	-3.155471
30	0xbe83c7fe	-0.2573852
31	0xc039257c	-2.8929129
32	0xc05e2bed	-3.471431
33	0x3f3bf616	0.7342237
34	0x3f335ab6	0.7006029
35	0x3eb966e4	0.36211312
36	0x3e8a76cd	0.27043763
37	0xbf588592	-0.8457881
38	0xbde71ccd	-0.1128479
39	0xc0f1b535	-7.55337
40	0x410b4843	8.705142
41	0x404fc4f1	3.2463953
42	0x3fcc9c55	1.5985209
43	0x402ff3b3	2.7492492
44	0x41043516	8.26296
45	0x410c7872	8.779406
46	0x3fc5e1ce	1.5459535
47	0x40c376bb	6.1082435
48	0x4124c076	10.296988
49	0xbfdf0522	-1.7423441
50	0xbfa89ce5	-1.317288
51	0xc092c121	-4.5860753
52	0xc135b07d	-11.355588
53	0xc1884b22	-17.036686
54	0xc0fe9483	-7.955629
55	0xc082075b	-4.063398
56	0x3f9080f8	1.1289358
57	0xbf238243	-0.6387064
58	0xc08982d4	-4.29722
59	0xbe3802f9	-0.17969884
60	0x403d14e8	2.954401
61	0xbfbeb3e0	-1.4898643
62	0x3f8c5747	1.0964135
63	0x3e21362d	0.15743323
64	0xbcda19d1	-0.026623638
65	0xc047f8da	-3.1245637
66	0xbf1c86e3	-0.6114332
67	0x3e8caaa4	0.27473938
68	0x402c9df3	2.6971405
69	0xc01be7f1	-2.4360316
70	0x3f07432d	0.5283688
71	0xbf4ea9b0	-0.8072767
72	0xc04d280e	-3.2055697
73	0xc0c26381	-6.0746465
74	0xbf1f7653	-0.62289923
75	0xbfd9fc2c	-1.7030082
76	0x40bc8c82	5.892152
77	0xc077a479	-3.8694136
78	0x3fe4a25e	1.786205
79	0xc037fb7c	-2.8747244
80	0xc0a5b646	-5.1785
81	0x41845621	16.542055
82	0xc08956ab	-4.2918296
83	0xbeb8f46d	-0.36123982
84	0x40757232	3.835095
85	0x41359ccf	11.350783
86	0x3fe7c5a0	1.8107185
87	0x403c16e8	2.938898
88	0x4027be1e	2.6209788
89	0x4007b512	2.1204267
90	0xbf520805	-0.82043487
91	0x3e26dc27	0.16294919
92	0xc099bb19	-4.804089
93	0x40bf7391	5.982857
94	0x3ec64a6d	0.38728657
95	0x3e4912b9	0.19636048
96	0x3e0e1429	0.13874878
97	0x3f1bfdd7	0.60934204
98	0xbf8caffe	-1.0991209
99	0x40990da0	4.782913
100	0xc0b851a4	-5.759966
101	0x40420d5c	3.0320654
102	0xc0309706	-2.7592177
103	0x3f9ed063	1.2407345
104	0xc00ed0e9	-2.2315009
105	0xc013da46	-2.3101974
106	0xbea49bb4	-0.32150042
107	0xc0261f44	-2.5956583
108	0x40eadaec	7.339224
109	0xc0a46cdc	-5.1382885
110	0x3e9f92f4	0.31166804
111	0xbf839717	-1.0280484
112	0x40806c8e	4.0132513
113	0x40aa0e85	5.3142724
114	0x3d6cdd0b	0.05782799
115	0xbed241e7	-0.41065904
116	0x3f0f2ce4	0.5592787
117	0xc05cb02a	-3.4482522
118	0x3f2d5e97	0.6772246
119	0x3f99343e	1.1969068
120	0xc09ea227	-4.957294
121	0xbedc137f	-0.42983624
122	0x3ecdf405	0.40225235
123	0xbfed1eb4	-1.8524995
124	0x3f2deebf	0.6794242
125	0x402ef04d	2.7334168
126	0x3f25f01a	0.6481949
127	0xbf2e4546	-0.6807445
128	0xc034c85d	-2.8247292
129	0x3fee1c03	1.8602298
130	0xbee88694	-0.45415175
131	0xbfa0109e	-1.2505071
132	0x3f577267	0.8415894
133	0xc107c993	-8.486712
134	0xbfc0b941	-1.5056535
135	0xc08cd7a1	-4.401322
136	0x3ff84249	1.9395229
137	0xbf1cea15	-0.6129468
138	0x3fafa375	1.3721758
139	0xbfc336fa	-1.5251153
140	0xbfc44fd8	-1.5336866
141	0xc15e4043	-13.890689
142	0xbf456d71	-0.7712012
143	0xbe13465f	-0.14382313
144	0xc0bfe12b	-5.9962363
145	0xc142c4c0	-12.173035
146	0xbe9319cf	-0.28730628
147	0xc02c3dcb	-2.6912715
148	0xbfc1545b	-1.5103868
149	0xc065d39d	-3.5910408
150	0xbe802aaf	-0.25032565
151	0xbdd92c15	-0.10604111
152	0x3ea73a92	0.32661873
153	0x3fa37620	1.2770424
154	0xbe33cdd0	-0.1755898
155	0xbf2003ed	-0.6250599
156	0xbf8b11b6	-1.086478
157	0xbfc65d44	-1.5497212
158	0x3fd8f116	1.6948574
159	0xc1e179d1	-28.18448
160	0x40c0d930	6.026512
161	0x3fd8b457	1.6930035
162	0x3fa48487	1.2852944
163	0x3f8768a6	1.0578811
164	0x4045748b	3.0852382
165	0x401cac0a	2.4480004
166	0x3fc22a08	1.5169077
167	0x3fb86cfd	1.440826
168	0xbfa3d10e	-1.2798173
169	0xc08e982f	-4.456077
170	0x3f563c83	0.83686084
171	0x3ddf1436	0.10892527
172	0x3f8c6ce3	1.097073
173	0x401c3877	2.4409463
174	0x3fd73507	1.6813058
175	0x3fb4ccf2	1.4125044
176	0x3efd696a	0.49494487
177	0x3ec0a35c	0.37624633
178	0xbfe82789	-1.8137065
179	0xbfcf2597	-1.6183347
180	0xbfe94aa1	-1.82259
181	0xc0d35ab5	-6.6048226
182	0x3d6f8e46	0.058485292
183	0x3d7abff9	0.061218236
184	0xbf8644fb	-1.0489801
185	0x4077e9ff	3.873657
186	0xbfb416fd	-1.4069515
187	0xbea57cb8	-0.32321715
188	0x406be8ad	3.6860764
189	0x40516269	3.2716315
190	0x3fb65524	1.4244733
191	0xbfc8fb61	-1.5701715
192	0xc07b15c2	-3.923203
193	0x3f7e1c0b	0.9926154
194	0xbf1ef551	-0.62093073
195	0xbebfae53	-0.37437686
196	0xbf628034	-0.8847687
197	0x3eee8400	0.46585083
198	0xbee66c87	-0.45004675
199	0x3d8bb6d6	0.068219826
200	0x40c1345a	6.0376406
201	0x4056dd36	3.3572516
202	0xbfea1c8c	-1.8289962
203	0xbfd1129f	-1.6333808
204	0x40933837	4.600612
205	0xc0518353	-3.2736404
206	0x3fcdfd3c	1.6092906
207	0x3fe02114	1.7510095
208	0x40595cda	3.3962922
209	0xc0f0e043	-7.5273757
210	0x3eca07e6	0.3945915
211	0x3b45c4bc	0.0030177077
212	0xc0d1486a	-6.5400896
213	0xc04f8b02	-3.2428594
214	0x3f326621	0.69687086
215	0x3fa89637	1.3170842
216	0x408def66	4.4354734
217	0xc02d7ece	-2.7108645
218	0xc063eded	-3.5613968
219	0xbe7050e1	-0.23468353
220	0xc094957f	-4.643249
221	0xc0bda9a4	-5.926958
222	0x3fabdf78	1.3427572
223	0x3eabd64b	0.3356193
224	0xc0cbdc3b	-6.3706336
225	0x406471d5	3.5694478
226	0x3f17f3d3	0.5935642
227	0x3f8fcf9e	1.1235235
228	0x3fbd9a14	1.4812646
229	0x40800e62	4.0017557
230	0x3ea4c8de	0.321845
231	0x3f5024eb	0.8130633
232	0x4005b1e4	2.0889826
233	0x404f1ab7	3.2360055
234	0x3f63a58c	0.8892448
235	0xbeab2c88	-0.33432412
236	0x3fb1b9f9	1.3884879
237	0x403f8430	2.992443
238	0xbe077f65	-0.13232191
239	0xc08cbaf7	-4.397823
240	0xc12b39e4	-10.701633
241	0xc1b3b566	-22.463573
242	0x3fa90815	1.3205591
243	0x3f46edf6	0.7770685
244	0xc16d13e5	-14.817357
245	0xc190b91e	-18.09039
246	0xc09aec1f	-4.8413234
247	0x3fa1736a	1.2613347
248	0x400c4a65	2.1920407
249	0x409af16d	4.841971
250	0x405604f9	3.3440535
251	0x4004a6ce	2.072681
252	0xc111d6d3	-9.114947
253	0xc15b943e	-13.723692
254	0xbf0e0109	-0.5547033
255	0xc0013a69	-2.01919

layer1.bias f4 [150]
0	0x41387028	11.527382
1	0xc00837c0	-2.1284027
2	0xbfe33415	-1.7750269
3	0x4008c045	2.1367352
4	0xbfccdd35	-1.6005007
5	0xbf9735cd	-1.1813294
6	0x408c157a	4.3776217
7	0xc0a660c2	-5.1993113
8	0x410360c7	8.211127
9	0xc03ae845	-2.9204266
10	0x40553cf8	3.3318462
11	0x406575ca	3.5853143
12	0xc02bfd21	-2.6873248
13	0xc0c97601	-6.295655
14	0xc024d977	-2.575773
15	0x403a447f	2.9104307
16	0xbf900688	-1.1251993
17	0x40602f10	3.5028725
18	0xbead4324	-0.33840287
19	0xc03ba03e	-2.9316554
20	0xbedd9ac5	-0.43282142
21	0x3f8829b7	1.063773
22	0xbf9f32e8	-1.243741
23	0x3d1e5439	0.03865454
24	0x4053d676	3.3099647
25	0x403859d9	2.8804839
26	0x40577c00	3.3669434
27	0x40992b18	4.7865105
28	0x403e5de0	2.9744797
29	0x40fae05f	7.839889
30	0x40dc07dd	6.87596
31	0x40546ea0	3.319252
32	0xc1358771	-11.345567
33	0xc03c6604	-2.9437265
34	0x3f5dec1e	0.8668841
35	0x3f4dfaa5	0.8046058
36	0x407ec132	3.9805417
37	0xbf6a8981	-0.91616064
38	0x3ef06681	0.46953204
39	0xc030fc26	-2.76539
40	0x403d60dc	2.9590368
41	0xc023d853	-2.5600784
42	0x40919f88	4.550724
43	0xc080dc2a	-4.0268755
44	0x41379929	11.474893
45	0x3e252a29	0.16129364
46	0xbea2d413	-0.31802425
47	0x409c1424	4.8774586
48	0xc0cebf55	-6.460856
49	0xbf981aa7	-1.1883134
50	0xbf9958fc	-1.1980281
51	0x3e2c8d65	0.16850813
52	0x3ea2feef	0.31835124
53	0x3f6c35b1	0.92269427
54	0xc0113e68	-2.269434
55	0x4096b59c	4.709669
56	0x4092f682	4.5925913
57	0xbe8078d3	-0.25092182
58	0xbe8e6577	-0.27811787
59	0xc13b6694	-11.7125435
60	0xbf4b49bc	-0.79409385
61	0xbf1962ea	-0.59916556
62	0x406ce576	3.7015052
63	0x40944c3e	4.634307
64	0x40de4dc6	6.946994
65	0xbfe532a4	-1.7906079
66	0xc0822d07	-4.0679965
67	0xc0061452	-2.0949903
68	0xc0b7df71	-5.7460256
69	0x4087aa24	4.239519
70	0x40d83cf4	6.7574406
71	0xc0f8931d	-7.767958
72	0xc08d0144	-4.4064045
73	0x40535eb5	3.3026555
74	0x3f87db37	1.0613774
75	0xc00100e6	-2.0156798
76	0x41018337	8.094535
77	0x40b48aee	5.641959
78	0xc0333126	-2.7998748
79	0x402399de	2.5562663
80	0xc0620b45	-3.5319378
81	0xc0909444	-4.518099
82	0x3fabc99f	1.3420905
83	0x3fa2d285	1.2720495
84	0x40038bb0	2.0554008
85	0xbff1e72c	-1.8898673
86	0xbfce8e09	-1.6137096
87	0x4097a709	4.73914
88	0x3fd505d3	1.6642402
89	0xbfa580fe	-1.292999
90	0x4076f4bd	3.8586876
91	0x401c4255	2.4415486
92	0xc1227128	-10.152626
93	0x3edbb570	0.42911863
94	0x3dfae36a	0.12250407
95	0xbedce816	-0.43145818
96	0xc01bf8a4	-2.4370508
97	0x3f15ba4a	0.5848738
98	0x413545b9	11.329522
99	0xbffc453a	-1.9708626
100	0x40e42b9d	7.130324
101	0xc0a91cc2	-5.2847605
102	0xc00baa42	-2.1822667
103	0xbddd6c3e	-0.10811661
104	0xbf176073	-0.59131545
105	0x401289aa	2.2896523
106	0xbee29093	-0.44250926
107	0xbf03a53d	-0.5142401
108	0x403feec1	2.9989474
109	0x40449f7a	3.0722337
110	0xbf6e3dd0	-0.9306307
111	0xbf0d894c	-0.55287623
112	0xbe64652a	-0.22304216
113	0x3f26f8b2	0.6522323
114	0xc027a56c	-2.6194715
115	0xbfe34048	-1.7753992
116	0xc0cbcf7b	-6.369077
117	0xc1187839	-9.529351
118	0x408b25f3	4.3483825
119	0x4065f27a	3.5929246
120	0xc0ac8bff	-5.3920894
121	0xbf0c4c3b	-0.5480382
122	0x40a7a240	5.238556
123	0x40937e40	4.6091614
124	0xbf817e31	-1.0116636
125	0xbf0d6a61	-0.55240446
126	0xbe2e5b59	-0.17027034
127	0xc00c3c90	-2.1911964
128	0xbf0aef24	-0.5427115
129	0x4072608e	3.7871432
130	0x4057a767	3.3695924
131	0xc0fde47d	-7.9341416
132	0x3fdc6e6a	1.7221196
133	0xbf82359c	-1.017261
134	0xc13adec1	-11.679383
135	0x3ff80559	1.9376632
136	0x40e96f97	7.294872
137	0xc01ff1ba	-2.4991288
138	0x40520bc6	3.2819686
139	0xbef458d7	-0.4772403
140	0xc0547b80	-3.3200378
141	0x40367e25	2.8514493
142	0xc0e1ee3d	-7.060332
143	0xbfb612b5	-1.4224459
144	0x40dd3595	6.912791
145	0xbdaacbab	-0.08339628
146	0x40dfa2da	6.9886293
147	0x3efc1ee6	0.49242324
148	0x3fa15ce5	1.2606474
149	0xbfc5ae0a	-1.5443738

layer2.weight f4 [128, 150]
0	0x3f0fb5bc	0.5613668
1	0x3e85ffe9	0.26171806
2	0xc06863ae	-3.631084
3	0xbe271138	-0.16315162
4	0xbed6394f	-0.41840598
5	0x3c9fea77	0.019520981
6	0x3f05ca9a	0.5226227
7	0xbf34d991	-0.7064448
8	0xbf4fa04b	-0.8110396
9	0x3d129299	0.035784338
10	0xc032d41d	-2.7941964
11	0x3df7f545	0.12107328
12	0x3e4821b8	0.19544113
13	0x3f53cedc	0.8273752
14	0xbe65c91e	-0.22440001
15	0xbe003818	-0.12521398
16	0x3d169f74	0.03677316
17	0xbf2aff35	-0.66795665
18	0x3d05f1d4	0.03270133
19	0xbead2ad1	-0.3382173
20	0xbf2bb30d	-0.67070085
21	0xc00882b5	-2.1329777
22	0x3f45b9a3	0.77236384
23	0x3fc062ba	1.5030129
24	0x3d95742d	0.072975494
25	0x3c8cbae3	0.017178958
26	0xbf9b7927	-1.2146348
27	0xbf8e3d31	-1.1112424
28	0xbfeb1afa	-1.8367608
29	0x3eb73eab	0.3579
30	0xc0088c76	-2.133573
31	0xc0089eee	-2.1347003
32	0x3f6e4212	0.93069565
33	0xbf4a25c7	-0.78963894
34	0xbfa68eef	-1.301237
35	0x3fa3f3d6	1.2808788
36	0x3eae8aec	0.34090364
37	0xbe3858e2	-0.18002656
38	0xbeb9a096	-0.3625533
39	0xbf4434c2	-0.76643
40	0x3ec74251	0.38917783
41	0x3f7900cc	0.9726684
42	0xbe6d4c83	-0.23173718
43	0xbf0ffa85	-0.5624164
44	0x3eae9324	0.34096634
45	0xbf601bbd	-0.87542325
46	0x3dfe9b0c	0.124319166
47	0xbf98c949	-1.1936427
48	0xbfe7b423	-1.8101848
49	0x3fc5323d	1.5405957
50	0x3ea12643	0.31474504
51	0xbef6964a	-0.48161536
52	0xbf310779	-0.6915203
53	0xbeb02862	-0.3440581
54	0xbf9d72bc	-1.2300639
55	0xbea84c14	-0.32870543
56	0xbeb3697f	-0.35041425
57	0xc04cdb40	-3.200882
58	0x3dc9894a	0.09840639
59	0xbf8d3889	-1.1032878
60	0xbd5ab24e	-0.0533927
61	0x3f54b5c3	0.83089846
62	0x3f5a2978	0.85219526
63	0xbfa9c05d	-1.326183
64	0xbe8f316d	-0.27967396
65	0xbf9a25d4	-1.2042794
66	0x3df4fada	0.11961909
67	0xbf4dd621	-0.8040486
68	0x3f233ce9	0.63764817
69	0xbecfe0e1	-0.40601256
70	0xbf3109f8	-0.69155836
71	0xc00b7ad9	-2.179373
72	0x3e4a1018	0.19732702
73	0x3e1df566	0.15425643
74	0xbf90a8dd	-1.1301533
75	0xbf6adf87	-0.91747326
76	0xc0193f49	-2.3944876
77	0xbf6b26c1	-0.9185601
78	0xbe56549a	-0.2093071
79	0xbf8a5182	-1.0806124
80	0xbe53c186	-0.20679292
81	0xbf86389d	-1.0486027
82	0xbebc748b	-0.36807665
83	0x3eb4dc3f	0.35324284
84	0xbe5e3c9e	-0.21702811
85	0xbece3ff8	-0.4028318
86	0x3f5b5cb4	0.8568833
87	0x3f5f0bc5	0.87127334
88	0xbe8e57bf	-0.2780132
89	0x3f216eac	0.63059497
90	0x3fce8cc6	1.6136711
91	0x3fb500df	1.4140891
92	0xbd81c84a	-0.0633703
93	0xbfb673ec	-1.4254127
94	0xbfbb105d	-1.4614369
95	0xbef47bfe	-0.4775085
96	0xbfe5c296	-1.7950008
97	0xbf9e33b8	-1.2359533
98	0xbf6c216e	-0.9223851
99	0x3e09e330	0.13465571
100	0xbf579aa2	-0.84220326
101	0xbf997cf6	-1.199126
102	0xbe881b56	-0.26583356
103	0x3db4649f	0.088082545
104	0xbf5a3e16	-0.85250986
105	0xbe180ba4	-0.1484819
106	0xbf25dbbc	-0.64788413
107	0xbf0b8ce5	-0.54511863
108	0x3f294596	0.66121805
109	0xbee7f1f3	-0.4530178
110	0xbec0aefb	-0.376335
111	0xbee8379e	-0.45354933
112	0x3d2f7231	0.04283351
113	0x3fad6f77	1.3549641
114	0xc02bfede	-2.6874309
115	0x3f4d500d	0.8020027
116	0xbf457059	-0.77124554
117	0xbfae903f	-1.363777
118	0xbed60ff4	-0.41809046
119	0xbfb2a1ee	-1.3955667
120	0x3e7ab045	0.24481304
121	0x3f020d16	0.5080122
122	0xbf6b7130	-0.91969585
123	0xbfad0d0a	-1.3519604
124	0x3e529a5e	0.20566699
125	0xbf969aca	-1.1765988
126	0x3d9091d6	0.07059066
127	0xbe0ecc66	-0.1394516
128	0xbf4587d3	-0.77160376
129	0xbf590976	-0.8478006
130	0xbfcab1a1	-1.5835458
131	0xbfc69f08	-1.5517282
132	0x3fa84cb2	1.3148406
133	0xbe97e3bf	-0.29665944
134	0x3f2de916	0.67933786
135	0xbfb66757	-1.4250287
136	0x3dfce9b1	0.123492606
137	0xbd3e7ff1	-0.046508733
138	0x3ccb8382	0.024842981
139	0xbf65a5fe	-0.8970641
140	0xbefe22e0	-0.49635983
141	0xbf03ebf2	-0.515319
142	0x3fd7b004	1.6850591
143	0xbfeea5a3	-1.8644298
144	0x3f2b2caa	0.66865027
145	0xbf4aae5d	-0.7917231
146	0xbfb0b9cb	-1.38067
147	0x3e5e8b44	0.21732813
148	0x3ecb6c15	0.39730898
149	0xbf74f325	-0.9568351
150	0xbea6db11	-0.3258901
151	0x3d882605	0.06647877
152	0x3e0e965e	0.13924548
153	0xc03216df	-2.782646
154	0xbbb831f4	-0.0056211893
155	0xbf420e55	-0.7580312
156	0xbffd8217	-1.9805325
157	0xbfd7baf6	-1.6853931
158	0xbf7482c0	-0.9551201
159	0xbf5b826e	-0.85745895
160	0xbfb4dfcb	-1.4130796
161	0x3f9f4720	1.2443581
162	0xbf825b0a	-1.0184033
163	0xbfc05a32	-1.5027525
164	0xbf13a73c	-0.57677054
165	0x3e7b60ff	0.2454872
166	0xbf9c23fd	-1.2198483
167	0xc0562e18	-3.3465633
168	0x3d6858d7	0.05672535
169	0x3fa24364	1.2676816
170	0xbf3ec881	-0.74524695
171	0x3fb1ef15	1.3901087
172	0x3f20a603	0.62753314
173	0xc019f9f9	-2.4058821
174	0x3ec0b3ce	0.3763718
175	0xc02daf22	-2.7138143
176	0xbef363a4	-0.47536957
177	0x3e755298	0.23957288
178	0xbff092f7	-1.879485
179	0x3f6acbc2	0.9171716
180	0x3ed607dc	0.4180287
181	0xbfe25386	-1.7681739
182	0xbff0f123	-1.8823589
183	0xbf80a8c7	-1.0051507
184	0xbef8de39	-0.48607042
185	0xbeaa3f18	-0.33251262
186	0xbfa8e10a	-1.3193676
187	0x3f211ad8	0.62931585
188	0x3c9b2a1e	0.018940981
189	0x3f29111f	0.6604175
190	0x3d8716d5	0.06596152
191	0xbfcd9d29	-1.6063586
192	0xbf146692	-0.5796901
193	0x3fa0705e	1.2534292
194	0x3fde1881	1.7351228
195	0xbfb8eba6	-1.4446914
196	0xbee1559c	-0.44010627
197	0xbec20731	-0.37896112
198	0x3ff6183d	1.9226147
199	0xbec81626	-0.39079398
200	0xc03aace3	-2.9168022
201	0x3ec7a605	0.3899385
202	0xc0b40a6c	-5.626272
203	0x3e6a50cc	0.22882384
204	0xc0660c55	-3.5945027
205	0x3efe7366	0.49697417
206	0xbc60ece4	-0.013728354
207	0x3fbb234f	1.462015
208	0xbfbce2db	-1.4756731
209	0xbff1541f	-1.8853797
210	0x3f254a2a	0.6456629
211	0x3d336cb4	0.04380484
212	0x3f7f0b1a	0.99626315
213	0xbf982a8b	-1.1887983
214	0xbf80c980	-1.0061493
215	0xbec95e53	-0.39329776
216	0xbf5cf35d	-0.8630884
217	0xc0728661	-3.7894518
218	0x3f9dc981	1.2327119
219	0x3edf03df	0.4355764
220	0xbf01cc73	-0.5070259
221	0xbfa1e03c	-1.2646556
222	0x407e42b7	3.972822
223	0x3f196edc	0.59934783
224	0xc00a0a5f	-2.156883
225	0x3f2297d9	0.6351295
226	0xbf410b47	-0.7540783
227	0xbdf1a208	-0.11798483
228	0x3da7d656	0.08195178
229	0xbfca63ea	-1.5811741
230	0xc04b7355	-3.1789143
231	0xbf566751	-0.837514
232	0xbec63b25	-0.38717
233	0x3edd98cb	0.43280634
234	0x3f81f618	1.0153227
235	0xbe11a1d7	-0.14221893
236	0xc00a65fa	-2.1624742
237	0x3f30b0a4	0.6901953
238	0x3fa9dcb7	1.3270482
239	0xbf7dc302	-0.99125683
240	0x3f0407cb	0.5157439
241	0x3e893e31	0.2680526
242	0xbf8f7557	-1.1207684
243	0xc00fc75c	-2.246543
244	0x401c1170	2.4385643
245	0x3ece20de	0.4025945
246	0xc0438339	-3.0548842
247	0x3f073ad9	0.5282417
248	0xbf1481f9	-0.5801082
249	0xbfc23e00	-1.5175171
250	0xbfd6969a	-1.676471
251	0xbfa59b23	-1.2937969
252	0xbe3decab	-0.18547313
253	0x3ec592ed	0.38588658
254	0xbfc3f1db	-1.5308183
255	0xc01b619d	-2.4278328

layer2.bias f4 [128]
0	0xbef15bd2	-0.47140366
1	0xbeafdebc	-0.3434962
2	0xbe8207e9	-0.2539666
3	0xbf92ed6c	-1.1478705
4	0xbea679d6	-0.32514828
5	0xbdad76d7	-0.084699325
6	0x3e9ab187	0.30213568
7	0x3f0b3edc	0.5439279
8	0xbd8e93f7	-0.06961816
9	0xbeba62b7	-0.36403438
10	0x3e9422ff	0.2893295
11	0xbf4a6cb4	-0.7907212
12	0x3f061af7	0.52384895
13	0xbf06e051	-0.5268603
14	0xbdd25e61	-0.102719076
15	0xbda8050e	-0.08204089
16	0xbe727123	-0.2367597
17	0x3d0763e6	0.033054255
18	0x3f8f84f4	1.1212449
19	0xbee58c82	-0.4483376
20	0x3e7632b7	0.24042784
21	0xbcd3d573	-0.025858616
22	0xbfb91e68	-1.4462404
23	0xbc0fc5d7	-0.008775196
24	0xbfbbe3cf	-1.4678897
25	0xbe22417a	-0.1584529
26	0xbd43350a	-0.047658004
27	0xbe04e35d	-0.12977357
28	0x3f43cea2	0.7648717
29	0xbe20699e	-0.1566529
30	0x3f089537	0.53352684
31	0x3e3c8a6d	0.1841218
32	0x3f8a9896	1.0827816
33	0x3f2bcd27	0.6710991
34	0x3f7e4c7b	0.9933545
35	0x3f56895d	0.8380335
36	0x3ef207cb	0.4727157
37	0xbe2d0506	-0.16896448
38	0x3d8a7df4	0.06762305
39	0x3d1caa58	0.03824839
40	0xbdc24401	-0.09485627
41	0xbf4cd77c	-0.80016303
42	0xbef7fb31	-0.4843383
43	0x3fae5de3	1.3622402
44	0xc0442020	-3.0644608
45	0xbece8408	-0.40335107
46	0x3fc09efb	1.5048517
47	0xbd25ef92	-0.040511675
48	0x3dfe7de0	0.124263525
49	0x3f9c0443	1.21888
50	0xbe1ef898	-0.15524518
51	0xbd94bc61	-0.07262493
52	0x3e66965e	0.22518298
53	0x3cb4d55d	0.022074396
54	0xbfb93340	-1.4468765
55	0xbcbe2ff3	-0.023216223
56	0xbdf50697	-0.119641475
57	0xbfb49777	-1.4108723
58	0xbe25e33b	-0.16199963
59	0xbcac3023	-0.021019047
60	0xbe9f7f10	-0.31151628
61	0xc0b34dae	-5.6032324
62	0xbb51d7ee	-0.0032019573
63	0xbea8e0e5	-0.3298408
64	0x3f606820	0.8765888
65	0xbdefaab3	-0.1170248
66	0xbe3cce91	-0.18438174
67	0x3d35cb6d	0.044383455
68	0x3c82c5ed	0.015963519
69	0x3f6497b8	0.89294004
70	0x3cd60739	0.02612649
71	0xbc3c3d8a	-0.011489281
72	0xbf29efae	-0.6638135
73	0x3d73e7d2	0.059547253
74	0xbd7878f4	-0.060662225
75	0x3f98e24e	1.1944063
76	0xbeb7c930	-0.3589568
77	0xbdd789be	-0.10524319
78	0x3dd8203e	0.10553025
79	0xc00552c6	-2.083177
80	0xbd538757	-0.051642742
81	0xbee927fe	-0.45538324
82	0x3bf74ba5	0.0075468593
83	0xbff74d7c	-1.9320521
84	0x3e3a9505	0.18220909
85	0xbdd69b4e	-0.10478841
86	0x3dd441fe	0.103641495
87	0xbcc2278f	-0.023700504
88	0x3ecc42c1	0.3989468
89	0xbed96514	-0.4245993
90	0x3f802fbc	1.0014567
91	0xbe2cc711	-0.16872813
92	0xc01b4487	-2.4260576
93	0xbe0fde16	-0.14049563
94	0x3cb84755	0.022494951
95	0xc012ccf2	-2.2937589
96	0x3d8740d9	0.066041656
97	0xbf13a1e1	-0.5766888
98	0x3ca85322	0.020547453
99	0xbcceef50	-0.025260597
100	0x3bec06da	0.007202965
101	0xbf3c84db	-0.7364022
102	0x3f722c63	0.9459898
103	0x3d758589	0.059941802
104	0x3e7a052f	0.2441604
105	0x3f96e2d8	1.1787977
106	0xbe810887	-0.25201818
107	0xbf1141ff	-0.5674133
108	0xbf0aaf35	-0.54173595
109	0x3f17bcda	0.5927254
110	0x3e0f42fb	0.13990395
111	0xbdcf8b77	-0.10134023
112	0xbd4f4b32	-0.05060882
113	0xbdd98fd7	-0.106231384
114	0x3e8cba3f	0.27485844
115	0xbdb8e991	-0.09028924
116	0xbecbf838	-0.39837813
117	0x3d6d1786	0.05788376
118	0xbeed63a8	-0.46365094
119	0xbe0300a0	-0.12793207
120	0xc02b389e	-2.6753306
121	0x3fc82cd3	1.5638679
122	0xbdcd3aa1	-0.10020948
123	0x3d992faf	0.07479798
124	0xbf3d1e87	-0.73874706
125	0xbdebfcb5	-0.115228094
126	0xbe78bc84	-0.24290663
127	0x3f1f4f47	0.6223034

value_stream.0.weight f4 [128, 128]
0	0xbdb43008	-0.08798224
1	0xbd309606	-0.043111823
2	0xbc5db033	-0.013530779
3	0x3d0a53d2	0.033771344
4	0xbc6c4141	-0.014419855
5	0x3d5930d5	0.053025085
6	0x3d51315f	0.051072475
7	0x3cf9ac96	0.030477803
8	0xbd823578	-0.063578546
9	0xbc13bd70	-0.009017333
10	0xbc39296f	-0.011301382
11	0xbdd87a9b	-0.1057026
12	0x3d4fa1b9	0.05069134
13	0xbcf4cf19	-0.029883908
14	0xbd348b3a	-0.04407809
15	0xbd42b134	-0.047532275
16	0x3d8fe18c	0.070254415
17	0xbdbd8b46	-0.0925508
18	0xbd019687	-0.031637695
19	0xbd4c7b93	-0.049922537
20	0x3d20d37f	0.0392642
21	0xbd086a92	-0.03330476
22	0xbd9d0e9c	-0.07668802
23	0x3cda6b70	0.026662558
24	0xbac9d1e7	-0.0015397639
25	0xbd45a208	-0.04825023
26	0xbdaf12a8	-0.0854848
27	0xbd783344	-0.060595766
28	0xbd91245a	-0.07087012
29	0xbddfcbaf	-0.109275214
30	0xbd54e945	-0.051980276
31	0xbdbb5aec	-0.09148201
32	0xbdf1830a	-0.11792572
33	0xbcb6869c	-0.022280984
34	0xbd3d7672	-0.046255536
35	0xbe892d40	-0.26792336
36	0xbd356f28	-0.04429546
37	0x3cfdd9f2	0.030987713
38	0x3cb1e641	0.021716239
39	0xbd045783	-0.03231002
40	0x3c9e696b	0.019337377
41	0xbd961ab6	-0.073293135
42	0xbdd352ee	-0.10318552
43	0xbda09426	-0.07840757
44	0xbde1e887	-0.11030679
45	0xbd0f0b71	-0.03492302
46	0xbcf453dc	-0.029825144
47	0x3cac4925	0.021030972
48	0xbcb4526a	-0.022011954
49	0xbe2516bf	-0.16121958
50	0xbd7e5096	-0.06208857
51	0xbc169c6b	-0.009192566
52	0x3c2b6586	0.010461217
53	0x3d98fa5a	0.07469626
54	0xbd8ce596	-0.068797275
55	0xbce0bf37	-0.027434928
56	0x3ca34e72	0.019934867
57	0xbbbdaebd	-0.0057886527
58	0xbdaab13a	-0.083345845
59	0x3d43925d	0.047747005
60	0xbb1f10c1	-0.002427146
61	0xbd4cf0b7	-0.05003425
62	0xbb2c1698	-0.0026258584
63	0xbe09278e	-0.13393995
64	0xbc242c96	-0.010020396
65	0xbd98f8ad	-0.07469306
66	0xbe05b72a	-0.13058153
67	0xbcc22393	-0.023698604
68	0xbd635f49	-0.055510793
69	0xbdb148c2	-0.086564556
70	0xbe0a9e1a	-0.13536873
71	0xbb6029ad	-0.0034204528
72	0xbe528291	-0.2055762
73	0xbc119ab4	-0.008886982
74	0xbdc45882	-0.09587194
75	0xbd821c3c	-0.063530415
76	0xbc09707c	-0.008388635
77	0xbda9a422	-0.08283259
78	0xbc9927fe	-0.018695828
79	0xbe33b99a	-0.1755127
80	0x3d64f598	0.05589828
81	0xbd9ec666	-0.07752685
82	0xbdb7fcfb	-0.08983799
83	0xbc90a44c	-0.017656468
84	0xbbbd70fa	-0.00578129
85	0x3d1d66fa	0.038428284
86	0xbdc4b07e	-0.09603976
87	0xbc96cf31	-0.018409343
88	0xbdbe80b4	-0.09301892
89	0xbd1b26b1	-0.037878696
90	0xbd3be8d0	-0.045876324
91	0xbc4dfc0b	-0.012572299
92	0xbd85a168	-0.065249264
93	0x3cc34e4b	0.023841044
94	0xbd0f99c8	-0.035058767
95	0xbc03a701	-0.008035422
96	0xbc9edb2d	-0.01939162
97	0xbdb59b70	-0.08867538
98	0x3d7926af	0.060827907
99	0x3c75671a	0.014978195
100	0x3cfb3a89	0.03066756
101	0xbd8d036e	-0.0688542
102	0xbd5c4321	-0.053774957
103	0xbd55b4d9	-0.052174423
104	0x3cde5ab1	0.027142854
105	0xbc8fd19d	-0.017556006
106	0x3b3dffc8	0.0028991569
107	0x3d4eef37	0.0505211
108	0xbe11db62	-0.14243844
109	0xbd08d38b	-0.033404868
110	0x3cb3396f	0.021877972
111	0x3d3cae43	0.046064626
112	0xbd994b6a	-0.07485087
113	0xbdaa33a3	-0.0831063
114	0x3cb4b216	0.022057574
115	0xbb5e2144	-0.003389434
116	0xbdfa3898	-0.12217826
117	0x3d822e73	0.06356516
118	0xbc52a064	-0.012855623
119	0xbb6d79d1	-0.0036235938
120	0xbc9e6094	-0.019333161
121	0xbca9ae65	-0.02071304
122	0x3cce58cc	0.025188826
123	0xbd4e83a6	-0.05041852
124	0xbd8b1af7	-0.067922525
125	0x3d47069a	0.04859028
126	0xbdc194fe	-0.09452246
127	0x3b00fd32	0.0019682166
128	0xbea5da14	-0.32392943
129	0xbd43d78d	-0.047812987
130	0x3dba8da8	0.0910905
131	0xbed14879	-0.40875605
132	0xbd0e59f5	-0.03475376
133	0x3d748782	0.059699543
134	0x3e2776da	0.16353932
135	0x3de83d82	0.11339857
136	0x3e19cca4	0.1501947
137	0xbf22dc48	-0.6361737
138	0xbf222167	-0.6333222
139	0xbec3cd2c	-0.3824247
140	0x3dc0a5b9	0.09406609
141	0xbdad1080	-0.08450413
142	0x3e5ecd44	0.2175799
143	0xbd962538	-0.07331318
144	0x3a8c1090	0.0010686088
145	0xbcaa907f	-0.020820854
146	0xbe3c6c85	-0.18400772
147	0xbe726727	-0.23672162
148	0x3ee201ee	0.44142097
149	0x3e918dad	0.28428403
150	0x3eaa08ab	0.33209738
151	0x3ea2e78f	0.3181729
152	0x3c97be37	0.018523319
153	0x3f0aa9c0	0.5416527
154	0xbf9d1af2	-1.2273848
155	0xbd9e635a	-0.077337936
156	0xbf158e2f	-0.5842008
157	0x3ebb34a4	0.365636
158	0x3e3084b0	0.17238116
159	0xbed89fde	-0.4230947
160	0xbc92e109	-0.01792957
161	0xbe79c300	-0.24390793
162	0x3aa7966d	0.0012785919
163	0x3cec2964	0.02882833
164	0xbe8719a2	-0.26386744
165	0x3d7fab41	0.06241918
166	0xbdb6ff81	-0.08935452
167	0xbe8316e8	-0.25603414
168	0x3d9f8801	0.077896126
169	0x3dc16712	0.09443487
170	0xbf8964a7	-1.0733842
171	0xc038a716	-2.885198
172	0x3f16d027	0.58911365
173	0x3d7ce86d	0.061745096
174	0x3c9ae3e6	0.018907499
175	0x3d4573b0	0.04820603
176	0x3eb1a0f1	0.346931
177	0xbd099b5f	-0.03359544
178	0x3d845218	0.06460971
179	0x3e03d8b7	0.12875639
180	0xbf120f43	-0.5705454
181	0x3d608177	0.054810967
182	0xbeeb885b	-0.46002468
183	0x3e8fb355	0.28066507
184	0x3b693825	0.0035586443
185	0xbf0e4665	-0.55576164
186	0xbf75cd16	-0.9601606
187	0xbd8831ae	-0.06650101
188	0x3e90d85b	0.28290066
189	0xbfef4de6	-1.8695648
190	0xbcd9ff87	-0.026611103
191	0xbeb34f55	-0.35021463
192	0xbf1e35c9	-0.6180082
193	0x3d9674ab	0.073464714
194	0x3e85e2d8	0.2614963
195	0xbd192163	-0.037385356
196	0xbd11fb96	-0.03564032
197	0xbed669aa	-0.4187749
198	0xbee918b5	-0.45526662
199	0xbed7dc7c	-0.42160404
200	0xbf365018	-0.71215963
201	0x3e480e46	0.19536695
202	0x3d8b7cbb	0.068109
203	0xbea50552	-0.32230622
204	0xbde98d17	-0.11403864
205	0xbd89619a	-0.06708069
206	0x3e96f62c	0.2948469
207	0xbf0b4fa1	-0.5441838
208	0x3eaa4dfe	0.33262628
209	0xbf51b92c	-0.81923175
210	0x3cba6489	0.022753017
211	0xbf28d9af	-0.6595716
212	0x3dab8b0a	0.08376129
213	0x3cc41802	0.023937229
214	0x3d38a58b	0.04507975
215	0x3d856d3d	0.06514976
216	0xbf19e44f	-0.60113996
217	0xbf552fce	-0.8327607
218	0xbefb6197	-0.49097893
219	0x3e727460	0.23677206
220	0x3ebd8304	0.3701402
221	0x3d9cb0a1	0.07650877
222	0x3e088722	0.13332799
223	0xbf007a85	-0.5018695
224	0x3f10fb62	0.5663358
225	0xbe281269	-0.16413273
226	0x3cb41c8d	0.02198627
227	0x3d8c057c	0.068369836
228	0x3d131a89	0.035913978
229	0x3e5699d7	0.20957123
230	0xbf0f1f9a	-0.55907595
231	0x3ead5c0d	0.33859292
232	0xbdfb27e8	-0.12263471
233	0xbe21e0f6	-0.15808472
234	0x3c84436b	0.016145429
235	0xbf16a7c2	-0.5884973
236	0xbec52730	-0.3850646
237	0xbf1e37cb	-0.61803883
238	0x3e3dd1cd	0.18537064
239	0xbcf41241	-0.02979386
240	0x3d4c1e2e	0.04983347
241	0xbb3eff05	-0.0029143703
242	0x3e18e4ee	0.1493108
243	0xbea3d64d	-0.31999436
244	0xbf3d26de	-0.7388743
245	0x3e713247	0.23554336
246	0xbddcb960	-0.10777545
247	0xbbe30417	-0.006927978
248	0xbe5a6e75	-0.21331199
249	0xbc0d52cb	-0.008625696
250	0xbcd3df46	-0.025863301
251	0xbe758c5e	-0.23979327
252	0xbeada533	-0.339151
253	0x3d90dea2	0.07073714
254	0xbf2e45ed	-0.6807545
255	0xbf01571b	-0.5052354

value_stream.0.bias f4 [128]
0	0xbe8e5cf1	-0.27805284
1	0xbb629c7c	-0.0034578135
2	0x4129a1f1	10.602036
3	0xc05e1423	-3.469979
4	0xbdfb360d	-0.12266169
5	0xbfba7b4c	-1.4568877
6	0x4077b022	3.8701253
7	0xbfd288cd	-1.6447998
8	0xbe71a346	-0.2359744
9	0xbee2fabd	-0.44331923
10	0x4103c5f3	8.235827
11	0xbeb617b7	-0.35564968
12	0x4117fd7a	9.499384
13	0xc1725f27	-15.148231
14	0xc0638776	-3.5551429
15	0xbf033e48	-0.5126691
16	0xc0e78403	-7.2348647
17	0x41611d4a	14.069651
18	0x4057c46b	3.3713634
19	0xc099a4e3	-4.801378
20	0x418af012	17.367222
21	0x41426d67	12.15171
22	0xbf322834	-0.69592595
23	0xbf8e8919	-1.1135589
24	0x416a2b29	14.635537
25	0xbf31b389	-0.69414574
26	0x403d782f	2.9604604
27	0x4178b1ed	15.543439
28	0x41310a6c	11.065044
29	0x40a0f5a0	5.0299835
30	0xc18a3370	-17.275116
31	0xc00e5b33	-2.2243164
32	0x411fbf31	9.984178
33	0xbf2c1b35	-0.67229015
34	0xc0b904d8	-5.7818413
35	0xbf98ee1c	-1.1947665
36	0xbfc762e9	-1.557706
37	0xbee6c0f1	-0.45069078
38	0x41979bf4	18.951149
39	0x4092ce5e	4.5876913
40	0xc03266b3	-2.7875183
41	0x40874ae2	4.227891
42	0xbf085ae4	-0.5326369
43	0xbaebeba5	-0.0017999305
44	0x415ad667	13.677344
45	0xbe8da48c	-0.27664602
46	0x41928dbc	18.319206
47	0xbea39360	-0.31948376
48	0x418222d8	16.267014
49	0x40c2721b	6.076429
50	0x4134cbd6	11.299765
51	0xbf8f8732	-1.1213133
52	0xbebd9372	-0.37026554
53	0xbe826efa	-0.25475293
54	0xbe888d9f	-0.26670548
55	0x4072cd0c	3.793765
56	0x40ba8721	5.828995
57	0xbd98cf14	-0.07461372
58	0xbd788f52	-0.060683556
59	0xc12d44d7	-10.829307
60	0xc0ad3a47	-5.413364
61	0xbfb64d10	-1.4242268
62	0xbec0abe4	-0.37631142
63	0x40f3181f	7.5966945
64	0x41895eee	17.171352
65	0xbd49b3cd	-0.049243737
66	0xc019313c	-2.39363
67	0x410911ae	8.566816
68	0xbe3e6fb6	-0.18597302
69	0x4091cb60	4.556076
70	0x40d237f8	6.569332
71	0xbdd1e08a	-0.102479056
72	0x40d1dccb	6.5582023
73	0xc00a3114	-2.1592455
74	0xbf0db74b	-0.5535781
75	0x413516d9	11.318078
76	0xbf3c25c0	-0.734951
77	0xc058ce36	-3.387586
78	0x40622ae9	3.533869
79	0xc0b9ccbd	-5.8062425
80	0xbe29d489	-0.16584982
81	0x41027fd4	8.156208
82	0xbefb3da9	-0.4907048
83	0xbe3bac78	-0.1832751
84	0xbed42321	-0.4143305
85	0xbf0c57ad	-0.5482128
86	0x415d4f72	13.831896
87	0xbd81fda8	-0.06347209
88	0xbea53c35	-0.32272497
89	0xbea7f04d	-0.32800522
90	0x413c8353	11.782062
91	0xbd134a01	-0.035959247
92	0xbe8162eb	-0.2527078
93	0xc14e1530	-12.880173
94	0xbd12e804	-0.0358658
95	0xbb053c68	-0.0020330194
96	0xbe9ba51e	-0.30399412
97	0xbf500320	-0.8125477
98	0xc0f615e5	-7.6901727
99	0xbf247404	-0.64239526
100	0xc105f63a	-8.372614
101	0x413759bf	11.459411
102	0xbf9bdf77	-1.2177571
103	0xc045d0db	-3.0908725
104	0x404e0006	3.2187514
105	0x41498b0a	12.596445
106	0xbf428ec9	-0.7599912
107	0xc09a3931	-4.8194814
108	0x417662e1	15.39914
109	0xbcae5cfd	-0.021284575
110	0xbe2eee2a	-0.1708304
111	0xbe3fecfd	-0.18742748
112	0x410cbf88	8.796761
113	0x412f413d	10.953427
114	0xbfa61f40	-1.2978287
115	0x41406786	12.025274
116	0x418ad9c6	17.356335
117	0xc1526e9d	-13.152005
118	0x415b2076	13.695425
119	0xbca6eed7	-0.02037756
120	0x4165676c	14.3377495
121	0x40ded217	6.9631457
122	0xc130de65	-11.054296
123	0xbff608ad	-1.9221398
124	0x40a87a76	5.264949
125	0xc1782122	-15.508089
126	0xbe01d4cc	-0.12678832
127	0xc00bbb07	-2.1832902

value_stream.2.weight f4 [1, 128]
0	0x3cb12d48	0.021628037
1	0xc0b20c8f	-5.564033
2	0x414c8133	12.781543
3	0x3efbc7d9	0.4917591
4	0xbfdb600a	-1.7138684
5	0xc0856d4c	-4.169592
6	0xc163dd00	-14.241455
7	0xbfde87f7	-1.7385243
8	0x3d2cee5a	0.042219497
9	0xbeada779	-0.33916834
10	0x4127df5f	10.492034
11	0xbf92dc13	-1.1473411
12	0xc04ece61	-3.2313464
13	0xc08866ed	-4.262564
14	0xbe3a181c	-0.1817326
15	0xc04321f9	-3.0489485
16	0xc0bd78f1	-5.9210134
17	0x40a20a6a	5.0637712
18	0x40938e24	4.611101
19	0x4076b671	3.8548853
20	0x40b1c192	5.554879
21	0xc182df69	-16.359087
22	0x40972c3f	4.724151
23	0x3fed1541	1.8522111
24	0x40c3120c	6.095953
25	0xbebccac9	-0.36873463
26	0x4105d2a4	8.363926
27	0x412e078d	10.876843
28	0x40b181d7	5.5470996
29	0x41374853	11.455157
30	0xc0f5140c	-7.658697
31	0x3e24babe	0.16086861
32	0x41183b1e	9.514433
33	0x3faf7dbd	1.3710247
34	0xc0171378	-2.3605633
35	0xc044f104	-3.0772104
36	0xc0884a38	-4.25906
37	0x3d8692fb	0.06571003
38	0xc197df9f	-18.98419
39	0xc1604617	-14.017112
40	0x3d3ea1a5	0.046540875
41	0xc0c37577	-6.108089
42	0xc096a135	-4.7071786
43	0xc0c8c9aa	-6.274617
44	0x410cc544	8.798161
45	0xbf49248d	-0.785714
46	0x4151303a	13.074274
47	0xbd28f68a	-0.041250743
48	0x409aac95	4.833567
49	0xc1166f92	-9.402239
50	0x3f5346c1	0.82529837
51	0xbfec1d98	-1.8446531
52	0x3ff5b015	1.9194361
53	0x3b3dc26f	0.0028955003
54	0xbbdf011e	-0.006805553
55	0xbfe42a76	-1.7825458
56	0xc16b5877	-14.709098
57	0x40015592	2.0208478
58	0x3e4e443e	0.2014322
59	0x3fba9787	1.4577492
60	0xbe1be33c	-0.15223402
61	0xc08d04c9	-4.406834
62	0x3c7b852a	0.015351573
63	0xc1873231	-16.899508
64	0x41182297	9.508445
65	0x3d8f2893	0.06990161
66	0xc058d889	-3.3882163
67	0x403ce5c5	2.951524
68	0x3b8b36d9	0.0042484817
69	0xc134171c	-11.255642
70	0x410d5cd8	8.835167
71	0xc08424e9	-4.1295056
72	0xc145f851	-12.373124
73	0x3c92abaf	0.01790413
74	0xc05b6f58	-3.428671
75	0xc08e0204	-4.437746
76	0x40730733	3.7973144
77	0xc02c3835	-2.6909306
78	0xc10f67c8	-8.962837
79	0xbe7dd5e2	-0.24788621
80	0x3d1ae1ec	0.037813112
81	0xc0ad8995	-5.4230447
82	0xbf0dd0ab	-0.5539653
83	0xbbacf33f	-0.0052780206
84	0xbf157d99	-0.5839477
85	0xbdfb0138	-0.12256092
86	0xc1969227	-18.821363
87	0xc06ffb22	-3.749703
88	0xbf00ab89	-0.5026174
89	0xc03f9a84	-2.993806
90	0xc1d5c340	-26.720337
91	0xc06ca7b3	-3.6977355
92	0xc0032b3f	-2.0495145
93	0x40370c2e	2.8601184
94	0xc0403864	-3.0034418
95	0x40e00e74	7.0017643
96	0x3d4ea27a	0.05044792
97	0x40873dba	4.226285
98	0x3fc1d7d3	1.5143989
99	0xc055042d	-3.3283799
100	0xbf801541	-1.0006486
101	0x402e6c05	2.725343
102	0xc07a9991	-3.915623
103	0x3d23df9c	0.040008172
104	0xc1833e75	-16.405497
105	0xc1513670	-13.07579
106	0xbeb93464	-0.36172783
107	0xbf6ed0c6	-0.93287313
108	0x3fa89db3	1.3173126
109	0xc1018904	-8.095951
110	0xbb69dd69	-0.003568495
111	0xc06e19b1	-3.720318
112	0x413b6b7e	11.713743
113	0xc106a5e9	-8.415505
114	0xbe0bff6b	-0.13671653
115	0x4183cfaf	16.476408
116	0x41015cd0	8.085159
117	0xc0d7fd83	-6.7496963
118	0xc18daede	-17.710384
119	0xc00a4bea	-2.1608834
120	0x41637b14	14.217548
121	0xc081e50d	-4.0592103
122	0xc0d44d2e	-6.6344213
123	0xbfdfbcc2	-1.7479479
124	0xc0536c32	-3.3034787
125	0x3f428443	0.75983065
126	0xc073da93	-3.8102157
127	0x3e18dcb0	0.14927936

advantage_stream.0.weight f4 [128, 128]
0	0x3e0294ce	0.12752077
1	0xbf855399	-1.0416137
2	0xbde8ac21	-0.11360956
3	0xbeb957b5	-0.36199728
4	0xbd97d896	-0.07414357
5	0x3d7be72d	0.061499763
6	0x3d485157	0.048905697
7	0xbd5f7053	-0.05455048
8	0xbd1d1a3e	-0.038355105
9	0xbebd3bf0	-0.3695979
10	0xbf365694	-0.7122586
11	0xbefe5b04	-0.49678814
12	0xbcde69c3	-0.02715004
13	0xbe8adb0f	-0.27120253
14	0xbb2dcdc3	-0.0026520349
15	0xbdadfee9	-0.08495886
16	0xbe6eb212	-0.23310116
17	0xbd9d8a0a	-0.076923445
18	0xbf2681cd	-0.6504181
19	0x3d801882	0.062546745
20	0xbde240d7	-0.110475235
21	0x3d869cab	0.06572851
22	0xbcc1b192	-0.023644242
23	0xbcb5e086	-0.022201788
24	0xbdd1069e	-0.1020634
25	0xbbc486af	-0.005997501
26	0xbfa1f5ba	-1.2653115
27	0x3c3ce6fd	0.011529681
28	0xbd072c44	-0.0330012
29	0xbd0dad8b	-0.03458933
30	0x3bd25f0e	0.006420023
31	0xbde2f15d	-0.11081193
32	0xbf041157	-0.5158896
33	0xbe10dbba	-0.14146319
34	0xbe327077	-0.17425714
35	0xbfd394aa	-1.6529744
36	0xbe92db8d	-0.2868313
37	0xbd473d91	-0.0486427
38	0x3dbd80d6	0.09253089
39	0xbf096122	-0.5366384
40	0x3d5e8fd0	0.05433637
41	0xbf10c1fb	-0.5654599
42	0x3d83f809	0.06443793
43	0xbfbf2e0a	-1.4935925
44	0xbf7c5fae	-0.98583496
45	0xbd696d13	-0.056988787
46	0x3dd9c1bd	0.10632656
47	0xbda9abee	-0.08284746
48	0xbdabbc44	-0.08385518
49	0x3f002e0a	0.5007025
50	0x3d890be4	0.06691721
51	0x3d0369df	0.03208339
52	0x3d0fed94	0.03513868
53	0xbd5863fe	-0.052829735
54	0xbd98c36c	-0.07459149
55	0x3d43e0cb	0.0478218
56	0x3d2f8d0e	0.04285913
57	0xbc59cd7a	-0.013293618
58	0xbfb47505	-1.4098212
59	0xbca1c813	-0.019748723
60	0xbbda6264	-0.006664561
61	0xbf9d88dc	-1.2307391
62	0x3d85c6a4	0.06532028
63	0xbec02c3e	-0.37533754
64	0xbf37296f	-0.715476
65	0x3d529e59	0.051420543
66	0x3d0fa383	0.035068046
67	0xbf7920db	-0.9731576
68	0xbd3fd871	-0.046837274
69	0xbfd5895e	-1.6682546
70	0xbe9cf9f3	-0.30659446
71	0xbddb53bd	-0.10709331
72	0x3e0f1efe	0.13976666
73	0x3d91e40c	0.071235746
74	0xbd0276d8	-0.03185162
75	0xbf3f4c5f	-0.7472591
76	0x3ac35b8a	0.00149046
77	0xbd8846ea	-0.06654151
78	0xbca8138f	-0.020517139
79	0xbe8699ad	-0.2628912
80	0x3c25d1fa	0.010120863
81	0x3e62d670	0.22152114
82	0x3d8a353b	0.06748434
83	0xbeca3814	-0.3949591
84	0xbd3ff7de	-0.046867244
85	0x3d791b4c	0.060817048
86	0xbf1129b0	-0.56704235
87	0x3e30c69b	0.17263262
88	0x3c165747	0.009176082
89	0x3d262c12	0.040569372
90	0x3eeff40f	0.4686589
91	0xbd97b319	-0.07407207
92	0xbe7d96b1	-0.24764515
93	0xbcc0baef	-0.023526637
94	0xbff908d0	-1.9455814
95	0x3e5c1be8	0.2149502
96	0x3b8bd1b3	0.0042669415
97	0x3e71a705	0.23598869
98	0xbd2e84b5	-0.042607028
99	0xbc9816cc	-0.018565558
100	0x3d3c8442	0.04602457
101	0x3c65f94d	0.014036489
102	0x3ddf956e	0.10917173
103	0xbd8084d4	-0.06275335
104	0xbc85e906	-0.016346466
105	0xbf20110e	-0.62526023
106	0xbea1a12f	-0.31568286
107	0xbe1563c0	-0.14588833
108	0xbc03936a	-0.008030752
109	0x3e6ac95e	0.22928378
110	0xbed09e69	-0.40745857
111	0x3c85daf8	0.016339764
112	0xbcd5bc19	-0.026090669
113	0x3d5c68a8	0.053810745
114	0xbdea1e28	-0.11431533
115	0x3ecd355b	0.4007977
116	0x3e9d2a6c	0.30696428
117	0x3b6d2f1c	0.003619141
118	0x3e35a886	0.17740068
119	0xbc36e85c	-0.011163797
120	0x3e924485	0.285679
121	0xbeed2950	-0.4632058
122	0xbd872a2a	-0.06599839
123	0xbf4ba0b1	-0.7954207
124	0xbdea76dd	-0.114484526
125	0xbd3002cf	-0.04297143
126	0xbd496e26	-0.04917731
127	0xbe8111d0	-0.25208902
128	0xbeddbbb7	-0.43307278
129	0xbe9cf19c	-0.30653083
130	0xbce27c90	-0.027647287
131	0xbcbe4dd0	-0.023230463
132	0xbd6111ed	-0.054948736
133	0x3cb929ad	0.02260288
134	0x3e155a7a	0.14585295
135	0x3f71408c	0.94239116
136	0xbed45dae	-0.41477722
137	0x3d90169a	0.07035561
138	0x3da24e53	0.079250954
139	0xbf4c51e5	-0.7981246
140	0x3ed1899a	0.40925294
141	0xbeabd89e	-0.33563703
142	0xbd37b67f	-0.044851776
143	0xbc02f689	-0.007993349
144	0xbf9d40f6	-1.228545
145	0x3d8c28ad	0.06843696
146	0xbfb28c99	-1.3949157
147	0xbcdae047	-0.026718272
148	0xbd9cc02f	-0.076538436
149	0xbc76dbb6	-0.015067032
150	0xbe187642	-0.14888862
151	0x3e142a9c	0.14469379
152	0xbe713324	-0.23554665
153	0xbf1e3358	-0.61797094
154	0xbfb09ff2	-1.3798811
155	0xbd86d02a	-0.06582673
156	0xbde09143	-0.109652065
157	0x3dc1702f	0.094452254
158	0xbd84319f	-0.06454777
159	0xbd1570c8	-0.03648451
160	0x3e3a428e	0.18189451
161	0xbfc16e0d	-1.511171
162	0xbe9157da	-0.28387338
163	0xbf81fec8	-1.0155878
164	0x3e3d0e83	0.18462567
165	0xbd57b0c1	-0.0526588
166	0xbf99dd42	-1.2020648
167	0xbec63025	-0.38708606
168	0xbd9ccf8a	-0.076567724
169	0x3df3c9ee	0.119037494
170	0x3ea171c3	0.31532106
171	0xbfa4e5c3	-1.2882618
172	0xbfa83951	-1.3142492
173	0xbdfb7e4d	-0.12279949
174	0xbf27a012	-0.6547862
175	0x3d354278	0.044252843
176	0xbcfd5110	-0.030922443
177	0xbf8b3492	-1.0875418
178	0xbc768ad7	-0.01504775
179	0xbf04aab9	-0.51823
180	0x3f102b54	0.56316113
181	0x3bab68f9	0.0052310196
182	0x3d13b641	0.036062483
183	0x3aaadaf7	0.0013035227
184	0xbd41ecda	-0.04734502
185	0x3e0108ba	0.12600985
186	0xbf0121b8	-0.50442076
187	0xbc05502c	-0.00813679
188	0xbdffc142	-0.12488033
189	0xbcf69041	-0.030098082
190	0x3d8b6d26	0.06807928
191	0x3e92e634	0.28691256
192	0xbedd4f9c	-0.432248
193	0x3d8c4fb7	0.06851142
194	0x3f81bfa9	1.0136615
195	0x3e881e7b	0.26585755
196	0x3c56b653	0.013104993
197	0x3d9834be	0.07431935
198	0x3ed96fd1	0.42468122
199	0xbcff8c9f	-0.031194983
200	0x3eceba13	0.40376338
201	0x3d36d0e7	0.04463282
202	0x3cf7128f	0.030160217
203	0xbf4cf571	-0.80062014
204	0xbcb5c15f	-0.022186933
205	0x3d001156	0.031266533
206	0x3d6d102c	0.05787675
207	0xbe12595b	-0.14291899
208	0xbd85d983	-0.06535628
209	0xbeccf141	-0.40027812
210	0x3cb8acc0	0.022543311
211	0x3ef9e36a	0.48806316
212	0xbcfe5eaa	-0.031050999
213	0xbd93bb24	-0.072134286
214	0x3ec2714d	0.37977067
215	0xbf60b452	-0.87775147
216	0x3db5e7ea	0.08882125
217	0xbdae2337	-0.085028104
218	0x3ed4acbb	0.41538033
219	0xbd5750c4	-0.05256726
220	0xbeeb8899	-0.46002653
221	0x3c295132	0.0103343
222	0xbff2c80b	-1.8967298
223	0xbe929460	-0.28628826
224	0xbd855ab4	-0.06511441
225	0x3f2737e0	0.65319633
226	0x3c771ebf	0.015083014
227	0x3c080d96	0.00830402
228	0xbd72ad1e	-0.05924713
229	0xbf8ae5a2	-1.0851328
230	0xbf37556b	-0.7161471
231	0xbd20e6de	-0.039282672
232	0x3e184824	0.1487127
233	0xbe63d6dc	-0.22249931
234	0xbf6ad2ab	-0.91727704
235	0x3d77bbe4	0.06048192
236	0xbe690e8b	-0.22759454
237	0xbf004956	-0.501119
238	0xbfa7a5e7	-1.3097504
239	0x3d1193b5	0.035541255
240	0x3db3af1a	0.08773632
241	0x3d8eaa57	0.069660835
242	0xbca0bbfe	-0.019620892
243	0xbeddf84a	-0.43353492
244	0xbee3348f	-0.44376037
245	0xbd721efb	-0.059111577
246	0x3ddf81e6	0.10913448
247	0xbc53a10b	-0.012916814
248	0xbf906720	-1.1281471
249	0xbf678b51	-0.90446955
250	0xbdb1f7b2	-0.08689822
251	0xbd845a07	-0.06462484
252	0xbf9519f7	-1.1648549
253	0x3b831284	0.00400001
254	0xbd9def47	-0.07711654
255	0xbdebdba0	-0.115164995

advantage_stream.0.bias f4 [128]
0	0xbfb85a6d	-1.4402596
1	0xbfa69e8a	-1.3017132
2	0xbcc17e07	-0.023619665
3	0xbfa0ce4c	-1.2562957
4	0xbf1eb2c4	-0.61991525
5	0xbfaa6728	-1.3312731
6	0xbf58b174	-0.8464577
7	0xbedc6f7a	-0.430538
8	0xbf938edb	-1.1527971
9	0xbf7c0806	-0.9844974
10	0xbe25af8b	-0.16180246
11	0xbf8a84f7	-1.0821828
12	0xbf185a45	-0.5951274
13	0xbfa3b888	-1.279069
14	0xbf0c93ed	-0.54913217
15	0xbf0ae910	-0.54261875
16	0xbea0d4e9	-0.31412438
17	0xbf49f6fa	-0.7889248
18	0xbebc088b	-0.36725268
19	0xbfe1c1bd	-1.7637249
20	0xbfc380cf	-1.5273684
21	0xbeef1d2d	-0.46701947
22	0xbf997f06	-1.199189
23	0xbb0d41b5	-0.0021554057
24	0xbf89d212	-1.0767233
25	0xbe43a6ff	-0.19106673
26	0xbf7e12cc	-0.9924743
27	0xbfa307ed	-1.2736794
28	0xbfbdbc5c	-1.4823108
29	0xbf1c9659	-0.6116691
30	0xbfe00152	-1.7500403
31	0xbe3c2e10	-0.18376946
32	0xbf496f83	-0.7868578
33	0xbf99cc02	-1.2015383
34	0xc0080522	-2.1253133
35	0xbf66d46d	-0.90167886
36	0xbeded362	-0.43520647
37	0xbf4b0408	-0.79303026
38	0xbfad040c	-1.351686
39	0xbbbf05c1	-0.0058295433
40	0xbfb022db	-1.3760637
41	0xbef4fde5	-0.47849956
42	0xbeb2fd9f	-0.34959123
43	0xbed87b90	-0.4228177
44	0xbf8d3093	-1.1030449
45	0xbf746f9c	-0.954828
46	0xbf3d9060	-0.74048424
47	0xbed75204	-0.4205476
48	0xbed7b71e	-0.42131895
49	0xbef0b2c2	-0.4701138
50	0xc009e3f7	-2.1545389
51	0xbf2caf29	-0.67454773
52	0xbff3b4a0	-1.9039497
53	0xbfc47a4f	-1.5349826
54	0xbfc69669	-1.5514652
55	0xbf0d6a97	-0.5524077
56	0xbeceee78	-0.40416312
57	0xbd3979b1	-0.04528207
58	0xbf797d1b	-0.9745652
59	0xbfbd4fed	-1.4790016
60	0xbf3e7a88	-0.7440572
61	0xbf2cd094	-0.67505765
62	0xbf97ac19	-1.1849395
63	0xbfefffaf	-1.8749903
64	0xbfb9b595	-1.450854
65	0xbfa27cd1	-1.2694341
66	0xbfc503a8	-1.5391741
67	0xbfa127da	-1.2590287
68	0xbec650da	-0.3873356
69	0xc002a87a	-2.041533
70	0xbe915d10	-0.28391314
71	0xc004c8c4	-2.0747538
72	0xbd63582b	-0.055504005
73	0xbf6fe3fe	-0.93707263
74	0xc017ac44	-2.3698893
75	0xbf902f23	-1.1264385
76	0xbf86e3e6	-1.0538299
77	0xbff1a404	-1.8878179
78	0xbff14397	-1.8848752
79	0xbfec9596	-1.848315
80	0xbf6a581d	-0.915407
81	0xbf595eda	-0.84910357
82	0xbfc89a09	-1.5672008
83	0xbe2e7dbd	-0.17040153
84	0xbefd29a5	-0.49445835
85	0xbf83117f	-1.0239714
86	0xc059174f	-3.3920476
87	0xbff94abe	-1.9475935
88	0xbfb7d90c	-1.4363112
89	0xbde2673b	-0.11054846
90	0xbf562f15	-0.8366559
91	0xbfcb2c96	-1.5872982
92	0xbf915343	-1.1353534
93	0xbf76a3c6	-0.9634365
94	0xbeb13add	-0.34615222
95	0xbfc4437e	-1.5333097
96	0xbeb6f80c	-0.3573612
97	0xbf3d6c41	-0.7399331
98	0xbf8390d8	-1.0278578
99	0xbf1429ce	-0.5787629
100	0xbf324c62	-0.696478
101	0xbeb44e91	-0.3521619
102	0xbf85d0bd	-1.0454327
103	0xbf6f7d04	-0.93550134
104	0xbf422913	-0.75843924
105	0xbf9bd39c	-1.2173953
106	0xbf4f6f49	-0.8102918
107	0xbf83cc78	-1.0296774
108	0xbfa762e1	-1.307705
109	0xbf84f7d0	-1.0388126
110	0xbf9a85d2	-1.2072089
111	0xb937f4b1	-0.00017543395
112	0xbf50cf5f	-0.81566423
113	0xbf2c4655	-0.6729482
114	0xc004546c	-2.0676527
115	0xbd625820	-0.055259824
116	0xbfc3cc7a	-1.5296776
117	0xbf94e2d7	-1.1631726
118	0xbfd7f562	-1.687176
119	0xbf85c253	-1.0449928
120	0xbf97a07c	-1.1845851
121	0xbf9b093f	-1.2112197
122	0xbfaffba1	-1.3748666
123	0xbf4f9019	-0.8107925
124	0xbef2fe80	-0.47459793
125	0xbe485694	-0.19564277
126	0xc00ec823	-2.2309654
127	0xbf23a19c	-0.6391847

advantage_stream.2.weight f4 [3, 128]
0	0x3fdfb92f	1.7478389
1	0x3f55f889	0.8358236
2	0xc00b120f	-2.1729772
3	0xbfe8fdfd	-1.8202511
4	0x3f784a81	0.96988684
5	0xc01839d8	-2.3785305
6	0xbf965381	-1.1744233
7	0xbefa5b53	-0.488978
8	0xbfa34b71	-1.2757398
9	0xbfba88eb	-1.4573034
10	0xbf58be1f	-0.846651
11	0x401a51f6	2.4112525
12	0x3fb94298	1.4473448
13	0x3f825fc9	1.0185481
14	0x3f1fa445	0.6236003
15	0x40136a03	2.3033454
16	0x3d8dff40	0.06933451
17	0xc02e81a3	-2.7266624
18	0x401eb349	2.4796927
19	0xbfd7a950	-1.6848545
20	0x3f0c30ac	0.5476177
21	0xc02dfb9d	-2.7184823
22	0xc02f5837	-2.7397592
23	0xc002f1cd	-2.0460083
24	0xbd47b575	-0.048757035
25	0xc01b5979	-2.427336
26	0xbffe7511	-1.9879476
27	0xbf1a21a1	-0.60207564
28	0x404b6e21	3.1785967
29	0xbf9fed5e	-1.2494314
30	0xbff28124	-1.894566
31	0xbdac26eb	-0.084058605
32	0x40131ea0	2.2987442
33	0x3e67e85e	0.22647235
34	0x3f779fff	0.9672851
35	0x3e8ca45c	0.27469146
36	0xc00670c6	-2.1006331
37	0xbee409a2	-0.445386
38	0xbfc8526a	-1.5650151
39	0xbf58f822	-0.8475362
40	0x3fd2c614	1.6466699
41	0xbf91e092	-1.1396658
42	0x3d9137c4	0.070907146
43	0x3f6fbb31	0.93645006
44	0xc029bb66	-2.652063
45	0x3f0e17aa	0.5550486
46	0xc07a9629	-3.915415
47	0xbfacffe6	-1.3515594
48	0xbfc6a705	-1.551972
49	0xbf721c4d	-0.94574434
50	0x3f7e37eb	0.99304074
51	0xbfb2dbf0	-1.397337
52	0xbfda86cb	-1.7072386
53	0xc007564c	-2.1146421
54	0xbf5e4af4	-0.8683312
55	0xc0486ce7	-3.1316469
56	0xc00c0ddc	-2.188346
57	0xbe395cdd	-0.18101831
58	0x407c6b6b	3.9440563
59	0xbfd5c52a	-1.6700795
60	0x3f023e8d	0.50876695
61	0x3fb2534c	1.393167
62	0x40097b65	2.1481564
63	0xbf6c1405	-0.9221805
64	0x3fedfc31	1.8592588
65	0x3e9239eb	0.28559813
66	0x3fe0e6ae	1.7570398
67	0xc00ba613	-2.1820114
68	0x401304e0	2.2971725
69	0xbfb7e076	-1.4365375
70	0x3f41860c	0.75595164
71	0x3e9959e6	0.299514
72	0xbe6a9208	-0.22907269
73	0x3ef0db34	0.4704224
74	0x3f96bf33	1.1777099
75	0x3fa93d5a	1.3221848
76	0x3f88ba9d	1.068195
77	0x4019ba86	2.4020095
78	0x3c7ad436	0.015309384
79	0x4005f86e	2.093288
80	0x402c398a	2.691012
81	0x3f895d4b	1.0731596
82	0xc04518e3	-3.079644
83	0x3cdc26c7	0.02687396
84	0x3f84cd4d	1.0375153
85	0xbee2450a	-0.44193298
86	0x3f82a4cf	1.0206546
87	0xbf261bad	-0.6488598
88	0x3f90f4c6	1.1324699
89	0x3e101ca2	0.14073423
90	0x3ffb89e5	1.9651457
91	0x4010d8a7	2.2632234
92	0xbf671c21	-0.90277296
93	0x3e83cf5f	0.2574415
94	0x3e97439a	0.29543763
95	0x3fba1dd9	1.4540359
96	0xc0503fc3	-3.2538917
97	0xc0198d30	-2.3992424
98	0x3f4c5693	0.798196
99	0x3f8a72b0	1.081625
100	0x3f62bd44	0.88570046
101	0xbbba9889	-0.005694453
102	0xbfcabe59	-1.583934
103	0x3f7e286b	0.9928042
104	0xc0056a6e	-2.084621
105	0x4022de49	2.5448172
106	0xc020b283	-2.5108955
107	0xbf71a806	-0.9439701
108	0xbfe061c3	-1.7529835
109	0x3f590969	0.84779984
110	0xc00ad75b	-2.1693943
111	0xbd99ae7f	-0.075039856
112	0x3e881cb6	0.26584405
113	0x4062e77c	3.5453787
114	0x3f695949	0.91151863
115	0x3ff25046	1.8930748
116	0x3f40bc4c	0.7528732
117	0xbff59021	-1.918461
118	0xbf416682	-0.7554704
119	0x3f24db7d	0.6439741
120	0xc017fc9b	-2.3747928
121	0x403c99fa	2.946898
122	0xc00a6508	-2.1624165
123	0x3f13aa2f	0.57681555
124	0x3c20e0e4	0.009819243
125	0xc060589c	-3.5054083
126	0x3e603f88	0.21899235
127	0x3fe9c9fc	1.8264766
128	0xbf7aa976	-0.97914827
129	0xbfcf1418	-1.6178007
130	0x4011fbff	2.2810056
131	0x402afa80	2.6715393
132	0xc063a7c1	-3.557114
133	0x3f71286f	0.9420232
134	0x3f95a068	1.1689577
135	0xc007e46d	-2.123317
136	0x402dbadf	2.7145307
137	0x3fbb69ee	1.4641702
138	0xc032ac26	-2.791757
139	0xbf9623a4	-1.1729627
140	0x3ff4513d	1.9087292
141	0xbf4ab6dd	-0.7918528
142	0xbfe2b507	-1.7711495
143	0x3f35a378	0.7095256
144	0x3d6f5350	0.058429062
145	0x3fe26245	1.768624
146	0xbfb53d0a	-1.4159253
147	0xbf2359ea	-0.6380907
148	0x3ee8f823	0.45501813
149	0x401957e3	2.3959892
150	0x40097348	2.1476612
151	0x3fa7a503	1.3097233
152	0xbef33404	-0.47500622
153	0x3ffa53d8	1.9556837
154	0x3fb87389	1.4410259
155	0xbfce8ddd	-1.6137043
156	0xbfcd7f8b	-1.6054548
157	0x4010cbcd	2.262439
158	0x3fca6667	1.5812501
159	0x3c9d7088	0.019218698
160	0xc06f8687	-3.742586
161	0xc005bb6f	-2.089565
162	0x3f82d42a	1.0220997
163	0xbfa1f7f9	-1.26538
164	0x3ed85514	0.4225241
165	0x40128ca6	2.2898345
166	0x3f0f412b	0.55958813
167	0x3f815c88	1.0106363
168	0xc062d056	-3.5439658
169	0x3f84bf57	1.0370892
170	0x3d198751	0.037482563
171	0x3f833772	1.0251296
172	0xbf09b3c4	-0.53789926
173	0xbfda2a34	-1.7044129
174	0x3f998fe2	1.1997035
175	0x3fab79e9	1.3396579
176	0x4022bdf5	2.542844
177	0x3fb67648	1.4254847
178	0x3e90882b	0.28228888
179	0xbf970175	-1.179732
180	0x3f1a16e9	0.6019121
181	0x3f580819	0.84387356
182	0xbff98850	-1.9494724
183	0x40550b84	3.3288279
184	0x407f0082	3.984406
185	0x3ea53527	0.32267115
186	0xc07428fc	-3.8150015
187	0x3fff9e5c	1.9970202
188	0xbfbc7de0	-1.4725914
189	0xc02673eb	-2.600825
190	0xc0607a09	-3.5074484
191	0x400b803c	2.1797018
192	0xc082ab69	-4.083424
193	0x407bffba	3.9374833
194	0xbecd8b30	-0.40145254
195	0x3fadf320	1.3589821
196	0xbf302c56	-0.6881765
197	0x3fb3bcaf	1.4041957
198	0xc012e696	-2.2953238
199	0xc00cff88	-2.2030964
200	0x3f0172c7	0.5056576
201	0x3f3a8b31	0.7286864
202	0xbf30ce64	-0.6906493
203	0x3eb73e28	0.3578961
204	0xbe4b44cd	-0.19850464
205	0xc003cd9d	-2.0594246
206	0xbf82515f	-1.0181082
207	0xbf588554	-0.8457844
208	0xc022cdc1	-2.5438082
209	0xbfda0e1b	-1.7035555
210	0x3f3eaa64	0.74478745
211	0x3d4e01b4	0.050294593
212	0xbe956b66	-0.291835
213	0xbfb069fc	-1.3782344
214	0xc02f1e6e	-2.7362323
215	0x3ef0827c	0.46974552
216	0xbf94ca16	-1.1624172
217	0xbd01aa4b	-0.031656545
218	0xbf2f1fe7	-0.68408054
219	0x3f3d2139	0.7387882
220	0x3d8d6843	0.06904652
221	0x3fedaf14	1.8569055
222	0x3f93907b	1.1528467
223	0xbf856298	-1.0420713
224	0x405b0003	3.4218757
225	0x40071c8f	2.111118
226	0xbff258d4	-1.8933358
227	0xc03934fb	-2.8938587
228	0x3f099382	0.53740704
229	0xbd443cb2	-0.047909446
230	0x3f8ee178	1.1162558
231	0xbfcaef59	-1.5854293
232	0x3f0529bb	0.520168
233	0x3f0389f7	0.5138239
234	0x3f881818	1.0632353
235	0xbfbc22bb	-1.4698099
236	0xbf253910	-0.64540195
237	0xc0276818	-2.6157284
238	0x3f30a464	0.6900084
239	0x3ed0c2a8	0.4077351
240	0x3fd1874d	1.6369416
241	0xbecdead9	-0.40218237
242	0xc00df4bb	-2.2180622
243	0xc0718e25	-3.7743008
244	0xbf5cf5d7	-0.8631262
245	0x3f89478a	1.0724957
246	0x400075e9	2.0071967
247	0xc05722a0	-3.3614883
248	0x3ff93cb6	1.9471653
249	0xbf647333	-0.8923828
250	0x3f9fbd70	1.2479687
251	0x3f848c29	1.0355273
252	0x3e066de4	0.13127857
253	0x406c8317	3.695501
254	0xbfa51805	-1.2897955
255	0xc04b66d6	-3.1781516

advantage_stream.2.bias f4 [3]
0	0x4078e35c	3.888877
1	0x40c782a4	6.2346973
2	0x408861ac	4.261923
