checkpoints/enhanced_dqn/checkpoint_ep200.pth (torch, 687002 bytes, 33 tensors)

layer1.weight f4 [150, 20]
000000 3a ec 92 be a2 6a da bf 21 1e 3d 3d 6e 75 9b bc
       -0.28695852 -1.7063792 0.04617131 -0.018976893
000010 24 5e bb 3e df 2b 15 c0 53 0e da bc 73 70 83 3e
       0.3659526 -2.3308027 -0.026618158 0.2567173
000020 48 92 91 bf 21 c0 1f c0 43 0b fc 3e 52 73 15 be
       -1.1372766 -2.4961016 0.49227342 -0.14594772
000030 9e 17 18 c0 5b 32 a3 bd da 23 30 3d b4 3e ed be
       -2.3764415 -0.07968589 0.04300294 -0.463369
000040 ab c7 93 3e 29 f6 8d bf d8 ca 8a c0 ce a1 57 c0
       0.28863272 -1.1090747 -4.337261 -3.3692508
000050 b8 25 54 c0 09 c9 2d c0 a4 db a0 3e 87 94 22 bf
       -3.3148022 -2.7153952 0.31417572 -0.63507885
000060 4a 91 09 c0 8a 13 5b bf c7 d7 11 bf b7 42 42 c0
       -2.1494927 -0.8557669 -0.56969875 -3.035322
000070 e3 44 68 40 3d f3 49 c0 fe c7 83 be 7c 25 39 c0
       3.6292045 -3.155471 -0.2573852 -2.8929129
000080 ed 2b 5e c0 16 f6 3b 3f b6 5a 33 3f e4 66 b9 3e
       -3.471431 0.7342237 0.7006029 0.36211312
000090 cd 76 8a 3e 92 85 58 bf cd 1c e7 bd 35 b5 f1 c0
       0.27043763 -0.8457881 -0.1128479 -7.55337
0000a0 b3 fd 0f 41 b5 c5 97 3d 68 80 ac 3e ea 69 af 3f
       8.999438 0.074107565 0.33691716 1.3704197
0000b0 3d 1e 0d 41 0b 15 0b 41 4d 74 7e 40 0c 85 b5 40
       8.819882 8.692637 3.9758484 5.672491
0000c0 ac a7 d9 40 c5 d6 cf 3f 3b 21 03 3e 0a ad 86 be
       6.8017178 1.6237417 0.12805645 -0.26303893
0000d0 b0 68 3e bf 2b e6 1b c1 64 49 f1 bf 3e 14 08 c0
       -0.7437849 -9.743693 -1.8850522 -2.1262355
0000e0 0a 89 eb 3e 08 6f f9 bf 9c c5 d2 3f 0b 7a b5 bf
       0.4600299 -1.9487009 1.6466556 -1.417787
0000f0 ca 50 fd bd 26 31 d3 c0 a4 56 2c 40 a5 cc 68 3f
       -0.12368925 -6.5997496 2.6927881 0.9093726
000100 82 db 1f bf 07 6c 4e c0 c0 a0 f0 bf 4b 20 ed 3f
       -0.6244432 -3.2253435 -1.8799057 1.852548
000110 c5 60 58 c0 8a 69 3f c0 8e 3c be bf f8 65 ba be
       -3.3809063 -2.9908166 -1.486223 -0.3640592
000120 b5 1c 46 c0 de 27 7b c0 25 a2 52 bf 71 7d cc 3e
       -3.0955021 -3.9243083 -0.8227866 0.39939454
000130 d2 e3 72 40 25 49 3a c0 f8 80 c0 3f ad 35 11 c0
       3.795155 -2.9107144 1.5039358 -2.268901
000140 80 24 bd bf a3 3a 84 41 4c 0b 68 c0 92 7e 05 bf
       -1.4776764 16.528631 -3.6256895 -0.52146256
000150 33 66 2f 40 eb aa 19 41 ae f0 b4 bf 7b 37 bf 3f
       2.7406127 9.604228 -1.413595 1.4938806
000160 be de cc 3f 5a 2b 0a bf f5 03 74 3f d1 b5 44 bf
       1.6005476 -0.539724 0.9531854 -0.7683993
000170 40 f5 be c0 26 f7 89 40 dc 9b db 3d b6 8b 6f 3f
       -5.9674377 4.3114195 0.10723087 0.93572557
000180 42 92 3a 3d 32 f8 49 3e d3 4d 8a bf a5 41 5c 40
       0.04554964 0.19723585 -1.0805 3.4415066
000190 b8 12 15 c0 3b e7 90 be ed 1c eb bf 47 22 03 40
       -2.3292675 -0.28301415 -1.8368202 2.0489671
0001a0 63 de 20 c1 1a 5c 7b c1 fc ce 05 c1 7d 47 cc c0
       -10.054294 -15.709986 -8.363033 -6.3837266
0001b0 e3 a0 83 3f 8f 54 c7 c0 3a 27 aa bf 37 39 7f bf
       1.0283474 -6.229072 -1.3293221 -0.9969668
0001c0 06 ee 9b 40 cb 94 83 40 ae df 92 3f 2d 1f 34 40
       4.8728056 4.111913 1.1474512 2.8144028
0001d0 06 2f a3 c0 cd d0 68 bf 66 1a c6 c0 74 f0 c8 3f
       -5.09949 -0.90943605 -6.1907225 1.569838
0001e0 91 05 66 c0 75 79 75 3f 2e 6c 63 bd 9e 20 88 3f
       -3.5940897 0.95888454 -0.05552309 1.0634954
0001f0 88 db 1b 3f ba 29 fa 3e 32 fb 4c 3d 97 c5 02 be
       0.60881853 0.4885996 0.050044246 -0.12770687
000200 b3 2e 88 c0 be d9 03 c0 45 af 97 bf 86 8b aa bf
       -4.2557006 -2.060165 -1.1850363 -1.3323829
000210 2e 8c 30 40 27 84 cc c0 52 ab 92 bf ba 48 73 bf
       2.758556 -6.391132 -1.1458533 -0.95032847
000220 c4 ca 09 40 49 1c be be dd d1 c3 3f c9 09 b0 bf
       2.1530008 -0.37130955 1.529842 -1.3752986
000230 d8 4f c4 bf 43 40 5e c1 71 6d 45 bf 5f 46 13 be
       -1.5336866 -13.890689 -0.7712012 -0.14382313
000240 2b e1 bf c0 c0 c4 42 c1 cf 19 93 be cb 3d 2c c0
       -5.9962363 -12.173035 -0.28730628 -2.6912715
000250 5b 54 c1 bf 9d d3 65 c0 af 2a 80 be 15 2c d9 bd
       -1.5103868 -3.5910408 -0.25032565 -0.10604111
000260 92 3a a7 3e 20 76 a3 3f d0 cd 33 be ed 03 20 bf
       0.32661873 1.2770424 -0.1755898 -0.6250599
000270 b6 11 8b bf 44 5d c6 bf 16 f1 d8 3f d1 79 e1 c1
       -1.086478 -1.5497212 1.6948574 -28.18448
000280 67 a6 6c 40 09 a3 1d 40 01 ef 5e 3f 47 8e b4 3f
       3.6976564 2.4630759 0.8708344 1.410592
000290 71 86 5a 40 0b 82 21 40 29 7b be 3f d9 eb 1d 3f
       3.4144557 2.5235622 1.4881335 0.61688
0002a0 61 7c b1 3d 39 83 f2 be d6 f1 14 3f d2 f0 08 3f
       0.086663015 -0.4736574 0.5818151 0.5349246
0002b0 b5 4d 83 bf cc ae 37 40 22 99 73 3f 66 61 51 3f
       -1.0258089 2.8700438 0.9515554 0.81789243
0002c0 fb e4 5c 3f 5f fa 10 3e ec 4a d0 bf e1 2f d6 bf
       0.86286896 0.14158009 -1.6272864 -1.6733361
0002d0 a1 4a e9 bf b5 5a d3 c0 46 8e 6f 3d f9 bf 7a 3d
       -1.82259 -6.6048226 0.058485292 0.061218236
0002e0 fb 44 86 bf ff e9 77 40 fd 16 b4 bf b8 7c a5 be
       -1.0489801 3.873657 -1.4069515 -0.32321715
0002f0 ad e8 6b 40 69 62 51 40 24 55 b6 3f 61 fb c8 bf
       3.6860764 3.2716315 1.4244733 -1.5701715
000300 c2 15 7b c0 0b 1c 7e 3f 51 f5 1e bf 53 ae bf be
       -3.923203 0.9926154 -0.62093073 -0.37437686
000310 34 80 62 bf 00 84 ee 3e 87 6c e6 be d6 b6 8b 3d
       -0.8847687 0.46585083 -0.45004675 0.068219826
000320 cd 7e 30 40 98 3a 60 40 dc f8 af 3e 5a f9 ef 3e
       2.7577393 3.5035763 0.34369552 0.46869928
000330 df a8 f4 3f 62 1e 01 c1 8d 53 3e 40 a9 28 1c 40
       1.9114035 -8.069918 2.9738495 2.4399817
000340 e8 0c 0a c0 60 f3 60 c0 6e 2e 22 bf 4b 80 ab bf
       -2.1570377 -3.5148544 -0.63352096 -1.3398527
000350 49 39 95 c0 78 da e3 c0 be d8 4c bf fb df 1c c0
       -4.663243 -7.1204185 -0.8001822 -2.4511707
000360 70 d8 51 40 0d 01 96 bf a2 24 3c c1 14 c6 20 bd
       3.2788353 -1.1719071 -11.758944 -0.039251402
000370 24 03 61 bf 67 49 3b c0 97 e2 98 3f ea e5 bc 3f
       -0.8789542 -2.9263551 1.194415 1.4757664
000380 6e 89 f8 bf f2 81 d5 bf d8 36 8f 3d 18 65 b9 bc
       -1.941694 -1.6680281 0.069928825 -0.022631213
000390 c8 1d 0c 3e 95 fc 5a c0 f1 fb 92 3f 72 2c 35 3f
       0.13683236 -3.4216664 1.1483136 0.70770943
0003a0 95 50 ab bf 2a 59 8e 3f d0 c2 8a 3f 19 1d b0 3e
       -1.3383967 1.1120961 1.0840702 0.343972
0003b0 f6 fb 9a 3f 92 3d 4a 40 e8 16 c7 bf 75 3c 83 c0
       1.2108142 3.160008 -1.5553865 -4.10113
0003c0 37 0a 03 c1 29 06 63 c1 68 85 3b 3f 91 98 a3 bf
       -8.189994 -14.189004 0.73250437 -1.2780935
0003d0 59 bb 02 c1 79 99 8a c1 ea 45 5b 3f db 34 c7 3f
       -8.170739 -17.324938 0.85653555 1.5563005
0003e0 be 85 9a 3e 6d 1e b6 c0 b3 2f 28 40 ad cb dc bf
       0.30180162 -5.691214 2.6279113 -1.7249657
0003f0 8d e1 fc c0 7a e3 5e c1 6f dc 19 3e 9e a3 34 bf
       -7.902533 -13.930536 0.15025495 -0.7056216

layer1.bias f4 [150]
000000 0a e6 39 41 c0 37 08 c0 1d 86 7c bf 0b 3b 0b 40
       11.618662 -2.1284027 -0.9864214 2.1754787
000010 f4 66 cc bf 31 ba 12 40 cc 04 93 40 c2 60 a6 c0
       -1.5968919 2.2926142 4.5943356 -5.1993113
000020 37 2b f7 40 45 e8 3a c0 f9 c8 71 40 c3 7c 85 40
       7.7240252 -2.9204266 3.7778914 4.1714797
000030 34 af f4 bf 45 0d 9f c0 b3 7e 83 bf ed ab 18 40
       -1.9115968 -4.97037 -1.027304 2.3854935
000040 a0 91 10 3f 37 d4 21 40 24 43 ad be 75 3e 07 c0
       0.56472206 2.5285776 -0.33840287 -2.113187
000050 65 fb 56 3c b5 82 33 3a 2b 22 9b bf 5e 78 8e 3e
       0.013121461 0.0006847785 -1.2119802 0.27826208
000060 c8 0f 19 40 6c b8 2a 40 e2 4b 45 40 76 e6 86 40
       2.3915882 2.6675062 3.0827565 4.2156324
000070 47 58 90 40 88 0f fa 40 be dd 86 40 d9 8c ec 3f
       4.510776 7.814396 4.214568 1.8480483
000080 91 2d 30 c1 d2 5d 3a c0 f4 08 98 3e 7b 25 87 3d
       -11.011125 -2.9119763 0.2969433 0.06598946
000090 dc 8c 7f 40 81 89 6a bf 20 70 f8 3e c1 4c cd bf
       3.9929724 -0.91616064 0.48523045 -1.6039048
0000a0 eb b8 db 3f f2 3a 03 c0 b0 72 77 40 2d fe 84 bf
       1.7165807 -2.0504727 3.866375 -1.0390068
0000b0 d7 28 17 41 96 28 59 3e 31 32 af be d5 2c bc 40
       9.447471 0.21206889 -0.3421798 5.8804727
0000c0 92 a7 8e c0 48 7e f0 bf 68 30 b8 3f 73 47 d1 be
       -4.4579554 -1.8788538 1.4389772 -0.40874824
0000d0 6d 14 3b 3f 9a 38 b4 3f 2e 7c 16 bf 15 39 9b 40
       0.7307804 1.4079773 -0.58783233 4.850718
0000e0 2d 39 9d 40 ea 0d b1 be 95 40 fe be 8a 0d 1f c1
       4.9132295 -0.34580928 -0.49658647 -9.940805
0000f0 05 61 17 c0 3c f9 1e 3e 0e cc 4b 40 be 46 30 40
       -2.3652966 0.15524763 3.1843295 2.7543178
000100 72 d2 c2 40 18 cb 4a bf 63 3f 41 c0 52 14 06 c0
       6.088189 -0.79216146 -3.0194938 -2.0949903
000110 71 df b7 c0 10 99 45 40 ef 39 b8 40 3a 42 c8 c0
       -5.7460256 3.0874672 5.757072 -6.2580843
000120 1b 9e 36 c0 b7 5a 81 3f b7 85 63 3f 18 04 3c c0
       -2.8534 1.0105809 0.8887591 -2.9377499
000130 af d1 c0 40 42 df c6 40 2b f3 f8 bf f2 a1 7f 40
       6.025596 6.214753 -1.9449209 3.9942594
000140 7b af 33 c0 05 91 8f c0 4d 89 cc 3f 53 62 0b 40
       -2.8075855 -4.4864526 1.5979401 2.1778762
000150 aa eb d2 3f 5d e3 ee bf 09 8e ce bf a9 bc 6f 40
       1.6478169 -1.8663136 -1.6137096 3.74589
000160 47 43 ea bd fe 80 a5 bf 27 e9 10 41 5c 6d f3 3f
       -0.114386134 -1.292999 9.056922 1.9017749
000170 9e 1f 20 c1 7f 02 e2 3e d6 ef 0a be 16 e8 dc be
       -10.007719 0.4414253 -0.13568053 -0.43145818
000180 a4 f8 1b c0 25 e6 f8 be 32 64 1e 41 3a 45 fc bf
       -2.4370508 -0.48613086 9.899462 -1.9708626
000190 0b c6 bd 40 8f d8 91 c0 42 aa 0b c0 fc f6 d1 bd
       5.930425 -4.5576854 -2.1822667 -0.10252187
0001a0 73 60 17 bf 3d 4d c2 3f fa 4f d2 be 3d a5 03 bf
       -0.59131545 1.5179821 -0.41076642 -0.5142401
0001b0 f4 53 0b 40 35 ae 49 40 d0 3d 6e bf 4c 89 0d bf
       2.176999 3.1512578 -0.9306307 -0.55287623
0001c0 2a 65 64 be 0c ec a6 bd 9c c4 26 c0 90 39 d3 bf
       -0.22304216 -0.08150491 -2.60575 -1.6501942
0001d0 74 9d 97 c0 69 04 06 c1 8b 9d 6e 40 06 76 97 40
       -4.7379704 -8.376077 3.7283657 4.733157
0001e0 30 22 23 c0 3b 4c 0c bf 83 15 95 40 48 c8 96 40
       -2.5489616 -0.5480382 4.658876 4.7119484
0001f0 31 7e 81 bf 08 66 3c 3f 59 5b 2e be 1d 08 dd bf
       -1.0116636 0.7359319 -0.17027034 -1.7268101
000200 24 ef 0a bf b5 69 62 40 7a 71 54 40 14 65 ab c0
       -0.5427115 3.5377018 3.319426 -5.3560886
000210 4f 9b 1c 40 9c 35 82 bf 2e 3f 2e c1 a5 f8 17 40
       2.4469793 -1.017261 -10.890425 2.374551
000220 00 58 c9 40 64 0f 10 c0 8d a2 33 40 88 05 c3 3f
       6.291992 -2.2509394 2.8067963 1.5236063
000230 44 00 1f c0 b1 f8 0d 40 63 cb ae c0 ab f5 45 bf
       -2.4843912 2.218304 -5.4623275 -0.77327985
000240 5e 60 b6 40 5a 00 20 3f 8e fb a4 40 5f ff 75 3d
       5.6992636 0.62500536 5.1557074 0.060057994
000250 b6 a7 ff 3e 44 0f 1b bf
       0.4993264 -0.6057017

layer2.weight f4 [128, 150]
000000 94 c0 18 3f e9 ff 85 3e 36 58 66 c0 9b c3 9a bd
       0.5966885 0.26171806 -3.599134 -0.0755684
000010 13 28 01 bf 51 68 e1 3d 3e 0c 02 3f 91 d9 34 bf
       -0.50451773 0.11006225 0.5079993 -0.7064448
000020 fe c0 46 bf 99 92 12 3d a9 cb 30 c0 45 f5 f7 3d
       -0.7763823 0.035784338 -2.7624304 0.12107328
000030 c9 d2 6f 3e 9d 6f 5a 3f 31 f6 18 be 85 b7 60 bd
       0.23420252 0.8532656 -0.14937665 -0.054862518
000040 da af 9d 3d 35 ff 2a bf d4 f1 05 3d f4 e4 99 be
       0.07699557 -0.66795665 0.03270133 -0.3005749
000050 0d b3 2b bf b5 d9 04 c0 a3 b9 45 3f 47 76 b0 3f
       -0.67070085 -2.0757878 0.77236384 1.3786095
000060 1f a7 19 3e cb d3 8f 3d 16 63 a1 bf b0 4b 8a bf
       0.15005158 0.07022818 -1.2608364 -1.0804348
000070 18 b0 ee bf b1 14 cb 3e 2a e4 00 c0 ee 9e 08 c0
       -1.864749 0.39664224 -2.013926 -2.1347003
000080 db 63 76 3f c7 25 4a bf 9b ea 93 bf b2 d6 a6 3f
       0.9624612 -0.78963894 -1.1555971 1.303427
000090 84 ce be 3e e2 58 38 be ef 8c 9b be bf f3 24 bf
       0.37266934 -0.18002656 -0.3038096 -0.6443443
0000a0 60 69 d3 3e a5 fa 62 3f c7 5b 40 be 85 fa 0f bf
       0.41291332 0.88663703 -0.1878501 -0.5624164
0000b0 bc d6 be 3e f4 f9 57 bf 33 ff 34 3e 67 b8 94 bf
       0.37273204 -0.84365773 0.17675476 -1.1618775
0000c0 32 39 e0 bf 3f b6 cb 3f 43 26 a1 3e 8a 95 f4 be
       -1.7517455 1.5914992 0.31474504 -0.4777034
0000d0 ff 30 46 bf 20 5e ac be 0c d5 97 bf 14 4c a8 be
       -0.7741851 -0.33665562 -1.1861892 -0.32870543
0000e0 e7 25 a3 be 81 84 61 c0 5b 12 1f 3e f4 4f 7b bf
       -0.31864855 -3.5237124 0.15534346 -0.98168874
0000f0 71 92 7a bd ca c0 5d 3f b8 4a 61 3f 5d c0 a9 bf
       -0.061174814 0.866223 0.88004637 -1.326183
000100 67 a1 a0 be 2f bd 8a bf 3e 76 5b 3e 21 d6 4d bf
       -0.3137314 -1.0838984 0.21431825 -0.8040486
000110 e9 3c 23 3f 03 f0 a0 be f8 09 31 bf 13 93 05 c0
       0.63764817 -0.31433114 -0.69155836 -2.0871017
000120 52 97 6a 3e 34 61 14 3e 5b 3d 8f bf f3 f0 5f bf
       0.22909287 0.14490205 -1.1190599 -0.87477034
000130 49 3f 19 c0 e6 4d 59 bf 60 cd 35 be a0 40 86 bf
       -2.3944876 -0.8488449 -0.17754126 -1.0488472
000140 b5 48 74 be 9d 38 86 bf 59 9d a2 be 52 6a d5 3e
       -0.2385586 -1.0486027 -0.31760672 0.41682678
000150 3c 5b 0c bf f8 3f ce be b4 5c 5b 3f 8e 2d 67 3f
       -0.5482671 -0.4028318 0.8568833 0.90303886
000160 83 2c d4 be ac 6e 21 3f c6 8c ce 3f 8c 1a b7 3f
       -0.4144021 0.63059497 1.6136711 1.4304976
000170 4a c8 81 bd 16 49 b3 bf 2a a6 d0 bf fe 7b f4 be
       -0.0633703 -1.4006679 -1.6300709 -0.4775085
000180 96 c2 e5 bf 1e a9 99 bf 3f 35 67 bf 30 e3 09 3e
       -1.7950008 -1.2004735 -0.9031562 0.13465571
000190 53 e3 4e bf 22 b0 9b bf 56 1b 88 be 9f 64 b4 3d
       -0.8081562 -1.2163126 -0.26583356 0.088082545
0001a0 16 3e 5a bf d4 08 ef bd bc db 25 bf e5 8c 0b bf
       -0.85250986 -0.11671606 -0.64788413 -0.54511863
0001b0 42 9b 29 3f fd 66 de be fb ae c0 be 9e 37 e8 be
       0.6625253 -0.4343795 -0.376335 -0.45354933
0001c0 31 72 2f 3d 1a 2d af 3f de fe 2b c0 01 8f 68 3f
       0.04283351 1.3685639 -2.6874309 0.90843207
0001d0 00 d7 23 bf 03 bd a4 bf f4 0f d6 be 0c 91 ae bf
       -0.6399994 -1.2870182 -0.41809046 -1.3638015
0001e0 45 b0 7a 3e 16 0d 02 3f a3 53 63 bf dc b2 94 bf
       0.24481304 0.5080122 -0.88799495 -1.1617084
0001f0 5e 9a 52 3e af ba 91 bf d6 91 90 3d 66 cc 0e be
       0.20566699 -1.1385096 0.07059066 -0.1394516
000200 d3 87 45 bf 62 a2 5c bf 9b 47 c7 bf 08 9f c6 bf
       -0.77160376 -0.86185277 -1.5568727 -1.5517282
000210 74 ea ad 3f bf e3 97 be df 0a 36 3f 76 01 b0 bf
       1.3587174 -0.29665944 0.7111034 -1.3750446
000220 ba 0c 1b 3e 45 a9 70 bc ac 73 72 3d 35 84 5d bf
       0.15141574 -0.0146887945 0.059192345 -0.86529857
000230 47 58 cd be 55 94 f7 be 5c e2 df 3f 66 f9 e7 bf
       -0.40106413 -0.48355356 1.7490954 -1.8122985
000240 1c e8 2c 3f 3c cd 53 bf cb b9 b0 bf e3 31 9a 3e
       0.6754167 -0.8273504 -1.38067 0.30116186
000250 49 a9 d7 3e 47 c2 6f bf 11 db a6 be 05 26 88 3d
       0.42121342 -0.9365582 -0.3258901 0.06647877
000260 5e 96 0e 3e df 16 32 c0 f4 31 b8 bb 55 0e 42 bf
       0.13924548 -2.782646 -0.0056211893 -0.7580312
000270 17 82 fd bf f6 ba d7 bf c0 82 74 bf 6e 82 5b bf
       -1.9805325 -1.6853931 -0.9551201 -0.85745895
000280 cb df b4 bf 20 47 9f 3f 0a 5b 82 bf 32 5a c0 bf
       -1.4130796 1.2443581 -1.0184033 -1.5027525
000290 3c a7 13 bf ff 60 7b 3e fd 23 9c bf 18 2e 56 c0
       -0.57677054 0.2454872 -1.2198483 -3.3465633
0002a0 d7 58 68 3d 64 43 a2 3f 81 c8 3e bf 15 ef b1 3f
       0.05672535 1.2676816 -0.74524695 1.3901087
0002b0 03 a6 20 3f f9 f9 19 c0 ce b3 c0 3e 22 af 2d c0
       0.62753314 -2.4058821 0.3763718 -2.7138143
0002c0 a4 63 f3 be 98 52 75 3e f7 92 f0 bf c2 cb 6a 3f
       -0.47536957 0.23957288 -1.879485 0.9171716
0002d0 dc 07 d6 3e 86 53 e2 bf 23 f1 f0 bf c7 a8 80 bf
       0.4180287 -1.7681739 -1.8823589 -1.0051507
0002e0 39 de f8 be 18 3f aa be 0a e1 a8 bf d8 1a 21 3f
       -0.48607042 -0.33251262 -1.3193676 0.62931585
0002f0 1e 2a 9b 3c 1f 11 29 3f d5 16 87 3d 29 9d cd bf
       0.018940981 0.6604175 0.06596152 -1.6063586
000300 92 66 14 bf 5e 70 a0 3f 81 18 de 3f a6 eb b8 bf
       -0.5796901 1.2534292 1.7351228 -1.4446914
000310 9c 55 e1 be 31 07 c2 be 3d 18 f6 3f 26 16 c8 be
       -0.44010627 -0.37896112 1.9226147 -0.39079398
000320 e3 ac 3a c0 05 a6 c7 3e 6c 0a b4 c0 cc 50 6a 3e
       -2.9168022 0.3899385 -5.626272 0.22882384
000330 55 0c 66 c0 66 73 fe 3e e4 ec 60 bc 4f 23 bb 3f
       -3.5945027 0.49697417 -0.013728354 1.462015
000340 db e2 bc bf 1f 54 f1 bf 2a 4a 25 3f b4 6c 33 3d
       -1.4756731 -1.8853797 0.6456629 0.04380484
000350 1a 0b 7f 3f 8b 2a 98 bf 80 c9 80 bf 53 5e c9 be
       0.99626315 -1.1887983 -1.0061493 -0.39329776
000360 5d f3 5c bf 61 86 72 c0 81 c9 9d 3f df 03 df 3e
       -0.8630884 -3.7894518 1.2327119 0.4355764
000370 73 cc 01 bf 3c e0 a1 bf b7 42 7e 40 dc 6e 19 3f
       -0.5070259 -1.2646556 3.972822 0.59934783
000380 5f 0a 0a c0 d9 97 22 3f 47 0b 41 bf 08 a2 f1 bd
       -2.156883 0.6351295 -0.7540783 -0.11798483
000390 56 d6 a7 3d ea 63 ca bf 55 73 4b c0 51 67 56 bf
       0.08195178 -1.5811741 -3.1789143 -0.837514
0003a0 25 3b c6 be cb 98 dd 3e 18 f6 81 3f d7 a1 11 be
       -0.38717 0.43280634 1.0153227 -0.14221893
0003b0 fa 65 0a c0 a4 b0 30 3f b7 dc a9 3f 02 c3 7d bf
       -2.1624742 0.6901953 1.3270482 -0.99125683
0003c0 cb 07 04 3f 31 3e 89 3e 57 75 8f bf 5c c7 0f c0
       0.5157439 0.2680526 -1.1207684 -2.246543
0003d0 70 11 1c 40 de 20 ce 3e 39 83 43 c0 d9 3a 07 3f
       2.4385643 0.4025945 -3.0548842 0.5282417
0003e0 f9 81 14 bf 00 3e c2 bf 9a 96 d6 bf 23 9b a5 bf
       -0.5801082 -1.5175171 -1.676471 -1.2937969
0003f0 ab ec 3d be ed 92 c5 3e db f1 c3 bf 9d 61 1b c0
       -0.18547313 0.38588658 -1.5308183 -2.4278328

layer2.bias f4 [128]
000000 d4 2a e5 be bc de af be e9 07 82 be fc b9 8b bf
       -0.44759238 -0.3434962 -0.2539666 -1.0916133
000010 d6 79 a6 be d7 76 ad bd 87 b1 9a 3e dc 3e 0b 3f
       -0.32514828 -0.084699325 0.30213568 0.5439279
000020 f7 93 8e bd b7 62 ba be ff 22 94 3e 8d 0c 49 bf
       -0.06961816 -0.36403438 0.2893295 -0.78534776
000030 f7 1a 06 3f 51 e0 06 bf 61 5e d2 bd 0e 05 a8 bd
       0.52384895 -0.5268603 -0.102719076 -0.08204089
000040 23 71 72 be e6 63 07 3d fa e5 9e 3f 82 8c e5 be
       -0.2367597 0.033054255 1.2413933 -0.4483376
000050 b7 32 76 3e 73 d5 d3 bc 68 1e b9 bf d7 c5 0f bc
       0.24042784 -0.025858616 -1.4462404 -0.008775196
000060 0c d8 b6 bf 7a 41 22 be 0a 35 43 bd 5d e3 04 be
       -1.4284682 -0.1584529 -0.047658004 -0.12977357
000070 a2 ce 43 3f c9 c4 ff bd 37 95 08 3f 6d 8a 3c 3e
       0.7648717 -0.12488706 0.53352684 0.1841218
000080 96 98 8a 3f 27 cd 2b 3f 7b 4c 7e 3f 5d 89 56 3f
       1.0827816 0.6710991 0.9933545 0.8380335
000090 cb 07 f2 3e 06 05 2d be f4 7d 8a 3d 58 aa 1c 3d
       0.4727157 -0.16896448 0.06762305 0.03824839
0000a0 01 44 c2 bd 7c d7 4c bf bc c1 7b be 2c c6 06 3f
       -0.09485627 -0.80016303 -0.24585623 0.52646136
0000b0 20 20 44 c0 08 84 ce be fb 9e c0 3f 92 ef 25 bd
       -3.0644608 -0.40335107 1.5048517 -0.040511675
0000c0 e0 7d fe 3d bf 25 a4 3f 98 f8 1e be f0 65 8d bd
       0.124263525 1.2824019 -0.15524518 -0.06904209
0000d0 5e 96 66 3e 5d d5 b4 3c 40 33 b9 bf f3 2f be bc
       0.22518298 0.022074396 -1.4468765 -0.023216223
0000e0 97 06 f5 bd 77 97 b4 bf ac 52 10 be 23 30 ac bc
       -0.119641475 -1.4108723 -0.14094037 -0.021019047
0000f0 10 7f 9f be ae 4d b3 c0 ee d7 51 bb e5 e0 a8 be
       -0.31151628 -5.6032324 -0.0032019573 -0.3298408
000100 20 68 60 3f b3 aa ef bd 91 ce 3c be 6d cb 35 3d
       0.8765888 -0.1170248 -0.18438174 0.044383455
000110 ed c5 82 3c b8 97 64 3f 39 07 d6 3c 8a 3d 3c bc
       0.015963519 0.89294004 0.02612649 -0.011489281
000120 ae ef 29 bf d2 e7 73 3d f4 78 78 bd 4e e2 98 3f
       -0.6638135 0.059547253 -0.060662225 1.1944063
000130 30 c9 b7 be be 89 d7 bd 3e 20 d8 3d c6 52 05 c0
       -0.3589568 -0.10524319 0.10553025 -2.083177
000140 57 87 53 bd fe 27 e9 be a5 4b f7 3b 7c 4d f7 bf
       -0.051642742 -0.45538324 0.0075468593 -1.9320521
000150 05 95 3a 3e 4e 9b d6 bd fe 41 d4 3d 8f 27 c2 bc
       0.18220909 -0.10478841 0.103641495 -0.023700504
000160 c1 42 cc 3e 14 65 d9 be bc 2f 80 3f 11 c7 2c be
       0.3989468 -0.4245993 1.0014567 -0.16872813
000170 87 44 1b c0 16 de 0f be 55 47 b8 3c 84 c4 10 c0
       -2.4260576 -0.14049563 0.022494951 -2.2619944
000180 d9 40 87 3d e1 a1 13 bf 22 53 a8 3c 50 ef ce bc
       0.066041656 -0.5766888 0.020547453 -0.025260597
000190 da 06 ec 3b db 84 3c bf 63 2c 72 3f 89 85 75 3d
       0.007202965 -0.7364022 0.9459898 0.059941802
0001a0 2f 05 7a 3e d8 e2 96 3f 87 08 81 be ff 41 11 bf
       0.2441604 1.1787977 -0.25201818 -0.5674133
0001b0 35 af 0a bf da bc 17 3f fb 42 0f 3e 77 8b cf bd
       -0.54173595 0.5927254 0.13990395 -0.10134023
0001c0 32 4b 4f bd d7 8f d9 bd 3f ba 8c 3e 91 e9 b8 bd
       -0.05060882 -0.106231384 0.27485844 -0.09028924
0001d0 38 f8 cb be 86 17 6d 3d a8 63 ed be a0 00 03 be
       -0.39837813 0.05788376 -0.46365094 -0.12793207
0001e0 9e 38 2b c0 d3 2c c8 3f a1 3a cd bd af 2f 99 3d
       -2.6753306 1.5638679 -0.10020948 0.07479798
0001f0 87 1e 3d bf b5 fc eb bd 0f 12 50 be 47 4f 1f 3f
       -0.73874706 -0.115228094 -0.20319389 0.6223034

value_stream.0.weight f4 [128, 128]
000000 08 30 b4 bd 06 96 30 bd 33 b0 5d bc d2 53 0a 3d
       -0.08798224 -0.043111823 -0.013530779 0.033771344
000010 41 41 6c bc d5 30 59 3d 5f 31 51 3d 96 ac f9 3c
       -0.014419855 0.053025085 0.051072475 0.030477803
000020 78 35 82 bd 70 bd 13 bc 6f 29 39 bc 9b 7a d8 bd
       -0.063578546 -0.009017333 -0.011301382 -0.1057026
000030 b9 a1 4f 3d 19 cf f4 bc 3a 8b 34 bd 34 b1 42 bd
       0.05069134 -0.029883908 -0.04407809 -0.047532275
000040 8c e1 8f 3d 46 8b bd bd 87 96 01 bd 93 7b 4c bd
       0.070254415 -0.0925508 -0.031637695 -0.049922537
000050 7f d3 20 3d 92 6a 08 bd 9c 0e 9d bd 70 6b da 3c
       0.0392642 -0.03330476 -0.07668802 0.026662558
000060 e7 d1 c9 ba 08 a2 45 bd a8 12 af bd 44 33 78 bd
       -0.0015397639 -0.04825023 -0.0854848 -0.060595766
000070 5a 24 91 bd af cb df bd 45 e9 54 bd ec 5a bb bd
       -0.07087012 -0.109275214 -0.051980276 -0.09148201
000080 0a 83 f1 bd 9c 86 b6 bc 72 76 3d bd 40 2d 89 be
       -0.11792572 -0.022280984 -0.046255536 -0.26792336
000090 28 6f 35 bd f2 d9 fd 3c 41 e6 b1 3c 83 57 04 bd
       -0.04429546 0.030987713 0.021716239 -0.03231002
0000a0 6b 69 9e 3c b6 1a 96 bd ee 52 d3 bd 26 94 a0 bd
       0.019337377 -0.073293135 -0.10318552 -0.07840757
0000b0 87 e8 e1 bd 71 0b 0f bd dc 53 f4 bc 25 49 ac 3c
       -0.11030679 -0.03492302 -0.029825144 0.021030972
0000c0 6a 52 b4 bc bf 16 25 be 96 50 7e bd 6b 9c 16 bc
       -0.022011954 -0.16121958 -0.06208857 -0.009192566
0000d0 86 65 2b 3c 5a fa 98 3d 96 e5 8c bd 37 bf e0 bc
       0.010461217 0.07469626 -0.068797275 -0.027434928
0000e0 72 4e a3 3c bd ae bd bb 3a b1 aa bd 5d 92 43 3d
       0.019934867 -0.0057886527 -0.083345845 0.047747005
0000f0 c1 10 1f bb b7 f0 4c bd 98 16 2c bb 8e 27 09 be
       -0.002427146 -0.05003425 -0.0026258584 -0.13393995
000100 96 2c 24 bc ad f8 98 bd 2a b7 05 be 93 23 c2 bc
       -0.010020396 -0.07469306 -0.13058153 -0.023698604
000110 49 5f 63 bd c2 48 b1 bd 1a 9e 0a be ad 29 60 bb
       -0.055510793 -0.086564556 -0.13536873 -0.0034204528
000120 91 82 52 be b4 9a 11 bc 82 58 c4 bd 3c 1c 82 bd
       -0.2055762 -0.008886982 -0.09587194 -0.063530415
000130 7c 70 09 bc 22 a4 a9 bd fe 27 99 bc 9a b9 33 be
       -0.008388635 -0.08283259 -0.018695828 -0.1755127
000140 98 f5 64 3d 66 c6 9e bd fb fc b7 bd 4c a4 90 bc
       0.05589828 -0.07752685 -0.08983799 -0.017656468
000150 fa 70 bd bb fa 66 1d 3d 7e b0 c4 bd 31 cf 96 bc
       -0.00578129 0.038428284 -0.09603976 -0.018409343
000160 b4 80 be bd b1 26 1b bd d0 e8 3b bd 0b fc 4d bc
       -0.09301892 -0.037878696 -0.045876324 -0.012572299
000170 68 a1 85 bd 4b 4e c3 3c c8 99 0f bd 01 a7 03 bc
       -0.065249264 0.023841044 -0.035058767 -0.008035422
000180 2d db 9e bc 70 9b b5 bd af 26 79 3d 1a 67 75 3c
       -0.01939162 -0.08867538 0.060827907 0.014978195
000190 89 3a fb 3c 6e 03 8d bd 21 43 5c bd d9 b4 55 bd
       0.03066756 -0.0688542 -0.053774957 -0.052174423
0001a0 b1 5a de 3c 9d d1 8f bc c8 ff 3d 3b 37 ef 4e 3d
       0.027142854 -0.017556006 0.0028991569 0.0505211
0001b0 62 db 11 be 8b d3 08 bd 6f 39 b3 3c 43 ae 3c 3d
       -0.14243844 -0.033404868 0.021877972 0.046064626
0001c0 6a 4b 99 bd a3 33 aa bd 16 b2 b4 3c 44 21 5e bb
       -0.07485087 -0.0831063 0.022057574 -0.003389434
0001d0 98 38 fa bd 73 2e 82 3d 64 a0 52 bc d1 79 6d bb
       -0.12217826 0.06356516 -0.012855623 -0.0036235938
0001e0 94 60 9e bc 65 ae a9 bc cc 58 ce 3c a6 83 4e bd
       -0.019333161 -0.02071304 0.025188826 -0.05041852
0001f0 f7 1a 8b bd 9a 06 47 3d fe 94 c1 bd 32 fd 00 3b
       -0.067922525 0.04859028 -0.09452246 0.0019682166
000200 14 da a5 be 8d d7 43 bd a8 8d ba 3d 79 48 d1 be
       -0.32392943 -0.047812987 0.0910905 -0.40875605
000210 f5 59 0e bd 82 87 74 3d da 76 27 3e 82 3d e8 3d
       -0.03475376 0.059699543 0.16353932 0.11339857
000220 a4 cc 19 3e 48 dc 22 bf 67 21 22 bf 2c cd c3 be
       0.1501947 -0.6361737 -0.6333222 -0.3824247
000230 b9 a5 c0 3d 80 10 ad bd 44 cd 5e 3e 38 25 96 bd
       0.09406609 -0.08450413 0.2175799 -0.07331318
000240 90 10 8c 3a 7f 90 aa bc 85 6c 3c be 27 67 72 be
       0.0010686088 -0.020820854 -0.18400772 -0.23672162
000250 ee 01 e2 3e ad 8d 91 3e ab 08 aa 3e 8f e7 a2 3e
       0.44142097 0.28428403 0.33209738 0.3181729
000260 37 be 97 3c c0 a9 0a 3f f2 1a 9d bf 5a 63 9e bd
       0.018523319 0.5416527 -1.2273848 -0.077337936
000270 2f 8e 15 bf a4 34 bb 3e b0 84 30 3e de 9f d8 be
       -0.5842008 0.365636 0.17238116 -0.4230947
000280 09 e1 92 bc 00 c3 79 be 6d 96 a7 3a 64 29 ec 3c
       -0.01792957 -0.24390793 0.0012785919 0.02882833
000290 a2 19 87 be 41 ab 7f 3d 81 ff b6 bd e8 16 83 be
       -0.26386744 0.06241918 -0.08935452 -0.25603414
0002a0 01 88 9f 3d 12 67 c1 3d a7 64 89 bf 16 a7 38 c0
       0.077896126 0.09443487 -1.0733842 -2.885198
0002b0 27 d0 16 3f 6d e8 7c 3d e6 e3 9a 3c b0 73 45 3d
       0.58911365 0.061745096 0.018907499 0.04820603
0002c0 f1 a0 b1 3e 5f 9b 09 bd 18 52 84 3d b7 d8 03 3e
       0.346931 -0.03359544 0.06460971 0.12875639
0002d0 43 0f 12 bf 77 81 60 3d 5b 88 eb be 55 b3 8f 3e
       -0.5705454 0.054810967 -0.46002468 0.28066507
0002e0 25 38 69 3b 65 46 0e bf 16 cd 75 bf ae 31 88 bd
       0.0035586443 -0.55576164 -0.9601606 -0.06650101
0002f0 5b d8 90 3e e6 4d ef bf 87 ff d9 bc 55 4f b3 be
       0.28290066 -1.8695648 -0.026611103 -0.35021463
000300 c9 35 1e bf ab 74 96 3d d8 e2 85 3e 63 21 19 bd
       -0.6180082 0.073464714 0.2614963 -0.037385356
000310 96 fb 11 bd aa 69 d6 be b5 18 e9 be 7c dc d7 be
       -0.03564032 -0.4187749 -0.45526662 -0.42160404
000320 18 50 36 bf 46 0e 48 3e bb 7c 8b 3d 52 05 a5 be
       -0.71215963 0.19536695 0.068109 -0.32230622
000330 17 8d e9 bd 9a 61 89 bd 2c f6 96 3e a1 4f 0b bf
       -0.11403864 -0.06708069 0.2948469 -0.5441838
000340 fe 4d aa 3e 2c b9 51 bf 89 64 ba 3c af d9 28 bf
       0.33262628 -0.81923175 0.022753017 -0.6595716
000350 0a 8b ab 3d 02 18 c4 3c 8b a5 38 3d 3d 6d 85 3d
       0.08376129 0.023937229 0.04507975 0.06514976
000360 4f e4 19 bf ce 2f 55 bf 97 61 fb be 60 74 72 3e
       -0.60113996 -0.8327607 -0.49097893 0.23677206
000370 04 83 bd 3e a1 b0 9c 3d 22 87 08 3e 85 7a 00 bf
       0.3701402 0.07650877 0.13332799 -0.5018695
000380 62 fb 10 3f 69 12 28 be 8d 1c b4 3c 7c 05 8c 3d
       0.5663358 -0.16413273 0.02198627 0.068369836
000390 89 1a 13 3d d7 99 56 3e 9a 1f 0f bf 0d 5c ad 3e
       0.035913978 0.20957123 -0.55907595 0.33859292
0003a0 e8 27 fb bd f6 e0 21 be 6b 43 84 3c c2 a7 16 bf
       -0.12263471 -0.15808472 0.016145429 -0.5884973
0003b0 30 27 c5 be cb 37 1e bf cd d1 3d 3e 41 12 f4 bc
       -0.3850646 -0.61803883 0.18537064 -0.02979386
0003c0 2e 1e 4c 3d 05 ff 3e bb ee e4 18 3e 4d d6 a3 be
       0.04983347 -0.0029143703 0.1493108 -0.31999436
0003d0 de 26 3d bf 47 32 71 3e 60 b9 dc bd 17 04 e3 bb
       -0.7388743 0.23554336 -0.10777545 -0.006927978
0003e0 75 6e 5a be cb 52 0d bc 46 df d3 bc 5e 8c 75 be
       -0.21331199 -0.008625696 -0.025863301 -0.23979327
0003f0 33 a5 ad be a2 de 90 3d ed 45 2e bf 1b 57 01 bf
       -0.339151 0.07073714 -0.6807545 -0.5052354

value_stream.0.bias f4 [128]
000000 f1 5c 8e be 7c 9c 62 bb 54 82 1f 41 8f 5e 4b c0
       -0.27805284 -0.0034578135 9.969318 -3.1776464
000010 0d 36 fb bd 4c 7b ba bf 58 19 b2 40 cd 88 d2 bf
       -0.12266169 -1.4568877 5.5655937 -1.6447998
000020 46 a3 71 be bd fa e2 be 87 57 f7 40 b7 17 b6 be
       -0.2359744 -0.44331923 7.7294345 -0.35564968
000030 a7 5b 12 41 27 5f 72 c1 2b da 45 c0 7e 69 d2 be
       9.147376 -15.148231 -3.091441 -0.4109611
000040 03 84 e7 c0 7d 41 52 41 23 5e 80 40 d3 82 27 be
       -7.2348647 13.140988 4.0114913 -0.16358499
000050 f3 5b 72 41 b8 9e 86 41 d2 7d 4c bf 19 89 8e bf
       15.147449 16.8275 -0.79879487 -1.1135589
000060 5e 8b 48 41 89 b3 31 bf fb ad 6b 40 6b 86 5a 41
       12.534025 -0.69414574 3.682494 13.657817
000070 29 8b 2b 41 ab ef ad 40 89 1e 9e c0 90 ff 11 c0
       10.721475 5.4355063 -4.9412274 -2.2812233
000080 aa 32 16 41 ea a6 46 bf c6 20 b7 c0 1c ee 98 bf
       9.387369 -0.7759844 -5.7227507 -1.1947665
000090 e9 62 c7 bf 7b 04 f7 be 07 ad b0 41 9e b9 66 40
       -1.557706 -0.48245606 22.084486 3.6050792
0000a0 42 6c 34 c0 3e 95 8f 40 e4 5a 08 bf a5 eb eb ba
       -2.8191075 4.486968 -0.5326369 -0.0017999305
0000b0 2a 49 4a 41 8c a4 8d be 88 9c 81 41 60 93 a3 be
       12.642862 -0.27664602 16.201431 -0.31948376
0000c0 f8 c8 6d 41 dc 8f cb 40 57 4e 09 41 32 87 8f bf
       14.861565 6.361311 8.581626 -1.1213133
0000d0 07 3a c1 be fa 6e 82 be 9f 8d 88 be 99 8e 44 3f
       -0.37739584 -0.25475293 -0.26670548 0.76780087
0000e0 c8 f4 b2 40 14 cf 98 bd 12 79 33 be 9d 5c a1 c0
       5.5923805 -0.07461372 -0.17526653 -5.0425553
0000f0 1e 18 15 c0 6d 38 a9 bf e4 ab c0 be 42 c9 06 41
       -2.329597 -1.3220345 -0.37631142 8.424135
000100 22 c8 75 41 24 98 37 be 48 74 14 c0 b9 5c 05 41
       15.361361 -0.17929131 -2.3195972 8.335137
000110 b6 6f 3e be 23 e3 a0 40 19 0d cb 40 8a e0 d1 bd
       -0.18597302 5.0277267 6.345349 -0.102479056
000120 a3 94 e7 40 44 e2 07 c0 4b b7 0d bf 85 3e 01 41
       7.236894 -2.1231852 -0.5535781 8.077764
000130 8e 6a 56 bf 36 ce 58 c0 a6 55 1e 40 bd cc b9 c0
       -0.8375634 -3.387586 2.4739776 -5.8062425
000140 89 d4 29 be 54 54 e2 40 a9 3d fb be 78 ac 3b be
       -0.16584982 7.072794 -0.4907048 -0.1832751
000150 21 23 d4 be ad 57 0c bf 10 f1 76 41 a8 fd 81 bd
       -0.4143305 -0.5482128 15.433853 -0.06347209
000160 3c de 75 be 4d f0 a7 be 7a 3c 65 41 01 4a 13 bd
       -0.24010557 -0.32800522 14.327265 -0.035959247
000170 59 23 1b be 62 96 e5 c0 04 e8 12 bd 62 15 bc 3f
       -0.15150203 -7.1746073 -0.0358658 1.4694026
000180 1e a5 9b be 20 03 50 bf a8 c1 1c c0 04 74 24 bf
       -0.30399412 -0.8125477 -2.4493198 -0.64239526
000190 f2 6f 04 c1 9a 67 24 41 77 df 9b bf e1 ba 41 c0
       -8.27733 10.275293 -1.2177571 -3.0270312
0001a0 2a f8 5c 40 2f 26 da 3f c9 8e 42 bf a1 21 93 c0
       3.4526467 1.7042903 -0.7599912 -4.597855
0001b0 65 db 0a 41 fd 5c ae bc 2a ee 2e be 47 61 af bd
       8.678563 -0.021284575 -0.1708304 -0.08563476
0001c0 84 98 08 41 60 63 96 40 40 1f a6 bf 4f f8 26 41
       8.537235 4.6996307 -1.2978287 10.435622
0001d0 26 4e 79 41 bc be 51 c1 31 8b 74 41 d7 ee a6 bc
       15.581579 -13.109066 15.283982 -0.02037756
0001e0 02 93 3f 41 bd 6c ed 40 65 de 30 c1 ad 08 f6 bf
       11.973391 7.4195237 -11.054296 -1.9221398
0001f0 68 86 a7 40 dd b5 3b c1 cc d4 01 be 07 bb 0b c0
       5.235157 -11.7319 -0.12678832 -2.1832902

value_stream.2.weight f4 [1, 128]
000000 48 2d b1 3c 8f 0c b2 c0 24 37 4d 41 de 62 05 3f
       0.021628037 -5.564033 12.825962 0.52103984
000010 0a 60 db bf 4c 6d 85 c0 06 18 6e c1 f7 87 de bf
       -1.7138684 -4.169592 -14.880865 -1.7385243
000020 5a ee 2c 3d 79 a7 ad be 88 3c 26 41 13 dc 92 bf
       0.042219497 -0.33916834 10.389778 -1.1473411
000030 1a c6 2f c0 ed 66 88 c0 2c 67 64 be d3 54 47 c0
       -2.7464662 -4.262564 -0.22304982 -3.1145523
000040 f1 78 bd c0 f3 68 9e 40 f8 62 ad 40 2c ce 86 40
       -5.9210134 4.950311 5.418331 4.2126675
000050 ef dd 99 40 2b 94 aa c1 f8 0c 95 40 41 15 ed 3f
       4.8083415 -21.322348 4.657833 1.8522111
000060 d3 09 a9 40 c9 ca bc be 8a 04 11 41 4b d2 2e 41
       5.2824492 -0.36873463 9.063608 10.926341
000070 97 3c bf 40 e1 27 42 41 51 5b 34 3f 89 0c c4 bc
       5.976146 12.134736 0.7045184 -0.023931758
000080 17 9b 17 41 3b 16 a7 3f 0f 96 1a c0 04 f1 44 c0
       9.475364 1.3053659 -2.4154088 -3.0772104
000090 38 4a 88 c0 27 09 0b 3d 74 c3 ab c1 01 65 3f c1
       -4.25906 0.033944275 -21.470436 -11.962159
0000a0 2d 19 72 3c fe be b2 c0 35 a1 96 c0 aa c9 c8 c0
       0.01477651 -5.5858145 -4.7071786 -6.274617
0000b0 a1 56 09 41 8d 24 49 bf e5 a0 46 41 8a f6 28 bd
       8.58365 -0.785714 12.414281 -0.041250743
0000c0 e3 36 92 40 dc e5 0c c1 5c 45 88 3f 98 1d ec bf
       4.5692 -8.806118 1.0646167 -1.8446531
0000d0 ec 1e f6 3f 6f c2 3d 3b 1e 01 df bb d3 8c 0b c0
       1.9228187 0.0028955003 -0.006805553 -2.1804702
0000e0 33 09 5a c1 92 55 01 40 1a 0a f1 3d 38 2b 06 40
       -13.627246 2.0208478 0.11769505 2.0963879
0000f0 62 00 7b 3f 9d 19 8f c0 2a 85 7b 3c 5b 94 88 c1
       0.9804746 -4.4718766 0.015351573 -17.07244
000100 e9 2a 0f 41 30 19 21 3a 3f 84 5c c0 cf 6b 61 40
       8.947976 0.0006145416 -3.4455717 3.522205
000110 d9 36 8b 3b 84 84 30 c1 e4 93 11 41 e9 24 84 c0
       0.0042484817 -11.032352 9.098606 -4.1295056
000120 3f eb 40 c1 5c 1f 05 3d 58 6f 5b c0 a5 55 a1 c0
       -12.057433 0.03250061 -3.428671 -5.0417047
000130 c6 b3 6e 40 35 38 2c c0 7a 07 de c0 e2 d5 7d be
       3.7297225 -2.6909306 -6.9384127 -0.24788621
000140 ec e1 1a 3d dc d3 81 c0 ab d0 0d bf 3f f3 ac bb
       0.037813112 -4.0571117 -0.5539653 -0.0052780206
000150 99 7d 15 bf 38 01 fb bd ae 98 a2 c1 22 fb 6f c0
       -0.5839477 -0.12256092 -20.32455 -3.749703
000160 54 50 14 bf 84 9a 3f c0 62 fb e3 c1 b3 a7 6c c0
       -0.5793507 -2.993806 -28.497746 -3.6977355
000170 77 30 07 c0 29 50 54 40 64 38 40 c0 eb 8b d3 40
       -2.112333 3.3173926 -3.0034418 6.61083
000180 7a a2 4e 3d ba 3d 87 40 80 aa 09 40 2d 04 55 c0
       0.05044792 4.226285 2.1510315 -3.3283799
000190 ff 45 8c bf ed 5c 32 40 91 99 7a c0 33 11 48 3d
       -1.0958861 2.7869217 -3.915623 0.048844527
0001a0 0d ba 76 c1 8e bd 74 bf 64 34 b9 be c8 0b 43 bf
       -15.420423 -0.9560174 -0.36172783 -0.7618985
0001b0 0c 20 98 3e 04 89 01 c1 69 dd 69 bb 05 60 72 c0
       0.2971195 -8.095951 -0.003568495 -3.7871106
0001c0 1a 5f 3e 41 72 29 bb bf 6b ff 0b be c0 52 81 41
       11.898218 -1.4622023 -0.13671653 16.165405
0001d0 5b e2 f4 40 f9 28 d9 c0 24 24 94 c1 ea 4b 0a c0
       7.6526313 -6.7862515 -18.517647 -2.1608834
0001e0 1f 97 5d 41 11 22 80 c0 2e 4d d4 c0 c2 bc df bf
       13.849395 -4.0041585 -6.6344213 -1.7479479
0001f0 c1 5e 3f c0 90 22 96 3f 93 da 73 c0 b0 dc 18 3e
       -2.9901583 1.1729298 -3.8102157 0.14927936

advantage_stream.0.weight f4 [128, 128]
000000 ce 94 02 3e 99 53 85 bf 21 ac e8 bd b5 57 b9 be
       0.12752077 -1.0416137 -0.11360956 -0.36199728
000010 96 d8 97 bd 2d e7 7b 3d 57 51 48 3d 53 70 5f bd
       -0.07414357 0.061499763 0.048905697 -0.05455048
000020 3e 1a 1d bd f0 3b bd be 94 56 36 bf 04 5b fe be
       -0.038355105 -0.3695979 -0.7122586 -0.49678814
000030 c3 69 de bc 0f db 8a be c3 cd 2d bb e9 fe ad bd
       -0.02715004 -0.27120253 -0.0026520349 -0.08495886
000040 12 b2 6e be 0a 8a 9d bd cd 81 26 bf 82 18 80 3d
       -0.23310116 -0.076923445 -0.6504181 0.062546745
000050 d7 40 e2 bd ab 9c 86 3d 92 b1 c1 bc 86 e0 b5 bc
       -0.110475235 0.06572851 -0.023644242 -0.022201788
000060 9e 06 d1 bd af 86 c4 bb ba f5 a1 bf fd e6 3c 3c
       -0.1020634 -0.005997501 -1.2653115 0.011529681
000070 44 2c 07 bd 8b ad 0d bd 0e 5f d2 3b 5d f1 e2 bd
       -0.0330012 -0.03458933 0.006420023 -0.11081193
000080 57 11 04 bf ba db 10 be 77 70 32 be aa 94 d3 bf
       -0.5158896 -0.14146319 -0.17425714 -1.6529744
000090 8d db 92 be 91 3d 47 bd d6 80 bd 3d 22 61 09 bf
       -0.2868313 -0.0486427 0.09253089 -0.5366384
0000a0 d0 8f 5e 3d fb c1 10 bf af 7f db 3d 0a 2e bf bf
       0.05433637 -0.5654599 0.10717713 -1.4935925
0000b0 ae 5f 7c bf 13 6d 69 bd bd c1 d9 3d ee ab a9 bd
       -0.98583496 -0.056988787 0.10632656 -0.08284746
0000c0 44 bc ab bd 0a 2e 00 3f e4 0b 89 3d df 69 03 3d
       -0.08385518 0.5007025 0.06691721 0.03208339
0000d0 94 ed 0f 3d fe 63 58 bd 6c c3 98 bd cb e0 43 3d
       0.03513868 -0.052829735 -0.07459149 0.0478218
0000e0 0e 8d 2f 3d 7a cd 59 bc 05 75 b4 bf 13 c8 a1 bc
       0.04285913 -0.013293618 -1.4098212 -0.019748723
0000f0 64 62 da bb dc 88 9d bf a4 c6 85 3d 3e 2c c0 be
       -0.006664561 -1.2307391 0.06532028 -0.37533754
000100 6f 29 37 bf 59 9e 52 3d 83 a3 0f 3d db 20 79 bf
       -0.715476 0.051420543 0.035068046 -0.9731576
000110 71 d8 3f bd 5e 89 d5 bf f3 f9 9c be bd 53 db bd
       -0.046837274 -1.6682546 -0.30659446 -0.10709331
000120 fe 1e 0f 3e 0c e4 91 3d d8 76 02 bd 5f 4c 3f bf
       0.13976666 0.071235746 -0.03185162 -0.7472591
000130 8a 5b c3 3a ea 46 88 bd 8f 13 a8 bc ad 99 86 be
       0.00149046 -0.06654151 -0.020517139 -0.2628912
000140 fa d1 25 3c 70 d6 62 3e 3b 35 8a 3d 14 38 ca be
       0.010120863 0.22152114 0.06748434 -0.3949591
000150 de f7 3f bd 4c 1b 79 3d b0 29 11 bf 9b c6 30 3e
       -0.046867244 0.060817048 -0.56704235 0.17263262
000160 47 57 16 3c 12 2c 26 3d 0f f4 ef 3e 19 b3 97 bd
       0.009176082 0.040569372 0.4686589 -0.07407207
000170 b1 96 7d be ef ba c0 bc d0 08 f9 bf e8 1b 5c 3e
       -0.24764515 -0.023526637 -1.9455814 0.2149502
000180 b3 d1 8b 3b 05 a7 71 3e b5 84 2e bd cc 16 98 bc
       0.0042669415 0.23598869 -0.042607028 -0.018565558
000190 42 84 3c 3d 4d f9 65 3c 6e 95 df 3d d4 84 80 bd
       0.04602457 0.014036489 0.10917173 -0.06275335
0001a0 06 e9 85 bc 0e 11 20 bf 2f a1 a1 be c0 63 15 be
       -0.016346466 -0.62526023 -0.31568286 -0.14588833
0001b0 6a 93 03 bc 5e c9 6a 3e 69 9e d0 be f8 da 85 3c
       -0.008030752 0.22928378 -0.40745857 0.016339764
0001c0 19 bc d5 bc a8 68 5c 3d 28 1e ea bd 5b 35 cd 3e
       -0.026090669 0.053810745 -0.11431533 0.4007977
0001d0 6c 2a 9d 3e 1c 2f 6d 3b 86 a8 35 3e 5c e8 36 bc
       0.30696428 0.003619141 0.17740068 -0.011163797
0001e0 85 44 92 3e 50 29 ed be 2a 2a 87 bd b1 a0 4b bf
       0.285679 -0.4632058 -0.06599839 -0.7954207
0001f0 dd 76 ea bd cf 02 30 bd 26 6e 49 bd d0 11 81 be
       -0.114484526 -0.04297143 -0.04917731 -0.25208902
000200 b7 bb dd be 9c f1 9c be 90 7c e2 bc d0 4d be bc
       -0.43307278 -0.30653083 -0.027647287 -0.023230463
000210 ed 11 61 bd ad 29 b9 3c 7a 5a 15 3e 8c 40 71 3f
       -0.054948736 0.02260288 0.14585295 0.94239116
000220 ae 5d d4 be 9a 16 90 3d 53 4e a2 3d e5 51 4c bf
       -0.41477722 0.07035561 0.079250954 -0.7981246
000230 9a 89 d1 3e 9e d8 ab be 7f b6 37 bd 89 f6 02 bc
       0.40925294 -0.33563703 -0.044851776 -0.007993349
000240 f6 40 9d bf ad 28 8c 3d 99 8c b2 bf 47 e0 da bc
       -1.228545 0.06843696 -1.3949157 -0.026718272
000250 2f c0 9c bd b6 db 76 bc 42 76 18 be 9c 2a 14 3e
       -0.076538436 -0.015067032 -0.14888862 0.14469379
000260 24 33 71 be 58 33 1e bf f2 9f b0 bf 2a d0 86 bd
       -0.23554665 -0.61797094 -1.3798811 -0.06582673
000270 43 91 e0 bd 2f 70 c1 3d 9f 31 84 bd c8 70 15 bd
       -0.109652065 0.094452254 -0.06454777 -0.03648451
000280 8e 42 3a 3e 0d 6e c1 bf da 57 91 be c8 fe 81 bf
       0.18189451 -1.511171 -0.28387338 -1.0155878
000290 83 0e 3d 3e c1 b0 57 bd 42 dd 99 bf 25 30 c6 be
       0.18462567 -0.0526588 -1.2020648 -0.38708606
0002a0 8a cf 9c bd ee c9 f3 3d fb 6c c2 3e c3 e5 a4 bf
       -0.076567724 0.119037494 0.3797377 -1.2882618
0002b0 51 39 a8 bf 4d 7e fb bd 12 a0 27 bf 78 42 35 3d
       -1.3142492 -0.12279949 -0.6547862 0.044252843
0002c0 10 51 fd bc 92 34 8b bf d7 8a 76 bc b9 aa 04 bf
       -0.030922443 -1.0875418 -0.01504775 -0.51823
0002d0 54 2b 10 3f f9 68 ab 3b 41 b6 13 3d f7 da aa 3a
       0.56316113 0.0052310196 0.036062483 0.0013035227
0002e0 da ec 41 bd ba 08 01 3e b8 21 01 bf 2c 50 05 bc
       -0.04734502 0.12600985 -0.50442076 -0.00813679
0002f0 42 c1 ff bd 41 90 f6 bc 26 6d 8b 3d 34 e6 92 3e
       -0.12488033 -0.030098082 0.06807928 0.28691256
000300 9c 4f dd be b7 4f 8c 3d a9 bf 81 3f 7b 1e 88 3e
       -0.432248 0.06851142 1.0136615 0.26585755
000310 53 b6 56 3c be 34 98 3d d1 6f d9 3e 9f 8c ff bc
       0.013104993 0.07431935 0.42468122 -0.031194983
000320 13 ba ce 3e e7 d0 36 3d 8f 12 f7 3c 71 f5 4c bf
       0.40376338 0.04463282 0.030160217 -0.80062014
000330 5f c1 b5 bc 56 11 00 3d 2c 10 6d 3d 5b 59 12 be
       -0.022186933 0.031266533 0.05787675 -0.14291899
000340 83 d9 85 bd 41 f1 cc be c0 ac b8 3c 6a e3 f9 3e
       -0.06535628 -0.40027812 0.022543311 0.48806316
000350 aa 5e fe bc 24 bb 93 bd 4d 71 c2 3e 52 b4 60 bf
       -0.031050999 -0.072134286 0.37977067 -0.87775147
000360 ea e7 b5 3d 37 23 ae bd bb ac d4 3e c4 50 57 bd
       0.08882125 -0.085028104 0.41538033 -0.05256726
000370 99 88 eb be 32 51 29 3c 0b c8 f2 bf 60 94 92 be
       -0.46002653 0.0103343 -1.8967298 -0.28628826
000380 b4 5a 85 bd e0 37 27 3f bf 1e 77 3c 96 0d 08 3c
       -0.06511441 0.65319633 0.015083014 0.00830402
000390 1e ad 72 bd a2 e5 8a bf 6b 55 37 bf de e6 20 bd
       -0.05924713 -1.0851328 -0.7161471 -0.039282672
0003a0 24 48 18 3e dc d6 63 be ab d2 6a bf e4 bb 77 3d
       0.1487127 -0.22249931 -0.91727704 0.06048192
0003b0 8b 0e 69 be 56 49 00 bf e7 a5 a7 bf b5 93 11 3d
       -0.22759454 -0.501119 -1.3097504 0.035541255
0003c0 1a af b3 3d 57 aa 8e 3d fe bb a0 bc 4a f8 dd be
       0.08773632 0.069660835 -0.019620892 -0.43353492
0003d0 8f 34 e3 be fb 1e 72 bd e6 81 df 3d 0b a1 53 bc
       -0.44376037 -0.059111577 0.10913448 -0.012916814
0003e0 20 67 90 bf 51 8b 67 bf b2 f7 b1 bd 07 5a 84 bd
       -1.1281471 -0.90446955 -0.08689822 -0.06462484
0003f0 f7 19 95 bf 84 12 83 3b 47 ef 9d bd a0 db eb bd
       -1.1648549 0.00400001 -0.07711654 -0.115164995

advantage_stream.0.bias f4 [128]
000000 fa db b2 bf 36 2c 9d bf 07 7e c1 bc 22 7a aa bf
       -1.3973382 -1.2279117 -0.023619665 -1.3318522
000010 c4 b2 1e bf 28 67 aa bf 74 b1 58 bf 7a 6f dc be
       -0.61991525 -1.3312731 -0.8464577 -0.430538
000020 db 8e 93 bf 06 08 7c bf 8b af 25 be 81 f6 82 bf
       -1.1527971 -0.9844974 -0.16180246 -1.0231477
000030 93 6e 2b bf a6 4e 9a bf d1 bf f2 be f6 8c 1e bf
       -0.669656 -1.2055252 -0.4741197 -0.6193384
000040 e9 d4 a0 be 95 09 5d bf 8b 08 bc be bd c1 e1 bf
       -0.31412438 -0.86342746 -0.36725268 -1.7637249
000050 cf 80 c3 bf 6c eb 0a bf 06 7f 99 bf 2c 8c d9 bd
       -1.5273684 -0.54265475 -1.199189 -0.10622439
000060 12 d2 89 bf 17 8f 96 be cc 12 7e bf ed 07 a3 bf
       -1.0767233 -0.29406044 -0.9924743 -1.2736794
000070 5c bc bd bf 59 96 1c bf 52 01 e0 bf 10 2e 3c be
       -1.4823108 -0.6116691 -1.7500403 -0.18376946
000080 83 6f 49 bf 02 cc 99 bf 22 05 08 c0 6d d4 66 bf
       -0.7868578 -1.2015383 -2.1253133 -0.90167886
000090 8e 15 03 bf ba 82 4a bf 0c 04 ad bf c1 05 bf bb
       -0.51204765 -0.7910572 -1.351686 -0.0058295433
0000a0 db 22 b0 bf 7c 36 15 bf 9f fd b2 be 99 e3 06 bf
       -1.3760637 -0.5828626 -0.34959123 -0.52691036
0000b0 93 30 8d bf 9c 6f 74 bf 60 90 3d bf 76 4b 06 bf
       -1.1030449 -0.954828 -0.74048424 -0.52458894
0000c0 1e b7 d7 be 59 bd 0b bf f7 e3 09 c0 29 af 2c bf
       -0.42131895 -0.54585797 -2.1545389 -0.67454773
0000d0 a0 b4 f3 bf 4e 13 cc bf 69 96 c6 bf 77 c1 27 bf
       -1.9039497 -1.5943391 -1.5514652 -0.6552958
0000e0 78 ee ce be b1 79 39 bd 1b 7d 79 bf ed 4f bd bf
       -0.40416312 -0.04528207 -0.9745652 -1.4790016
0000f0 88 7a 3e bf 94 d0 2c bf 19 ac 97 bf af ff ef bf
       -0.7440572 -0.67505765 -1.1849395 -1.8749903
000100 95 b5 b9 bf d1 7c a2 bf 79 a6 bb bf da 27 a1 bf
       -1.450854 -1.2694341 -1.4660178 -1.2590287
000110 da 50 c6 be 7a a8 02 c0 10 5d 91 be c4 c8 04 c0
       -0.3873356 -2.041533 -0.28391314 -2.0747538
000120 2b 58 63 bd fe e3 6f bf 44 ac 17 c0 12 d2 99 bf
       -0.055504005 -0.93707263 -2.3698893 -1.2017233
000130 e6 e3 86 bf 04 a4 f1 bf 97 43 f1 bf 96 95 ec bf
       -1.0538299 -1.8878179 -1.8848752 -1.848315
000140 1d 58 6a bf da 5e 59 bf 09 9a c8 bf bd 7d 2e be
       -0.915407 -0.84910357 -1.5672008 -0.17040153
000150 a5 29 fd be 7f 11 83 bf 4f 17 59 c0 be 4a f9 bf
       -0.49445835 -1.0239714 -3.3920476 -1.9475935
000160 bd 67 ae bf a2 22 65 bd 15 2f 56 bf 96 2c cb bf
       -1.3625408 -0.05594123 -0.8366559 -1.5872982
000170 43 53 91 bf c6 a3 76 bf dd 3a b1 be a4 d2 ba bf
       -1.1353534 -0.9634365 -0.34615222 -1.4595532
000180 64 99 eb be 41 6c 3d bf d8 90 83 bf ce 29 14 bf
       -0.46015465 -0.7399331 -1.0278578 -0.5787629
000190 62 4c 32 bf 91 4e b4 be bd d0 85 bf 04 7d 6f bf
       -0.696478 -0.3521619 -1.0454327 -0.93550134
0001a0 13 29 42 bf 9c d3 9b bf 49 6f 4f bf 78 cc 83 bf
       -0.75843924 -1.2173953 -0.8102918 -1.0296774
0001b0 e1 62 a7 bf 70 bf 7b bf 3d 1e a8 bf b1 f4 37 b9
       -1.307705 -0.98338985 -1.3134228 -0.00017543395
0001c0 5f cf 50 bf 55 46 2c bf 6c 54 04 c0 20 58 62 bd
       -0.81566423 -0.6729482 -2.0676527 -0.055259824
0001d0 7a cc c3 bf 77 97 9e bf 62 f5 d7 bf 53 c2 85 bf
       -1.5296776 -1.2389973 -1.687176 -1.0449928
0001e0 9d d3 a4 bf 3f 09 9b bf a1 fb af bf 19 90 4f bf
       -1.2877079 -1.2112197 -1.3748666 -0.8107925
0001f0 80 fe f2 be 94 56 48 be 23 c8 0e c0 9c a1 23 bf
       -0.47459793 -0.19564277 -2.2309654 -0.6391847
