checkpoints/enhanced_dqn/checkpoint_ep100.pth (torch, 687002 bytes, 33 tensors)

layer1.weight f4 [150, 20]
-2.004027 -1.3159994 0.46468788 -0.23625147 -2.1167064 -2.2524154 0.26297963 -0.15783681
0.20687415 -0.98378855 -0.12148069 -0.1380812 0.5090634 -1.9589069 0.12457074 0.49739736
0.14949507 -0.09371511 -2.9595764 -5.03153 -3.2862408 -2.7153952 0.34587044 -0.63507885
-2.1494927 -0.8557669 -0.56969875 -3.035322 3.6607928 -3.1269097 -0.25713927 -2.8929129
-3.4408112 0.7342237 0.7322773 0.36211312 0.30217966 -0.8141161 -0.08115584 -7.5781775
4.3837934 -1.9147397 -0.61073047 0.121107884 9.390548 7.6193366 2.9811122 2.4737613
2.592551 0.74703425 0.931843 0.61502314 2.8890123 -3.8546526 -0.6871459 -0.25378796
-0.06320685 -2.6621006 0.6868924 -1.3405039 -0.6931554 -4.201792 0.92742795 1.4234875
1.5718852 -1.1840901 -0.71314687 -1.3945911 0.036285777 0.9472238 -3.130265 2.3209298
2.3203104 -3.0883183 -0.12234243 -0.6483042 2.1037514 -0.47460157 1.453903 -2.1502616
3.8380158 9.96907 -0.9989203 -1.7316672 3.23903 13.27777 1.5750155 1.0714922
3.4073577 -0.6915904 0.0030646261 2.5014994 -2.7947462 7.449178 -1.4320157 0.55652833
-1.8795629 -0.34895808 -1.7629435 2.703642 4.9157376 -1.7123768 -2.8439493 -1.6048437
2.2219703 -2.301088 -1.6296881 1.2902805 5.3964887 3.3750749 0.24785374 0.43046772
4.042689 6.36862 2.8131166 1.8408129 -0.9497017 -0.5939113 -0.7452477 0.82578963
-1.5664135 1.6697122 -0.17669547 1.856071 -2.7411351 0.48002398 0.1104907 -0.6765988
-1.7815479 4.2005963 -0.15156677 -0.32506675 3.0176685 -3.9680085 0.4132185 1.1168938
1.7741544 -1.8312403 0.83366895 -0.8540546 0.7598908 -13.328146 0.002533358 -0.014978806
-8.675153 -12.898575 -1.3169198 -3.2631993 -2.1994958 -3.862881 -0.7895322 -0.37922183
0.9364175 1.218041 -0.0953356 -0.9098382 -0.6170907 -0.013336586 2.6136596 -25.88168
2.1915283 4.838207 -0.35102218 -0.56936735 1.8179338 0.8329893 -0.5529794 -0.09135714
1.6503968 0.08619156 -0.19628243 0.0726645 0.2303366 0.29815263 0.30079955 -0.6514152
0.046172045 0.104687646 -2.6384401 -4.4734817 -1.82259 -6.6048226 0.058485292 0.061218236
-1.0489801 3.873657 -1.4069515 -0.32321715 3.6860764 3.2716315 1.4244733 -1.5701715
-3.923203 0.9926154 -0.62093073 -0.37437686 -0.8847687 0.46585083 -0.45004675 0.068219826
-2.1058981 5.084268 0.60598004 -0.48861358 -1.7807201 -8.726394 0.31668276 -2.6232154
-6.6216493 -0.84863335 -0.8856224 2.2789662 -1.8698851 -0.47573307 -0.98764086 -2.888214
1.071173 -0.45634466 -1.5554115 -0.6817576 -0.44130695 -5.4241357 -0.6012208 0.41437367
5.2848263 -3.2692251 0.21778259 1.5038965 -1.4752833 -4.041333 1.041066 0.5882598
-2.7336729 -3.5294247 0.12644626 0.8313153 1.3328017 1.0959309 -0.90112257 -1.7482545
1.6458808 -9.0921 1.2720723 0.038844675 -7.2530622 -13.220337 -0.4207477 1.7761947
-1.2244858 -4.0828953 1.1686246 0.57621825 -4.796067 -3.692581 0.17741436 0.30486444
00000000: fa41 00c0 ab72 a8bf 92eb ed3e e8eb 71be
00000010: 1e78 07c0 9327 10c0 44a5 863e f99f 21be
00000020: d1d6 533e 91d9 7bbf deca f8bd 2865 0dbe
00000030: fb51 023f 76bd fabf f21e ff3d deaa fe3e
00000040: 3c15 193e b5ed bfbd b369 3dc0 4b02 a1c0
00000050: c551 52c0 09c9 2dc0 ee15 b13e 8794 22bf
00000060: 4a91 09c0 8a13 5bbf c7d7 11bf b742 42c0
00000070: 6e4a 6a40 4a1f 48c0 c2a7 83be 7c25 39c0
00000080: 4036 5cc0 16f6 3b3f 8676 3b3f e466 b93e
00000090: 4bb7 9a3e ea69 50bf 0835 a6bd 6e80 f2c0
000000a0: 0948 8c40 3116 f5bf d558 1cbf 6907 f83d
000000b0: af3f 1641 9bd1 f340 8bca 3e40 1b52 1e40
000000c0: 5bec 2540 a33d 3f3f 438d 6e3f 2872 1d3f
000000d0: 94e5 3840 a1b2 76c0 cbe8 2fbf 7ff0 81be
000000e0: 9872 81bd db5f 2ac0 2ed8 2f3f a295 abbf
000000f0: a272 31bf 1475 86c0 eb6b 6d3f d734 b63f
00000100: 8933 c93f 4490 97bf cb90 36bf f681 b2bf
00000110: 65a0 143d 427d 723f 4356 48c0 1d8a 1440
00000120: f77f 1440 02a7 45c0 ab8e fabd 44f7 25bf
00000130: dda3 0640 fafe f2be 7e19 ba3f e39d 09c0
00000140: 0da2 7540 5081 1f41 3eb9 7fbf 45a7 ddbf
00000150: 444c 4f40 bf71 5441 1c9a c93f a826 893f
00000160: 2612 5a40 120c 31bf e5d7 483b 9118 2040
00000170: 1fdd 32c0 ab5f ee40 4a4c b7bf a478 0e3f
00000180: 8495 f0bf a2aa b2be 22a8 e1bf 7808 2d40
00000190: b94d 9d40 2a2f dbbf 4403 36c0 856b cdbf
000001a0: c334 0e40 0745 13c0 9f99 d0bf e927 a53f
000001b0: 09b0 ac40 3a01 5840 5fcd 7d3e 4466 dc3e
000001c0: b55d 8140 bccb cb40 1a0a 3440 c29f eb3f
000001d0: a71f 73bf 920a 18bf 8ec8 3ebf f366 533f
000001e0: 3d80 c8bf 21b9 d53f a8ef 34be bc93 ed3f
000001f0: c26e 2fc0 b4c5 f53e f348 e23d 9435 2dbf
00000200: c309 e4bf 496b 8640 5234 1bbe 266f a6be
00000210: 7b21 4140 daf3 7dc0 6091 d33e 60f6 8e3f
00000220: 7e17 e33f 1566 eabf 546b 553f 52a3 5abf
00000230: 3488 423f 1640 55c1 b206 263b aa69 75bc
00000240: 6dcd 0ac1 9060 4ec1 d490 a8bf 42d8 50c0
00000250: 8ac4 0cc0 7139 77c0 c81e 4abf 5d29 c2be
00000260: 0fb9 6f3f c4e8 9b3f 503f c3bd 28eb 68bf
00000270: a8f9 1dbf b281 5abc 3346 2740 ae0d cfc1
00000280: 0042 0c40 97d2 9a40 2eb9 b3be 0fc2 11bf
00000290: 0eb2 e83f c93e 553f 0f90 0dbf 7419 bbbd
000002a0: 3440 d33f 3385 b03d 43fe 48be 20d1 943d
000002b0: 5cdd 6b3e 76a7 983e 6602 9a3e 26c3 26bf
000002c0: e61e 3d3d 7a66 d63d 34dc 28c0 c326 8fc0
000002d0: a14a e9bf b55a d3c0 468e 6f3d f9bf 7a3d
000002e0: fb44 86bf ffe9 7740 fd16 b4bf b87c a5be
000002f0: ade8 6b40 6962 5140 2455 b63f 61fb c8bf
00000300: c215 7bc0 0b1c 7e3f 51f5 1ebf 53ae bfbe
00000310: 3480 62bf 0084 ee3e 876c e6be d6b6 8b3d
00000320: 09c7 06c0 53b2 a240 8221 1b3f 8f2b fabe
00000330: a3ee e3bf 4f9f 0bc1 3e24 a23e c3e2 27c0
00000340: 8de4 d3c0 0940 59bf 26b8 62bf 95da 1140
00000350: 6558 efbf 4993 f3be 08d6 7cbf 80d8 38c0
00000360: 321c 893f 02a6 e9be b917 c7bf ab87 2ebf
00000370: fcf2 e1be 8592 adc0 9be9 19bf c928 d43e
00000380: 4c1d a940 fc3a 51c0 6602 5f3e ae7f c03f
00000390: 15d6 bcbf 9a52 81c0 a741 853f 3298 163f
000003a0: 7ff4 2ec0 18e2 61c0 217b 013e 14d1 543f
000003b0: 3f99 aa3f 7747 8c3f f8af 66bf cec6 dfbf
000003c0: 39ac d23f 3e79 11c1 44d3 a23f 981b 1f3d
000003d0: 1619 e8c0 8086 53c1 3e6c d7be 595a e33f
000003e0: f3bb 9cbf 14a7 82c0 7e95 953f 0a83 133f
000003f0: 6279 99c0 3f53 6cc0 1cac 353e 3117 9c3e

layer1.bias f4 [150]
6.886847 -2.0967083 -0.39192 2.343058 1.3006408 3.5408454 3.5252357 -4.270426
6.8744283 -2.9204266 2.073328 2.605937 -0.5798253 -3.980965 -2.9361598 1.1782199
-1.7650417 2.254632 -0.30674034 -1.1680459 2.2414072 0.56773883 -1.2119802 1.4046847
1.5522246 2.8896224 1.963145 4.3103905 2.6830854 4.9464717 -0.33336785 2.7491019
-9.171617 -2.4886272 0.83689743 0.5308989 2.081532 -0.91616064 1.4675419 -0.6080596
1.9384102 -1.1768829 1.4007149 2.503851 6.131072 -1.27292 0.63563687 2.6612935
-0.9067253 -0.2426002 0.55184686 0.32648894 0.4469568 3.0040412 0.28473252 2.6696615
1.0853946 1.3116671 -0.57933027 -5.6417537 -0.45837042 0.35592595 0.92044276 2.8702834
3.3662145 -2.14933 -0.4843284 -0.4824781 -5.7460256 3.4816642 5.5943723 -5.312414
-1.0375013 2.186124 1.6875895 -1.101243 3.3301272 3.5803487 -0.36468694 3.907597
0.63394195 -4.446817 2.466086 2.8663878 1.970431 -1.8663136 -1.6137096 -1.3927786
1.8604279 -1.292999 8.6459 2.13422 -7.6531057 0.3195218 0.26052812 -0.43145818
-2.4052918 0.39989683 4.0784574 -1.9708626 0.69112283 -4.2263823 -2.1505013 -0.10252187
-0.59131545 -2.8023539 -0.41076642 -0.5142401 1.8178034 2.0589278 -0.9306307 -0.5228015
-0.22304216 0.7993135 -2.60575 0.18381092 -2.89127 -6.198047 3.6918342 3.6934845
-1.0513772 -0.5480382 4.483015 4.905281 -0.9798987 0.492268 -0.17027034 0.85813946
-0.51095647 4.044499 3.909276 -1.3644154 0.67911386 -1.017261 -8.874815 5.391232
2.5057757 -0.5059291 2.8161707 2.6385603 -0.5598042 2.1344218 -4.4532304 -0.35767993
3.3134115 2.4003296 4.0803237 0.26575288 0.7453572 0.16375881
00000000: 0d61 dc40 7830 06c0 bda9 c8be aaf4 1540
00000010: 667b a63f 369d 6240 769d 6140 54a7 88c0
00000020: 51fb db40 45e8 3ac0 68b1 0440 acc7 2640
00000030: 6e6f 14bf 21c8 7ec0 0bea 3bc0 e9cf 963f
00000040: e3ec e1bf e44b 1040 120d 9dbe 8782 95bf
00000050: 3773 0f40 5557 113f 2b22 9bbf b5cc b33f
00000060: 4caf c63f 93ef 3840 5648 fb3f b8ee 8940
00000070: acb7 2b40 7f49 9e40 31af aabe 49f1 2f40
00000080: f1be 12c1 ab45 1fc0 e93e 563f fee8 073f
00000090: d237 0540 8189 6abf 6ad8 bb3f cba9 1bbf
000000a0: d31d f83f 19a4 96bf a04a b33f 183f 2040
000000b0: be31 c440 0bef a2bf 19b9 223f a252 2a40
000000c0: 261f 68bf 306c 78be d645 0d3f 8f29 a73e
000000d0: 86d7 e43e 3642 4040 76c8 913e bcdb 2a40
000000e0: 36ee 8a3f b5e4 a73f fd4e 14bf 3f89 b4c0
000000f0: 87af eabe ed3b b63e 23a2 6b3f b9b2 3740
00000100: 0f70 5740 9f8e 09c0 e4f9 f7be 5f07 f7be
00000110: 71df b7c0 96d3 5e40 1905 b340 4cff a9c0
00000120: d8cc 84bf 75e9 0b40 ef02 d83f 88f5 8cbf
00000130: ce20 5540 6f24 6540 3fb8 babe 1216 7a40
00000140: 054a 223f 534c 8ec0 5ad4 1d40 e672 3740
00000150: 1537 fc3f 5de3 eebf 098e cebf 9246 b2bf
00000160: 8022 ee3f fe80 a5bf 9b55 0a41 0f97 0840
00000170: 3ee6 f4c0 5d98 a33e f163 853e 16e8 dcbe
00000180: 4df0 19c0 47bf cc3e b982 8240 3a45 fcbf
00000190: 6ded 303f 863e 87c0 d0a1 09c0 fcf6 d1bd
000001a0: 7360 17bf c459 33c0 fa4f d2be 3da5 03bf
000001b0: c8ad e83f 79c5 0340 d03d 6ebf 52d6 05bf
000001c0: 2a65 64be cf9f 4c3f 9cc4 26c0 ee38 3c3e
000001d0: 910a 39c0 6756 c6c0 0347 6c40 0d62 6c40
000001e0: 8793 86bf 3b4c 0cbf dc74 8f40 10f8 9c40
000001f0: a4da 7abf 8d0a fc3e 595b 2ebe 07af 5b3f
00000200: 0bce 02bf 896c 8140 9431 7a40 2aa5 aebf
00000210: 68da 2d3f 9c35 82bf 3eff 0dc1 f984 ac40
00000220: a15e 2040 9284 01bf 243c 3440 2cde 2840
00000230: 544f 0fbf 5e9a 0840 dd80 8ec0 d321 b7be
00000240: ef0e 5440 009f 1940 0392 8240 c310 883e
00000250: bbcf 3e3f 64b0 273e

layer2.weight f4 [128, 150]
0.5966885 0.26171806 -3.599134 -0.043802682 -0.4727524 0.14182805 0.5397648 -0.7064448
-0.7763823 0.035784338 -2.7624304 0.12107328 0.23420252 0.8850311 -0.14937665 -0.023096718
0.07699557 -0.66795665 0.03270133 -0.2688092 -0.67070085 -2.0440218 0.77236384 1.3786095
0.18181743 0.10199396 -1.2290711 -1.0486696 -1.8329837 0.39664224 -2.013926 -2.1347003
0.9942267 -0.78963894 -1.1555971 1.3351922 0.37266934 -0.18002656 -0.2720439 -0.61257875
0.44467902 0.91840255 -0.15608425 -0.5306509 0.37273204 -0.84365773 0.2085206 -1.1618775
-1.7517455 1.5914992 0.31474504 -0.4777034 -0.7741851 -0.30488995 -1.1861892 -0.32870543
-0.31864855 -3.5237124 0.1871093 -0.9499232 -0.02940901 0.8979885 0.9118119 -1.2944177
-0.3137314 -1.0838984 0.21431825 -0.7722831 0.63764817 -0.28256544 -0.69155836 -2.0553358
0.22909287 0.1766679 -1.0872947 -0.87477034 -2.3944876 -0.8488449 -0.17754126 -1.017082
-0.20679276 -1.0486027 -0.28584102 0.44859248 -0.5482671 -0.4028318 0.8568833 0.90303886
-0.4144021 0.63059497 1.6136711 1.4622629 -0.031604495 -1.4006679 -1.5983057 -0.4775085
-1.7950008 -1.1687083 -0.8713907 0.13465571 -0.7763907 -1.1845474 -0.26583356 0.088082545
-0.85250986 -0.0849503 -0.64788413 -0.54511863 0.6942908 -0.40261382 -0.376335 -0.45354933
0.04283351 1.4003291 -2.6874309 0.9401976 -0.6399994 -1.255253 -0.41809046 -1.3638015
0.2765788 0.5080122 -0.85623026 -1.1617084 0.20566699 -1.1067444 0.07059066 -0.107685775
-0.77160376 -0.86185277 -1.5251075 -1.5517282 1.3904827 -0.29665944 0.7428689 -1.3750446
0.18318142 -0.0146887945 0.09095812 -0.86529857 -0.40106413 -0.48355356 1.7808607 -1.7805333
0.7071822 -0.79558486 -1.38067 0.33292755 0.45297912 -0.90479267 -0.3258901 0.06647877
0.13924548 -2.782646 -0.0056211893 -0.7580312 -1.9805325 -1.6853931 -0.9551201 -0.85745895
-1.4130796 1.2443581 -1.0184033 -1.5027525 -0.57677054 0.2454872 -1.2198483 -3.3465633
0.05672535 1.2676816 -0.74524695 1.3901087 0.62753314 -2.4058821 0.3763718 -2.7138143
-0.47536957 0.23957288 -1.879485 0.9171716 0.4180287 -1.7681739 -1.8823589 -1.0051507
-0.48607042 -0.33251262 -1.3193676 0.62931585 0.018940981 0.6604175 0.06596152 -1.6063586
-0.5796901 1.2534292 1.7351228 -1.4446914 -0.44010627 -0.37896112 1.9226147 -0.39079398
-2.9168022 0.3899385 -5.626272 0.22882384 -3.5945027 0.49697417 -0.013728354 1.462015
-1.4756731 -1.8853797 0.6456629 0.04380484 0.99626315 -1.1887983 -1.0061493 -0.39329776
-0.8630884 -3.7894518 1.2327119 0.4355764 -0.5070259 -1.2646556 3.972822 0.59934783
-2.156883 0.6351295 -0.7540783 -0.11798483 0.08195178 -1.5811741 -3.1789143 -0.837514
-0.38717 0.43280634 1.0153227 -0.14221893 -2.1624742 0.6901953 1.3270482 -0.99125683
0.5157439 0.2680526 -1.1207684 -2.246543 2.4385643 0.4025945 -3.0548842 0.5282417
-0.5801082 -1.5175171 -1.676471 -1.2937969 -0.18547313 0.38588658 -1.5308183 -2.4278328
00000000: 94c0 183f e9ff 853e 3658 66c0 716a 33bd
00000010: 9a0c f2be 5f3b 113e 072e 0a3f 91d9 34bf
00000020: fec0 46bf 9992 123d a9cb 30c0 45f5 f73d
00000030: c9d2 6f3e 6691 623f 31f6 18be 5435 bdbc
00000040: daaf 9d3d 35ff 2abf d4f1 053d 5ca1 89be
00000050: 0db3 2bbf 41d1 02c0 a3b9 453f 4776 b03f
00000060: 592e 3a3e 36e2 d03d 3452 9dbf ce3a 86bf
00000070: 369f eabf b114 cb3e 2ae4 00c0 ee9e 08c0
00000080: a485 7e3f c725 4abf 9bea 93bf 94e7 aa3f
00000090: 84ce be3e e258 38be 5749 8bbe f6d1 1cbf
000000a0: f8ac e33e 6e1c 6b3f 8dd4 1fbe bdd8 07bf
000000b0: bcd6 be3e f4f9 57bf 6d86 553e 67b8 94bf
000000c0: 3239 e0bf 3fb6 cb3f 4326 a13e 8a95 f4be
000000d0: ff30 46bf 891a 9cbe 0cd5 97bf 144c a8be
000000e0: e725 a3be 8184 61c0 9599 3f3e 2b2e 73bf
000000f0: 2aeb f0bc 93e2 653f 816c 693f 7baf a5bf
00000100: 67a1 a0be 2fbd 8abf 3e76 5b3e 58b4 45bf
00000110: e93c 233f 6bac 90be f809 31bf 9f8a 03c0
00000120: 5297 6a3e 6ee8 343e 792c 8bbf f3f0 5fbf
00000130: 493f 19c0 e64d 59bf 60cd 35be be2f 82bf
00000140: 7bc1 53be 9d38 86bf c159 92be eaad e53e
00000150: 3c5b 0cbf f83f cebe b45c 5b3f 8e2d 673f
00000160: 832c d4be ac6e 213f c68c ce3f 6e2b bb3f
00000170: b773 01bd 1649 b3bf 4895 ccbf fe7b f4be
00000180: 96c2 e5bf 3c98 95bf 7613 5fbf 30e3 093e
00000190: 8ac1 46bf 409f 97bf 561b 88be 9f64 b43d
000001a0: 163e 5abf 6cfa adbd bcdb 25bf e58c 0bbf
000001b0: 0bbd 313f 6623 cebe fbae c0be 9e37 e8be
000001c0: 3172 2f3d fc3d b33f defe 2bc0 cab0 703f
000001d0: 00d7 23bf 21ac a0bf f40f d6be 0c91 aebf
000001e0: bd9b 8d3e 160d 023f e831 5bbf dcb2 94bf
000001f0: 5e9a 523e cda9 8dbf d691 903d 5c8a dcbd
00000200: d387 45bf 62a2 5cbf b936 c3bf 089f c6bf
00000210: 56fb b13f bfe3 97be a82c 3e3f 7601 b0bf
00000220: e993 3b3e 45a9 70bc 4048 ba3d 3584 5dbf
00000230: 4758 cdbe 5594 f7be 3ef3 e33f 84e8 e3bf
00000240: e509 353f 73ab 4bbf cbb9 b0bf 7b75 aa3e
00000250: e1ec e73e 7ea0 67bf 11db a6be 0526 883d
00000260: 5e96 0e3e df16 32c0 f431 b8bb 550e 42bf
00000270: 1782 fdbf f6ba d7bf c082 74bf 6e82 5bbf
00000280: cbdf b4bf 2047 9f3f 0a5b 82bf 325a c0bf
00000290: 3ca7 13bf ff60 7b3e fd23 9cbf 182e 56c0
000002a0: d758 683d 6443 a23f 81c8 3ebf 15ef b13f
000002b0: 03a6 203f f9f9 19c0 ceb3 c03e 22af 2dc0
000002c0: a463 f3be 9852 753e f792 f0bf c2cb 6a3f
000002d0: dc07 d63e 8653 e2bf 23f1 f0bf c7a8 80bf
000002e0: 39de f8be 183f aabe 0ae1 a8bf d81a 213f
000002f0: 1e2a 9b3c 1f11 293f d516 873d 299d cdbf
00000300: 9266 14bf 5e70 a03f 8118 de3f a6eb b8bf
00000310: 9c55 e1be 3107 c2be 3d18 f63f 2616 c8be
00000320: e3ac 3ac0 05a6 c73e 6c0a b4c0 cc50 6a3e
00000330: 550c 66c0 6673 fe3e e4ec 60bc 4f23 bb3f
00000340: dbe2 bcbf 1f54 f1bf 2a4a 253f b46c 333d
00000350: 1a0b 7f3f 8b2a 98bf 80c9 80bf 535e c9be
00000360: 5df3 5cbf 6186 72c0 81c9 9d3f df03 df3e
00000370: 73cc 01bf 3ce0 a1bf b742 7e40 dc6e 193f
00000380: 5f0a 0ac0 d997 223f 470b 41bf 08a2 f1bd
00000390: 56d6 a73d ea63 cabf 5573 4bc0 5167 56bf
000003a0: 253b c6be cb98 dd3e 18f6 813f d7a1 11be
000003b0: fa65 0ac0 a4b0 303f b7dc a93f 02c3 7dbf
000003c0: cb07 043f 313e 893e 5775 8fbf 5cc7 0fc0
000003d0: 7011 1c40 de20 ce3e 3983 43c0 d93a 073f
000003e0: f981 14bf 003e c2bf 9a96 d6bf 239b a5bf
000003f0: abec 3dbe ed92 c53e dbf1 c3bf 9d61 1bc0

layer2.bias f4 [128]
-0.4158267 -0.3434962 -0.2539666 -1.0916133 -0.32514828 -0.084699325 0.30213568 0.5439279
-0.06961816 -0.36403438 0.2893295 -0.78534776 0.52384895 -0.5268603 -0.102719076 -0.08204089
-0.2367597 0.033054255 1.2426263 -0.4483376 0.24042784 -0.025858616 -1.4462404 -0.008775196
-1.4284682 -0.1584529 -0.047658004 -0.12977357 0.7648717 -0.12488706 0.53352684 0.1841218
1.0827816 0.6710991 0.9933545 0.8380335 0.4727157 -0.16896448 0.06762305 0.03824839
-0.09485627 -0.80016303 -0.24585623 0.7904509 -3.0481 -0.40335107 1.5048517 -0.040511675
0.124263525 1.2824019 -0.15524518 -0.06904209 0.22518298 0.022074396 -1.4468765 -0.023216223
-0.119641475 -1.3264405 0.18735355 -0.021019047 -0.31151628 -4.014087 -0.0032019573 -0.3298408
0.8765888 -0.1170248 -0.18438174 0.044383455 0.047728676 0.89294004 0.057892263 -0.011489281
-0.6638135 0.059547253 -0.060662225 1.1944063 -0.3589568 -0.10524319 0.10553025 -2.083177
-0.051642742 -0.45538324 0.0075468593 -1.9320521 0.18220909 -0.10478841 0.103641495 -0.023700504
0.3989468 -0.4245993 1.0014567 -0.16872813 -2.4260576 -0.14049563 0.022494951 -2.2619944
0.066041656 -0.5766888 0.020547453 -0.025260597 0.007202965 -0.7364022 0.9459898 0.059941802
0.2441604 1.1787977 -0.25201818 -0.5674133 -0.54173595 0.5927254 0.13990395 -0.10134023
-0.05060882 -0.106231384 0.27485844 -0.02264898 -0.39837813 0.05788376 -0.46365094 -0.12793207
-2.6753306 1.5638679 -0.10020948 0.07479798 -0.73874706 -0.115228094 -0.105780125 0.6223034
00000000: 3de7 d4be bcde afbe e907 82be fcb9 8bbf
00000010: d679 a6be d776 adbd 87b1 9a3e dc3e 0b3f
00000020: f793 8ebd b762 babe ff22 943e 8d0c 49bf
00000030: f71a 063f 51e0 06bf 615e d2bd 0e05 a8bd
00000040: 2371 72be e663 073d 610e 9f3f 828c e5be
00000050: b732 763e 73d5 d3bc 681e b9bf d7c5 0fbc
00000060: 0cd8 b6bf 7a41 22be 0a35 43bd 5de3 04be
00000070: a2ce 433f c9c4 ffbd 3795 083f 6d8a 3c3e
00000080: 9698 8a3f 27cd 2b3f 7b4c 7e3f 5d89 563f
00000090: cb07 f23e 0605 2dbe f47d 8a3d 58aa 1c3d
000000a0: 0144 c2bd 7cd7 4cbf bcc1 7bbe fd5a 4a3f
000000b0: 1214 43c0 0884 cebe fb9e c03f 92ef 25bd
000000c0: e07d fe3d bf25 a43f 98f8 1ebe f065 8dbd
000000d0: 5e96 663e 5dd5 b43c 4033 b9bf f32f bebc
000000e0: 9706 f5bd cdc8 a9bf 9cd9 3f3e 2330 acbc
000000f0: 107f 9fbe 6773 80c0 eed7 51bb e5e0 a8be
00000100: 2068 603f b3aa efbd 91ce 3cbe 6dcb 353d
00000110: 257f 433d b897 643f 7020 6d3d 8a3d 3cbc
00000120: aeef 29bf d2e7 733d f478 78bd 4ee2 983f
00000130: 30c9 b7be be89 d7bd 3e20 d83d c652 05c0
00000140: 5787 53bd fe27 e9be a54b f73b 7c4d f7bf
00000150: 0595 3a3e 4e9b d6bd fe41 d43d 8f27 c2bc
00000160: c142 cc3e 1465 d9be bc2f 803f 11c7 2cbe
00000170: 8744 1bc0 16de 0fbe 5547 b83c 84c4 10c0
00000180: d940 873d e1a1 13bf 2253 a83c 50ef cebc
00000190: da06 ec3b db84 3cbf 632c 723f 8985 753d
000001a0: 2f05 7a3e d8e2 963f 8708 81be ff41 11bf
000001b0: 35af 0abf dabc 173f fb42 0f3e 778b cfbd
000001c0: 324b 4fbd d78f d9bd 3fba 8c3e 5b8a b9bc
000001d0: 38f8 cbbe 8617 6d3d a863 edbe a000 03be
000001e0: 9e38 2bc0 d32c c83f a13a cdbd af2f 993d
000001f0: 871e 3dbf b5fc ebbd 40a3 d8bd 474f 1f3f

value_stream.0.weight f4 [128, 128]
-0.08798224 -0.043111823 -0.013530779 0.033771344 -0.014419855 0.053025085 0.051072475 0.030477803
-0.063578546 -0.009017333 -0.011301382 -0.1057026 0.05069134 -0.029883908 -0.04407809 -0.047532275
0.070254415 -0.0925508 -0.031637695 -0.049922537 0.0392642 -0.03330476 -0.07668802 0.026662558
-0.0015397639 -0.04825023 -0.0854848 -0.060595766 -0.07087012 -0.109275214 -0.051980276 -0.09148201
-0.11792572 -0.022280984 -0.046255536 -0.26792336 -0.04429546 0.030987713 0.021716239 -0.03231002
0.019337377 -0.073293135 -0.10318552 -0.07840757 -0.11030679 -0.03492302 -0.029825144 0.021030972
-0.022011954 -0.16121958 -0.06208857 -0.009192566 0.010461217 0.07469626 -0.068797275 -0.027434928
0.019934867 -0.0057886527 -0.083345845 0.047747005 -0.002427146 -0.05003425 -0.0026258584 -0.13393995
-0.010020396 -0.07469306 -0.13058153 -0.023698604 -0.055510793 -0.086564556 -0.13536873 -0.0034204528
-0.2055762 -0.008886982 -0.09587194 -0.063530415 -0.008388635 -0.08283259 -0.018695828 -0.1755127
0.05589828 -0.07752685 -0.08983799 -0.017656468 -0.00578129 0.038428284 -0.09603976 -0.018409343
-0.09301892 -0.037878696 -0.045876324 -0.012572299 -0.065249264 0.023841044 -0.035058767 -0.008035422
-0.01939162 -0.08867538 0.060827907 0.014978195 0.03066756 -0.0688542 -0.053774957 -0.052174423
0.027142854 -0.017556006 0.0028991569 0.0505211 -0.14243844 -0.033404868 0.021877972 0.046064626
-0.07485087 -0.0831063 0.022057574 -0.003389434 -0.12217826 0.06356516 -0.012855623 -0.0036235938
-0.019333161 -0.02071304 0.025188826 -0.05041852 -0.067922525 0.04859028 -0.09452246 0.0019682166
-0.32392943 -0.047812987 0.0910905 -0.40875605 -0.03475376 0.059699543 0.16353932 0.11339857
0.1501947 -0.6361737 -0.6333222 -0.3824247 0.09406609 -0.08450413 0.2175799 -0.07331318
0.0010686088 -0.020820854 -0.18400772 -0.23672162 0.44142097 0.28428403 0.33209738 0.3181729
0.018523319 0.5416527 -1.2273848 -0.077337936 -0.5842008 0.365636 0.17238116 -0.4230947
-0.01792957 -0.24390793 0.0012785919 0.02882833 -0.26386744 0.06241918 -0.08935452 -0.25603414
0.077896126 0.09443487 -1.0733842 -2.885198 0.58911365 0.061745096 0.018907499 0.04820603
0.346931 -0.03359544 0.06460971 0.12875639 -0.5705454 0.054810967 -0.46002468 0.28066507
0.0035586443 -0.55576164 -0.9601606 -0.06650101 0.28290066 -1.8695648 -0.026611103 -0.35021463
-0.6180082 0.073464714 0.2614963 -0.037385356 -0.03564032 -0.4187749 -0.45526662 -0.42160404
-0.71215963 0.19536695 0.068109 -0.32230622 -0.11403864 -0.06708069 0.2948469 -0.5441838
0.33262628 -0.81923175 0.022753017 -0.6595716 0.08376129 0.023937229 0.04507975 0.06514976
-0.60113996 -0.8327607 -0.49097893 0.23677206 0.3701402 0.07650877 0.13332799 -0.5018695
0.5663358 -0.16413273 0.02198627 0.068369836 0.035913978 0.20957123 -0.55907595 0.33859292
-0.12263471 -0.15808472 0.016145429 -0.5884973 -0.3850646 -0.61803883 0.18537064 -0.02979386
0.04983347 -0.0029143703 0.1493108 -0.31999436 -0.7388743 0.23554336 -0.10777545 -0.006927978
-0.21331199 -0.008625696 -0.025863301 -0.23979327 -0.339151 0.07073714 -0.6807545 -0.5052354
00000000: 0830 b4bd 0696 30bd 33b0 5dbc d253 0a3d
00000010: 4141 6cbc d530 593d 5f31 513d 96ac f93c
00000020: 7835 82bd 70bd 13bc 6f29 39bc 9b7a d8bd
00000030: b9a1 4f3d 19cf f4bc 3a8b 34bd 34b1 42bd
00000040: 8ce1 8f3d 468b bdbd 8796 01bd 937b 4cbd
00000050: 7fd3 203d 926a 08bd 9c0e 9dbd 706b da3c
00000060: e7d1 c9ba 08a2 45bd a812 afbd 4433 78bd
00000070: 5a24 91bd afcb dfbd 45e9 54bd ec5a bbbd
00000080: 0a83 f1bd 9c86 b6bc 7276 3dbd 402d 89be
00000090: 286f 35bd f2d9 fd3c 41e6 b13c 8357 04bd
000000a0: 6b69 9e3c b61a 96bd ee52 d3bd 2694 a0bd
000000b0: 87e8 e1bd 710b 0fbd dc53 f4bc 2549 ac3c
000000c0: 6a52 b4bc bf16 25be 9650 7ebd 6b9c 16bc
000000d0: 8665 2b3c 5afa 983d 96e5 8cbd 37bf e0bc
000000e0: 724e a33c bdae bdbb 3ab1 aabd 5d92 433d
000000f0: c110 1fbb b7f0 4cbd 9816 2cbb 8e27 09be
00000100: 962c 24bc adf8 98bd 2ab7 05be 9323 c2bc
00000110: 495f 63bd c248 b1bd 1a9e 0abe ad29 60bb
00000120: 9182 52be b49a 11bc 8258 c4bd 3c1c 82bd
00000130: 7c70 09bc 22a4 a9bd fe27 99bc 9ab9 33be
00000140: 98f5 643d 66c6 9ebd fbfc b7bd 4ca4 90bc
00000150: fa70 bdbb fa66 1d3d 7eb0 c4bd 31cf 96bc
00000160: b480 bebd b126 1bbd d0e8 3bbd 0bfc 4dbc
00000170: 68a1 85bd 4b4e c33c c899 0fbd 01a7 03bc
00000180: 2ddb 9ebc 709b b5bd af26 793d 1a67 753c
00000190: 893a fb3c 6e03 8dbd 2143 5cbd d9b4 55bd
000001a0: b15a de3c 9dd1 8fbc c8ff 3d3b 37ef 4e3d
000001b0: 62db 11be 8bd3 08bd 6f39 b33c 43ae 3c3d
000001c0: 6a4b 99bd a333 aabd 16b2 b43c 4421 5ebb
000001d0: 9838 fabd 732e 823d 64a0 52bc d179 6dbb
000001e0: 9460 9ebc 65ae a9bc cc58 ce3c a683 4ebd
000001f0: f71a 8bbd 9a06 473d fe94 c1bd 32fd 003b
00000200: 14da a5be 8dd7 43bd a88d ba3d 7948 d1be
00000210: f559 0ebd 8287 743d da76 273e 823d e83d
00000220: a4cc 193e 48dc 22bf 6721 22bf 2ccd c3be
00000230: b9a5 c03d 8010 adbd 44cd 5e3e 3825 96bd
00000240: 9010 8c3a 7f90 aabc 856c 3cbe 2767 72be
00000250: ee01 e23e ad8d 913e ab08 aa3e 8fe7 a23e
00000260: 37be 973c c0a9 0a3f f21a 9dbf 5a63 9ebd
00000270: 2f8e 15bf a434 bb3e b084 303e de9f d8be
00000280: 09e1 92bc 00c3 79be 6d96 a73a 6429 ec3c
00000290: a219 87be 41ab 7f3d 81ff b6bd e816 83be
000002a0: 0188 9f3d 1267 c13d a764 89bf 16a7 38c0
000002b0: 27d0 163f 6de8 7c3d e6e3 9a3c b073 453d
000002c0: f1a0 b13e 5f9b 09bd 1852 843d b7d8 033e
000002d0: 430f 12bf 7781 603d 5b88 ebbe 55b3 8f3e
000002e0: 2538 693b 6546 0ebf 16cd 75bf ae31 88bd
000002f0: 5bd8 903e e64d efbf 87ff d9bc 554f b3be
00000300: c935 1ebf ab74 963d d8e2 853e 6321 19bd
00000310: 96fb 11bd aa69 d6be b518 e9be 7cdc d7be
00000320: 1850 36bf 460e 483e bb7c 8b3d 5205 a5be
00000330: 178d e9bd 9a61 89bd 2cf6 963e a14f 0bbf
00000340: fe4d aa3e 2cb9 51bf 8964 ba3c afd9 28bf
00000350: 0a8b ab3d 0218 c43c 8ba5 383d 3d6d 853d
00000360: 4fe4 19bf ce2f 55bf 9761 fbbe 6074 723e
00000370: 0483 bd3e a1b0 9c3d 2287 083e 857a 00bf
00000380: 62fb 103f 6912 28be 8d1c b43c 7c05 8c3d
00000390: 891a 133d d799 563e 9a1f 0fbf 0d5c ad3e
000003a0: e827 fbbd f6e0 21be 6b43 843c c2a7 16bf
000003b0: 3027 c5be cb37 1ebf cdd1 3d3e 4112 f4bc
000003c0: 2e1e 4c3d 05ff 3ebb eee4 183e 4dd6 a3be
000003d0: de26 3dbf 4732 713e 60b9 dcbd 1704 e3bb
000003e0: 756e 5abe cb52 0dbc 46df d3bc 5e8c 75be
000003f0: 33a5 adbe a2de 903d ed45 2ebf 1b57 01bf

value_stream.0.bias f4 [128]
-0.27805284 -0.0034578135 7.051799 -2.1286268 -0.10381912 -1.4114041 8.8945875 -1.6447998
-0.2359744 -0.44331923 6.2663264 -0.35564968 7.0316424 -9.761227 -1.1295936 -0.36547697
0.6269625 6.6524796 3.7925987 -0.29636422 9.005249 3.298475 -0.79879487 -1.1590354
6.9695807 -0.69414574 3.9652934 8.84417 8.815492 5.570454 -3.25557 -0.44532317
6.333894 -0.7759844 -5.7227507 -1.1492826 -1.557706 -0.48245606 3.1225665 3.123763
-2.8191075 5.5795717 -0.5326369 -0.0017999305 7.0636086 -0.27664602 10.156465 -0.31948376
9.064882 6.862316 3.6021101 -1.1213133 -0.37739584 -0.25475293 -0.26670548 1.3934634
5.6546884 -0.12009077 -0.17526653 -3.0515049 -1.4104245 -1.3220345 -0.34455204 13.596561
9.739076 -0.17929131 -2.3195972 6.779282 -0.18597302 7.825754 5.120247 -0.102479056
11.642877 -2.0908878 -0.5535781 7.889173 -0.8375634 -3.387586 3.251543 -5.199519
-0.16584982 5.005051 -0.4907048 -0.1832751 -0.4143305 -0.5482128 3.0891278 -0.06347209
-0.24010557 -0.32800522 11.656953 -0.004193467 -0.07425069 -4.788866 -0.004100019 2.7765567
-0.3439658 -0.8125477 -1.4891492 -0.64239526 -8.27733 6.244487 -1.2177571 -3.0258455
5.571616 1.8388042 -0.7599912 -4.597855 5.9024234 -0.021284575 -0.1708304 -0.08563476
7.0336084 4.7476363 4.1958084 6.935223 7.6916585 -5.9324207 18.358469 -0.02037756
8.696317 5.9613194 -10.751415 -1.9221398 4.864373 -8.388087 -0.12678832 -2.1832902
00000000: f15c 8ebe 7c9c 62bb 56a8 e140 6c3b 08c0
00000010: 1e9f d4bd e4a8 b4bf 3b50 0e41 cd88 d2bf
00000020: 46a3 71be bdfa e2be bf85 c840 b717 b6be
00000030: 3703 e140 fc2d 1cc1 8696 90bf cc1f bbbe
00000040: 9d80 203f 1de1 d440 f0b9 7240 0dbd 97be
00000050: 8015 1041 371a 5340 d27d 4cbf 465b 94bf
00000060: ce06 df40 89b3 31bf 5ec7 7d40 b881 0d41
00000070: 410c 0d41 2941 b240 425b 50c0 6601 e4be
00000080: 42af ca40 eaa6 46bf c620 b7c0 b11b 93bf
00000090: e962 c7bf 7b04 f7be 21d8 4740 bceb 4740
000000a0: 426c 34c0 da8b b240 e45a 08bf a5eb ebba
000000b0: 1509 e240 8ca4 8dbe e180 2241 6093 a3be
000000c0: c209 1141 1898 db40 f988 6640 3287 8fbf
000000d0: 073a c1be fa6e 82be 9f8d 88be 025d b23f
000000e0: 35f3 b440 26f2 f5bd 1279 33be db4b 43c0
000000f0: ca88 b4bf 6d38 a9bf 2069 b0be 848b 5941
00000100: 41d3 1b41 2498 37be 4874 14c0 e1ef d840
00000110: b66f 3ebe 946c fa40 10d9 a340 8ae0 d1bd
00000120: 3949 3a41 1bd1 05c0 4bb7 0dbf 1b74 fc40
00000130: 8e6a 56bf 36ce 58c0 4819 5040 7662 a6c0
00000140: 89d4 29be 6129 a040 a93d fbbe 78ac 3bbe
00000150: 2123 d4be ad57 0cbf 45b4 4540 a8fd 81bd
00000160: 3cde 75be 4df0 a7be e182 3a41 5a69 89bb
00000170: bf10 98bd 643e 99c0 7459 86bb 1bb3 3140
00000180: 491c b0be 2003 50bf 719c bebf 0474 24bf
00000190: f26f 04c1 d6d2 c740 77df 9bbf 74a7 41c0
000001a0: ae4a b240 f05d eb3f c98e 42bf a121 93c0
000001b0: a7e0 bc40 fd5c aebc 2aee 2ebe 4761 afbd
000001c0: 5213 e140 a3ec 9740 1044 8640 59ed dd40
000001d0: 1122 f640 64d6 bdc0 25de 9241 d7ee a6bc
000001e0: 1d24 0b41 21c3 be40 cc05 2cc1 ad08 f6bf
000001f0: f2a8 9b40 9b35 06c1 ccd4 01be 07bb 0bc0

value_stream.2.weight f4 [1, 128]
0.021628037 -5.564033 9.956215 1.1772562 -1.7333572 -4.215391 -16.501413 -1.7385243
0.042219497 -0.33916834 9.46483 -1.1473411 -1.8964986 -3.8143265 1.2646772 -3.1604476
-2.5016189 4.1125574 5.1799197 4.8148904 2.0712109 -0.80487376 4.657833 1.8079326
1.8709344 -0.36873463 8.673518 3.453733 5.7656503 11.982794 1.3826938 0.981337
6.810975 1.3053659 -2.4154088 -3.1230793 -4.25906 0.033944275 -0.31831145 -9.394521
0.01477651 -4.869318 -4.7071786 -6.274617 5.300871 -0.785714 3.2332025 -0.041250743
3.4976525 -8.069235 1.8740777 -1.8446531 1.9228187 0.0028955003 -0.006805553 -2.607423
-12.353016 1.9749405 0.11769505 2.8871086 1.7660754 -4.4718766 -0.01641026 -20.537445
6.8270316 0.0006145416 -3.4455717 3.4957469 0.0042484817 -11.75593 8.637217 -4.1295056
-13.217896 -0.005459317 -3.428671 -5.7735686 3.7297225 -2.6909306 -5.465668 0.077190705
0.037813112 -2.3839226 -0.5539653 -0.0052780206 -0.5839477 -0.12256092 -0.9278644 -3.749703
-0.5793507 -2.993806 -15.614015 -3.7294998 -2.1900053 4.0868115 -3.0352044 5.746318
0.017539594 4.226285 2.9332802 -3.3283799 -1.0958861 0.8471666 -3.915623 -0.014659434
-15.0153675 -1.7965236 -0.36172783 -0.7618985 2.0155258 -8.095951 -0.003568495 -3.7871106
11.0311775 -2.6743743 -1.5612024 11.611892 2.1251442 -1.6047645 -19.065733 -2.1608834
9.816036 -1.0256696 -9.113372 -1.7479479 -2.1301887 1.7892984 -3.8102157 0.14927936
00000000: 482d b13c 8f0c b2c0 a84c 1f41 55b0 963f
00000010: a6de ddbf 7ce4 86c0 e502 84c1 f787 debf
00000020: 5aee 2c3d 79a7 adbe f26f 1741 13dc 92bf
00000030: 77c0 f2bf ed1d 74c0 f1e0 a13f c644 4ac0
00000040: 861a 20c0 129a 8340 e7c1 a540 9513 9a40
00000050: b88e 0440 350c 4ebf f80c 9540 566a e73f
00000060: c77a ef3f c9ca bcbe bbc6 0a41 f609 5d40
00000070: 3580 b840 86b9 3f41 1cfc b03f e738 7b3f
00000080: 82f3 d940 3b16 a73f 0f96 1ac0 88e0 47c0
00000090: 384a 88c0 2709 0b3d b8f9 a2be f54f 16c1
000000a0: 2d19 723c 74d1 9bc0 35a1 96c0 aac9 c8c0
000000b0: bca0 a940 8d24 49bf caec 4e40 8af6 28bd
000000c0: 8ad9 5f40 961b 01c1 c7e1 ef3f 981d ecbf
000000d0: ec1e f63f 6fc2 3d3b 1e01 dfbb 05e0 26c0
000000e0: f4a5 45c1 daca fc3f 1a0a f13d 63c6 3840
000000f0: c20e e23f 9d19 8fc0 cf6e 86bc b04c a4c1
00000100: 0b77 da40 3019 213a 3f84 5cc0 51ba 5f40
00000110: d936 8b3b 4a18 3cc1 0a32 0a41 e924 84c0
00000120: 817c 53c1 12e4 b2bb 586f 5bc0 13c1 b8c0
00000130: c6b3 6e40 3538 2cc0 c1e6 aec0 2916 9e3d
00000140: ece1 1a3d 3092 18c0 abd0 0dbf 3ff3 acbb
00000150: 997d 15bf 3801 fbbd 8588 6dbf 22fb 6fc0
00000160: 5450 14bf 849a 3fc0 01d3 79c1 20b0 6ec0
00000170: 0c29 0cc0 29c7 8240 ca40 42c0 d6e1 b740
00000180: 32af 8f3c ba3d 8740 ddba 3b40 2d04 55c0
00000190: ff45 8cbf e9df 583f 9199 7ac0 1f2e 70bc
000001a0: f23e 70c1 7cf4 e5bf 6434 b9be c80b 43bf
000001b0: 60fe 0040 0489 01c1 69dd 69bb 0560 72c0
000001c0: b47f 3041 f328 2bc0 7bd5 c7bf 4fca 3941
000001d0: 5d02 0840 ec68 cdbf 9f86 98c1 ea4b 0ac0
000001e0: 7c0e 1d41 2449 83bf 5fd0 11c1 c2bc dfbf
000001f0: 0355 08c0 bb07 e53f 93da 73c0 b0dc 183e

advantage_stream.0.weight f4 [128, 128]
0.12752077 -1.0416137 -0.11360956 -0.36199728 -0.07414357 0.061499763 0.048905697 -0.05455048
-0.038355105 -0.3695979 -0.7122586 -0.49678814 -0.02715004 -0.27120253 -0.0026520349 -0.08495886
-0.23310116 -0.076923445 -0.6504181 0.062546745 -0.110475235 0.06572851 -0.023644242 -0.022201788
-0.1020634 -0.005997501 -1.2653115 0.011529681 -0.0330012 -0.03458933 0.006420023 -0.11081193
-0.5158896 -0.14146319 -0.17425714 -1.6529744 -0.2868313 -0.0486427 0.09253089 -0.5366384
0.05433637 -0.5654599 0.10717713 -1.4935925 -0.98583496 -0.056988787 0.10632656 -0.08284746
-0.08385518 0.5007025 0.06691721 0.03208339 0.03513868 -0.052829735 -0.07459149 0.0478218
0.04285913 -0.013293618 -1.4098212 -0.019748723 -0.006664561 -1.2307391 0.06532028 -0.37533754
-0.715476 0.051420543 0.035068046 -0.9731576 -0.046837274 -1.6682546 -0.30659446 -0.10709331
0.13976666 0.071235746 -0.03185162 -0.7472591 0.00149046 -0.06654151 -0.020517139 -0.2628912
0.010120863 0.22152114 0.06748434 -0.3949591 -0.046867244 0.060817048 -0.56704235 0.17263262
0.009176082 0.040569372 0.4686589 -0.07407207 -0.24764515 -0.023526637 -1.9455814 0.2149502
0.0042669415 0.23598869 -0.042607028 -0.018565558 0.04602457 0.014036489 0.10917173 -0.06275335
-0.016346466 -0.62526023 -0.31568286 -0.14588833 -0.008030752 0.22928378 -0.40745857 0.016339764
-0.026090669 0.053810745 -0.11431533 0.44670564 0.30696428 0.003619141 0.17740068 -0.011163797
0.285679 -0.4632058 -0.06599839 -0.7954207 -0.114484526 -0.04297143 -0.04917731 -0.25208902
-0.43307278 -0.30653083 -0.027647287 -0.023230463 -0.054948736 0.02260288 0.14585295 0.94239116
-0.41477722 0.07035561 0.079250954 -0.7981246 0.40925294 -0.33563703 -0.044851776 -0.007993349
-1.228545 0.06843696 -1.3949157 -0.026718272 -0.076538436 -0.015067032 -0.14888862 0.14469379
-0.23554665 -0.61797094 -1.3798811 -0.06582673 -0.109652065 0.094452254 -0.06454777 -0.03648451
0.18189451 -1.511171 -0.28387338 -1.0155878 0.18462567 -0.0526588 -1.2020648 -0.38708606
-0.076567724 0.119037494 0.3797377 -1.2882618 -1.3142492 -0.12279949 -0.6547862 0.044252843
-0.030922443 -1.0875418 -0.01504775 -0.51823 0.56316113 0.0052310196 0.036062483 0.0013035227
-0.04734502 0.12600985 -0.50442076 -0.00813679 -0.12488033 -0.030098082 0.06807928 0.28691256
-0.432248 0.06851142 1.0136615 0.26585755 0.013104993 0.07431935 0.42468122 -0.031194983
0.40376338 0.04463282 0.030160217 -0.80062014 -0.022186933 0.031266533 0.05787675 -0.14291899
-0.06535628 -0.40027812 0.022543311 0.48806316 -0.031050999 -0.072134286 0.37977067 -0.87775147
0.08882125 -0.085028104 0.41538033 -0.05256726 -0.46002653 0.0103343 -1.8967298 -0.28628826
-0.06511441 0.65319633 0.015083014 0.00830402 -0.05924713 -1.0851328 -0.7161471 -0.039282672
0.1487127 -0.22249931 -0.91727704 0.06048192 -0.22759454 -0.501119 -1.3097504 0.035541255
0.08773632 0.069660835 -0.019620892 -0.43353492 -0.44376037 -0.059111577 0.10913448 -0.012916814
-1.1281471 -0.90446955 -0.08689822 -0.06462484 -1.1648549 0.00400001 -0.07711654 -0.115164995
00000000: ce94 023e 9953 85bf 21ac e8bd b557 b9be
00000010: 96d8 97bd 2de7 7b3d 5751 483d 5370 5fbd
00000020: 3e1a 1dbd f03b bdbe 9456 36bf 045b febe
00000030: c369 debc 0fdb 8abe c3cd 2dbb e9fe adbd
00000040: 12b2 6ebe 0a8a 9dbd cd81 26bf 8218 803d
00000050: d740 e2bd ab9c 863d 92b1 c1bc 86e0 b5bc
00000060: 9e06 d1bd af86 c4bb baf5 a1bf fde6 3c3c
00000070: 442c 07bd 8bad 0dbd 0e5f d23b 5df1 e2bd
00000080: 5711 04bf badb 10be 7770 32be aa94 d3bf
00000090: 8ddb 92be 913d 47bd d680 bd3d 2261 09bf
000000a0: d08f 5e3d fbc1 10bf af7f db3d 0a2e bfbf
000000b0: ae5f 7cbf 136d 69bd bdc1 d93d eeab a9bd
000000c0: 44bc abbd 0a2e 003f e40b 893d df69 033d
000000d0: 94ed 0f3d fe63 58bd 6cc3 98bd cbe0 433d
000000e0: 0e8d 2f3d 7acd 59bc 0575 b4bf 13c8 a1bc
000000f0: 6462 dabb dc88 9dbf a4c6 853d 3e2c c0be
00000100: 6f29 37bf 599e 523d 83a3 0f3d db20 79bf
00000110: 71d8 3fbd 5e89 d5bf f3f9 9cbe bd53 dbbd
00000120: fe1e 0f3e 0ce4 913d d876 02bd 5f4c 3fbf
00000130: 8a5b c33a ea46 88bd 8f13 a8bc ad99 86be
00000140: fad1 253c 70d6 623e 3b35 8a3d 1438 cabe
00000150: def7 3fbd 4c1b 793d b029 11bf 9bc6 303e
00000160: 4757 163c 122c 263d 0ff4 ef3e 19b3 97bd
00000170: b196 7dbe efba c0bc d008 f9bf e81b 5c3e
00000180: b3d1 8b3b 05a7 713e b584 2ebd cc16 98bc
00000190: 4284 3c3d 4df9 653c 6e95 df3d d484 80bd
000001a0: 06e9 85bc 0e11 20bf 2fa1 a1be c063 15be
000001b0: 6a93 03bc 5ec9 6a3e 699e d0be f8da 853c
000001c0: 19bc d5bc a868 5c3d 281e eabd 9ab6 e43e
000001d0: 6c2a 9d3e 1c2f 6d3b 86a8 353e 5ce8 36bc
000001e0: 8544 923e 5029 edbe 2a2a 87bd b1a0 4bbf
000001f0: dd76 eabd cf02 30bd 266e 49bd d011 81be
00000200: b7bb ddbe 9cf1 9cbe 907c e2bc d04d bebc
00000210: ed11 61bd ad29 b93c 7a5a 153e 8c40 713f
00000220: ae5d d4be 9a16 903d 534e a23d e551 4cbf
00000230: 9a89 d13e 9ed8 abbe 7fb6 37bd 89f6 02bc
00000240: f640 9dbf ad28 8c3d 998c b2bf 47e0 dabc
00000250: 2fc0 9cbd b6db 76bc 4276 18be 9c2a 143e
00000260: 2433 71be 5833 1ebf f29f b0bf 2ad0 86bd
00000270: 4391 e0bd 2f70 c13d 9f31 84bd c870 15bd
00000280: 8e42 3a3e 0d6e c1bf da57 91be c8fe 81bf
00000290: 830e 3d3e c1b0 57bd 42dd 99bf 2530 c6be
000002a0: 8acf 9cbd eec9 f33d fb6c c23e c3e5 a4bf
000002b0: 5139 a8bf 4d7e fbbd 12a0 27bf 7842 353d
000002c0: 1051 fdbc 9234 8bbf d78a 76bc b9aa 04bf
000002d0: 542b 103f f968 ab3b 41b6 133d f7da aa3a
000002e0: daec 41bd ba08 013e b821 01bf 2c50 05bc
000002f0: 42c1 ffbd 4190 f6bc 266d 8b3d 34e6 923e
00000300: 9c4f ddbe b74f 8c3d a9bf 813f 7b1e 883e
00000310: 53b6 563c be34 983d d16f d93e 9f8c ffbc
00000320: 13ba ce3e e7d0 363d 8f12 f73c 71f5 4cbf
00000330: 5fc1 b5bc 5611 003d 2c10 6d3d 5b59 12be
00000340: 83d9 85bd 41f1 ccbe c0ac b83c 6ae3 f93e
00000350: aa5e febc 24bb 93bd 4d71 c23e 52b4 60bf
00000360: eae7 b53d 3723 aebd bbac d43e c450 57bd
00000370: 9988 ebbe 3251 293c 0bc8 f2bf 6094 92be
00000380: b45a 85bd e037 273f bf1e 773c 960d 083c
00000390: 1ead 72bd a2e5 8abf 6b55 37bf dee6 20bd
000003a0: 2448 183e dcd6 63be abd2 6abf e4bb 773d
000003b0: 8b0e 69be 5649 00bf e7a5 a7bf b593 113d
000003c0: 1aaf b33d 57aa 8e3d febb a0bc 4af8 ddbe
000003d0: 8f34 e3be fb1e 72bd e681 df3d 0ba1 53bc
000003e0: 2067 90bf 518b 67bf b2f7 b1bd 075a 84bd
000003f0: f719 95bf 8412 833b 47ef 9dbd a0db ebbd

advantage_stream.0.bias f4 [128]
-1.3518466 -1.2279117 -0.023619665 -1.3318522 -0.61991525 -1.3767419 -0.8464577 -0.430538
-1.1527971 -0.9844974 -0.16180246 -1.0231477 -0.71512914 -1.1600323 -0.4741197 -0.6193384
-0.31412438 -0.86342746 -0.36725268 -1.7637249 -1.5273684 -0.54265475 -1.199189 -0.10622439
-1.0312225 -0.33953544 -0.9924743 -1.2281915 -1.3492246 -0.6116691 -1.7500403 -0.18376946
-0.7868578 -1.2015383 -2.1253133 -0.90167886 -0.51204765 -0.7910572 -1.351686 -0.0058295433
-1.3760637 -0.6283325 -0.34959123 -0.52691036 -1.1030449 -0.954828 -0.74048424 -0.52458894
-0.42131895 -0.54585797 -2.1545389 -0.67454773 -1.9039497 -1.5943391 -1.5514652 -0.6552958
-0.40416312 -0.04528207 -0.9745652 -1.4790016 -0.7440572 -0.67505765 -1.1394548 -1.920466
-1.450854 -1.3149121 -1.4660178 -1.2590287 -0.3873356 -2.041533 -0.28391314 -2.0747538
-0.055504005 -0.98254323 -2.3698893 -1.2017233 -1.0538299 -1.8878179 -1.8848752 -1.848315
-0.915407 -0.84910357 -1.6126614 -0.17040153 -0.44885918 -1.0239714 -3.3920476 -1.9475935
-1.3625408 -0.05594123 -0.8366559 -1.6327622 -1.1353534 -0.9634365 -0.34615222 -1.4595532
-0.46015465 -0.7854072 -1.0278578 -0.5787629 -0.7282435 -0.3521619 -1.0454327 -0.8900118
-0.75843924 -1.2173953 -0.8102918 -1.0296774 -1.307705 -0.98338985 -1.3134228 -0.011092916
-0.81566423 -0.62745017 -2.0676527 -0.036419965 -1.5296776 -1.2389973 -1.687176 -1.0449928
-1.2877079 -1.2112197 -1.4203372 -0.8107925 -0.47459793 -0.19564277 -2.2309654 -0.6391847
00000000: 4f09 adbf 362c 9dbf 077e c1bc 227a aabf
00000010: c4b2 1ebf 1439 b0bf 74b1 58bf 7a6f dcbe
00000020: db8e 93bf 0608 7cbf 8baf 25be 81f6 82bf
00000030: b412 37bf f07b 94bf d1bf f2be f68c 1ebf
00000040: e9d4 a0be 9509 5dbf 8b08 bcbe bdc1 e1bf
00000050: cf80 c3bf 6ceb 0abf 067f 99bf 2c8c d9bd
00000060: 19ff 83bf 97d7 adbe cc12 7ebf 6135 9dbf
00000070: 64b3 acbf 5996 1cbf 5201 e0bf 102e 3cbe
00000080: 836f 49bf 02cc 99bf 2205 08c0 6dd4 66bf
00000090: 8e15 03bf ba82 4abf 0c04 adbf c105 bfbb
000000a0: db22 b0bf 66da 20bf 9ffd b2be 99e3 06bf
000000b0: 9330 8dbf 9c6f 74bf 6090 3dbf 764b 06bf
000000c0: 1eb7 d7be 59bd 0bbf f7e3 09c0 29af 2cbf
000000d0: a0b4 f3bf 4e13 ccbf 6996 c6bf 77c1 27bf
000000e0: 78ee cebe b179 39bd 1b7d 79bf ed4f bdbf
000000f0: 887a 3ebf 94d0 2cbf a8d9 91bf d4d1 f5bf
00000100: 95b5 b9bf 0a4f a8bf 79a6 bbbf da27 a1bf
00000110: da50 c6be 7aa8 02c0 105d 91be c4c8 04c0
00000120: 2b58 63bd f487 7bbf 44ac 17c0 12d2 99bf
00000130: e6e3 86bf 04a4 f1bf 9743 f1bf 9695 ecbf
00000140: 1d58 6abf da5e 59bf b06b cebf bd7d 2ebe
00000150: dfd0 e5be 7f11 83bf 4f17 59c0 be4a f9bf
00000160: bd67 aebf a222 65bd 152f 56bf 5afe d0bf
00000170: 4353 91bf c6a3 76bf dd3a b1be a4d2 babf
00000180: 6499 ebbe 7210 49bf d890 83bf ce29 14bf
00000190: 2b6e 3abf 914e b4be bdd0 85bf d0d7 63bf
000001a0: 1329 42bf 9cd3 9bbf 496f 4fbf 78cc 83bf
000001b0: e162 a7bf 70bf 7bbf 3d1e a8bf 10bf 35bc
000001c0: 5fcf 50bf 93a0 20bf 6c54 04c0 1a2d 15bd
000001d0: 7acc c3bf 7797 9ebf 62f5 d7bf 53c2 85bf
000001e0: 9dd3 a4bf 3f09 9bbf 9ccd b5bf 1990 4fbf
000001f0: 80fe f2be 9456 48be 23c8 0ec0 9ca1 23bf

advantage_stream.2.weight f4 [3, 128]
1.8276486 0.89447504 -2.1729772 -1.7568107 0.96988684 -2.3327646 -1.1744233 -0.488978
-1.2757398 -1.4573034 -0.846651 2.4656932 1.5563686 1.1241263 0.68613946 2.3676443
0.06933451 -2.6653547 2.4796927 -1.6848545 0.5476177 -2.654139 -2.7397592 -1.9728508
-0.0030540149 -2.3138258 -1.9879476 -0.5562919 3.2995796 -1.2494314 -1.894566 -0.084058605
2.2987442 0.22647235 0.9672851 0.27469146 -2.0362635 -0.44650286 -1.5650151 -0.8475362
1.6466699 -1.0278586 0.070907146 1.0018826 -2.652063 0.5550486 -3.915415 -1.2852925
-1.551972 -0.88140124 0.99304074 -1.397337 -1.7072386 -2.0595922 -0.8683312 -3.064812
-2.188346 -0.18101831 3.9440563 -1.6700795 0.50876695 1.393167 2.1940322 -0.8784834
1.8592588 0.33140278 1.8196137 -2.1820114 2.2971725 -1.4365375 0.75595164 0.299514
-0.22907269 0.5160186 1.1777099 1.3816781 1.068195 2.4020095 0.015309384 2.093288
2.691012 1.0731596 -3.0343397 0.02687396 1.076341 -0.44193298 1.0206546 -0.6488598
1.1885539 0.18266569 1.9651457 2.3074708 -0.90277296 0.2574415 0.29543763 1.5095013
-3.186786 -2.3536317 0.798196 1.081625 0.9174654 -0.005694453 -1.583934 1.0366138
-2.084621 2.5448172 -2.5108955 -0.9439701 -1.7529835 0.9000699 -2.1038766 -0.24689136
0.26584405 3.5896413 0.91151863 1.9125702 0.7528732 -1.8549325 -0.7554704 0.6439741
-2.3106263 2.946898 -2.1170034 0.57681555 0.009819243 -3.5054083 0.21899235 1.8264766
-1.0589589 -1.676452 2.2810056 2.6080987 -3.557114 0.89625674 1.1689577 -2.123317
2.7145307 1.4641702 -2.791757 -1.2274042 1.7997054 -0.897431 -1.8336886 0.6452268
0.058429062 1.7073154 -1.4159253 -0.6380907 0.45501813 2.331646 2.1476612 1.2365654
-0.52070904 1.8421706 1.4410259 -1.6594878 -1.5959234 2.262439 1.5812501 0.019218698
-3.742586 -2.089565 1.0220997 -1.26538 0.3581528 2.2909539 0.55958813 1.0106363
-3.5439658 0.9252824 0.037482563 0.9596971 -0.53789926 -1.7044129 1.1997035 1.273391
2.542844 1.3611414 0.28228888 -1.179732 0.6019121 0.78882354 -1.9494724 3.261993
3.984406 0.32267115 -3.8150015 1.9970202 -1.4725914 -2.600825 -3.5533242 2.136005
-4.083424 3.891679 -0.46402702 1.3589821 -0.6881765 1.4041957 -2.2953238 -2.2030964
0.5056576 0.68309 -0.6906493 0.2984019 -0.19850464 -2.0594246 -1.0181082 -0.8457844
-2.5438082 -1.7035555 0.6994823 0.050294593 -0.33066183 -1.3782344 -2.7362323 0.46974552
-1.2185012 -0.07358822 -0.68408054 0.6945409 0.06904652 1.8569055 1.1528467 -1.0975368
3.35477 2.0655074 -1.8933358 -2.8938587 0.50564176 -0.047909446 1.1162558 -1.629239
0.520168 0.5138239 1.0632353 -1.4698099 -0.64540195 -2.667998 0.62448883 0.39957908
1.6369416 -0.44644508 -2.2180622 -3.7937891 -0.8631262 1.0089673 2.0071967 -3.3614883
1.882998 -0.8923828 1.2025555 1.0355273 0.13127857 3.695501 -1.2897955 -3.1781516
00000000: 64f0 e93f 51fc 643f 0f12 0bc0 2cdf e0bf
00000010: 814a 783f 044c 15c0 8153 96bf 535b fabe
00000020: 714b a3bf eb88 babf 1fbe 58bf ebcd 1d40
00000030: 1637 c73f 5fe3 8f3f d6a6 2f3f 7c87 1740
00000040: 40ff 8d3d 2c95 2ac0 49b3 1e40 50a9 d7bf
00000050: ac30 0c3f 6add 29c0 3758 2fc0 6086 fcbf
00000060: de25 48bb b915 14c0 1175 febf 2569 0ebf
00000070: 502c 5340 5eed 9fbf 2481 f2bf eb26 acbd
00000080: a01e 1340 5ee8 673e ff9f 773f 5ca4 8c3e
00000090: 2452 02c0 069c e4be 6a52 c8bf 22f8 58bf
000000a0: 14c6 d23f df90 83bf c437 913d b03d 803f
000000b0: 66bb 29c0 aa17 0e3f 2996 7ac0 7784 a4bf
000000c0: 05a7 c6bf 83a3 61bf eb37 7e3f f0db b2bf
000000d0: cb86 dabf 5cd0 03c0 f44a 5ebf e125 44c0
000000e0: dc0d 0cc0 dd5c 39be 6b6b 7c40 2ac5 d5bf
000000f0: 8d3e 023f 4c53 b23f 066b 0c40 4ae4 60bf
00000100: 31fc ed3f a0ad a93e 1ae9 e83f 13a6 0bc0
00000110: e004 1340 76e0 b7bf 0c86 413f e659 993e
00000120: 0892 6abe cc19 043f 33bf 963f d4da b03f
00000130: 9dba 883f 86ba 1940 36d4 7a3c 6ef8 0540
00000140: 8a39 2c40 4b5d 893f 9f32 42c0 c726 dc3c
00000150: 8bc5 893f 0a45 e2be cfa4 823f ad1b 26bf
00000160: 8922 983f b70c 3b3e e589 fb3f 9aad 1340
00000170: 211c 67bf 5fcf 833e 9a43 973e 5737 c13f
00000180: 4df4 4bc0 e7a1 16c0 9356 4c3f b072 8a3f
00000190: 03df 6a3f 8998 babb 59be cabf c3af 843f
000001a0: 6e6a 05c0 49de 2240 83b2 20c0 06a8 71bf
000001b0: c361 e0bf fb6a 663f eaa5 06c0 17d1 7cbe
000001c0: b61c 883e afbc 6540 4959 693f 1acf f43f
000001d0: 4cbc 403f 6e6e edbf 8266 41bf 7ddb 243f
000001e0: 4de1 13c0 fa99 3c40 fc7c 07c0 2faa 133f
000001f0: e4e0 203c 9c58 60c0 883f 603e fcc9 e93f
00000200: f78b 87bf fb95 d6bf fffb 1140 17eb 2640
00000210: c1a7 63c0 1571 653f 68a0 953f 6de4 07c0
00000220: dfba 2d40 ee69 bb3f 26ac 32c0 951b 9dbf
00000230: bf5c e63f 0abe 65bf 4fb6 eabf 952d 253f
00000240: 5053 6f3d 5089 da3f 0a3d b5bf ea59 23bf
00000250: 23f8 e83e b039 1540 4873 0940 c647 9e3f
00000260: 304d 05bf 3fcc eb3f 8973 b83f 196a d4bf
00000270: 3847 ccbf cdcb 1040 6766 ca3f 8870 9d3c
00000280: 8786 6fc0 6fbb 05c0 2ad4 823f f9f7 a1bf
00000290: ce5f b73e fd9e 1240 2b41 0f3f 885c 813f
000002a0: 56d0 62c0 4fdf 6c3f 5187 193d b6ae 753f
000002b0: c4b3 09bf 342a dabf e28f 993f 7afe a23f
000002c0: f5bd 2240 e239 ae3f 2b88 903e 7501 97bf
000002d0: e916 1a3f 57f0 493f 5088 f9bf 7ec4 5040
000002e0: 8200 7f40 2735 a53e fc28 74c0 5c9e ff3f
000002f0: e07d bcbf eb73 26c0 aa69 63c0 4eb4 0840
00000300: 69ab 82c0 4511 7940 f394 edbe 20f3 ad3f
00000310: 562c 30bf afbc b33f 96e6 12c0 88ff 0cc0
00000320: c772 013f fcde 2e3f 64ce 30bf 22c8 983e
00000330: cd44 4bbe 9dcd 03c0 5f51 82bf 5485 58bf
00000340: c1cd 22c0 1b0e dabf 4611 333f b401 4e3d
00000350: 824c a9be fc69 b0bf 6e1e 2fc0 7c82 f03e
00000360: d9f7 9bbf 6cb5 96bd e71f 2fbf 6fcd 313f
00000370: 4368 8d3d 14af ed3f 7b90 933f 167c 8cbf
00000380: 8db4 5640 4631 0440 d458 f2bf fb34 39c0
00000390: bd71 013f b23c 44bd 78e1 8e3f e78a d0bf
000003a0: bb29 053f f789 033f 1818 883f bb22 bcbf
000003b0: 1039 25bf 7bc0 2ac0 80de 1f3f a195 cc3e
000003c0: 4d87 d13f 7394 e4be bbf4 0dc0 71cd 72c0
000003d0: d7f5 5cbf d725 813f e975 0040 a022 57c0
000003e0: 1406 f13f 3373 64bf 57ed 993f 298c 843f
000003f0: e46d 063e 1783 6c40 0518 a5bf d666 4bc0

advantage_stream.2.bias f4 [3]
1.2989239 1.809415 1.1114445
00000000: 2343 a63f e99a e73f d043 8e3f
